notebooks/models/simTwoLayers_batchSize/experiments/xavier/biases_32.pkl.npz (npz, 2428 bytes, 3 tensors)

arr_0 f8 [100]
0	0x3fd1ad73382b36b6	0.27621155247912144
1	0x3fe0af340555dd65	0.5213871101577011
2	0x3feca486d65ce254	0.8950838267110819
3	0x3ff2e20e029d6051	1.180189142431136
4	0xbfea01f5ded57677	-0.8127393104766288
5	0x3ff846d13dcaf77f	1.5172893918783925
6	0xc000731978660845	-2.056200924505023
7	0x3fea4337831fd707	0.8207051812193819
8	0x4004913a5ea198f0	2.570912112528383
9	0x3fa7fa40310a60eb	0.046831136690515716
10	0x3ff63b20c63a73ed	1.3894355529112048
11	0x3ff6bc7cebf40ccc	1.4210175721098492
12	0xbfcadabd7e89755f	-0.20980042151033282
13	0xbff8381bdcb2a318	-1.5136984463699203
14	0xbffd610133fabd35	-1.8361827879378556
15	0xbfda03e6e59c4e18	-0.4064881555834474
16	0x3feb1a7fdab896b9	0.8469847938437943
17	0xbfef7777b29be0fb	-0.9833334434943305
18	0xbfd89bc5e14df530	-0.384507627510021
19	0xbfb821917feec43a	-0.09426221249920355
20	0xbfef64ec45187dbd	-0.9810696935200479
21	0xbff8e0e03f1f5f9a	-1.5549013581967075
22	0xbff4214279d8940b	-1.2581200370416379
23	0x3ff50c77ed29cb03	1.3155440582456215
24	0xbfc5e38f717b1dea	-0.17100709000645448
25	0xbfb624e03c1e3e66	-0.08650018184402483
26	0x3fd76b49f77411be	0.365923396733958
27	0x3fda0ba4d8b6acf5	0.4069606891959688
28	0x40037d4e702201e1	2.43618476489813
29	0x3fd2d1a9a01404d8	0.2940467894805585
30	0x3fbd49fc2a5a6067	0.11441017183312994
31	0xbfeaec051e8ed2f2	-0.8413110348543269
32	0x3ff24397c86d7a9f	1.141502173347966
33	0x3fdecdfdc9d708e7	0.48132271490989215
34	0xbfef92afa7f65762	-0.9866560249817946
35	0xbfe599053835185d	-0.6749292466927376
36	0xbfdcdfd39c313e89	-0.4511612916294117
37	0x3ff1eb11f6fdcbb5	1.1198901794530063
38	0xbfd3ea43681ec310	-0.31117329757675893
39	0x3fd0e97ba29b1c18	0.26425066833002253
40	0x3ff7a95253dcfcfa	1.4788382793338415
41	0xbfd5a3b1cdbc9bcb	-0.33811612216453274
42	0x3fe8d0894ff47266	0.7754561006182257
43	0x3fe71dff350b5e1b	0.7224117313407449
44	0x3ffb423973f7ba8d	1.7036680726993467
45	0xbffcf8345ee343ae	-1.810596819548873
46	0xbfe141dd2355500f	-0.5392900171377749
47	0x3febfbc2f797eed3	0.8744826160250007
48	0xbfe04cef28f6db70	-0.5093913841327389
49	0xbffe4f2fd7b0af29	-1.894332735576379
50	0xbfd2a1755f33662a	-0.29110464379263823
51	0xbfd666677691c335	-0.35000025347749225
52	0x3fe90be4adc85b85	0.7827018160049738
53	0xbfd85414696be7de	-0.38013181967801113
54	0xbfe26a2858e379a0	-0.5754586921792004
55	0xbfda4c27eecf25d1	-0.41089819260795674
56	0xbf89115307959581	-0.012240074795679902
57	0x3fe0522b88a8e9b2	0.5100305241715459
58	0x3f9954bbdab0a031	0.024737296316885874
59	0x3ffde0072bf8bc18	1.8671943395272645
60	0x3ffc52efead95b6f	1.770248334292514
61	0x3ff05e26031636f0	1.0229854698731593
62	0x3f6f3964990ee8de	0.0038115467836777736
63	0xbfaba7de3540720b	-0.05401510620160729
64	0x400291c9fb903475	2.3211860326178404
65	0xbfcc0252ceb43496	-0.2188209065720101
66	0xbfc3cc996cb924cc	-0.1546813755869948
67	0xbff24d7692fef0af	-1.1439119092965873
68	0x3ff02e89f02636be	1.0113620167571038
69	0xbff30f1195f5848e	-1.1911788804793875
70	0x3fce48c0dbd2d0ae	0.2365952561718862
71	0xbfb91b50271d89a8	-0.09807301478352903
72	0xbfde769c1d899fb7	-0.4759893692448673
73	0xbff21af93f3b5434	-1.1315853567114234
74	0xbfe434b7e1cf72dd	-0.6314353380544976
75	0x3fd781304df21044	0.36726005184050714
76	0x3fe8e85bf0d0a872	0.778364153234419
77	0x3fe5506e224cf7f4	0.6660681409773574
78	0xbff96867753bc899	-1.5879892901835204
79	0xbff14e6943de6ad4	-1.0816433573842703
80	0x3ff08ad48c32ff8f	1.0338941074878425
81	0x3fd28d8a944b8f9b	0.2898889969057962
82	0x3ff234f2813e76c7	1.1379265831559893
83	0xbfd3831b78c9d841	-0.3048771552634016
84	0xbfdadb766e9e2feb	-0.4196449356320488
85	0xbfd0830c054b3f59	-0.2579984714220607
86	0x3fe70fda7e8daec4	0.7206852409121542
87	0xbfe2dc772c5e879b	-0.5894122950160069
88	0x3fdfe58ae09158ad	0.4983851616901898
89	0xbffc8c1ca461b778	-1.784207002750433
90	0x3fcc199611398dd8	0.21953082886748976
91	0x3ff585318b39c778	1.345017951822653
92	0xbfa882cf1a798ca6	-0.04787299345186939
93	0xbff7567568666511	-1.4586080625652509
94	0x3fd8fae3a27d05fa	0.3903130614090454
95	0xbfcc84a5ab95f1f4	-0.2227980697461046
96	0xbffc5780a9808476	-1.7713629361317351
97	0x3fd5d1479af2c8ab	0.34089841968228524
98	0x40065209fae5922a	2.7900580979642386
99	0xbff2fe62ef3dafbe	-1.1871060700750458

arr_1 f8 [100]
0	0xbfea9d6d8e0d27d7	-0.8317172789040751
1	0xbfe4688b33f2bfd5	-0.6377616896261268
2	0xbff24bf11573a596	-1.143540462299233
3	0x3fdb9a1da96f0c2f	0.43128148599879784
4	0x3fcfa944a8d1d39f	0.24735315554758316
5	0x3ff0f5990054800d	1.0599603665250499
6	0x3fe5c2ad9bc15972	0.6800144235701693
7	0x3ff7811cc57de554	1.4690215792200734
8	0xbfd0f8c72d0b6932	-0.26518420599826975
9	0x3fe0ffe5949012f9	0.5312374021164877
10	0x3fd024f56a54ca46	0.2522557772055375
11	0xbfe5c2637bd87102	-0.6799790781838342
12	0xc003d0536fe8892a	-2.476721643718652
13	0xbfe69396dde08161	-0.7055162747893001
14	0x3ff57117f6868e90	1.3401107435137511
15	0x3fe99b76a61a7168	0.8002274746136608
16	0x3fda7fb014331d91	0.41404344532608045
17	0xbfef5b9ad4aba46d	-0.9799322274894969
18	0xbff2d183ed177137	-1.1761512051953795
19	0xbfee4b5f4564dc70	-0.9467007022239056
20	0xbfd1b9f6b0c04c8b	-0.2769753194890618
21	0xbff3073739459bf9	-1.1892616498168975
22	0xc007da6e55bee98d	-2.9816557597052396
23	0xbfe1381452817380	-0.5380956279219475
24	0xbffc2f3653116deb	-1.7615264172408114
25	0x3ff3a804c959a725	1.2285201897852371
26	0xbfebd9a901731c37	-0.8703198459924185
27	0xbfef54fa4831baa1	-0.9791232500118278
28	0x3fe427364da75b94	0.6297866360354072
29	0xbfeedd056422ee17	-0.9644801097669554
30	0x3fe764df96ecfac2	0.7310636470573046
31	0xbf9fabe04be77b26	-0.030929093010736562
32	0xbfc966571117f1c0	-0.1984356721367373
33	0x3ff3559e379b579d	1.2084028408184857
34	0x3fe712b69927c2ab	0.7210343352617959
35	0x3fcfe8474b9f8a67	0.24927607719935738
36	0x3f89a4eab9310926	0.012521585251424282
37	0xbff214718d56c2ac	-1.1299911042262165
38	0xbfece07dbeae4843	-0.9024037098154242
39	0x3fc3119b4a871f26	0.14897481097272552
40	0xbff1cd4ef21ef651	-1.1126241166924908
41	0x3ff43f5437081be5	1.2654611730265455
42	0x3fcac19cb566e8dd	0.20903357369917944
43	0x400c492e095cae0e	3.535732339039675
44	0xbfe955c08d007b78	-0.7917177919333502
45	0x3fde9b0091b664a4	0.47821058492406565
46	0xbff097ad395d9e69	-1.037030433735618
47	0xbfe1b070ad7f0934	-0.5527881039236378
48	0x3fe9ef96f30de211	0.8104967829850144
49	0x3fc76bc856165e2e	0.18297676280484282
50	0xbfc46132a5aa7287	-0.1592162426867569
51	0xbfe5bda374d4b67d	-0.6793992311338141
52	0x3fd612ced8ffb41d	0.3448979491357152
53	0xbfe908688f1aca63	-0.7822764201176365
54	0xbfeb7d9fdf5ed86f	-0.859085022230614
55	0x3ffe895ad9af65db	1.9085339072538463
56	0x3ff40b54d592b87e	1.2527664511394785
57	0xbff47e6f3a2b7a98	-1.2808677932986594
58	0x3fe85124f9407921	0.7599053257179414
59	0xbfec5df90020ada0	-0.8864712717526579
60	0xbfe6ec34d6b6f00a	-0.7163337892193351
61	0x3fd4c37da652f104	0.3244318126924244
62	0xbfe0f9522f48c4d1	-0.5304346965332575
63	0xbff7e286a7e4f3c0	-1.4928041990635705
64	0xbfdc446beb02bfdb	-0.4416761202837713
65	0xbff78cfd8736674b	-1.471921470807916
66	0x3fee5bce1d93a5aa	0.9487066819830734
67	0xbfe40a098d90dc79	-0.626225258346394
68	0x4005a176686a52de	2.703839126343481
69	0x3ff9e2be22f8932a	1.6178571096472276
70	0xbff3a8257806e253	-1.2285513580847194
71	0xbf62551132aa6487	-0.0022378288170555346
72	0xbfd6cf73fedce1b6	-0.3564119328398435
73	0x3fd36f03730f3877	0.3036507247569555
74	0x3ff37125163fea54	1.2151232594611843
75	0xbff893d6c617113d	-1.536093496121864
76	0x3ff618a672b24d36	1.3810181122142473
77	0xbfd8316137b3f664	-0.3780139011358641
78	0xbffb70fba097bdfa	-1.7150837205080038
79	0xbff66dabb57f5533	-1.4017750825635857
80	0xbfc21b173a538b79	-0.14145174358335647
81	0xbfe6784ac34cb417	-0.7021840872236024
82	0x3fde53de9c24b8db	0.4738689923132264
83	0xbfe6c0d470d31cf5	-0.7110387996298458
84	0x3ff28b64f30141b1	1.1590318195704692
85	0xbfe06bbfdaa0874d	-0.513153006559358
86	0xbfd153381e4e67bb	-0.27070429763409337
87	0x3fe05e858ffb7ee2	0.5115382969051689
88	0x3fd8333ae7add068	0.3781268370141846
89	0xbfdc0e214d0dc68e	-0.43836243176256395
90	0xc00001317d65b0c9	-2.0005826756151674
91	0xbff164b66f9c4ab6	-1.0870880470071547
92	0x3febaaadc666aafd	0.8645848155041161
93	0xbfed0df2e14ac3f6	-0.9079527282939341
94	0x3fe66c90c4863693	0.7007526243557599
95	0x3fc8faa465154c25	0.19514899192526616
96	0x3fe468502477e5e9	0.637733527400255
97	0x3fe345f8aac9d49e	0.6022914252959202
98	0xbff617b17e1efe92	-1.3807845045666096
99	0x3fe37b5eb24a82d4	0.6088098032233469

arr_2 f8 [10]
0	0x3ffc020990b3245a	1.7504974033675098
1	0x3fdb0b2522747e68	0.4225552402949462
2	0x3fd299cac53ecf40	0.2906367231582756
3	0x3fd9e6555366030e	0.4046834291876146
4	0x40000be9687d148b	2.0058162844821417
5	0x3fc7a68dd099f3a8	0.18477032361616108
6	0xbfe394bf999fba04	-0.6119077682940888
7	0xbfe9494738bab2f2	-0.7901950939172748
8	0xbfcb070f1f3e2204	-0.2111529257347372
9	0xc00116d2c3fbdb02	-2.1361441909060668
