notebooks/models/simTwoLayers_batchSize/experiments/xavier/biases_64.pkl.npz (npz, 2428 bytes, 3 tensors)

arr_0 f8 [100]
00000000: c9b9 548a a469 f23f 8239 b278 8ac2 f3bf
00000010: bbb7 ab97 6e88 e83f db6c 2604 b7e5 f53f
00000020: bfa8 6aab 329d ec3f cda5 18e0 1056 e1bf
00000030: 7033 f193 a565 f2bf 731d c9fd 75e0 d5bf
00000040: f71d 8b8f 698e b43f c128 090f 61ba 00c0
00000050: 1be0 5e42 2402 01c0 3bf8 6bea 4512 d7bf
00000060: da1b 5770 a88c febf c182 d18f 8c8f df3f
00000070: 2d79 0f8a e990 fe3f 650f 226e 8cb1 f03f
00000080: 41a1 8b3a 8acc f4bf 6655 9faf 2716 e63f
00000090: f49c 42ff 6069 dc3f 5a27 1046 b7c0 d5bf
000000a0: b4ee c4de f271 efbf dbfc e96c 8324 febf
000000b0: 0016 4339 d047 0040 4274 2124 9cee f3bf
000000c0: a3cf 90d8 d3a8 d93f 5e9b 00f1 cc94 e2bf
000000d0: b559 ee29 d264 f73f 2344 49b4 330e 00c0
000000e0: bb69 044a 07bc fc3f 17ea d4ad cc9e eb3f
000000f0: 7432 6a88 1f8c f63f 610f 35b0 d818 f1bf
00000100: fdb8 966d edc1 d1bf 56d4 25e3 2dfa e3bf
00000110: 5d7d d010 2815 e33f 40cf f9b3 b63f f33f
00000120: e4d9 5c2a d4a8 cdbf 3914 e4d3 cb6b ccbf
00000130: 8238 cee9 d97b b2bf e460 bbcd 7b41 e7bf
00000140: d51b 8924 1a21 ddbf 3408 0d17 b47b c7bf
00000150: a302 4ff6 4b37 d33f 0e63 ebc6 c913 e7bf
00000160: 30c7 7130 ec93 f2bf 96db cf0b b841 ed3f
00000170: 7b90 b892 c54e e6bf 70f0 4298 2895 d03f
00000180: 8aa1 7634 46c0 febf da48 4b14 d7a8 0140
00000190: eacf d89a 2625 b4bf 8784 80b5 e5aa e2bf
000001a0: 9ef7 9313 5ddc e43f 4d39 a215 0654 d43f
000001b0: 6926 3f3f 2a78 df3f fe32 5f04 eb78 ea3f
000001c0: f0ce 4c8b d454 ecbf d2a3 675c 7a4c e4bf
000001d0: b5a6 4a84 4b22 e9bf 81ee 8faa 3e2f e6bf
000001e0: 42dd d06a 5bfc da3f bb65 612c 1842 d83f
000001f0: 003e f02a 6e4e e73f c789 a667 fac3 aa3f
00000200: 0d45 1545 b76a f53f 6f2e ca61 c72b ef3f
00000210: 870c 54a0 9ffe e6bf 6a36 3010 563b bb3f
00000220: 6a05 d85c 34c9 b8bf 9c88 1330 4301 03c0
00000230: 1849 75be 03e4 c5bf d1af 44c1 77dc e5bf
00000240: 5a4c e001 8e10 b53f 2b92 971a 5335 d33f
00000250: 3355 2d0f d3e3 f4bf 2348 6aa4 3cda e4bf
00000260: 6ad8 9c8e 78b4 dabf 60f3 2909 b525 f9bf
00000270: befe 2353 0c24 d6bf 4ab4 68dd 1ecd e5bf
00000280: 23b7 b70e 20f8 d03f 8046 2976 09c7 d9bf
00000290: 341b 8439 9b73 d13f 35bc c8af 18f7 e9bf
000002a0: 92e8 d97c af8d 0040 3d4f 6c78 e29c ffbf
000002b0: 058b 249d c905 903f c92a 78d0 c56e f8bf
000002c0: 382d 5155 1091 f63f 9c5f 4503 196b c8bf
000002d0: 6e37 abaa 97d7 0a40 1274 3a46 1295 91bf
000002e0: 29c9 d08c fb56 f63f a571 e4eb 480f d63f
000002f0: c048 dfb2 3a89 e2bf 5ca1 15f3 ebf6 04c0
00000300: a856 c0f7 8f4f d7bf a91a c641 58f2 e8bf
00000310: 6013 2a19 3891 f13f 68f9 7bec a529 f83f
1.1507916835358734 -1.2349953379340097 0.7666542970962306 1.368582740985224 0.8941892002087782 -0.54175609368138 -1.1498161105148164 -0.3418250063300185
0.08029803995588468 -2.0910054373426594 -2.1260457215503386 -0.36049030201673177 -1.9093403232852695 0.4931365398861481 1.9103789704309506 1.04334681530687
-1.2999365126543838 0.6902044706463755 0.4439318173194373 -0.3398874458513227 -0.9826597548448803 -1.8839143995717709 2.0350651239011768 -1.2457543765406318
0.4009294142626862 -0.5806641299321702 1.4621144903118026 -2.0069345555171068 1.7959053889559147 0.8631347079420405 1.4092097595886601 -1.068566025075562
-0.27746139242198337 -0.6242894588928134 0.5963325813681127 1.203055098562757 -0.23171474522105406 -0.2220396790145587 -0.0722023196997004 -0.7267436044885724
-0.45514539306571794 -0.1834626305154089 0.30025004437997377 -0.7211655507227037 -1.1611139194832951 0.9142723303510703 -0.6971156945842404 0.2591039168289688
-1.9219419526435524 2.207441481158736 -0.0786918762249226 -0.5833614869080898 0.6518998510725742 0.31762840378441554 0.491709291233383 0.8272605023754236
-0.8853552551940691 -0.6343356900007342 -0.7854363998241839 -0.6932671862882246 0.421652654945735 0.37903408369092134 0.7283240164414906 0.052276444580701624
1.3385536860044482 0.9740940961796251 -0.7185819751179147 0.10637414832327755 -0.09682013765998013 -2.3756164318047706 -0.17102095412935436 -0.6831625723621021
0.08228385492138682 0.30012967678911434 -1.3056212036947954 -0.6516402446015984 -0.4172650711728979 -1.571705852314345 -0.3459502040786723 -0.6812891315836478
0.26514436185139995 -0.4027732519071847 0.2726810514144973 -0.8114131387027387 2.0691823724747076 -1.9758019165064546 0.015647077766639778 -1.527044119199376
1.4104159672450134 -0.19076836261478725 3.355269749975313 -0.017170224701306643 1.3962359905822928 0.3446829131733245 -0.5792516225431186 -2.620567225549321
-0.36423110193696084 -0.7795830998082539 1.097953890131258 1.5101680028597801

arr_1 f8 [100]
00000000: 158e 8e25 00bf de3f acea 06a2 8209 e73f
00000010: 0c75 6c94 7a49 dabf 5075 59f1 c4e1 d1bf
00000020: 2ce7 cd83 49ac ea3f d0be 08db e60b dd3f
00000030: ed73 bea2 af63 d13f c030 401c 44b2 dcbf
00000040: 5c33 14a1 012e f0bf 1ef9 e46f dfc3 eabf
00000050: 66ba 96b4 0005 d3bf 9137 7820 db09 f0bf
00000060: 31b5 5646 892a ea3f aac7 772d 509a cebf
00000070: 3a5e 2eb5 da7d dbbf 84c6 84a8 7703 f13f
00000080: f48e 6c78 7ca8 f8bf 8b3c 2741 d3be fe3f
00000090: 11b9 b7d1 5445 e13f 49fd 85bf 1a1a f53f
000000a0: 4fec 31dc 864b c03f 1774 7009 9aa4 e8bf
000000b0: d4eb 2185 22e8 8cbf 061b 1cdc b23f e33f
000000c0: 54bd 77ac c0d4 f33f ef81 1a0e c2d3 e63f
000000d0: 92a6 a9f6 55bd f3bf 4c60 01f7 bfa6 e33f
000000e0: 5022 b207 c4d3 a6bf 0f79 23ea cedc d73f
000000f0: b8cd 9001 6d04 c5bf 33e3 b5d8 a19e d9bf
00000100: 9d01 e76a 9793 c53f a50f 65fb da86 d8bf
00000110: 2265 e127 36d7 f83f 435a eb2a ff41 edbf
00000120: 8c99 c343 972c d03f d9aa a910 2b32 fa3f
00000130: 5239 fa3c 92ab febf 2f52 3741 f9ae a13f
00000140: a7d5 6431 ffd9 fabf 8a55 722d 869a e13f
00000150: 46b0 7e8a 6cba f23f f6a6 1fce 13f7 eebf
00000160: fc7a 0be1 d9ff e03f 0ecd 0a4c ab92 db3f
00000170: 3460 b615 5cfe b63f 4d5d c004 cc53 f0bf
00000180: 86c0 4c74 05a1 c6bf 0439 d86f eca0 db3f
00000190: 7ce6 936c b554 aa3f 912e 399e 0f04 edbf
000001a0: 7acf ee28 87ae c1bf 971f c1e6 4677 d93f
000001b0: 9f55 9f94 4c21 f1bf 148e 4c76 f05f a93f
000001c0: 2a43 cfa5 96eb ed3f 00a3 4503 e062 dc3f
000001d0: 9a83 ec6f aa3a dc3f ed26 01bb 3adb e43f
000001e0: 1b23 8a38 8fe5 cabf 8e33 d500 aea2 cdbf
000001f0: 3795 bca0 53b9 c83f e25c 21df be0b 01c0
00000200: 30bc cccc 0811 d1bf c08a c77e 2aa1 e7bf
00000210: 7828 c462 ef16 f6bf dffd 7095 b65f eabf
00000220: 819e ce0d 3487 c13f ed25 3110 02a7 f0bf
00000230: 6c17 1328 2edb e73f 03fc e4a8 00ab d53f
00000240: 4989 21cd 4830 ee3f bc23 50b4 3f99 02c0
00000250: c238 2688 1e02 fbbf 1886 ff8c 1621 eb3f
00000260: 7c7b cfb4 487f f53f a151 0148 3a1c e53f
00000270: e0b2 548f 46ea eabf 11de 133f 6fa8 e53f
00000280: b8b6 7f08 42dd c3bf d54c 7ba5 64d9 df3f
00000290: 6f06 9382 bf67 f0bf 8dc6 1c99 2d0d e73f
000002a0: ab9b 7ee9 40c8 fe3f c70f 16b9 1460 c03f
000002b0: 394f a848 0bc5 dbbf 1dd0 3b76 d6e9 f8bf
000002c0: 0114 1688 f25d dbbf 7b94 11a3 dadd dfbf
000002d0: f48c ea51 c2e8 e1bf f246 432a 0265 d6bf
000002e0: 9554 3f5b 9679 f1bf 2304 31ad 6ec9 d6bf
000002f0: 3f00 04f0 c991 debf 43d0 5011 fd1f e83f
00000300: 5b12 d3bc b5ca e33f 7407 ed4a 3362 b8bf
00000310: d25f 081c a891 e7bf cccc 8a96 e49f c13f
0.48040774982129736 0.7199109234419061 -0.4107347917032065 -0.2794048649719416 0.833531148367205 0.45385142698340264 0.27170935528721324 -0.4483804965864344
-1.0112320224900122 -0.8364102540433895 -0.29718034396765913 -1.002406241258971 0.8176924108317164 -0.23908426494705043 -0.4295565385195662 1.0633465368995596
-1.541134329229803 1.9215881867455973 0.5397132965133854 1.3188731652624759 0.12730489494046757 -0.7700929817543763 -0.01411463707721864 0.6015257166880879
1.2394415604611213 0.7133493686160913 -1.23372455933205 0.6141052078555815 -0.04458439439719497 0.372852066660827 -0.16419756485411852 -0.4003071419061143
0.16856663436739164 -0.38323092031736855 1.5525418813543372 -0.9143062437313535 0.25272161119064473 1.6372481013192355 -1.9168875104838503 0.03453806801886505
-1.6782218865822445 0.5501128089551213 1.1705136690097944 -0.9676608110287066 0.5312318225295196 0.43082697320933583 0.08981872110450767 -1.0204582391359793
-0.17678898028089324 0.4316969959480874 0.05142752600108921 -0.9067457285213597 -0.13813867090868454 0.3979050878010581 -1.0706296735346326 0.04956008380966295
0.9350083578557122 0.4435348541215234 0.4410806744581862 0.651761403315701 -0.21013059864733283 -0.2315270904604429 0.19315572117299393 -2.1307351524406934
-0.26666469573951 -0.7384235836182924 -1.380599389844546 -0.8241837424065429 0.13693857835936643 -1.0407734520434773 0.7455054075914922 0.338562169013983
0.9433940893616547 -2.3248285376507436 -1.6880173986751719 0.8477890733594817 1.3435751974973007 0.6596957594252225 -0.8410980987005949 0.6768108589157596
-0.1551897565363356 0.4976436248809482 -1.0253291225966696 0.7203586569286969 1.9238900299912796 0.12793215787325904 -0.43390161605315175 -1.557089292383359
-0.42760909356758253 -0.4979158966510295 -0.5596629714895287 -0.3499150669787091 -1.0921844066954567 -0.35604445374707633 -0.47764824332262273 0.7539048517414887
0.6184948623636716 -0.0952484186100529 -0.7365303561700733 0.13769204474156138

arr_2 f8 [10]
00000000: aeb4 fcf7 7786 c5bf d895 468e 81fd dfbf
00000010: 8cb7 864a 6532 f43f 4b8a a42a e9fb e4bf
00000020: 3160 5177 299e c73f 8ba3 6ec9 2079 e73f
00000030: 6494 46f9 7b58 fa3f 8057 7757 7334 f33f
00000040: 798c df0c 0884 cdbf 7407 b6b9 51e6 dabf
-0.16816615685221364 -0.4998477830325476 1.2623036299878292 -0.6557508309236452 0.1845142204863364 0.733536141798241 1.6466026055652714 1.2003053108832944
-0.2305917799813846 -0.4203075707993016
