notebooks/models/simTwoLayers_batchSize/experiments/xavier/weights_128.pkl.npz (npz, 715948 bytes, 3 tensors)

arr_0 f8 [784, 100]
0.0055135449228845565 -0.1874482991031361 0.13362190377110136 -0.07356657797945458 0.1377734547326385 0.015445002883575878 0.008464097826789202 -0.08203860678229823
-0.012273351026121499 0.07035775340783659 0.023911777657755755 0.01103612257945062 -0.0033041627795816664 -0.09503152135479043 -0.017091921349717838 -0.026240386917315082
0.05086038687174295 0.07861961548991547 -0.00578418471139947 0.05136165847570604 0.11057499888074805 -0.005367712973380625 0.03742133263753519 0.03175077579288613
0.051651605084997276 0.04288027968287039 0.037749972436657814 0.009700739377320525 0.05860448626857293 0.05631711069544589 0.06943763882528824 0.02002155845578089
-0.03282289633456875 -0.07972868264329866 -0.05066122675879214 0.0325799286656199 -0.040064885947207494 0.07726108752397326 -0.10875882961034329 -0.10241549748269249
0.02407754264678716 0.028936061463591577 -0.10858312966728761 -0.037999552540412866 -0.11443756871837865 0.03296526129652468 -0.1626657768578151 -0.04584653310228845
0.0023365592000602624 -0.01395382636479178 -0.05973125586388036 0.01649520835663016 0.05480372325830281 0.0378519155380023 0.09629658045868943 0.04759245992500089
0.06563756739991734 -0.025339764377917576 0.08948241448567275 0.055771227097486976 -0.15404146069992192 0.03653226652051186 -0.08455669614591729 -0.06904566411333667
0.012725579868364301 -0.0839029337719563 -0.0024240526263714186 0.01586562875222027 0.08337711495822736 -0.02799573868666197 -0.14371903236981828 0.01737642006393509
0.02803849044011305 0.0009666631995640593 0.011508096969489547 -0.033375636053147174 0.07314003105461139 0.046817573459573145 -0.024453798832288102 -0.040360908559585726
0.015898235413549372 0.07315606404038927 0.043347435608304424 -0.010542516113691768 0.03536710161498121 -0.2307294848366068 0.04078407632581392 -0.10123235184254038
-0.048054067720282916 -0.053523772271481466 0.037469227802044945 0.021933565143107167 0.09787259237891854 0.06796362042907077 -0.10265216362283809 0.02222908210878639
0.01836009594113052 0.03385891607529353 0.06786371994368219 -0.023607763082230573 0.08837013663186272 -0.01778972695704031 -0.12444568063363387 -0.01989128942925189
0.08739034276584609 0.01698230433662589 -0.08403454921512929 -0.033275080281060174 0.08861293664213611 0.07594279719836411 0.011949533137191024 0.017294470414336093
-0.015239028268688132 -0.08571416448431782 0.014670280747570461 0.07774380931626379 0.04934148866794202 0.021392508114280777 -0.006844677177355842 0.00470892391364567
-0.09546895382482029 0.0026625537090787053 -0.00893853257636599 0.019455254116350268 -0.10016512150351996 0.06768447285401238 -0.012907382322353929 -0.061996706483364326
-0.06363872406123629 -0.10695938271968027 -0.025283136313873217 -0.017922504693255105 -0.07459332218764723 0.018307106072846614 0.06159992942531039 -0.07716361685467753
0.049019815812127374 -0.0817274121095363 0.026382712349135688 0.130387348175363 0.00919023933553118 -0.12839693834800361 0.027212670995316383 -0.019052133748523707
-0.05237553082199099 -0.004229398586143248 0.01974620710686207 -0.020014474730057227 -0.01888414284180276 0.02702027105316692 0.0616934696056224 -0.06009999719600506
-0.007606884668494194 -0.0621723049742769 -0.05408215278811808 0.08476185298095251 -0.010005396170883606 -0.032224388193574725 -0.010809807915844639 -0.07665018554243348
0.23289004277256267 0.015025238651949444 0.03624421515741802 0.05387416035433954 -8.806531642271452e-05 0.008698281240453964 -0.030207309799873662 -0.020071473283000765
0.07134066335456031 -0.09751922485482313 -0.03661809291205857 0.007988681117670758 -0.11546145595197205 -0.008258332513959408 -0.04213380735901171 -0.04651597945157551
0.11564829666938922 0.05039527713269403 -0.007063791456009155 -0.017284616529454157 -0.10998019463568297 0.13649982297808844 0.0836281632296643 0.009489150784470574
0.01731154088709589 -0.10668891401812348 -0.08712766934640456 0.08858358440737019 -0.0021183692227705947 -0.030542347715755112 0.016179873482721947 0.03796602972889876
0.20163895404339904 0.11886774271955752 -0.11813237387307851 0.03540121678697655 -0.0034654752643288387 -0.100192731212446 0.022636117720358354 0.164827609754706
0.04583232276578947 -0.04037032652626522 0.020038951890045696 0.0016942643497841543 0.021161895243244456 -0.017172655339038476 -0.029099995153643206 0.14510658680492813
0.10066691822524292 0.010897205736802107 -0.02526812481053985 0.05816721884508917 0.0034110699263746103 -0.06982706496700813 -0.06319101951506764 -0.044403882026514116
0.039179214125621156 -0.1996351163860568 -0.01164679517635085 0.025300841290352222 -0.08656748217094754 0.023383645214319123 0.017316774670952384 -0.09977613127162144
-0.08754678408412936 0.08651831356425792 0.07041699123514832 -0.02523221603552982 -0.06070245231084525 -0.001004533883914068 -0.08528676523727698 0.04578437927871114
-0.1179714730813043 -0.037269953772664524 0.03439285129640597 -0.0642571036438045 0.038531706176242325 0.15376145033166402 -0.07357912486756617 -0.03405913440583045
0.026395888439285326 -0.016144512962302338 -0.02166209328374238 0.02728107191129766 0.03034047945284314 0.0816033783983495 -0.02769221589293616 0.05426183426872156
-0.12420459468803673 -0.15392654934715322 0.04716378370491696 -0.07693916894809634 -0.020267706026601655 -0.06039832841055852 0.010642693007362935 -0.18881854599715728
00000000: 61a1 0ff2 5e95 763f a85d 2b4d 4efe c7bf
00000010: 23f2 5cc5 851a c13f a319 805e 42d5 b2bf
00000020: 05b4 2a81 8fa2 c13f 4834 2c32 a1a1 8f3f
00000030: a381 d9fa 9f55 813f 0fae 236d 7b00 b5bf
00000040: 0afa 274a c522 89bf e21c e839 f702 b23f
00000050: befc 1d3c 547c 983f 7756 6d4c 1b9a 863f
00000060: e9de 86e2 5411 6bbf d8d5 4e5c fc53 b8bf
00000070: c530 e46c 8b80 91bf 76b7 938e c2de 9abf
00000080: 9a55 8d64 5f0a aa3f b070 5a45 6a20 b43f
00000090: c634 b642 28b1 77bf 0dcc d746 134c aa3f
000000a0: 5fb3 f2a3 a44e bc3f c3bc cc7a 74fc 75bf
000000b0: dcaf b38f e328 a33f c45f 4e3f a341 a03f
000000c0: 387f 4045 1472 aa3f b834 c36d 67f4 a53f
000000d0: 54a8 14e2 f653 a33f 821b fb32 fbdd 833f
000000e0: 0d45 d83f 6801 ae3f 23c8 48a9 98d5 ac3f
000000f0: f3b6 dd43 aac6 b13f db4f 210b 8880 943f
00000100: 084a a2a4 29ce a0bf c691 8154 1969 b4bf
00000110: 8f60 35b0 44f0 a9bf 64ec 3f00 51ae a03f
00000120: a3f2 b87d 6283 a4bf 543a 2bf4 61c7 b33f
00000130: 95e1 5360 9ed7 bbbf 1eaf 4aec e637 babf
00000140: f8a8 f188 c8a7 983f 330a a536 6aa1 9d3f
00000150: ec7d d19e 1acc bbbf 1ff0 d866 ad74 a3bf
00000160: ba45 14cf c74b bdbf f367 589e d2e0 a03f
00000170: 2331 e46f 3bd2 c4bf ec5d 9e60 3279 a7bf
00000180: 0181 2eab 1e24 633f 6e72 20df d293 8cbf
00000190: ebff f75c 1895 aebf 92cf bab1 1ee4 903f
000001a0: 0ad8 2fce 3b0f ac3f d541 a786 5361 a33f
000001b0: 6b65 c987 e4a6 b83f e900 d4f5 095e a83f
000001c0: d923 5fa5 9fcd b03f 717f 2acd aaf2 99bf
000001d0: 0178 c8cb 51e8 b63f b50b e2d8 0b8e ac3f
000001e0: fa94 f76d a1b7 c3bf 1ba1 e873 5bb4 a23f
000001f0: 16c2 9af4 81a5 b5bf 3721 4c05 faac b1bf
00000200: 7aab db6a de0f 8a3f 1dc9 96a4 a97a b5bf
00000210: 9629 2158 9bdb 63bf 752c 7c52 143f 903f
00000220: bcfc fadd 3358 b53f 28a7 5838 eaaa 9cbf
00000230: 4faa eb9f 6265 c2bf d2aa 95cf 1fcb 913f
00000240: 16c3 e03d 1fb6 9c3f c02b 086a f5ac 4f3f
00000250: 5438 fca0 8e91 873f ddb5 a982 9c16 a1bf
00000260: 6671 6819 4eb9 b23f 8e1d c615 79f8 a73f
00000270: 7195 fda8 6a0a 99bf 9ebc 995c 2faa a4bf
00000280: 5845 a984 a047 903f d4bb 8e16 5bba b23f
00000290: 4c34 9b94 a231 a63f d928 688f 5097 85bf
000002a0: 7bd0 9401 a31b a23f c74e cc33 8b88 cdbf
000002b0: 2eac 0884 a6e1 a43f fdfb 7508 5dea b9bf
000002c0: d7c5 98f2 8a9a a8bf 67db edc6 7767 abbf
000002d0: bb45 08a8 2a2f a33f fcb6 e5a3 c075 963f
000002e0: a033 719f 2d0e b93f 8f84 0f57 1066 b13f
000002f0: cdac 9f85 6947 babf a397 b572 38c3 963f
00000300: 7e6c 792e fdcc 923f 9b5a 71b2 f455 a13f
00000310: 6d36 be49 845f b13f 24c6 7a29 a22c 98bf
00000320: 0ce3 c6de 6c9f b63f 67e7 f05d 7837 92bf
00000330: d42d 7310 acdb bfbf 60ae 4bd6 615e 94bf
00000340: c660 2aa8 365f b63f 2e34 f226 cf63 913f
00000350: fef2 9cc8 4983 b5bf 3e69 286b 6e09 a1bf
00000360: 1968 e160 56af b63f 9c6f 55b6 fc70 b33f
00000370: 72b0 3630 ff78 883f 8629 5343 a4b5 913f
00000380: 2a70 4bc0 a335 8fbf b29c 430d 5df1 b5bf
00000390: 7289 45c0 730b 8e3f 08d5 7aae 04e7 b33f
000003a0: 275c 54a0 4943 a93f cec6 ebea eae7 953f
000003b0: 1c03 0e0a 2a09 7cbf a8da 5523 aa49 733f
000003c0: fcff 7542 a770 b8bf 94b9 56a3 c7cf 653f
000003d0: 75c0 b788 5d4e 82bf 580e a900 14ec 933f
000003e0: 4fb7 0ee1 6ba4 b9bf 2ae0 5a05 c553 b13f
000003f0: d7a0 9c87 2f6f 8abf b38c 9c45 08be afbf
00000400: 5928 9a9e a04a b0bf 2508 c8aa b061 bbbf
00000410: 38ff 6e8e d2e3 99bf 6a6a 14ee 465a 92bf
00000420: 77c2 4b47 8c18 b3bf 0a18 7817 19bf 923f
00000430: 979e a2a4 068a af3f 57f8 d4aa fec0 b3bf
00000440: 66be 8913 2019 a93f ea79 3272 16ec b4bf
00000450: 9e93 e0da 1104 9b3f 3fd8 1c5a 88b0 c03f
00000460: f3af 1b0b 55d2 823f ed3b 8e95 4f6f c0bf
00000470: b1c5 d86f a3dd 9b3f 0ec8 790d 6782 93bf
00000480: 5270 fb2f f7d0 aabf 096c bf89 d852 71bf
00000490: 2adf f986 5938 943f 7c1b a6a9 ac7e 94bf
000004a0: 8894 ac5f 5d56 93bf 1677 02b2 33ab 9b3f
000004b0: 4274 aa54 4996 af3f 08a0 e444 6dc5 aebf
000004c0: cb90 028e 6528 7fbf c9b4 2961 0cd5 afbf
000004d0: 5a63 0beb a7b0 abbf a865 80ea f3b2 b53f
000004e0: cc22 b38a b57d 84bf 2b9b d90a b77f a0bf
000004f0: 47f8 cbdb 7323 86bf ed17 23b8 589f b3bf
00000500: 61d7 a246 57cf cd3f 256c ff64 8dc5 8e3f
00000510: 7c64 8a0d 9a8e a23f bd87 a4d9 6495 ab3f
00000520: 8666 a49d f615 17bf 205c ac8b 67d0 813f
00000530: 0a2c c33e aaee 9ebf c704 55c5 9d8d 94bf
00000540: 9d97 fbb7 6143 b23f 9194 7b19 05f7 b8bf
00000550: a694 ff4e 9bbf a2bf dfc9 1ba1 5e5c 803f
00000560: c423 43c9 e18e bdbf 9f1c 89a0 bee9 80bf
00000570: 2d6a 53f9 8f92 a5bf 24cb f844 f1d0 a7bf
00000580: 5e7b 0874 209b bd3f 37c8 50e6 68cd a93f
00000590: b911 a114 ecee 7cbf ea22 dffa 0eb3 91bf
000005a0: 4700 2b7b a927 bcbf 0ee3 cc81 d378 c13f
000005b0: b390 18c2 a768 b53f 10f6 4942 0c6f 833f
000005c0: 8a53 d0d7 1dba 913f 7db8 8df4 f64f bbbf
000005d0: f664 6bba ff4d b6bf f4fa fded 69ad b63f
000005e0: 8e7d 0bd1 8a5a 61bf b633 5442 7e46 9fbf
000005f0: 15ca d8ed 7491 903f b4d3 1690 4870 a33f
00000600: 64a7 9b24 4ecf c93f b4a3 87cb 1d6e be3f
00000610: 483b 625a ec3d bebf 3866 adb8 1b20 a23f
00000620: 0fca 9cdd a063 6cbf 41b8 da17 3ba6 b9bf
00000630: 24f6 4425 ec2d 973f 7ce9 af34 1219 c53f
00000640: b8ef c18e 5577 a73f 297c 5160 6bab a4bf
00000650: 4632 0e4c 1785 943f 224c 477e 42c2 5b3f
00000660: 4de6 f6bf 76ab 953f e93f 4464 b595 91bf
00000670: b29f fe9d 63cc 9dbf f773 6146 da92 c23f
00000680: c307 91a1 4ec5 b93f cd0c 0f32 4651 863f
00000690: 9d22 c526 e3df 99bf 3622 47fd 17c8 ad3f
000006a0: cd96 e638 88f1 6b3f 14b2 68c0 2fe0 b1bf
000006b0: 46d6 3762 492d b0bf 8e17 3d0a 1bbc a6bf
000006c0: 0a7e b446 4c0f a43f 3871 01bc a48d c9bf
000006d0: 17c9 1563 46da 87bf 9507 9db7 76e8 993f
000006e0: 963f d258 4929 b6bf dfba d3dd e1f1 973f
000006f0: 0028 8913 7dbb 913f 00a7 bbb4 ed8a b9bf
00000700: 24e5 824e 7769 b6bf bb78 436f 1026 b63f
00000710: d70b 7012 d906 b23f fd7b b65a 79d6 99bf
00000720: bf95 ec4e 6414 afbf bcf1 760b 5275 50bf
00000730: b9c9 797b 5ad5 b5bf 1ee6 56d7 0c71 a73f
00000740: e9c1 bee2 6033 bebf f26f 2721 0c15 a3bf
00000750: da89 1197 f09b a13f 1592 af4e 2773 b0bf
00000760: 4ca7 c583 6dba a33f e9ae 4788 74ae c33f
00000770: a378 f9de 14d6 b2bf 7564 cee8 3270 a1bf
00000780: a5e3 6116 8607 9b3f bd53 bbec 2f88 90bf
00000790: c7c5 dd78 962e 96bf f6a8 a2be 91ef 9b3f
000007a0: a4cc fa1b 9311 9f3f 46ca 7681 f5e3 b43f
000007b0: a8aa 7426 595b 9cbf c1d3 3507 35c8 ab3f
000007c0: 9bb3 3250 dfcb bfbf cc50 b77b ddb3 c3bf
000007d0: d6ef 22f9 d925 a83f a5da 690e 49b2 b3bf
000007e0: 7e60 32ba 0ec1 94bf 0649 839a 87ec aebf
000007f0: 2691 4313 d6cb 853f e3d0 f7c3 342b c8bf

arr_1 f8 [100, 100]
0.03600219381833792 -0.029722041919218928 -0.17119330125854723 -0.2358046805321715 0.03347974719896993 0.18335101207388793 0.010792596850535496 0.046052759272747885
0.06512116977695777 0.06515684037392702 -0.039524877836528756 0.020541633610327913 -0.07741858910187838 -0.1287951928591374 -0.18744945603987237 0.0006001595350078159
0.05916667871401896 -0.017207117845212706 -0.10401686986633854 -0.06911417634518084 -0.11626640030617519 0.08779897523446628 -0.058328501113502004 0.13783151044091616
-0.08812368836228401 0.007319624896413378 0.10743753256661895 -0.042721906241636506 0.11590118489578399 -0.03225291614468364 -0.04613905236406551 0.011297964221039954
-0.07473801665339232 -0.10514922547607299 -0.10750131200170422 -0.056915077167143106 0.10312889470708166 -0.025141663042639366 -0.04249578825385907 -0.005958697033967248
0.02044211398814913 -0.02998230629010303 0.018575696518872708 -0.020300253668954833 -0.12233585306215757 0.0320289302072677 -0.0071556858198257205 0.11407328473907992
-0.008276232606992747 -0.1262702424063576 -0.15399432106080552 0.031126037248681973 0.16607721360299396 -0.03579330162764034 -0.0038317360501250175 -0.10686171394665674
-0.07167107294409136 0.12763918774743446 -0.07391247871968153 0.15704568900978835 -0.23464468766852137 0.026862696408306165 -0.02943782590472804 -0.06400024362696992
0.08694881839447219 -0.08681919013886548 0.004685247557044462 -0.03599957259289663 -0.01900738594755391 0.07887326150673217 -0.15834449040758533 -0.04222766882381931
0.020341674340133325 0.1247483545928521 0.00962234878732876 -0.001612675393001176 0.02845278705996753 0.03991371936447339 0.1824814180326516 -0.09940831902635201
0.12087889225401985 -0.0012968887567337013 -0.0954138072233389 -0.06875102724748391 -0.07932049201132411 0.02759931755993064 -0.037445490525735724 -0.018589754453926025
-0.05295815331224079 0.02143215783523574 0.07610121896839034 0.004316782442549825 -0.024475575863482358 -0.006164074620463422 0.12149554459684882 -0.039251705237502904
0.053357791889180196 0.08632191644334991 -0.005633886322656294 -0.00043587299195101375 -0.05261611713929806 0.15195009803869178 -0.09733613252596594 0.0725526449209162
-0.02871656180681754 -0.05255219588226485 0.19251615438838715 0.20233172256981916 -0.1077060461992224 0.03140528706150956 0.012076910681317407 0.02082243077751267
0.011813259009881734 -0.1263795638266652 0.0491017997652542 0.19032524850173854 0.028830634702796717 -0.016262920551769453 0.04954640281975521 -0.0038816425933714594
0.06636231612183228 -0.11287322170836693 -0.05402943741522786 0.091890039616565 0.045848631151534154 0.013648594891313114 0.032722983917083316 0.035874429708636794
-0.018608187712975167 -0.04048342989765215 -0.05693950248771262 -0.07124468049509199 0.1434308384281901 -0.25585825901373493 -0.03364137272818209 0.06989099893133464
0.17430561113675924 -0.0805504414607161 0.05535075169623119 0.02223253725478148 -0.09194223141747027 -0.0773020669452619 0.026306347131267584 0.07699861953458928
-0.048544542750369124 -0.008796032056557188 -0.007990876689598797 0.31036727423581956 -0.006780770621312501 -0.15021855076890553 -0.09643631255670174 0.007800142020507642
0.023044157988996596 0.05125860990475189 0.08890100817581488 0.02850619712475589 0.08550076390468225 0.0039614817622979975 -0.01926021687641993 -0.029918226005085608
-0.04409125340291317 -0.04534986325485998 0.1446643952708973 -0.07216202126621193 -0.0542739209295244 -0.08125773265436859 0.049250199669009224 -0.07278307622653188
0.08071332347536668 0.11716883081325995 -0.01912357679235742 -0.08642826528485169 -0.07914579998263997 0.14411045278010873 0.05701949115917558 -0.042373740365526824
0.10013688912334424 -0.00333573092596308 0.09457940349197476 -0.14774620835580923 0.0007512327973430973 -0.12059114172044386 -0.06084539145789954 -0.13380134029754223
0.004135605545904514 -0.12192481621772405 -0.011103757113411723 -0.0807744316916574 -0.0006617616060758619 0.0019893706540527476 -0.16807769386234853 0.08738486419515326
0.12773487291313237 -0.13812451451803948 0.19048115763002874 -0.047584296494011795 0.028294079279534413 -0.015083773907724722 -0.036542840638242584 -0.10344961170836892
0.004141839263976525 0.21378923964123173 0.1646358085211458 -0.023254700023461403 0.12556136476690125 0.011791093876348292 -0.11932668049116789 -0.0436744979538116
0.028549613907284672 0.12492405936807223 -0.07809187801320133 0.04932375028637175 0.04409156229654486 -0.03710186051089946 0.020498089615483377 0.04959901583435639
0.06634054554833754 -0.005055523527459391 0.11327559721627865 0.03769751305794073 0.0519291146993386 -0.13958366356999494 -0.06255889996037534 0.13602732531936382
-0.06740772560173142 -0.02151799666789762 -0.07610401409431822 -0.0592337719428696 0.018697142503535658 -0.04867697973670109 -0.16841123467767397 -0.06029665648917924
0.011752691321725734 -0.06071204148014012 -0.02813030013025909 -0.08658920363233993 0.14760302279998955 -0.10213391948398981 0.055122906020900315 0.09028879110106038
0.07838644459879683 -0.07920508804444047 0.0653413714111817 -0.05855727556288797 -0.16065428924441286 -0.08075009389235563 0.044511083001122664 0.21487707975081374
0.07555047057276633 0.05261090208158002 0.09872714217096999 0.0759934564821341 0.12282704380354967 0.2603089815534453 0.251946549486483 -0.1848115875563632
00000000: 616a 112a e16e a23f 28b5 0d78 746f 9ebf
00000010: f390 197f a9e9 c5bf 5390 9007 d92e cebf
00000020: 6c89 98e6 4124 a13f 68de 45c4 0b78 c73f
00000030: d37f 18d4 6d1a 863f 511c ef2d 3a94 a73f
00000040: dd23 78ee c7ab b03f 0a47 8462 1eae b03f
00000050: e960 5fd3 9a3c a4bf 8347 40b2 dd08 953f
00000060: 1087 4b64 b4d1 b3bf 1323 9b62 5c7c c0bf
00000070: 1b10 ac01 58fe c7bf 6680 a1c9 80aa 433f
00000080: b5e6 2d4c 184b ae3f 0a4b 9d21 be9e 91bf
00000090: fae6 4e7e d9a0 babf f3af 1777 77b1 b1bf
000000a0: 784c f082 a2c3 bdbf dc1c 415f fe79 b63f
000000b0: e614 6ab9 3bdd adbf b5db d982 76a4 c13f
000000c0: 00d7 8427 468f b6bf 180b c9d8 2efb 7d3f
000000d0: 6a8f bcb0 0681 bb3f eede 424c a5df a5bf
000000e0: 3cee b136 b3ab bd3f 2387 1548 7483 a0bf
000000f0: 27b6 f1b1 899f a7bf 5ed8 b916 6323 873f
00000100: 3952 4bd9 0722 b3bf 2995 9e44 0feb babf
00000110: a90c 53bb 3485 bbbf 9715 2a16 f923 adbf
00000120: 811f 0abe a766 ba3f 4e08 2472 bcbe 99bf
00000130: e73f 8909 02c2 a5bf 94dc 338e 2568 78bf
00000140: 682b 290c c7ee 943f 050a e683 aeb3 9ebf
00000150: a327 32e4 8105 933f e245 6ff6 96c9 94bf
00000160: 09bd 0708 6751 bfbf ce3b 888f 1866 a03f
00000170: 75c3 39c9 474f 7dbf 8d38 4d23 e833 bd3f
00000180: 0b8a 0c23 21f3 80bf 32f1 cb90 9f29 c0bf
00000190: c2e9 5cfe 15b6 c3bf 140f 2600 81df 9f3f
000001a0: af90 84a4 0442 c53f 1a2b d0e7 7f53 a2bf
000001b0: 40ca b5a0 bb63 6fbf fd6b 980e 4a5b bbbf
000001c0: d835 5d12 0959 b2bf 1518 881c 7b56 c03f
000001d0: 3709 de9e edeb b2bf 8d2d 23b9 121a c43f
000001e0: 1ab4 db4d d608 cebf 9a65 390a e581 9b3f
000001f0: afc6 1a0e f324 9ebf ab59 50e9 5162 b0bf
00000200: 1e1b 6e1b 4742 b63f 2dc7 4f4e c839 b6bf
00000210: f7ab 7f90 d630 733f 4cb6 e935 896e a2bf
00000220: bfd8 1b14 ac76 93bf eb44 b3be 0931 b43f
00000230: e3b3 e6db a144 c4bf ab53 2b71 dd9e a5bf
00000240: 1ba3 25a8 72d4 943f b4c3 3417 82ef bf3f
00000250: 6079 d1ca e1b4 833f a8b6 9b04 0d6c 5abf
00000260: 7646 9c37 ba22 9d3f 9d0d aa2e 926f a43f
00000270: 0cfa 4915 8d5b c73f e523 2bd7 d272 b9bf
00000280: 22fa 0149 ebf1 be3f 887b fdb2 8b3f 55bf
00000290: 5770 9c0d 0a6d b8bf 3627 98d5 aa99 b1bf
000002a0: 3b5d 1707 594e b4bf e84d 3fd9 fe42 9c3f
000002b0: 1ba5 612a 0e2c a3bf 915e ae4d 3109 93bf
000002c0: a7b4 10c1 541d abbf 55b0 f0c3 4ff2 953f
000002d0: 34ac a796 5e7b b33f e49a a276 79ae 713f
000002e0: 5da6 8917 2010 99bf 00db 7a2e 803f 79bf
000002f0: 7d36 a7fe 541a bf3f 5457 9dac cc18 a4bf
00000300: 0d36 4d66 b651 ab3f 1c5f 0d70 3119 b63f
00000310: 9f42 15d8 8e13 77bf 2e37 e23e bc90 3cbf
00000320: 242a b6ec 7ff0 aabf 559f d9ce 1973 c33f
00000330: 970b eb51 05eb b8bf 6273 2c65 cf92 b23f
00000340: 5360 41d7 df67 9dbf a96c 4b15 1fe8 aabf
00000350: 2a60 868d 5ea4 c83f 61bb b081 01e6 c93f
00000360: f7d2 019a 9f92 bbbf bd8b b391 5a14 a03f
00000370: ebc3 4d83 c7bb 883f 81be d9ac 7952 953f
00000380: 445b dac8 8c31 883f ba56 c29e 342d c0bf
00000390: 7140 5500 df23 a93f 5682 f5e6 935c c83f
000003a0: 8c8c af24 c785 9d3f 3912 a11f 3aa7 90bf
000003b0: c296 7d67 255e a93f 4d0a c9ff 64cc 6fbf
000003c0: ef19 6ee9 1efd b03f 4be3 d46b 42e5 bcbf
000003d0: 377a 7015 bfa9 abbf e435 fb0a 1b86 b73f
000003e0: 1173 b9c6 7879 a73f 4c6c 8e65 cbf3 8b3f
000003f0: 65b8 8023 11c1 a03f 37f5 b81c 225e a23f
00000400: cd04 a956 060e 93bf 3a72 e17e 3eba a4bf
00000410: 800a 12aa 2c27 adbf 258a bd64 173d b2bf
00000420: 56ba 2414 f15b c23f 0208 b851 fb5f d0bf
00000430: 1af7 5127 7139 a1bf e7e1 b162 60e4 b13f
00000440: fcbb ab71 a54f c63f 208c c027 f49e b4bf
00000450: f44b b008 ef56 ac3f a361 aa51 20c4 963f
00000460: 302e 0fad 8689 b7bf 2a6f 7179 11ca b3bf
00000470: e78f 6c12 0df0 9a3f 2efb bc78 2eb6 b33f
00000480: 3033 068f d4da a8bf f2cc 2370 a703 82bf
00000490: 5db4 6250 855d 80bf 46db 25b3 0edd d33f
000004a0: c9a3 f640 27c6 7bbf 1709 6789 5c3a c3bf
000004b0: 2aef 93d8 0cb0 b8bf 2aa3 1dae 0af3 7f3f
000004c0: fad5 b443 e398 973f 47d1 5b8a 913e aa3f
000004d0: 5551 b26a 37c2 b63f 2260 8981 ba30 9d3f
000004e0: bced c0c8 60e3 b53f 47e8 cd29 ea39 703f
000004f0: ef71 6446 f3b8 93bf 7516 fc28 e2a2 9ebf
00000500: 3c71 cff6 2093 a6bf 4b8a 1de7 1838 a7bf
00000510: 7ac4 4ae7 5c84 c23f de04 5ad1 3579 b2bf
00000520: bb03 d696 cac9 abbf 1c31 4c88 4ecd b4bf
00000530: 0fbb cc79 5237 a93f f660 1864 e9a1 b2bf
00000540: 7b9c addc a0a9 b43f 2319 74c8 c6fe bd3f
00000550: fc74 9f83 2195 93bf 0734 d9ac 2920 b6bf
00000560: d38b 8a2e e642 b4bf 99e5 d918 3672 c23f
00000570: cec4 86a3 a831 ad3f 1884 28ca 02b2 a5bf
00000580: dd6e e837 92a2 b93f 224f 87e7 8853 6bbf
00000590: 558b df14 5b36 b83f 9183 7f06 59e9 c2bf
000005a0: f236 ec25 cc9d 483f 5a69 e0a1 0fdf bebf
000005b0: 0b16 d98c 2027 afbf a194 5efe 6620 c1bf
000005c0: edde 1929 7ff0 703f e4d6 39fa 7636 bfbf
000005d0: c492 510d 91bd 86bf bef9 7716 a2ad b4bf
000005e0: d21a 593a 42af 45bf 82cb c23c 034c 603f
000005f0: a9b6 29e3 9183 c5bf 9a32 e2bd da5e b63f
00000600: 453d dcc6 9d59 c03f eabf 5068 10ae c1bf
00000610: 9139 43c3 af61 c83f d769 7d0a f85c a8bf
00000620: 9d41 b484 1ff9 9c3f ef4c 12dd 3de4 8ebf
00000630: 176d e342 beb5 a2bf 8c43 127b ac7b babf
00000640: 2bf1 f182 08f7 703f 4776 3f20 725d cb3f
00000650: c4a6 ac42 c912 c53f 5cf4 5080 14d0 97bf
00000660: db50 a811 6512 c03f 5af2 a9d4 ed25 883f
00000670: 5ff3 3f7e 318c bebf 6dfd c2f8 805c a6bf
00000680: b24c 2e28 1c3c 9d3f bd2c 78ed 05fb bf3f
00000690: 3c61 264e d4fd b3bf 67c5 ca6c f640 a93f
000006a0: ceb8 2f54 2b93 a63f deb6 07db 03ff a2bf
000006b0: 7eac 1d82 73fd 943f d93d d8cd 0a65 a93f
000006c0: 8666 87a9 b1fb b03f e4fc 6ec3 19b5 74bf
000006d0: af91 7a29 a1ff bc3f 09e3 72a3 164d a33f
000006e0: a212 b0f2 7396 aa3f 2f64 0ba3 e0dd c1bf
000006f0: e84e 672d dc03 b0bf 61f4 cde8 5769 c13f
00000700: a409 f5f8 a141 b1bf d331 db4f d008 96bf
00000710: a821 a17b 8d7b b3bf 0f6f a092 e353 aebf
00000720: 104a 53fe 5725 933f 070a 1368 30ec a8bf
00000730: 8d1b 9cd4 7f8e c5bf 4ebc 5b0f 34df aebf
00000740: 3d32 ef86 cb11 883f a5dd 4211 a615 afbf
00000750: c331 587c 30ce 9cbf 229f c9c5 b52a b6bf
00000760: bebc dbe5 a7e4 c23f 0cfc fed3 7225 babf
00000770: 3191 3dcd 1139 ac3f 4174 f98c 2a1d b73f
00000780: 7765 0050 2211 b43f 57e2 d3de c846 b4bf
00000790: b16c 494d 36ba b03f b78e f81e 38fb adbf
000007a0: 0d29 22db 5190 c4bf 16a6 6ac4 09ac b4bf
000007b0: 2846 991b 28ca a63f 0949 1897 1781 cb3f
000007c0: 81b4 4e90 4657 b33f aef6 b4ef d0ef aa3f
000007d0: 6713 da96 2e46 b93f f2fe 4ca2 4e74 b33f
000007e0: de5a 33d8 9771 bf3f a622 a800 e7a8 d03f
000007f0: 7c9b 986b e41f d03f 59fb 3cf6 e7a7 c7bf

arr_2 f8 [100, 10]
-0.050658874873943605 -0.12144785103029204 0.04016372741452751 -0.047731856160857136 -0.0357902943830912 0.02919089408062835 -0.0092369311820032 0.045019435386355174
-0.11328344921066563 -0.030487584196135512 -0.008778748292925095 0.30325800108275847 -0.03321117477021195 -0.045118437419769127 -0.21219959176951783 -0.1470124357080267
-0.1823789356075532 0.14211902227385959 -0.1267837181808977 -0.08010231862511259 0.0033556411946070075 -0.022146054826132047 -0.05934990133321448 -0.09123149507984933
0.12824749546644953 -0.006964751538136011 -0.18542605975367588 0.220976728256274 0.18946597660199072 -0.1931615976240005 0.08636734142770755 0.10523589464714277
-0.2735539018693609 0.046856217583002485 -0.1881104498535159 0.10481927833936514 -0.06279916214674107 -0.1751505488611379 0.11017813066379256 0.1088013822593187
-0.01160335726679922 -0.03951850702360252 -0.00905134105665482 -0.07511407565077698 0.07693511743055617 -0.01957438561601626 -0.021941342167526443 -0.10935698636454898
0.009161365841655196 0.012095100891519673 -0.14424727528714548 0.040068018280751086 0.03518175439667935 0.04994507994041612 -0.05829497422757408 -0.20119074957094452
0.064259671488802 0.0002974469925021844 -0.0212259907419425 -0.03937214839056195 0.39150917455992323 0.04561430728658811 0.04444462813866438 0.02535822645048247
-0.2677464625102154 0.2783174308720709 0.2541559261112304 -0.22690526181115933 -0.032762162853545246 -0.1293992120230397 -0.19617386651868532 -0.024708994381619706
0.189079838121731 0.29994646308853345 -0.0421399776148809 -0.08827691286266323 -0.1185563538945761 0.010259271113980357 -0.00531369206545931 -0.0224637367200909
0.05141967003404178 0.020119288792748376 0.14953685497857375 0.06877796648780704 0.08560293319706029 0.08982169056167694 -0.13487711865436874 -0.09890822103792005
-0.07674945794874823 -0.11888847247442781 -0.1558682233224127 0.06725921205343097 0.1389979666714671 -0.12269786954830995 -0.15615501852763505 0.1573501409267986
0.12024946756434923 0.24738513629656214 -0.1546391762744591 -0.1564946812862442 -0.026378576390579882 0.04038437878245178 0.16610277504795345 -0.06496079647730096
0.17303132990970008 -0.00904606514431357 0.20033837922549175 -0.10387345570060388 -0.05312801188175955 -0.235611833062746 0.08224420607818721 -0.04595930958490325
0.10464667106023318 0.006986403917994555 -0.0520608299882866 -0.040305435004655756 0.018319752600317075 0.09395622131990118 -0.06449613619166855 -0.04511402189759862
0.04563809024542784 0.006509255226613802 -0.08519094520117403 0.03498953273420725 0.10083185037331249 0.0687787534461281 0.05664837962762144 -0.010141076872111772
-0.025790676959708225 0.03805947308587673 -0.11741809753762611 -0.13700534465736852 -0.12822178542064605 -0.14515539812758765 0.2754962431233625 0.20048492743145035
0.06955094811242488 0.012591035554300243 0.04203586127298237 -0.06655012049248282 0.0005332410174257874 0.06074896544076729 -0.2710444751104558 0.01154278362410755
0.016425366469665817 0.27659513507581923 0.10713137072301912 0.05920766914432911 -0.32922642059544777 -0.22146377205182516 0.004680623435193741 -0.14744535430469077
0.25582976384359063 0.25483267437763113 -0.05893880061756469 0.06632399795460862 0.12299518056282613 -0.12316844487760555 -0.08619594109014411 -0.28812345243317716
0.10457770577611707 0.15406029685315298 0.0001973626746671325 0.1094223350747484 -0.13031530556809995 -0.024999306647431645 -0.12788300907715322 0.03606676506613129
-0.17776693351683467 -0.1315061752906261 -0.016739632808432325 -0.09106075333893274 -0.13838932758918826 0.031612308760726154 0.08010230400407369 -0.08299832121244814
-0.022205796622495666 -0.050816082975979816 0.0432488688882072 -0.0325063406823476 -0.47627587784976055 0.290142934049481 -0.2737922529141716 -0.09508038146266297
0.14539337074190714 -0.003857924260371072 -0.10939695405962328 0.10119032474039688 0.12182251191681853 0.2797191566568132 0.03035807641765705 -0.04776767443806497
-0.11192243193297803 0.0497072113041655 -0.013363494295985174 -0.0607020994363215 0.06472458427849072 -0.05401121258492529 -0.034262667267982265 0.06761104975579275
0.3983607643657717 0.0163621016308605 -0.09535558180442895 0.10936298318517843 -0.02413107815032464 0.12676487714559556 -0.09667645077139644 0.22400153788355667
-0.2371863157395075 -0.17854622498792413 -0.13459769265088867 0.17202438440045809 0.21463082336232764 -0.17798192623912357 0.21312519347995698 -0.0457431358584492
0.2946041645394407 -0.12820816304948357 -0.15335270863668962 0.14763269772710824 -0.11575660952957303 -0.16391723091158492 -0.2901929031510399 0.2553604194056997
0.16729764637022937 0.3286188993108757 -0.20193679132075462 -0.1426571681117326 -0.29529053719554504 -0.07425534366269869 -0.1285676419550535 0.16268759362425417
0.18925206233398864 0.0917691159907757 0.11297550749636535 -5.5271850463117336e-05 -0.1910475070926616 -0.18527301630286086 -0.05268657911420516 -0.07188490829132627
-0.035177093122601095 0.09531893217091499 0.03186546537085081 0.11389438110147534 0.057017406140583336 0.07715977364248733 -0.05181921641746051 0.05461063678197294
-0.08610725897881338 0.13174873095927864 0.014842343356511243 0.06350981879131984 0.1617062148182717 0.027690877813729826 0.048920236830322615 0.029859554747130784
00000000: a0e6 abc5 f5ef a9bf ac36 58d4 3417 bfbf
00000010: 8932 760f 5790 a43f 4a63 6052 4f70 a8bf
00000020: 3c78 c7ff 1a53 a2bf 5d50 abbd 37e4 9d3f
00000030: 43a2 bcea cfea 82bf 696a 5695 c90c a73f
00000040: e4b2 89e5 2400 bdbf a1cd 3924 2338 9fbf
00000050: 6b1e 8ba6 97fa 81bf 62a6 393f 9468 d33f
00000060: dfe5 ff1a 0e01 a1bf 693d 548a c319 a7bf
00000070: dff3 6f31 5b29 cbbf d052 bcb1 4dd1 c2bf
00000080: 22f5 f465 3158 c7bf ea21 67c4 f430 c23f
00000090: 4749 a0e9 723a c0bf 1d21 d4e6 9581 b4bf
000000a0: 69aa 0326 4a7d 6b3f b7c9 da94 74ad 96bf
000000b0: 8e74 7e3a 1c63 aebf ebae bb7f f25a b7bf
000000c0: 6c41 69f7 696a c03f 6e05 4c41 1287 7cbf
000000d0: 50ed 3b87 0abc c7bf d8d5 8426 f748 cc3f
000000e0: 84e9 9ace 6b40 c83f 53b0 51ec 84b9 c8bf
000000f0: 42dd df8a 2b1c b63f 8ff1 df55 bdf0 ba3f
00000100: dc36 8e39 e881 d1bf 1c3a 44c4 89fd a73f
00000110: b50e 14d3 0014 c8bf 9238 75ac 6fd5 ba3f
00000120: a7ee a21b 9b13 b0bf b415 9e4b 556b c6bf
00000130: a076 ef4b a234 bc3f e938 904a 68da bb3f
00000140: daad e03f 80c3 87bf d498 810e c53b a4bf
00000150: f610 966e 8289 82bf e7ac 6312 ad3a b3bf
00000160: 6235 4715 05b2 b33f 4e86 3dc8 4e0b 94bf
00000170: 29d4 288c ca77 96bf f35c 06c8 d1fe bbbf
00000180: 91ad 69b5 31c3 823f 47cc 2af6 50c5 883f
00000190: 6e9c f2d8 b176 c2bf 1a41 4398 cb83 a43f
000001a0: ae6a 19c9 5703 a23f f660 e1c9 6692 a93f
000001b0: 693d a8bf d6d8 adbf 841c d554 9ec0 c9bf
000001c0: f300 7f63 5273 b03f 0035 e71a 557e 333f
000001d0: 7653 3f20 44bc 95bf d5e3 6b13 9628 a4bf
000001e0: a367 347f 7c0e d93f 301a 0d2c c25a a73f
000001f0: a548 ad40 72c1 a63f 6054 28c5 81f7 993f
00000200: da77 060f c222 d1bf 7125 e0e9 f3cf d13f
00000210: 72de ae37 1744 d03f b076 624b 3b0b cdbf
00000220: bc20 01c4 33c6 a0bf 2b31 e243 2790 c0bf
00000230: 2589 83aa 391c c9bf 8cf8 248b 504d 99bf
00000240: 6b6c 88a4 c433 c83f 2608 61a6 5232 d33f
00000250: 5590 6b03 5f93 a5bf beaa bcd5 5099 b6bf
00000260: 19d0 b58e b559 bebf 6a9f 520f d002 853f
00000270: 1c4c 465a cfc3 75bf 9427 3cda bb00 97bf
00000280: 0dab 55d2 ad53 aa3f 3fd7 889d 269a 943f
00000290: 65ff d60e 0624 c33f c421 c0cc 6e9b b13f
000002a0: 63e6 85e6 12ea b53f c40f 6fe7 8dfe b63f
000002b0: 6ab3 cc46 a743 c1bf f6d4 a996 0c52 b9bf
000002c0: 6127 e03b daa5 b3bf 0929 2695 796f bebf
000002d0: b9e3 d36c 7df3 c3bf 8ecc 1f54 e637 b13f
000002e0: df3f 8874 afca c13f a7b5 ffa8 2069 bfbf
000002f0: 115b d73c e3fc c3bf 8a9a a6a6 0c24 c43f
00000300: fcdf 8c4a abc8 be3f a582 f4ee 50aa cf3f
00000310: 34bc 636e 37cb c3bf 8fa9 0f89 0408 c4bf
00000320: ee7a a64b fc02 9bbf daa1 47e4 42ad a43f
00000330: 048b 4d11 db42 c53f f461 6450 45a1 b0bf
00000340: 55a1 92ff e325 c63f ea55 9e4f be86 82bf
00000350: ee1c 7421 b0a4 c93f d616 2867 7397 babf
00000360: 733b 1143 9833 abbf b30d c74e 8728 cebf
00000370: 232c 64cf f40d b53f f150 3a87 fa87 a7bf
00000380: d0c6 d6cd 1fca ba3f 0dcc 8285 c69d 7c3f
00000390: c994 6794 b7a7 aabf ad60 64fa e9a2 a4bf
000003a0: ea1c 28c9 69c2 923f 6d20 d3d1 830d b83f
000003b0: 345d a99b d182 b0bf 314d 4861 2f19 a7bf
000003c0: 3cad 1c32 e05d a73f 5f2d 1de5 72a9 7a3f
000003d0: 3beb 8de3 12cf b5bf 716b 97e5 25ea a13f
000003e0: 7ca0 bfbb 1dd0 b93f dcf4 b500 7c9b b13f
000003f0: 4a7a be33 0401 ad3f 1175 184c d8c4 84bf
00000400: b3a7 5508 df68 9abf fce5 6900 887c a33f
00000410: d8f4 e1c8 1c0f bebf 1a1e 5721 6489 c1bf
00000420: 8a19 824b 9269 c0bf 5ede e5bb 7394 c2bf
00000430: 6caf 98fe baa1 d13f 865a 5477 7da9 c93f
00000440: d674 8c47 17ce b13f 9f8d 6d2f 54c9 893f
00000450: 2872 da72 b985 a53f f460 0fbf 6d09 b1bf
00000460: 868b 885d 2679 413f d7f8 aa07 7d1a af3f
00000470: e218 17ed ca58 d1bf 83de 5c31 bea3 873f
00000480: b484 3faf cfd1 903f be88 d814 bcb3 d13f
00000490: 768a a125 f66c bb3f 8668 4bb5 7750 ae3f
000004a0: 13f1 5bb1 0b12 d5bf c20e 1bc5 ec58 ccbf
000004b0: 25c8 4349 fd2b 733f a1c7 5747 7ddf c2bf
000004c0: d34d 43cd 835f d03f 7add 99b4 2d4f d03f
000004d0: 0a5e 3cfa 392d aebf 0faf 270a 9cfa b03f
000004e0: 6a3c 15b6 9c7c bf3f bd03 a69a f787 bfbf
000004f0: 64b5 07ec ef10 b6bf 964f 5a59 9d70 d2bf
00000500: 63fa 32c2 9ac5 ba3f fe54 4c70 3fb8 c33f
00000510: c1f7 5e77 64de 293f 6716 9926 1a03 bc3f
00000520: 7aa7 ca03 2cae c0bf 7bc1 e411 6b99 99bf
00000530: 28a8 d96e 785e c0bf 03f4 dcd0 5777 a23f
00000540: e3eb e11e 11c1 c6bf 3732 0cc1 31d5 c0bf
00000550: b049 d6bd 3124 91bf e232 8aed c14f b7bf
00000560: 0e35 0ed2 bdb6 c1bf ec86 8e10 7d2f a03f
00000570: 8720 08a8 9581 b43f 63f9 3ac3 603f b5bf
00000580: 20da 19c9 1dbd 96bf 5d3d fccc 9004 aabf
00000590: ac7c ed3a b724 a63f e160 49cc aba4 a0bf
000005a0: 2642 cfd1 4d7b debf c41c 3aab b391 d23f
000005b0: 9f87 0af1 cf85 d1bf 5993 df18 3057 b8bf
000005c0: 0b23 32fe 3f9c c23f 836d eb50 a79a 6fbf
000005d0: 2bd5 f753 7001 bcbf ee7e 6eef 9be7 b93f
000005e0: 1c6c 9998 c22f bf3f 35f7 792d ebe6 d13f
000005f0: 5581 8805 3016 9f3f 12f1 082f 0175 a8bf
00000600: f946 d7d0 f2a6 bcbf 487f da3d 3973 a93f
00000610: 4a3b b1d7 515e 8bbf 0a4d c177 5814 afbf
00000620: 112b b954 ca91 b03f 46d0 568f 5ba7 abbf
00000630: 8788 c756 e08a a1bf c5a2 8c2f f54e b13f
00000640: ae79 bd25 be7e d93f 62ef 970d 3ac1 903f
00000650: b150 5731 3969 b8bf f65f 2c64 36ff bb3f
00000660: 9736 e43d d1b5 98bf d796 cfdc d439 c03f
00000670: b243 5bb2 c9bf b8bf 9f56 bb17 15ac cc3f
00000680: 1678 9406 1f5c cebf bfdd 924a 9ada c6bf
00000690: 76bc 0648 7f3a c1bf f0a7 8e20 e504 c63f
000006a0: 0c02 87d7 0579 cb3f 80f1 3c9c 1cc8 c6bf
000006b0: 799c f9b3 af47 cb3f b99a 0ef1 a46b a7bf
000006c0: 5696 fd6c cbda d23f b05a b005 2069 c0bf
000006d0: 1d7e 2cc2 0fa1 c3bf 8e72 47d4 a0e5 c23f
000006e0: 12b1 39a4 39a2 bdbf cb10 0265 3dfb c4bf
000006f0: 2729 2441 8592 d2bf ab94 823a d357 d03f
00000700: f0cf ed5f 026a c53f 89d0 5890 1708 d53f
00000710: 0179 4a95 10d9 c9bf 0939 ca0f 9742 c2bf
00000720: 49ae 0448 0ae6 d2bf dfa3 95f0 6502 b3bf
00000730: 52a9 c28c e774 c0bf ce61 0a73 f2d2 c43f
00000740: 8967 365d 6939 c83f 1495 f647 2e7e b73f
00000750: fb25 f27d f6eb bc3f f2e2 2e52 76fa 0cbf
00000760: e8ff 78a5 3e74 c8bf 6010 edb4 06b7 c7bf
00000770: 119e 773c bcf9 aabf b4ec 2fa2 0c67 b2bf
00000780: 7151 0f61 bb02 a2bf e51c 5d50 d266 b83f
00000790: e57c 4797 ab50 a03f 5a6c 07a2 2e28 bd3f
000007a0: 6b65 5aad 6231 ad3f 9c7a 5c30 bec0 b33f
000007b0: 487a a25f 0c88 aabf db0f fce5 ecf5 ab3f
000007c0: ec1f 4315 200b b6bf b83a 6175 24dd c03f
000007d0: 7f6c 7f9a a965 8e3f bc00 aff2 2d42 b03f
000007e0: ae2a 1a0c cab2 c43f e514 6e5a ff5a 9c3f
000007f0: abfd 98c2 120c a93f c8bc 72cc 8093 9e3f
