notebooks/models/simTwoLayers_batchSize/experiments/xavier/weights_8.pkl.npz (npz, 715948 bytes, 3 tensors)

arr_0 f8 [784, 100]
000000 4f ee f1 6e bc 68 92 3f f5 ab 58 c9 33 60 ac 3f
       0.01797766139178086 0.055421465233244684
000010 d1 b2 e7 01 c6 7f 90 bf 19 49 17 7d 4e de a3 bf
       -0.016112417093540558 -0.038805439729588005
000020 28 f5 b7 3b 6b 0d 87 bf 1a a2 6e 86 b9 e3 c1 3f
       -0.011256063232389993 0.13976210655279503
000030 9d 85 8f 33 a1 e6 bb bf b8 c6 18 10 dc 46 b0 bf
       -0.1089878798370791 -0.06358123200404975
000040 76 24 a2 83 a7 64 92 3f 9b c2 05 e5 91 ef 99 bf
       0.01796209088255237 -0.025327949145721545
000050 1c 2f 83 3e c9 c2 aa bf 50 58 4f 95 f6 6e 85 bf
       -0.052267350083267966 -0.010465551787927435
000060 42 b8 78 dc 64 69 a1 3f ff ab 82 43 4a 92 a0 3f
       0.03400721732428781 0.032366104832668434
000070 0d b6 34 0b 9f 1c bb bf 78 4d 75 53 d3 d2 a5 bf
       -0.10590547584134687 -0.04262409585740107
000080 4b d2 28 0c b7 43 70 bf be 80 47 20 50 d1 bf bf
       -0.003970828084267251 -0.12428761280125664
000090 75 35 3f 25 36 55 b5 bf 84 9c 79 29 1c d0 6a 3f
       -0.08333147439335227 0.003273062709741094
0000a0 a2 7c 41 56 e6 21 99 3f cf 1a 29 08 72 42 b8 3f
       0.024543379797589034 0.09476387690765907
0000b0 3e 25 67 50 a8 e3 77 3f 73 38 17 de 1c 0f 9f 3f
       0.00583234546361072 0.030331088118878257
0000c0 5a ed 88 13 1c 04 a1 3f 03 d2 10 9f 2f 89 a9 3f
       0.03323447931731023 0.049874771277618656
0000d0 b0 e1 9c 24 37 d6 bb bf a2 5f 6d 3a 4f 33 b9 3f
       -0.1087374176394238 0.09843917061277677
0000e0 05 1a 62 8d 46 5a a3 3f 4e d8 43 36 5f 50 b4 bf
       0.03779812312955148 -0.07935137820081303
0000f0 67 95 3e 7f 81 47 a3 3f ed e9 70 a8 25 63 b5 bf
       0.03765492132451236 -0.0835441147072868
000100 0e 20 d8 78 33 e4 b2 3f c5 72 c8 ff 01 eb 98 3f
       0.07379457187937552 0.024333983647113273
000110 2f be 90 23 a6 35 a0 bf f8 53 50 4c 84 97 af 3f
       -0.031659309236030324 0.06170285636486733
000120 dd b0 7e 38 57 a9 c0 3f 92 8d ac 6c 85 3d a8 3f
       0.13016786821879736 0.047344369426606595
000130 e9 eb 9d 09 18 78 92 3f 01 b0 23 4e f9 0c c8 bf
       0.018036246859519798 -0.18789593043709377
000140 d4 7b d2 04 bd 1f b7 3f 04 fc 2f 36 a3 1f b7 bf
       0.09032803886155644 -0.09032650063453224
000150 fb a9 fd ee b3 00 b8 bf db 6b ab fe b3 87 96 bf
       -0.09376072487581404 -0.02200204126243564
000160 93 ab f5 0d 2d db 91 3f 63 b0 56 5b 32 fe 88 bf
       0.01743765256598413 -0.012203591740068192
000170 62 3f 46 28 a2 ee c2 bf 1b 42 0c 6f 94 20 96 bf
       -0.14790751425288834 -0.02160865714819425
000180 68 a5 10 a5 2b 08 91 3f 6d 05 ca 1b 44 64 aa bf
       0.016632730436105275 -0.051546219246129656
000190 0f a4 63 0e b5 d3 b5 bf e7 99 f7 77 80 59 c0 3f
       -0.08526164628314369 0.12773137910626461
0001a0 1c 80 e4 b1 86 44 c3 bf a0 ec 64 1b 04 19 b5 bf
       -0.15052875219498751 -0.08241296452335911
0001b0 bc 3f ad da 32 3d b3 bf 79 50 7c 5d 8b 70 90 bf
       -0.0751525672797006 -0.01605432279673422
0001c0 9a 43 60 27 0b 1b a7 bf fe c6 21 57 26 66 74 3f
       -0.045128201061863396 0.004980230109241422
0001d0 f3 31 c4 cb 3b 2f b0 3f 95 8b 4c a4 f5 74 6a bf
       0.06322072720303833 -0.0032295987788457194
0001e0 dd 9a 41 ca 19 26 b0 bf e4 60 75 23 48 46 a8 bf
       -0.06308137119195174 -0.04741120751231323
0001f0 c6 64 af 73 bb de bc 3f 24 70 e6 f9 5b ab b9 bf
       0.11277362417549161 -0.10027098513677452
000200 dd 30 46 4a 12 dd b9 bf 52 50 92 bf 45 ee ac bf
       -0.10102953255972431 -0.05650537456054451
000210 0f f2 37 dc e6 ac 9b bf 7b 8b 24 e5 47 11 a7 3f
       -0.02702675551516803 0.045053717347648146
000220 10 1f d2 43 67 40 8a bf 43 cf 36 f5 a8 9a bb bf
       -0.012818152196146154 -0.10782867418930402
000230 ec 99 4c 37 51 9d b2 3f 60 ee 90 95 60 07 96 3f
       0.07271297073439315 0.02151251709822899
000240 56 a4 2b ed 33 54 aa bf bb 7a ff db 9e 37 90 bf
       -0.0514236666693441 -0.015837175538645037
000250 af c6 7d 5d f8 8a bb 3f ca 77 61 d6 f0 cb b6 3f
       0.10758926661017186 0.0890493892088379
000260 76 50 e3 8c b2 52 bf 3f 81 74 a2 c2 81 b0 b3 3f
       0.12235561313292628 0.07691203119107294
000270 2d 4e 44 66 8f d4 b2 bf 95 eb e1 d7 7f c2 a0 3f
       -0.07355591055630191 0.03273391256603656
000280 0f c6 2d 6c 1a 82 ad 3f 52 ed 84 26 d2 ae aa bf
       0.05763323374311479 -0.05211502762036936
000290 5f 8f 2a 25 c1 c6 b0 3f a0 59 f7 10 a7 d2 a9 bf
       0.0655327525842586 -0.050435276814528196
0002a0 4b 06 4d aa f9 3e 91 bf e6 0b ce 98 83 d7 a1 3f
       -0.016841794032421736 0.034847366717279546
0002b0 9e 4f 9d 4d a7 0d bc 3f 28 75 cc 5b 95 a3 93 bf
       0.10958333630452308 -0.019178708770700187
0002c0 01 07 6e 48 6d 59 b0 bf fd 05 af 77 56 49 b6 bf
       -0.06386454599671866 -0.08705654546704263
0002d0 b5 a9 56 d5 6c c4 ba bf de 75 7d f6 09 24 bc 3f
       -0.1045597096296323 0.1099249102384969
0002e0 89 a9 85 83 0e 63 b2 bf 57 a2 7c d6 e9 8a a6 bf
       -0.07182398520459378 -0.04402857535598475
0002f0 aa 88 0a 2e a6 f3 a0 3f 98 a8 fd d8 c5 95 8d 3f
       0.03310889541650515 0.014445825275931676
000300 1f 26 f4 85 c1 19 af bf 04 24 61 3e f1 df 74 bf
       -0.06074337730576595 -0.005096380575261076
000310 39 8f de aa d1 27 99 3f 91 f7 80 40 0d 01 71 3f
       0.024565959981955408 0.004151393666743789
000320 f6 62 3f 9c 5e 03 a7 3f f8 ad fb 54 e6 c2 a9 bf
       0.04494758279151327 -0.05031509196654932
000330 82 23 62 4c 56 b7 65 3f f5 92 32 a5 6f be af 3f
       0.002650898505696054 0.06199978725024905
000340 f0 e1 8a 9d e1 02 9c bf a5 68 20 bf cb f2 ac bf
       -0.02735474132598087 -0.05653988559807147
000350 6c b2 fb f6 6a d2 90 3f c2 41 26 8f 90 54 8e 3f
       0.016427680325181646 0.014809731834959265
000360 79 15 b4 0b 61 6f b2 bf b9 3b 94 74 af 50 b6 bf
       -0.07201200996140313 -0.08716866108100775
000370 3d 60 c4 2f c4 84 ba bf 71 54 af 86 76 74 bb bf
       -0.1035883537882691 -0.10724583423810131
000380 38 b8 69 43 6f c9 ad bf de de 90 e7 39 89 92 bf
       -0.05817744920646856 -0.0181016013704881
000390 38 3f 6d d3 cc 35 b5 3f 01 e8 83 95 29 38 a2 3f
       0.08285217439447201 0.03558473539483487
0003a0 6e 02 17 bd c2 f4 ad 3f 13 f3 b3 98 a2 ec ba bf
       0.05850800092912754 -0.10517326572512457
0003b0 b9 fa 70 a0 6e d1 ac bf 27 8f 40 1a 13 ef 9f bf
       -0.056285340390322465 -0.031185434796625302
0003c0 cd e5 65 8e 4c 7c a8 3f ec be d9 1a 6c 8b a3 3f
       0.047823326475689855 0.03817308261647931
0003d0 3f 82 37 90 bd 1a c0 bf 37 c1 32 40 b3 3d a5 bf
       -0.12581605474317034 -0.04148636015577483
0003e0 a4 0e 14 52 e4 b2 b7 bf 68 bb 1f c2 a3 09 b2 3f
       -0.09257342342248848 0.0704595898566659
0003f0 64 c2 2b 86 97 ca 76 3f d6 63 57 7e db 47 94 bf
       0.005564300433193201 -0.019805364214196285
000400 9f bf 37 5a 39 f2 b2 bf e6 fd 10 46 ea 69 a9 bf
       -0.07400854542333811 -0.04963619332601947
000410 d2 9a bb 51 59 b3 76 bf 8c 23 d2 79 8a 44 af bf
       -0.005542134192842512 -0.06106980073042853
000420 ff 66 67 d6 ae 87 a4 3f b3 93 e1 45 00 21 b2 bf
       0.040097678825715015 -0.07081605630953795
000430 51 2b dd ae d8 e5 a7 3f ad 07 34 1e f0 5a 95 3f
       0.0466754640061341 0.02085471329065285
000440 6d bc 4a e6 6c 7e b0 bf e9 f6 f8 b7 3b e1 b7 bf
       -0.06442909834253081 -0.09328053704754392
000450 e5 f9 0b da 4a 04 89 bf 1b 56 4d 55 60 c3 bc 3f
       -0.012215218333491993 0.11235620577402765
000460 52 99 7c b6 35 25 9f 3f b8 15 cd 80 ab 5f b1 3f
       0.030415381682496197 0.06786605734404005
000470 1a 31 58 1d 25 54 b3 3f 9b cf 91 72 5f 5c 86 bf
       0.07550270048540533 -0.010918374713788917
000480 81 3a 7f 05 92 c1 c0 bf 68 f6 34 01 f8 8e bd 3f
       -0.1309072996941332 0.11546278027977908
000490 2f b5 43 7c 4c 98 a1 3f 2a a7 90 74 40 75 a5 3f
       0.03436507241154129 0.041910185078746956
0004a0 6b ad 1b a3 77 6e a8 bf 3e 77 fb 1d 4c cc 98 3f
       -0.047717798863085324 0.0242168324756371
0004b0 83 8e 0c 11 93 a6 a3 bf 5a 3f df ce ce d3 a9 3f
       -0.03838023741834908 0.050444090607583106
0004c0 db 93 07 52 16 57 94 bf 36 a8 6a 16 7b 20 b2 3f
       -0.019863461262406772 0.07080811784058558
0004d0 7a 86 72 20 d9 3c 7a 3f a3 28 8a 5d 7f 80 82 bf
       0.006405685569150438 -0.009034152071098872
0004e0 bc d7 7e b4 c0 be c1 3f 53 d4 93 8e 69 37 be 3f
       0.13863381207710102 0.11803302508254036
0004f0 99 ca 70 bd 70 b4 a1 bf ca 74 62 f7 5c a3 a2 3f
       -0.034579775929519836 0.03640261192161061
000500 52 49 09 b6 ba 50 90 3f 2d 45 1b 37 50 1c b4 bf
       0.015932957993137827 -0.07855702729581955
000510 e1 79 db 45 7f b9 ba bf cc ac ca a8 3d f7 c0 bf
       -0.10439296203137573 -0.13254519216329752
000520 0f 84 ff 69 5a f9 b7 bf 50 05 48 22 05 ce af bf
       -0.09364857757420018 -0.06211868327592163
000530 13 a5 bf 55 78 4a a3 bf 90 2d ca c4 eb 9e be bf
       -0.03767753645645135 -0.11961244158208317
000540 f5 5b 7c 2a 84 02 a5 bf 93 36 9c 8e a4 dc 70 bf
       -0.04103482264161321 -0.0041166713724699764
000550 94 08 ce 3f 61 c8 82 bf 46 56 e4 dd f9 2b b5 3f
       -0.009171256789845018 0.08270227114948012
000560 4a de a8 38 f6 3e 62 3f 36 76 94 c6 d8 ce a7 3f
       0.002227288151768457 0.04649999069281956
000570 ac ad d9 ab c3 38 bc bf 52 24 35 16 8d 7b a1 bf
       -0.11024115510524862 -0.03414574524010362
000580 6e e7 7b c1 8d fe 99 bf 60 af 4e 3a d7 91 a5 3f
       -0.025385107931448152 0.04212830149421509
000590 f1 8f e4 a8 38 94 bf bf 23 22 aa cb 08 e8 82 bf
       -0.12335542796478173 -0.00923163291487678
0005a0 23 23 87 f8 84 42 ba 3f 06 67 1c e9 90 fe 7f bf
       0.1025775057561416 -0.007811132485380906
0005b0 f6 14 65 3c ef c1 91 3f aa 8c 88 58 93 ec 8d bf
       0.017341363965233968 -0.014611388339352455
0005c0 88 b9 1c 55 d5 a4 51 3f 9b d5 db d0 9b d7 a5 bf
       0.001076896984567451 -0.04266058849854489
0005d0 75 ef 7d 7a 78 dc 96 bf 1a 03 15 33 51 37 b1 3f
       -0.022325403667749783 0.06725032326813754
0005e0 e0 26 34 e0 08 1b ae bf 27 06 d0 33 46 41 9d bf
       -0.05880000817167086 -0.02856931391943909
0005f0 3d e8 21 dd b0 99 95 bf 20 39 5a bd a4 29 b6 3f
       -0.021094096657613404 0.08657292960035479
000600 a3 a1 98 49 8d 42 b4 bf c8 8e 91 13 ea 21 a3 bf
       -0.07914050146849276 -0.03736812104105308
000610 46 ba 24 c2 9b 96 b9 3f 5e ab a3 cf 04 35 a8 3f
       0.09995435228186364 0.047279501291845646
000620 30 54 34 8d fc af bb bf cb 5f e9 1f c4 89 a4 3f
       -0.10815409133313447 0.04011357202097051
000630 75 b0 e6 11 f6 7c b6 3f 17 6c 52 23 04 66 c3 3f
       0.08784425675429637 0.15155078625397841
000640 05 a3 7b 05 f4 a8 9b 3f 82 e6 bc ee 51 60 c0 bf
       0.027011692843106356 -0.12793945462344786
000650 9d cd b9 42 e6 eb 9a bf 80 78 2f 00 b9 56 a6 3f
       -0.02629051000844883 0.0436303913809164
000660 e4 65 95 c8 1e 06 a6 bf 0e 1b d5 67 0b 26 70 bf
       -0.043015443787861846 -0.003942532113177645
000670 e6 e7 c5 1d 8d f1 83 3f e7 aa 71 05 c4 98 92 bf
       0.009738066168882353 -0.018160879928852316
000680 b9 7b d5 dd aa 73 a9 bf cb d3 66 74 6f 97 84 bf
       -0.04971059759076674 -0.010054465045735391
000690 1d 46 55 41 4e c0 af 3f 16 48 79 7b 74 3b a8 bf
       0.06201405093692023 -0.04732860572097779
0006a0 b6 b0 ed bd af 56 9e 3f 35 ff ca 5f f1 90 b3 bf
       0.029627557723345098 -0.07643040264792662
0006b0 33 db 9d ea 5c 1f 97 bf 66 cd 4d bd 59 2d 71 bf
       -0.022580577678549218 -0.004193640274809373
0006c0 73 c9 19 58 fa e8 9f bf db ed 59 0c 97 c5 99 3f
       -0.031162177684060887 0.025167808655607842
0006d0 c6 80 88 a6 81 00 81 3f f0 aa 7a 47 38 b5 87 3f
       0.008301747221651456 0.011576118165370158
0006e0 45 12 b9 27 46 90 ae bf 0a fb 02 40 07 7f b0 3f
       -0.0596944735994254 0.06443829834732298
0006f0 7f d9 98 eb 70 21 a5 bf 04 cf ce 6f 7c fa b7 3f
       -0.04127076030674725 0.09366586427386997
000700 48 1e 65 26 93 26 ba 3f da f1 66 53 f5 32 a0 3f
       0.10215110480668799 0.03163878100483304
000710 0a e3 3e ae a1 b6 92 3f 5f 15 5e 51 92 1d ac 3f
       0.018274809131727777 0.054913113052900135
000720 1a 91 79 72 98 32 c0 3f 27 ca 6a f2 ec 5a a9 3f
       0.1265440520247772 0.04952183207696619
000730 29 59 55 7e 14 6a ca bf 17 55 dc 48 d3 ba a2 bf
       -0.20636230629561084 -0.03658161415493504
000740 b5 ae 94 e9 f8 b2 88 3f bc ec 47 0a fd 4a b8 3f
       0.012060112598724396 0.09489423275947478
000750 9b 1c 30 18 a6 e0 a0 bf d6 a2 8c 63 c2 50 a2 3f
       -0.03296393437636277 0.03577239480211396
000760 ea 1e 63 54 db e3 a4 3f c1 28 02 8e 4f 1d 82 3f
       0.04080090909115859 0.008844968339208116
000770 86 28 40 5e 17 e5 b0 3f 2d 1f 67 be 1f e8 44 bf
       0.06599565554657447 -0.0006380228995163988
000780 d7 91 a9 91 91 9b 8a 3f 17 fc 2f 31 4a c4 ae 3f
       0.01299203611160575 0.060091322426153386
000790 43 81 f4 7b 54 bc 70 bf 9b 1f fe 6d 16 ef 7d 3f
       -0.004085855499653515 0.007308089843611666
0007a0 11 62 32 ff aa a3 bc 3f bd 5a 43 8f 59 fc a6 bf
       0.11187237482443659 -0.04489402650658778
0007b0 6f cb 6a de ad 5f b2 bf bf 07 c8 f0 fc 55 bf bf
       -0.07177244835001571 -0.12240582350207684
0007c0 c8 09 2b 29 c9 94 b5 bf 20 53 b7 19 3e 6a 96 bf
       -0.08430154090004927 -0.021889658279025004
0007d0 d4 b1 c8 d4 41 55 90 3f c2 70 89 50 2f 8d a5 bf
       0.015950230228712517 -0.0420927797137849
0007e0 90 ea 33 b7 70 b9 8d 3f 21 64 9e ca 53 75 c3 3f
       0.014513855544000337 0.15201804536334954
0007f0 21 2f 34 87 71 b2 af bf 27 62 c4 ec b4 39 a4 bf
       -0.061908290628791336 -0.03950276746963182

arr_1 f8 [100, 100]
000000 42 b9 36 8c 65 5d 92 bf d5 b1 ff da b9 61 a6 bf
       -0.017934405024498952 -0.0437143401939896
000010 40 37 d8 51 5a f2 c0 3f 0e 3a 79 c2 3e cc b9 bf
       0.13239602085416813 -0.10077278373612605
000020 55 d4 11 d3 a5 1f b1 3f 96 f4 24 2d 5c 05 d4 3f
       0.06688915637080702 0.3128271523344862
000030 24 2b c0 60 48 08 b0 3f 0f 67 65 b5 a4 af c0 3f
       0.06262638437344187 0.13036021096450454
000040 bf 7e 19 f7 71 8b b3 3f 00 62 77 e2 36 3c 92 3f
       0.07634651453690376 0.017807824680717843
000050 4d 00 ff d8 00 68 ba 3f 22 f1 08 d4 de 13 b6 bf
       0.10314946458584125 -0.08624069859155672
000060 09 ba 21 b9 7d ed 8d 3f b5 c1 d5 06 25 4e cb bf
       0.014613134586594094 -0.21332228502025222
000070 3b 83 18 00 65 9d b3 3f 18 91 82 7b 15 41 c7 3f
       0.07662039997422891 0.18167370348704348
000080 78 c6 c8 44 00 6e a0 bf b7 5f 2f 98 73 79 a6 bf
       -0.032089241405981406 -0.0438953517220279
000090 a1 2b 47 01 7b e1 d7 3f b5 4d 93 fb 21 b5 89 3f
       0.37313723683171857 0.01255251454350668
0000a0 2a 13 86 62 2b f2 a4 3f 3f d2 41 3a ab 77 a7 3f
       0.0409101064460969 0.04583487592836776
0000b0 d4 a9 b8 fd c5 d4 b9 3f db 64 26 be 71 90 b1 3f
       0.10090291447037397 0.06861029522260102
0000c0 be d9 73 ae cb 80 c6 3f 3e ee ec e6 8b 8c b9 3f
       0.17580553072157373 0.09980081928090898
0000d0 8d ec ad 60 25 5c c9 3f 92 b8 05 a0 1e 4d c2 3f
       0.19812457295106292 0.1429785043105239
0000e0 50 c0 72 0e ed 73 ab 3f 1e 03 10 cc f5 f1 bd 3f
       0.05361882020349695 0.11697326881404677
0000f0 e4 f4 6b cb 3d 2a c2 3f f0 43 fa b9 7e f1 a2 bf
       0.14191410477352584 -0.03699871082529416
000100 b9 95 73 fc 00 07 af 3f c9 43 09 34 71 ce a8 bf
       0.06060031015094176 -0.04845002899367718
000110 ca 65 a6 12 09 06 b1 bf 7c 34 10 fb 88 ac 95 bf
       -0.06649834351846731 -0.021165981601417347
000120 bb ea 3f 1f b1 af a0 bf c6 7b 2e d8 a4 53 ba 3f
       -0.0325904226919724 0.10283880498762618
000130 1a 30 50 17 c3 0a 46 3f fc 46 60 1f 27 40 9c 3f
       0.0006726696580030584 0.027588473596614968
000140 d6 da e7 3b da dc 9b bf b2 59 ec 00 cd 3c ad bf
       -0.027209672838547437 -0.05710449825544418
000150 d2 58 30 f9 73 b3 b1 3f a6 50 f7 0c 08 5a c9 3f
       0.06914448579513824 0.19806004174336528
000160 0d 88 c9 ed b5 8e 89 bf 37 3c e0 71 07 23 c3 3f
       -0.01247923023146671 0.1495065027270088
000170 a2 4c 4d b4 36 9f c2 bf f0 67 f8 3b a8 49 b3 3f
       -0.14548381618314915 0.07534266914481669
000180 92 59 bf 40 6f dc 9e 3f ae 6c 41 0f 35 aa 8f 3f
       0.030137766196128242 0.015461363342345127
000190 f0 14 76 8a a0 d2 b9 3f 92 d7 4d 6e 7e 72 a6 bf
       0.10087016468431265 -0.043842268910267226
0001a0 32 e6 e2 03 0f c7 5a 3f 96 c7 ef 46 9b a1 bd 3f
       0.0016343733437181982 0.11574717027522605
0001b0 97 c9 10 da 76 22 c4 3f 80 ff 7a 20 94 60 a1 bf
       0.15730176589711384 -0.03393996139993671
0001c0 1d 6d cc d2 ad f9 a6 bf ea 98 83 1c 0b d2 9f bf
       -0.04487364958023419 -0.031074689498290654
0001d0 7c 9f 65 d4 a7 33 c7 3f 63 a9 ac 11 fc 42 c4 3f
       0.18126390334077402 0.15829420912752842
0001e0 4e fb ac 41 0f f4 b1 bf 11 c7 80 4a 91 b4 65 3f
       -0.07013030389223937 0.002649577876604144
0001f0 0b e2 a0 18 73 71 a4 3f 51 53 af a6 54 e6 b4 bf
       0.03992805171623467 -0.08163956708388055
000200 cf 5d 50 e2 a6 9e a0 bf b4 fc 64 6a e0 07 b3 bf
       -0.032460417867863016 -0.07433893773576267
000210 41 22 b8 d9 52 e7 c8 3f 3f a9 53 2c 04 9b 7a 3f
       0.19455943709205495 0.006495491315244017
000220 01 0f d7 bd 88 62 97 3f 39 34 45 3c 3f 94 b4 bf
       0.022836815440100192 -0.08038706990665014
000230 92 f5 89 e5 6c 3b aa 3f d8 b9 02 c5 74 a8 cc 3f
       0.05123462965000693 0.22389087314281997
000240 ba 85 e0 bf 93 72 9b bf 51 82 0d 20 2d 1f b0 bf
       -0.026804264627690456 -0.0629757121328194
000250 ad a1 99 a2 1d ee c2 3f f7 fa e0 0a 77 8d 78 bf
       0.14789171637972967 -0.005994286546466602
000260 a8 f5 6e 18 89 8c 92 bf 62 d3 5c 40 58 d2 ad bf
       -0.01811422549848421 -0.05824542794872546
000270 72 66 61 5e 48 b3 c7 3f 7a ca 17 45 07 98 b2 bf
       0.18515877350255355 -0.07263226925696556
000280 bf c3 86 6a 06 09 a4 bf 2f fc bf 6e 55 e9 bf bf
       -0.03913135576602355 -0.12465414003234863
000290 2c a8 a2 6c dc ac c7 3f d4 e6 a2 51 c7 bb ba bf
       0.18496280006849142 -0.10442777388643815
0002a0 23 a4 bd 07 65 d2 cf 3f c1 e4 0f 3e 16 6b 7b 3f
       0.2486082351490789 0.006693922886364224
0002b0 e6 38 a3 3b 86 84 b8 bf 4a 55 e9 7e c1 91 90 3f
       -0.09577216106410766 0.01618101441484513
0002c0 4b a6 a5 24 14 54 be 3f 1e 62 59 01 e5 49 d8 3f
       0.1184704389067061 0.3795101655173613
0002d0 f2 67 2a 13 dc 44 bd 3f e9 9d 06 33 4e 35 ba 3f
       0.11433196514045088 0.10237587686298578
0002e0 47 33 66 df fd a7 96 bf b6 a5 32 d9 82 cd b4 3f
       -0.02212521244068746 0.08126085093194643
0002f0 a4 9d e7 eb 34 b3 b8 3f 47 28 b2 76 62 a7 88 bf
       0.09648447760957041 -0.012038010833084324
000300 35 57 d5 08 93 6e a3 bf 65 5a 51 81 75 41 98 3f
       -0.03795299036816716 0.023687206285411117
000310 00 da b1 66 40 a4 c6 3f 69 69 3d e4 c0 f8 aa 3f
       0.17688756002799266 0.05267908846026865
000320 14 a9 58 dc e1 9c bb 3f 6c 56 7d bd b2 fc 93 bf
       0.10786258344220229 -0.019518654647376385
000330 f2 80 1f de ef 29 8b bf bb 70 76 86 92 55 a9 3f
       -0.013263582197339894 0.049480990327738415
000340 0b ea 74 0c d9 bf 97 bf 8d 14 b6 75 d6 aa 69 3f
       -0.02319277895478859 0.0031332195919185402
000350 cf 2a 14 21 25 1f 33 3f 54 fe c6 ff f0 70 b0 bf
       0.0002917733809943258 -0.06422334904254373
000360 f0 8a 1f a6 8c c8 6f 3f 2b c1 08 4f 7d 21 c0 3f
       0.0038798090981669794 0.126022018042485
000370 49 87 08 f2 b3 05 a1 3f 0e d2 c6 3d 98 40 9c 3f
       0.03324663476474982 0.027590159197375334
000380 22 9f 47 8a 23 64 75 bf 70 b3 96 39 6d 50 b2 bf
       -0.00522245295403659 -0.0715397134396889
000390 1f e3 6b 9c 26 f4 b7 bf ee 71 69 64 97 64 ad bf
       -0.0935691959274547 -0.057408076293288576
0003a0 76 d4 5d 40 0b 60 ad 3f 47 83 ef dc b6 89 b9 bf
       0.05737338219379577 -0.09975760358748885
0003b0 bf 67 9a 49 21 e2 ab bf a3 0d 47 b9 59 89 c3 bf
       -0.05445961020923517 -0.1526291041064783
0003c0 22 12 7e 08 46 e6 95 bf 6a 8e b5 9b 9d 35 b5 bf
       -0.021386236446703795 -0.0828493600034165
0003d0 94 eb 55 d1 a7 37 96 3f da ec 7b 86 4c d9 c0 bf
       0.021696684028465876 -0.131631436983162
0003e0 b2 f4 c2 35 f1 51 a4 bf b5 d2 7d fe cf a0 7b bf
       -0.039687669575394394 -0.006745159604055463
0003f0 5a 58 9d 25 9b 65 a7 bf e9 24 66 8f 86 8d ae bf
       -0.04569706758654553 -0.05967350483394702
000400 9f be fc e0 6d c3 a1 3f 15 bd cf 59 81 fa c7 3f
       0.03469413157870104 0.18733231435133094
000410 51 85 fc 1c 8d 0a aa 3f db f4 5c 9f df 62 9f 3f
       0.050861749447231326 0.030650610067131417
000420 1b c3 86 30 71 9c bc bf 6c e1 f2 fd f9 f7 ae 3f
       -0.11176211771704596 0.060485660791019
000430 59 55 5d a9 96 d1 be bf 20 61 e1 72 32 e6 b9 bf
       -0.12038556704404381 -0.10116877846428851
000440 85 61 c8 5b 49 3e b0 3f 0f 1b 57 54 af 48 b0 3f
       0.06345041743077758 0.06360908326233193
000450 87 9e 4f 64 90 0c a4 bf 15 65 48 55 9b 1c 85 3f
       -0.03915835594653765 0.010308469333767204
000460 c2 86 a7 d0 98 b7 a1 3f 4b 10 9d a7 a8 0c 90 3f
       0.034603858442790805 0.015673289518659577
000470 b1 e0 8d 67 b8 17 b0 bf 30 23 5d 8c ed 59 af 3f
       -0.06286194351366949 0.0612329706041862
000480 ba b0 21 c6 f6 db bf 3f 74 b5 86 d9 ee 0f a1 bf
       0.12445013367841087 -0.03332468419408033
000490 14 6b e8 8e e8 3f 9f 3f 33 c0 75 ff ac b3 a0 bf
       0.030517228815464995 -0.032620817359998354
0004a0 1a 46 7b ad b4 81 f7 be cd 4f f1 20 8b 6c a9 bf
       -2.2417700931870196e-05 -0.049656245967213054
0004b0 9a 0d a4 6f bc 48 a8 bf f0 3c bc 80 9a 1b 88 3f
       -0.047429932239562336 0.01177139954918835
0004c0 59 1c 0e 94 ce f1 a3 bf 52 75 69 3e 01 2d b3 3f
       -0.038954215596327564 0.07490546964387093
0004d0 e5 37 1e 21 30 da 97 bf 64 93 e8 69 62 26 b6 bf
       -0.02329325868736722 -0.08652319989830698
0004e0 1e 31 e2 a2 8a 28 bf 3f 52 b7 4b 79 67 c3 9f bf
       0.12171236492776358 -0.03101884534674266
0004f0 f5 ab 6e dd 08 bd 99 3f cd ec bd ca 88 8a b1 3f
       0.02513517238154957 0.06852011632684026
000500 bf b9 30 9b 75 82 be bf 94 ce 07 94 0c 7e ae bf
       -0.11917815245462914 -0.05955542857182397
000510 d4 63 4e 6e 27 5e b4 bf 4d 98 0b 13 c9 09 46 bf
       -0.07956167643568729 -0.0006725532349178915
000520 44 c7 55 8f 7a 94 73 bf e6 d3 7d 5e 5a 7e bf 3f
       -0.0047802722450443515 0.12302174384042494
000530 c8 a7 7c d9 79 bb ad bf ce cd 51 55 3a 9b b0 3f
       -0.05807095317716421 0.06486858923908942
000540 da 2c d4 6e d3 ea a7 bf 6a 26 b7 cc 7a cb 81 bf
       -0.046713454512507815 -0.008688887951296926
000550 e1 dc c5 a5 e1 c8 ac bf 5a e0 67 1f 33 44 8c bf
       -0.05622010372729292 -0.013801955600669814
000560 0e c2 3a 62 b6 11 73 3f d1 f6 4c 18 a8 e6 62 bf
       0.004655563770640926 -0.0023072512725822243
000570 04 75 0d 6c 82 dd b2 3f c5 b5 fa eb 57 13 af bf
       0.07369246614458197 -0.060694453769751834
000580 cb be 4f c0 d7 7e ae 3f ef 0c 6b 69 b5 fe c8 3f
       0.0595614835982566 0.19527309081431762
000590 ff 7b 64 46 52 1b 8c bf a1 05 02 b2 28 50 a6 bf
       -0.013723986409386766 -0.04358031437824229
0005a0 d3 4d 31 ba e5 58 a8 3f b3 2f f4 42 29 28 93 3f
       0.047553233126247506 0.01870789023546111
0005b0 98 c0 c1 a4 0b ce ab 3f a4 ce 60 5e cc f2 93 3f
       0.0543063772792049 0.019480889568696327
0005c0 10 53 37 30 cf 44 bf 3f 62 97 45 11 a3 20 97 3f
       0.12214369704390671 0.02258543770712807
0005d0 0c 94 5c f1 9c 31 b8 3f d5 7e 30 7e 92 0b 8f 3f
       0.09450703518503206 0.015158791042324019
0005e0 e5 43 e7 ab 11 ad a3 3f 96 c3 5f 37 fa 95 6e bf
       0.038429786905574116 -0.003733624175759019
0005f0 5c e5 13 b1 a9 39 c1 3f cb 19 2e 22 12 95 b4 3f
       0.13457223078129743 0.08039964041208873
000600 ba 55 88 88 48 f8 a8 3f e0 33 f4 a1 9e 5b b9 bf
       0.0487692515054436 -0.09905425504639664
000610 30 22 98 07 21 b6 bb bf 9b 97 b1 ab eb 3c b4 3f
       -0.10824781833083175 0.07905457441083145
000620 e0 27 f7 31 c7 2f 61 3f ae 26 7c 56 47 33 9e bf
       0.002097977688866756 -0.029492487577079167
000630 0a d7 89 a6 b0 15 85 bf a9 a4 aa 2f 6f c3 7a bf
       -0.01029527672038057 -0.006534036942562307
000640 a5 94 c9 08 65 97 71 bf 3b 27 44 d7 94 cc a3 3f
       -0.004294771828971343 0.03867020728837508
000650 25 cb 3a d9 a4 04 b7 bf 0e 0a ea 58 cf 9e 81 bf
       -0.08991461089571524 -0.008603687191912204
000660 0b 08 a2 9e 35 5b 76 3f 5a b9 21 b0 f4 ce bb bf
       0.005458077861591813 -0.1086266450890653
000670 45 05 7f 16 5f 53 bb bf ff 67 20 4c 14 d7 9e 3f
       -0.10674089717123987 0.030117337366483806
000680 ea 24 e1 91 e0 40 a9 bf 7a 8d c3 65 0e ef 8a 3f
       -0.049323098952820235 0.013151276093089182
000690 35 3b 15 e9 58 f1 b0 3f e2 bb 46 fb dd fe cf 3f
       0.06618266764165244 0.24996542710638808
0006a0 7d e8 75 25 37 8d bf 3f 9a f9 ed 17 46 98 8f 3f
       0.1232485262352458 0.015427157979272011
0006b0 e2 65 8d 09 62 35 c2 3f fc 05 56 ae 23 d5 ca bf
       0.142254118599154 -0.20962949764729888
0006c0 a1 6d b2 57 0f 25 52 bf ab 63 13 a5 70 3f a2 bf
       -0.001107468588805151 -0.03564025893292152
0006d0 bf 5b 81 a3 0d 68 c9 3f 56 2b b4 fe 16 76 bd 3f
       0.19848795398385552 0.11508315771440655
0006e0 6f f2 1f cb 28 47 8e 3f d1 3f 0a cc 39 59 99 bf
       0.014784163187863101 -0.024754431799521918
0006f0 1a d0 b4 60 c5 67 b7 3f aa 2c 6f f6 10 5f b4 3f
       0.09142716990464841 0.07957559601270484
000700 5b 95 7d 21 34 38 cb bf b6 d6 d7 d9 69 a9 a7 3f
       -0.21265269885331403 0.04621439727990888
000710 09 ef ad d2 0c 27 53 bf 83 c8 00 23 c1 9e 93 bf
       -0.0011689782356531528 -0.019160287629525385
000720 ae dc 33 a9 12 8d b0 bf 77 71 ab a5 c6 1f c0 bf
       -0.06465260153696548 -0.12596972550717186
000730 c1 d5 93 d1 08 85 85 3f 01 09 5e 81 74 a6 b9 3f
       0.010507649322316294 0.10019615324384647
000740 17 fe 51 5d a5 7c bb 3f f8 d0 f3 3b 39 12 b5 bf
       0.10737069633795958 -0.08230931962663479
000750 f3 87 68 76 81 2a c0 3f 8d d2 bd 27 98 7f c4 3f
       0.12629717141777483 0.16014387073996197
000760 12 f6 ce 98 ee b0 ad bf db b7 30 fe 7b 79 6c bf
       -0.05799050917947225 -0.0034758970009738216
000770 04 a6 e7 19 a5 2b ae 3f cd bd f4 54 fb 26 a9 3f
       0.058926734363762306 0.04912553226528935
000780 bc 60 e0 51 76 45 db 3f 27 33 72 1b 4c f9 40 bf
       0.42611463542699446 -0.0005179998032801323
000790 1d d9 5d 54 84 94 c5 bf cd a0 90 44 69 26 bd bf
       -0.16859487647497753 -0.1138673584360987
0007a0 35 19 b6 9e f0 ac c0 bf 47 50 5c b3 ba bc b3 bf
       -0.13027770757271076 -0.07709853056832215
0007b0 e6 58 c4 af 39 c3 c3 bf 42 f6 84 39 5b 5d a9 bf
       -0.15439530451175826 -0.049540377398880966
0007c0 43 3e 72 89 5a 4c ac 3f 4b b2 8b 63 f9 b9 b9 3f
       0.05527003219424078 0.10049399071039848
0007d0 e6 bc 5f 20 37 db bf bf a4 cc d9 84 87 a1 b0 bf
       -0.12443871059780384 -0.06496474259783952
0007e0 26 33 53 e1 6a 48 a8 3f f0 69 1f db 85 9e c3 bf
       0.047427501683705395 -0.15327523421622358
0007f0 22 14 20 a3 1f e1 c1 bf db 4f 4f bc 19 b3 bd bf
       -0.13968272652724162 -0.11601410720260168

arr_2 f8 [100, 10]
000000 82 cd 6a 4e d3 cb c1 bf f9 03 be ab 08 64 aa 3f
       -0.13903275803532372 0.05154444786513319
000010 06 1f 01 0b 60 5b b5 3f 95 ec 9e ad 6d da 7c 3f
       0.08342552441274273 0.007044247084134221
000020 2b 51 21 8d 43 49 c5 bf fd 7a 03 c9 8d 0f b3 bf
       -0.1662983359443698 -0.07445608289297563
000030 0a 81 b9 ed f3 c4 c1 3f d6 be 04 3e 90 30 6c bf
       0.13882302386901585 -0.0034411256057394852
000040 90 e5 2f 3c 1d 42 a8 bf 42 a3 1d 1b 4f ab a7 bf
       -0.04737941131311196 -0.046228859005003745
000050 e2 b8 e2 d9 9d 39 c0 bf 22 e4 5a c4 17 84 c0 bf
       -0.1267583192724891 -0.129031153561102
000060 3d ac 83 39 ae 30 c6 bf f6 69 a4 28 c3 2b c4 3f
       -0.17336061294858665 0.15758552059635605
000070 da 11 f6 ed af 19 95 bf 3d cc 7e e8 71 b9 be bf
       -0.020605801486014964 -0.12001716543345338
000080 ad a1 42 a4 25 47 a8 3f 54 da ed 3a d6 95 bc 3f
       0.04741780882006039 0.11166132868479767
000090 fd 28 21 ba c4 af 8c 3f 2f e1 a5 0e 70 b9 c4 3f
       0.014007126741621518 0.161909110214546
0000a0 40 9d 73 df 59 ab 9c bf 06 96 18 a9 f1 af c7 3f
       -0.02799740244236415 0.18505688435213602
0000b0 bf cc 95 8e 34 99 c9 3f 2a df 91 64 87 71 bc 3f
       0.19998795473256867 0.11110731320684111
0000c0 6e 98 cd 3c f7 55 d9 bf 59 c2 6d a3 15 55 c2 bf
       -0.3958719342975944 -0.14322157363814617
0000d0 80 82 4f 7e c6 66 bd 3f 9d fd ce 1f 03 01 bf 3f
       0.11484947761301534 0.1211091950090037
0000e0 7b ea 36 60 b2 ab a4 3f 14 c9 24 18 8c 8b 91 3f
       0.04037244247907253 0.01713389298783692
0000f0 f7 7c 13 45 55 5d da 3f c5 77 c7 bf bc d6 b1 3f
       0.41194659944262874 0.06968288118466066
000100 14 9b 6d d6 51 ac ce 3f c4 da 11 08 fc a7 c1 bf
       0.23963377924084084 -0.13793898004560934
000110 42 23 b2 49 38 f2 c4 bf a0 86 d9 f9 44 33 d5 bf
       -0.16364196394376945 -0.3312542381228045
000120 03 ca 14 56 23 26 e2 3f 17 63 7d 9d e9 95 df bf
       0.5671555215142806 -0.4935249364839804
000130 2e ee 38 90 3a a1 d8 3f cd fe 6d eb 0e 79 e4 bf
       0.3848406227514002 -0.6397776220546462
000140 50 f0 ee 26 b3 1c a6 bf 15 16 c9 47 b1 f8 ca bf
       -0.04318771219502138 -0.21071449284697566
000150 a2 b7 9f 32 10 6c e0 3f 8a 73 0a 8b 62 56 a4 3f
       0.5131913174388851 0.03972156474376394
000160 d0 e3 07 11 83 4a c3 bf 71 2a 90 c8 a9 67 a9 bf
       -0.15071142512877467 -0.049619012577825646
000170 e1 73 d9 5a 79 81 c7 3f 94 20 c5 8f f3 c2 d2 bf
       0.18363873420722057 -0.29314888992349464
000180 f6 47 a9 e6 a6 44 a6 bf 9f 5d e8 1a af d4 cc 3f
       -0.04349252286614551 0.22524060071803562
000190 d2 ca ea ce 44 a9 9f bf a0 6d ea 94 c7 8a c6 3f
       -0.030919146661015535 0.17611021777416358
0001a0 74 9e c6 65 84 99 c9 bf 81 6c d6 b8 fe 72 a9 bf
       -0.1999974724724215 -0.049705467284376866
0001b0 c4 8e 8a e3 5b ea c5 3f 45 82 f8 aa 5a 27 ea bf
       0.1712145672837463 -0.8173039759895536
0001c0 3a ef 73 68 36 c1 d2 bf 14 cb 18 11 c3 db d6 bf
       -0.2930427570388364 -0.357163206764356
0001d0 94 51 43 51 74 ac ca 3f 97 d3 af a7 4c 9b df 3f
       0.2083878895561041 0.49385372520128484
0001e0 9a 46 92 c0 d0 b1 c1 3f ad 3d a7 d8 c4 84 c5 bf
       0.13823899653339283 -0.16811428622029947
0001f0 59 18 2d f3 ea 37 bd 3f fb 59 ba 69 bb bb b4 3f
       0.11413448750417511 0.08098956423996377
000200 07 6b 64 b1 6d a7 9d bf d6 f1 1b 98 d7 48 c6 3f
       -0.028959001495517913 0.17409796645360015
000210 c2 71 8a 54 68 70 9f 3f f5 ee 5c 78 3f 40 8b 3f
       0.03070223823543628 0.013306136952102568
000220 ac 23 59 a0 dd f9 c6 3f aa c4 02 6a 48 74 cc bf
       0.1795002968740652 -0.22229867149647947
000230 46 ef 7a b7 d5 4a c3 bf 53 43 83 ff b1 b5 b8 3f
       -0.15072127779955674 0.09652245033363487
000240 f9 5b a5 78 a8 4b c0 bf 8d 7e c5 ff 26 8f b1 bf
       -0.12730890170016076 -0.06859058136387315
000250 83 81 13 0b 1a cd 9a bf e9 84 80 e9 3c cf bc 3f
       -0.026173026014363564 0.11253719998105151
000260 39 60 00 cc ab 11 8b bf 17 ff 50 34 d8 f4 e1 3f
       -0.013217298663264031 0.5611382505230463
000270 4a 48 62 a6 51 cd b1 bf 49 b1 a9 df 5b 83 e1 bf
       -0.06953916847331346 -0.5472850197234403
000280 c1 a5 55 15 1e 8b b3 bf 74 42 2a 25 45 56 a3 3f
       -0.0763415147863702 0.03776756361651659
000290 c5 50 d5 13 ff 1d b6 3f d5 22 55 76 fe 32 84 3f
       0.08639520868502178 0.009862888323043087
0002a0 10 45 d0 b9 60 70 67 3f cf 38 41 2a 2c 62 b7 3f
       0.002861203115124618 0.09134174377070113
0002b0 3c 17 ec b7 0e 6a bf bf 7c 2c 02 1b 38 35 a4 3f
       -0.12271205892838294 0.039468529984412165
0002c0 ee 1f 1e b4 25 e0 75 bf 6b 6d 60 b1 f1 01 b5 3f
       -0.005340716628673177 0.08206091480717752
0002d0 e8 05 4b 28 c5 96 b4 bf ff 42 eb 2f 85 85 d2 3f
       -0.08042556985585458 0.2893994300803086
0002e0 f0 b7 c9 69 ef a0 ae bf 08 61 91 6f 54 c6 ba bf
       -0.05982158819539041 -0.10458877300095903
0002f0 c8 f0 36 d5 e1 9e cc bf 68 e3 d1 ad f5 9b da 3f
       -0.2235986987196894 0.4157690236530045
000300 22 3d d1 5c ac fe 9d 3f 45 07 52 aa e2 53 ab 3f
       0.02929181400787429 0.053374369898860276
000310 46 e7 0c 08 fa 1c e1 bf 12 d8 c8 96 c6 15 c5 3f
       -0.5347871930345967 0.1647270427944823
000320 db a1 53 3a d1 75 82 3f ed cf 53 60 14 25 aa 3f
       0.009013781158913872 0.05106414485808828
000330 9e dd f4 a4 28 81 73 bf d6 bc 29 9c 3e 47 a9 3f
       -0.004761847273861445 0.049371677935477074
000340 c2 9c 29 e4 d3 63 79 bf 73 78 5c c2 fc c8 80 3f
       -0.006198718738779254 0.008195852929528713
000350 b1 4c ce 2a 1f 21 a0 bf 60 ad ed f5 6f 30 bb 3f
       -0.03150269887478297 0.10620784525024396
000360 4e 1d c4 e4 e9 80 b0 bf 5c cf 25 ae 51 56 b3 bf
       -0.06446706614598449 -0.0755358743825218
000370 a0 7f 3d 05 b1 2b b2 3f b5 8f af ef 76 ef db bf
       0.07097917917189855 -0.4364907589608678
000380 61 01 01 db 79 65 ce bf 5a 9e 56 63 c7 35 c7 bf
       -0.23747180169631135 -0.1813287005472713
000390 ee e0 19 3b 22 ab e2 bf 7b 58 0f 62 2e 57 bf bf
       -0.5833903459852345 -0.12242402929345701
0003a0 09 a1 8c 65 57 3f e4 3f 1b 71 ac a3 05 7a d9 3f
       0.6327321036706347 0.39807263358831485
0003b0 55 e2 dd 7c 27 d8 e3 3f dc a4 56 2d 5d 84 87 bf
       0.6201360167315878 -0.011482932993049415
0003c0 5e bb 16 0c 1b 32 bd 3f 0c 75 bd bd 98 61 af bf
       0.1140458015931762 -0.06129147831118517
0003d0 58 6b c4 39 8e dc a6 bf 75 95 0e e6 4e 7e bc bf
       -0.04465145545164856 -0.11130231014847942
0003e0 71 89 7b b1 ed 55 c7 bf 7e ab 5f fc b3 da df 3f
       -0.18230982938900867 0.497723576029493
0003f0 f9 f6 f2 11 72 20 ba 3f f4 5e 37 59 15 d7 c7 bf
       0.10205758035860048 -0.18625132423652924
000400 d5 d9 cb 3c ab de dc bf 24 55 a3 3f 11 e2 bc 3f
       -0.4510906308854861 0.11282451442396685
000410 6a 7b de 45 fa 72 d9 bf 8d d9 32 f2 06 fc c8 3f
       -0.39764267752791815 0.1951912577257641
000420 42 8b a2 25 72 cd c2 bf 17 b7 b9 f8 79 d6 c5 3f
       -0.1468947108997672 0.17060780186459887
000430 31 29 1a d5 3d f7 d2 3f 7e 73 0c 07 6b 74 e0 3f
       0.2963404255939564 0.5142111909550378
000440 e2 46 d6 98 de f4 ca 3f f4 64 10 ff 51 a4 c0 3f
       0.21059782469506333 0.13001465753840302
000450 bf bc 43 e2 ec 31 b4 3f af e2 d3 90 0c 59 ec bf
       0.07888680004156166 -0.8858702496209697
000460 66 01 3b 99 60 f9 a4 bf 68 b2 1a 6a 47 80 bd 3f
       -0.040965098099607286 0.11523863163410797
000470 f0 37 9b c9 a5 b0 bc 3f 43 a2 1b 45 2b 4e b8 3f
       0.11207042858151772 0.09494276463704758
000480 9c 7c 3b fa 52 4f b7 bf ba b8 8f 07 fa 8c aa 3f
       -0.09105414017857288 0.05185681669523619
000490 62 94 f9 64 2e 83 c2 bf c9 62 02 bb 25 9d a6 bf
       -0.14462833338180575 -0.04416768939808475
0004a0 9e 39 bc 4c e2 62 83 bf 6d ff ed 81 7e ad c7 3f
       -0.009465949980520357 0.18498212188932986
0004b0 3e 1e 0c 29 4a 73 b5 bf ee 8e 18 d5 5d 0b 9f 3f
       -0.08379043104297865 0.030316797381728593
0004c0 4e 35 f3 71 be 12 cd 3f 2f 1a f0 7e 10 5e d9 3f
       0.2271345192333833 0.39636623760489703
0004d0 27 99 24 66 2e 04 86 3f 40 39 cf e3 65 ab ec bf
       0.010750162593990155 -0.8959226083186778
0004e0 6b 4f cc c2 27 dc ce bf d5 2c 3e 61 e2 11 c3 3f
       -0.24109360705972036 0.14898328540980424
0004f0 61 2d e6 5d 27 7f d4 3f 84 e5 a6 df 4e 84 bb 3f
       0.3202608506187144 0.10748761139156754
000500 35 64 68 d1 b0 ab 6d 3f 6d 85 f3 4a c5 d6 be 3f
       0.0036219075657411234 0.12046464042534462
000510 2d 2d a8 3a 6e ec a8 bf a3 5f e8 a6 85 b5 a3 3f
       -0.048678822193404116 0.03849427854964851
000520 64 b8 50 33 22 37 b2 3f ef 32 6e e1 1e 66 7a bf
       0.07115377190413735 -0.006445046069427403
000530 f7 6b 56 bc 2b 8d 7e 3f 56 99 6f fb 82 bb c5 3f
       0.007458849756768685 0.16978490140099706
000540 58 6c 74 d5 3e 58 a5 bf 0d 05 8c 80 37 c3 a1 3f
       -0.041688884312144736 0.03469251102615987
000550 84 a5 ae 43 c6 7e d0 bf 5e 21 dc 94 24 83 c6 3f
       -0.25773769960013504 0.1758771635870841
000560 5a fc ef ab bf e3 dd 3f 1d 62 bc f3 48 38 d3 bf
       0.4670256785465817 -0.30031036188441523
000570 2c 82 f4 a8 9d 13 dc bf 46 f4 4a 5b 06 98 b2 bf
       -0.43869725703737816 -0.07263221482112767
000580 57 3f d9 46 17 30 cb bf 98 bd 91 2b 71 f1 dc 3f
       -0.21240511855512054 0.4522364545327604
000590 8d 62 e8 9f 58 37 ce bf 7f bc 57 a0 07 c5 b3 3f
       -0.23606403167720594 0.07722518601052462
0005a0 01 9d 64 6a 73 95 b8 bf df 87 86 8b 61 7b d3 3f
       -0.09603043887601716 0.3044055807641807
0005b0 8e 41 50 a3 4c f1 e8 bf 17 02 9f 50 79 56 c3 bf
       -0.7794554891316225 -0.1510764735849228
0005c0 5b 84 c4 06 78 1f d1 bf de b1 12 c1 48 db e6 3f
       -0.26754570637610237 0.714268090339427
0005d0 72 1e 46 a8 14 85 65 bf 4a 7c c8 4a af ee d0 bf
       -0.002626934381797779 -0.2645681600860753
0005e0 a1 d6 d9 06 f2 39 d3 3f e4 d7 08 6e 7b 4b b5 bf
       0.3004117075828195 -0.08318301617040863
0005f0 bd 7f 8a f3 1e 97 82 bf 3e 45 3c e0 16 ed b8 bf
       -0.009077302748948907 -0.09736769651887742
000600 52 84 7b 78 2c db bf bf f5 45 cc 79 f2 b4 c0 bf
       -0.1244380754610728 -0.13052206942715797
000610 91 e2 bd f2 44 f7 ce bf 44 3a c9 cd ce 22 d1 bf
       -0.24192106106399483 -0.26774950119298446
000620 6f aa 07 eb 88 30 a8 3f 02 ac 30 18 8c 40 ca 3f
       0.04724529141443134 0.20509482556494169
000630 37 5c f4 7e 96 13 d3 3f 9a c7 8c 9b 15 5c cb 3f
       0.2980705489912369 0.21374769301615687
000640 58 65 85 6a d4 e8 a8 3f df 49 b9 39 ff 46 a4 bf
       0.048651350024281725 -0.03960416392932919
000650 7f 18 b5 fe d5 b2 89 3f 8f f5 58 f4 c5 21 bf bf
       0.012548133693268902 -0.12160908904566824
000660 8b 08 a2 c6 a2 15 b6 3f 44 65 51 4b 5d a4 a9 bf
       0.08626763677060205 -0.05008212608727061
000670 e8 9a 98 32 28 e8 ae 3f d7 b7 78 92 ed 70 89 3f
       0.060364967514308365 0.01242242434735978
000680 05 4e 28 be 28 fc a3 bf a5 b5 c9 e2 03 52 b0 3f
       -0.03903319665201014 0.06375145232023856
000690 e6 85 bc 60 ea cf bd bf 02 ac d9 38 92 ba 94 bf
       -0.11645378934601744 -0.020242962570062424
0006a0 83 a9 f2 2b 64 7c 87 bf 83 83 39 6f 0d fb 90 bf
       -0.011467726317580645 -0.016582689202894862
0006b0 11 80 e4 d5 e8 0a b0 bf 4c 4b b9 9e a4 f0 a7 3f
       -0.06266646596895976 0.046757835746254445
0006c0 4c ac 7b c8 fe b1 b5 bf e2 6f 3a 2a 95 23 aa 3f
       -0.08474724192244415 0.051052724270647123
0006d0 e7 d4 88 45 c5 47 9f bf 43 39 d4 4d 3a 5a b3 3f
       -0.03054722058205508 0.07559551620599785
0006e0 81 03 21 e8 7a 8a c0 bf e0 07 a3 3b 8b 96 c3 bf
       -0.1292260774080454 -0.15303173458056474
0006f0 4a ab ec d5 f4 f3 61 3f 31 38 3c 6a 67 7e bd 3f
       0.002191522783865284 0.1152100214351044
000700 53 0f fa f0 6e 1c a4 3f 99 6f 47 37 24 b2 cb 3f
       0.039279429355728944 0.21637394618198583
000710 90 4e d7 42 8d 67 c3 bf 9c e7 da a0 9c cc c4 bf
       -0.15159765018198756 -0.16249425749066126
000720 97 09 a1 55 34 1d 72 bf f2 b3 7b a0 f7 c6 d4 3f
       -0.0044223827663380155 0.3246439997881786
000730 58 01 de b2 b3 83 c0 3f 7f 78 ef 4e 24 67 92 3f
       0.12901922448873893 0.017971579854809235
000740 51 61 d2 71 38 6d 79 bf d9 54 e4 5c 81 9f ba bf
       -0.0062076763980701425 -0.10399635808819897
000750 61 a6 00 f7 65 62 a9 bf 9b 4b 97 7d 9c 52 a4 bf
       -0.0495788444535037 -0.03969277413457136
000760 2d 25 21 38 b0 79 99 bf f6 59 ee e8 06 fe c0 3f
       -0.024878266740676103 0.13275228856646465
000770 3c 00 46 be 8b 8d b0 bf 00 2b f1 55 be 09 84 bf
       -0.06465981860492404 -0.00978420924925194
000780 0c 76 db 6d 84 40 d3 bf c2 a4 f3 24 15 62 e4 3f
       -0.30081282356499695 0.636972973033288
000790 ea b9 e9 75 1f 78 c6 bf 6c 07 fb 77 b8 ac a5 3f
       -0.17554085977049222 0.0423333784542724
0007a0 e1 b0 77 98 a4 16 c8 3f 03 37 52 07 db 4f c1 bf
       0.18819100804046854 -0.13524949891546365
0007b0 88 79 b7 86 3c c6 e0 bf 56 30 c1 1e 29 65 e9 3f
       -0.5241987830338966 0.7935987091709744
0007c0 c6 30 74 35 33 83 e0 bf 12 7f 43 78 e3 d5 d4 bf
       -0.5160156291981586 -0.32555472130296537
0007d0 42 79 51 ce 0a e8 b2 3f 93 b1 46 11 db c1 9c bf
       0.07385318314616021 -0.028083250932171188
0007e0 e9 76 d5 76 61 04 60 bf 24 cc a9 83 c8 33 b4 3f
       -0.001955213889842312 0.07891514982638675
0007f0 28 c3 e4 29 d4 23 a4 3f d0 ed ea ff c7 a0 a7 3f
       0.0393358517779972 0.04614853857989554
