notebooks/models/simTwoLayers_batchSize/experiments/xavier/weights_16.pkl.npz (npz, 715948 bytes, 3 tensors)

arr_0 f8 [784, 100]
0.06651091111197519 -0.019529452144603787 -0.015805531796234427 -0.06673928575533981 0.06038081909519268 0.017339897635727002 0.07950705789629128 -0.03953231229787567
-0.07255712361669592 -0.05520234658919669 0.023874546451644947 -0.006248614866921646 0.011006550201964048 -0.0880684839412903 0.005586913327369018 0.05942840463903161
-0.09510354703490476 -0.007081792926380088 0.028554686741342216 0.0656931004447148 0.10521839372855887 -0.04024458418691979 0.09903987293115542 -0.06948429222180462
0.0599236111203306 -0.03190782342165313 -0.03587689985640041 -0.022362824521769187 -0.07105305174180877 -0.023550650539735537 -0.06492611516863975 0.01326614960633565
-0.018751869696032673 0.017385280930428647 -0.07636662650514218 -0.04601421401800977 -0.010613211654468508 0.07236445845963052 0.03482757503714621 0.09782083073464333
0.03354057135196704 0.023112977815107953 -0.02370749661835721 -0.08421001196149289 -0.1270409572551982 -0.007131646911731555 0.03642529302478384 0.05919973273595699
0.06533452054144392 -0.034702801211072554 -0.054222618825143086 -0.01995266774424804 -0.09837815626495752 -0.06690531312528762 0.05439498834468428 -0.06773366617965154
-0.004538971992291319 -0.052220333135127465 -0.08910659305535168 -0.010090512849469688 0.02328705365206981 -0.0931903876234815 -0.0495202075920822 -0.06607229150595831
0.05986679466367693 0.03231070011524065 -0.01693221521839507 -0.04737326619895606 -0.007411464414093993 -0.02579104816373745 0.07232863405800684 0.13113580004687883
0.1266128429928464 -0.061545403815892415 -0.02158130532402905 -0.04027859809923382 -0.04054441722024008 0.1226569489847974 0.05133253889922528 -0.05264028883303147
-0.09403069943363053 0.006707778338961918 0.08716117094386135 0.05649247413499984 0.06911440433727357 0.10132916746964847 0.00263898403186295 -0.048938002628618436
-0.03199214391878196 -0.006429441130591032 0.05505765742292567 0.029175393272647187 0.029486019354088254 0.15353983881341893 -0.016929099399069714 -0.022561609435819353
-0.04162700899621369 0.008780215664738604 0.011062536890342513 -0.06317790440959348 -0.040459272859239365 -0.026436050574047975 -0.04248290171442282 0.04503757087888236
-0.10452673619581895 -0.03177804598910525 -0.03031281144135312 -0.03578003726924834 -0.016945759230762365 0.04327448718817313 -0.011038696489927629 -0.02030019412092893
0.10969377463414125 -0.03383086683435449 -0.08829626782268142 -0.10128065749331094 0.04587642034222546 -0.1196455363876865 -0.11492135379135106 0.011570418927198416
0.07960324677701433 -0.0731786508634384 -0.018380940153273084 0.04764338478054726 -0.1305988979037453 -0.009721899416324464 0.14677159303391576 0.03396594536054862
-0.0052827942533584735 -0.06138279562685704 0.08625033400653895 0.06364297243960805 -0.031134382710409365 -0.021828154869771504 0.2090552805838499 0.1667191433337532
-0.007775618298152434 0.00885068661937314 0.049605617005221744 0.03249557307991505 -0.09812917166953987 -0.01109793943043552 0.02187981603742193 0.017197468243578398
-0.08515653224492707 0.024671661271701482 0.010015265699694917 0.02255544046180107 0.02435486178694372 0.027569474233900344 -0.03640351649280682 -0.12875830440565822
0.04198602527619008 -0.13423335296933972 0.08155952108003452 -0.02177274231414536 0.0426644053287425 -0.049389910986656536 -0.02435699701042918 -0.08943018693637307
-0.10467926662924051 0.014741908248226222 0.0528790604244804 -0.05610940080327467 0.026672272031302725 0.06822208642010084 -0.07307679820575538 0.0730611718124197
0.029752550116753443 -0.04410345853171826 0.06780247162726218 -0.08319754835806886 -0.034610879133077005 0.009873127472793121 0.07236581959033572 0.025770226916193333
0.01350777961544585 0.03064909658041712 -0.06556549077745032 0.04990021339403386 0.11092815890574532 -0.06813232852008243 -0.08776605611657244 -0.10165869805231356
-0.08367708000921094 -0.057180766637818785 -0.021631834506031792 0.05293720045559072 0.008292943444310908 -0.10617685890250679 -0.039081555437418036 -0.03963165475380927
0.018201136885618068 0.11558187092194262 -0.04315293183009708 0.02421202252559384 0.0010364072721501614 -0.03271920008464349 -0.08430451031927506 0.03412030730965372
-0.012232260025819652 -0.04128396770701954 -0.07398299116971184 0.05060511359672526 0.009909670911195559 -0.007727913576587419 -0.1741088180077441 0.07162592098102878
-0.016245410314925882 0.00757437692105467 0.18333665226942872 0.11392019411074085 0.03003096760026455 -0.0698145808886657 -0.0054831507901182495 -0.021439711521058807
-0.022503771759351567 0.04369763591970727 -0.038519442187768434 0.027058859959349434 0.015498767857490667 -0.0965003762659297 0.032778312808053614 0.039791788944670205
-0.05120915189394932 0.0888446720361139 0.014975298157026497 0.007477628858794342 -0.045030257266009475 0.012693652183887537 0.042042246407440115 -0.08100207964736698
-0.03045720714010243 0.048693763183397375 0.029937261045820188 -0.010001387095508097 0.04834039890799625 -0.013056067898766413 -0.0645232481203081 0.10576341274456516
-0.06886150393323269 0.005594429964500879 -0.007736925573696424 -0.0260855988380525 0.08558400812948758 -0.002306780162540303 0.02298167152225553 0.06356625492811264
0.05872646210708123 0.11629492284058174 0.09332220080007923 -0.10852727951797846 0.07633376502449206 -0.023757812148191164 -0.01727810952563267 -0.10526172941025158
00000000: ba97 0dec db06 b13f e358 1459 87ff 93bf
00000010: 7992 a448 532f 90bf 1776 ad69 d315 b1bf
00000020: 639b a316 3cea ae3f abb5 0bd5 8cc1 913f
00000030: 5e3b 7715 935a b43f dec5 e848 943d a4bf
00000040: ac89 0689 1a93 b2bf 66af 8662 7b43 acbf
00000050: f2d8 ddb0 9172 983f 11ca fac7 2598 79bf
00000060: f913 4629 9a8a 863f 780d 56fa a78b b6bf
00000070: 5e1a 6da0 4de2 763f ba95 c15c 666d ae3f
00000080: 989e 3fc0 b458 b8bf 61e8 4050 cc01 7dbf
00000090: 836d ce96 703d 9d3f e29e fb55 43d1 b03f
000000a0: be76 00b8 97ef ba3f 910e d929 f09a a4bf
000000b0: 4d43 3d57 ad5a b93f dfa8 adfa b8c9 b1bf
000000c0: ed42 0abc 4eae ae3f 1443 2ae4 3856 a0bf
000000d0: b055 21ff 745e a2bf e065 debf 47e6 96bf
000000e0: a916 8365 8830 b2bf 6f83 7867 a91d 98bf
000000f0: 3e3e 4e75 ff9e b0bf 3edb 9f75 482b 8b3f
00000100: 3650 55ac b033 93bf 76a2 1c74 72cd 913f
00000110: 436e 5863 c38c b3bf e28c b7d0 2c8f a7bf
00000120: 4a16 b127 61bc 85bf bc13 7a26 7a86 b23f
00000130: b52a 917f ebd4 a13f c172 df34 c90a b93f
00000140: 097a 17d2 3a2c a13f aef5 50af edaa 973f
00000150: 3560 952a c746 98bf 46d1 5e8f c98e b5bf
00000160: 2ef1 54ca e042 c0bf 2e44 0ae4 1236 7dbf
00000170: b4cb 9304 56a6 a23f 1bd5 1068 6d4f ae3f
00000180: ce7c 065d c3b9 b03f 58f2 8fc8 90c4 a1bf
00000190: db6b 1d2d 11c3 abbf b2ce b7dd 786e 94bf
000001a0: 327c cc93 4f2f b9bf 7b3f cde3 b420 b1bf
000001b0: d370 03f0 a8d9 ab3f c46c 1459 fe56 b1bf
000001c0: 4dc8 3a04 7597 72bf 67d1 009e 9fbc aabf
000001d0: 04dd 078f b0cf b6bf 72b8 81b5 55aa 84bf
000001e0: 9660 6cb7 8fd8 973f 76f8 2443 53db b7bf
000001f0: 60c0 3270 b65a a9bf 4a9b 301b 1dea b0bf
00000200: 2dc8 644a dca6 ae3f b494 9c30 078b a03f
00000210: 4586 72ba ad56 91bf baf5 0e0a 4f41 a8bf
00000220: 664f 62d4 7b5b 7ebf a03d 92f1 f768 9abf
00000230: 09ef d71d 2184 b23f 3ba0 44d2 0ec9 c03f
00000240: b134 f481 d934 c03f 797c 3711 e182 afbf
00000250: 886a 49e2 6819 96bf 6d3f 217b 659f a4bf
00000260: 651c fee3 3cc2 a4bf f84f 8420 7266 bf3f
00000270: 8fec 952f 4248 aa3f 7acf fafd aaf3 aabf
00000280: d92f e35a 6512 b8bf c7b8 8389 9d79 7b3f
00000290: e158 afca 3150 b63f d588 c2e1 94ec ac3f
000002a0: f1a4 4f4a 7bb1 b13f 77bd 6954 b5f0 b93f
000002b0: 578d 91c3 599e 653f cb98 a4e1 660e a9bf
000002c0: 375e b837 4661 a0bf 50fa 32f6 c155 7abf
000002d0: 8f3a 0d6c 8430 ac3f 63da d07f 27e0 9d3f
000002e0: c697 4243 9531 9e3f 7c1a 2b85 31a7 c33f
000002f0: 1d36 14a1 dc55 91bf ad18 b0fa 631a 97bf
00000300: 08bf 89a4 2250 a5bf af16 0e99 5cfb 813f
00000310: 740f 3d91 f4a7 863f 60de 4459 6d2c b0bf
00000320: f430 80eb 13b7 a4bf 838f 9a52 0d12 9bbf
00000330: 8158 01a3 51c0 a5bf dd3b 081c 2a0f a73f
00000340: 06c7 84a1 43c2 babf 1c0b 8248 3645 a0bf
00000350: 8165 2957 520a 9fbf 2998 d7d3 c251 a2bf
00000360: e2dc cea6 3a5a 91bf 3ae1 72d6 1228 a63f
00000370: 0953 51c3 749b 86bf 1149 68f7 92c9 94bf
00000380: dbe0 a026 e414 bc3f 783a 4c85 4752 a1bf
00000390: 1943 a88e 959a b6bf a0b1 a677 87ed b9bf
000003a0: 5a08 0e3a 1d7d a73f 01c2 e501 17a1 bebf
000003b0: 9959 2560 7c6b bdbf a98d 2557 3bb2 873f
000003c0: b60c 90dd e060 b43f 8d4f 3908 d6bb b2bf
000003d0: 03ea 4f03 74d2 92bf baa2 01b7 b664 a83f
000003e0: 06f3 b1f5 76b7 c0bf 268a 6240 13e9 83bf
000003f0: a9ff 075c 69c9 c23f ada7 0001 fc63 a13f
00000400: 3874 cb48 69a3 75bf 1641 82d7 906d afbf
00000410: dac0 d37b 8014 b63f 9993 3fe5 e74a b03f
00000420: 82e4 160e b1e1 9fbf 1bd6 30ad 1e5a 96bf
00000430: 67f5 94cc 52c2 ca3f 5a28 1e8a 0d57 c53f
00000440: 8376 bfa4 53d9 7fbf f46a 9e0c 4f20 823f
00000450: 067d 784d e865 a93f 0439 497f 42a3 a03f
00000460: b3af 1a4f fe1e b9bf dff0 4037 84ba 86bf
00000470: 1afb 4a99 a967 963f e77d b88e 369c 913f
00000480: 1361 0889 d1cc b5bf 7925 3329 8743 993f
00000490: 45a5 2035 e282 843f 2d70 85fc c518 973f
000004a0: eb7c 7e1b 7bf0 983f 8560 cf18 2c3b 9c3f
000004b0: 908d 9751 7ba3 a2bf 1a5f 41f1 267b c0bf
000004c0: 3c89 e63a 317f a53f 1593 84fa 8e2e c1bf
000004d0: f956 b7b3 15e1 b43f b8e4 bb00 984b 96bf
000004e0: 9133 2ee3 1bd8 a53f 0b4d e168 a249 a9bf
000004f0: 49b0 5a66 0af1 98bf 39b9 2a90 e5e4 b6bf
00000500: 06ea bdaa 42cc babf d440 746e 0131 8e3f
00000510: fc2b 55d6 f612 ab3f 347d e512 5fba acbf
00000520: dd7c 56e0 f94f 9b3f 3f0a 0aae 0077 b13f
00000530: 4ede 633a 29b5 b2bf 12b2 8a0f 23b4 b23f
00000540: 346f e5d6 7377 9e3f 8f85 1180 ba94 a6bf
00000550: 8920 3ab6 805b b13f 1c27 4e3d 6f4c b5bf
00000560: 5cbc ec63 84b8 a1bf 41ce d6bc 5c38 843f
00000570: 481d 7dfc 9086 b23f 5b1f 43a7 8263 9a3f
00000580: 5bf2 847d f7a9 8b3f 39fe db0d 7a62 9f3f
00000590: 8fa5 a266 e6c8 b0bf e47c 2e51 858c a93f
000005a0: 9da6 b4ae c965 bc3f f748 cbca 1e71 b1bf
000005b0: 5b36 b814 d677 b6bf 9216 7def 4d06 babf
000005c0: 5978 1072 dc6b b5bf ffda 5625 cc46 adbf
000005d0: 4108 06d7 a726 96bf 74a9 65b1 951a ab3f
000005e0: 9a11 0c07 e4fb 803f b509 9418 682e bbbf
000005f0: e806 f664 7f02 a4bf 72a2 1baa 994a a4bf
00000600: 3beb b19e 51a3 923f d9c7 9e03 c696 bd3f
00000610: 34a2 df1d 2418 a6bf 9e75 ab53 09cb 983f
00000620: 28ce b5d5 01fb 503f a430 a12c 92c0 a0bf
00000630: 3501 bafa fa94 b5bf 6a82 0c88 3778 a13f
00000640: 33f2 2226 3a0d 89bf 9931 4d16 2c23 a5bf
00000650: 4fbf 889f 8cf0 b2bf b00c d1d7 e9e8 a93f
00000660: 4858 d283 854b 843f 7f7e 3e01 4ea7 7fbf
00000670: cfec a49f 3249 c6bf 5dce 288c 1356 b23f
00000680: 4103 0d08 a3a2 90bf 7fb9 9d52 4f06 7f3f
00000690: 8be1 d34e 9377 c73f 3142 0fb4 df29 bd3f
000006a0: b76b d71e 70c0 9e3f 6365 b34d 5edf b1bf
000006b0: ca58 2915 8075 76bf d844 46af 4af4 95bf
000006c0: 9ae5 f88e 3a0b 97bf a814 605a 895f a63f
000006d0: 29cb e900 d2b8 a3bf 23ab 5e5a 51b5 9b3f
000006e0: 6518 9c68 d1bd 8f3f 1a26 1da8 3fb4 b8bf
000006f0: faaa 0eab 51c8 a03f c558 55e0 965f a43f
00000700: a9e3 4701 1638 aabf 08a7 d140 86be b63f
00000710: 4e81 a87e 5eab 8e3f 1101 67b6 dca0 7e3f
00000720: bb71 93b4 340e a7bf 4c07 f927 21ff 893f
00000730: bc9b bdb2 8f86 a53f 5351 fe62 8dbc b4bf
00000740: d47f 6092 2c30 9fbf f3a1 c890 63ee a83f
00000750: 4494 7e94 dfa7 9e3f 2d33 eb73 9b7b 84bf
00000760: 2158 c5a0 12c0 a83f 28d0 1dc5 23bd 8abf
00000770: 9a27 8278 9884 b0bf faeb d99e 4f13 bb3f
00000780: 6bbb 5853 e8a0 b1bf 7ff4 cb5b 2fea 763f
00000790: 7a44 f824 c1b0 7fbf 5fc1 9fe7 2eb6 9abf
000007a0: 1c0c fa63 d5e8 b53f 52f4 6d2b abe5 62bf
000007b0: 49cb 61de 8188 973f 21a2 0bca e045 b03f
000007c0: d3c3 5114 6511 ae3f 4888 4a0a 81c5 bd3f
000007d0: 7755 6db8 f6e3 b73f d7e9 409c 71c8 bbbf
000007e0: 9759 5c10 9c8a b33f fed0 cdc8 f753 98bf
000007f0: 7aae 654d 5ab1 91bf f061 56c5 6ef2 babf

arr_1 f8 [100, 100]
0.14231888032657525 0.07217656640673475 0.07824858069265102 0.13100903197257915 -0.04170333711694752 -0.10676759205462096 0.012450382824988164 -0.00561213411125509
-0.07961603753173147 -0.06300076252145545 -0.016170988903227223 0.09685113648565616 0.10041415166407935 -0.0699478129139853 -0.07213920636763943 -0.07064411954622866
-0.05890313867539261 -0.11266594158424029 0.05975136906297165 0.03788743510395523 0.08735325006781974 0.007043269430943459 0.09136455974318963 0.017761805837046552
0.05535894784424457 -0.06259916197299323 -0.07134725062803698 -0.015409809417850633 -0.06466075542332564 -0.031306216279281 0.015052053813077355 0.13640739324542367
-0.05254277744771391 0.14833427388676113 -0.05744528098939051 0.0656681133020599 -0.04470516977203463 0.027438325625374335 0.007965218658505241 0.05073840945430655
-0.02642606081072356 0.003146069852305531 -0.06750819241546675 -0.07556662816066545 0.05199110727366777 0.0033520866367308284 -0.0383139918737544 -0.11395767324847408
-0.07930091227519276 -0.03721752421958651 0.04175347985860162 -0.02704380617298253 -0.05465620548398943 0.026283041755285053 0.072986152199251 -0.032109250472671026
0.0909218433365336 0.20223901869981425 0.044021797958701696 0.03825828484718873 0.11401640221030199 0.017444451414159592 0.024893668327527287 0.07705448536418677
0.0717413195467145 0.07455065901923565 -0.13016302018192297 -0.006483462218742019 -0.01208211562505156 0.04837017531791176 0.15516287880102503 -0.018018144310696003
-0.08033401078754866 -0.0280890027636431 0.03275570276358573 -0.0939850970583277 0.018448227802612162 0.05558782589335952 0.06482987919293659 0.09744675325658918
-0.06700200231728515 0.09366492147293369 -0.04232405663200378 0.048644266691124184 0.05870513951074766 0.0014383142888777774 0.0037489773792158836 -0.013182455605416987
-0.031039365426998384 0.02840586952578553 -0.0029363599181865224 -0.05496253558951235 -0.004912538100214882 0.018437038844862454 0.08136618218516554 -0.0951659462704165
-0.0029699517326624812 0.043032604167210414 -0.08511152630093698 -0.0040795222247613505 0.05663285379568925 -0.046073105628086676 -0.029139780952479682 0.05602162898909911
-0.02068187612541412 -0.09826441874082092 0.0801484194524453 0.015148618505321962 0.0636582161509336 0.044972342702005605 0.08401059983482237 0.057868308215073654
-0.013449080880488776 -0.006984347043588806 -0.0026500308963573597 -0.14177738376271315 -0.0032967584097804083 -0.06876218420264217 -0.0027953806419613383 0.06612184218918796
-0.03428540058181102 0.03826354798005168 0.19558279390414324 0.039067362181315624 0.12996171788789435 -0.030974850554705283 0.14626626657813052 -0.00020862122818895727
-0.0153319114298069 -0.0679733163854268 0.01211471450955749 -0.02384716690410577 -0.05285766701405403 0.12565479832460946 -0.07426030383687293 -0.15775832832846284
-0.012655819379715046 0.08319417774598492 -0.07224973790897864 0.09477695679344922 -0.01754648664066558 0.04243427775661038 -0.12301533521749389 0.08257888181705675
-0.02509565280146543 -0.026700814814510317 0.031875682444789916 -0.05948733324584311 0.08631765237957491 0.10574114390894852 -0.09357543190577686 -0.12299615369974277
-0.09483475871064485 0.013139602472215985 0.06635937031335087 0.028939338969138174 0.046123722372041535 -0.08522753682759539 0.20689193659732052 -0.004895204075729098
0.027061301120450642 -0.023134784894577157 -0.08230661023057166 0.08062117008915522 -0.0924784307776943 -0.003307866786476444 -0.014565700603127282 0.06789185292877487
-0.019052659274502066 -0.008962495327821812 0.03400443814564602 -0.05182995493542754 -7.245448753460777e-05 0.08225346386850838 -0.07138645823246523 -0.07232672386725969
-0.13080844062741734 -0.03260821177999656 -0.07321968225479414 0.11857086148034778 -0.03650325940229189 -0.08144648846449508 0.03182569975148902 -0.039106371618767094
0.018325754098253204 0.22295834035726525 -0.1470071725594112 -0.0015505407604703412 -0.0033440319748081113 -0.04195101882983615 -0.06849944825489619 0.08067637232316537
0.09862711577272655 0.16506836908342137 -0.0254022131682373 0.045539834941055915 -0.015121579616093242 -0.04332223863322724 -0.017757275127356198 -0.04605920434835471
-0.033078220126264726 0.06782714867507388 -0.049846857285264924 0.04951435029703206 -0.016720211824557418 0.11954922225653672 -0.10513969938242879 -0.007266672555780777
0.12453606865289682 -0.029258003765994797 0.04063214413412905 0.027430467509196643 0.08455127543318253 -0.02034010493438552 0.04649258549260452 0.14446643980901155
-0.06860787762649227 0.04622986392370808 0.06456891739211967 0.13581261571304631 -0.019636336882951473 0.10709272871449162 0.04472472880626489 0.0276542883915794
-0.06612684320914883 -0.01998657917711026 -0.05978129279428575 -0.12514542311515306 -0.024994064701782424 -0.023103312779814603 -0.057716761630777304 0.08268190858174564
0.12383985739381723 -0.0012470289003838199 -0.00364059779006647 0.032853098476428665 -0.11149487590791944 -0.07672394334364992 -0.013826903396257969 -0.16419197096779212
-0.011199432899256671 -0.08740198938649338 -0.05141156200777489 -0.023658290972524705 -0.05777155363311336 -0.060785328801271306 0.010518688357238605 0.04881958040861522
-0.019820072391957485 -0.02784273304670095 -0.04570583709626577 0.09733094936577028 0.037311650694401254 0.05530952880086607 -0.029206466725572755 -0.003692270256278873
00000000: b490 4d4c 8137 c23f c826 41d8 297a b23f
00000010: d589 0857 1908 b43f a7c3 e669 e7c4 c03f
00000020: e14a 1aca 235a a5bf 41b3 25f4 1e55 bbbf
00000030: 5cb2 7218 967f 893f ac69 7fc7 bffc 76bf
00000040: d496 6f75 b761 b4bf 3e18 a766 d120 b0bf
00000050: a3f0 eeb1 208f 90bf a24c c96f 3ccb b83f
00000060: 04eb 73e9 bdb4 b93f 566d e490 19e8 b1bf
00000070: 84c0 1b0c b777 b2bf 8313 1ba7 bb15 b2bf
00000080: 5a31 7c5c 8d28 aebf 2a34 7ad6 acd7 bcbf
00000090: 838b 0840 bb97 ae3f 94d0 665d fb65 a33f
000000a0: ac97 3d58 c85c b63f f81a ce3d 67d9 7c3f
000000b0: a445 1cf4 aa63 b73f 7d87 c09c 2630 923f
000000c0: 5262 100d 0258 ac3f da56 6ea9 7f06 b0bf
000000d0: 0c60 1b3c d043 b2bf 3ce9 e59b 2d8f 8fbf
000000e0: 02ba e075 9b8d b0bf c27a 294e 5e07 a0bf
000000f0: ea1b eb76 9cd3 8e3f 76fa 7526 cc75 c13f
00000100: e9d0 8e0d e3e6 aabf 141a 9c13 9efc c23f
00000110: 9163 51c6 7769 adbf 08ba 051f a0cf b03f
00000120: bd1a 4494 98e3 a6bf 8c36 dfdc ca18 9c3f
00000130: 5d70 268d 1150 803f 54bd 8382 62fa a93f
00000140: 2cd3 c6eb 6e0f 9bbf 7bf9 0c64 c9c5 693f
00000150: fdf1 a286 3748 b1bf 1c7a 9ea4 5558 b3bf
00000160: b5b1 d812 949e aa3f 28bd 4ccf d575 6b3f
00000170: 916a 273c e49d a3bf cafe ba7f 542c bdbf
00000180: a8d1 c388 104d b4bf c7f0 b8e2 2c0e a3bf
00000190: 7949 f94c b660 a53f 030f 4a1c 5fb1 9bbf
000001a0: 8285 27ee e5fb abbf 3d08 1d13 f1e9 9a3f
000001b0: 92b4 c170 38af b23f 65bf 5ba9 9f70 a0bf
000001c0: b558 9f67 a746 b73f 123a a5d9 f7e2 c93f
000001d0: 8765 166d 068a a63f 2f80 7004 9796 a33f
000001e0: 8a69 b3ce 2d30 bd3f f72a 4851 f5dc 913f
000001f0: 2776 60cd b97d 993f 0e38 a6be d7b9 b33f
00000200: 329b 399d a35d b23f 6903 6282 c015 b33f
00000210: b53b 6a8d 2ea9 c0bf 3f0d 1c23 678e 7abf
00000220: ba06 cf1b 82be 88bf 1f37 2fc2 f9c3 a83f
00000230: 6e76 0091 60dc c33f 9639 3232 5973 92bf
00000240: d9ca 160d c590 b4bf f907 fd10 5dc3 9cbf
00000250: ed12 4100 5bc5 a03f 8849 2d46 680f b8bf
00000260: 8a54 539c 17e4 923f be12 89ec 0176 ac3f
00000270: 78f2 efe2 b098 b03f 7ba3 563a 45f2 b83f
00000280: 2821 b810 0b27 b1bf 6f37 829e 6cfa b73f
00000290: 8013 23ae 7fab a5bf 3d0e 27bd e6e7 a83f
000002a0: 058f 9c9c 990e ae3f 791e 4135 ba90 573f
000002b0: 25f2 96e7 2cb6 6e3f 0660 a63d 67ff 8abf
000002c0: a517 978d c8c8 9fbf a9c1 82a2 6d16 9d3f
000002d0: f734 2c3a fe0d 68bf 2e71 b9a9 0c24 acbf
000002e0: 1b43 b167 2b1f 74bf 7abc 7ebb 28e1 923f
000002f0: 7754 7c03 6ad4 b43f 06a1 eca2 cb5c b8bf
00000300: 38de ffb1 7054 68bf dca8 1e97 5e08 a63f
00000310: 9fa4 f975 dec9 b5bf e054 9e68 b0b5 70bf
00000320: 3cff dc3d fbfe ac3f 95aa cbe3 e496 a7bf
00000330: 5863 d098 d1d6 9dbf 5eef c0f0 ddae ac3f
00000340: 7276 5036 a12d 95bf b82e da60 db27 b9bf
00000350: eed4 5f58 9b84 b43f e5c0 7a28 3d06 8f3f
00000360: f16d 7da4 e74b b03f 565d 426a 9d06 a73f
00000370: ded2 cefa b781 b53f d765 8436 eaa0 ad3f
00000380: 75fa 5714 318b 8bbf c694 2d62 9e9b 7cbf
00000390: 9d56 1081 84b5 65bf b661 49e5 c225 c2bf
000003a0: 31b3 b0b1 cd01 6bbf 8b14 5a04 669a b1bf
000003b0: 90af fc8d 56e6 66bf 5afb c06d 5ced b03f
000003c0: 8951 7524 db8d a1bf 3b10 689e 4797 a33f
000003d0: e042 bd63 db08 c93f 28c9 d125 a300 a43f
000003e0: f4bd 07e8 95a2 c03f e116 8608 dfb7 9fbf
000003f0: f204 bb5f dab8 c23f 9fab 63b4 2a58 2bbf
00000400: e7d5 6851 5666 8fbf 0f46 e002 b366 b1bf
00000410: 878f f374 99cf 883f 3151 d247 646b 98bf
00000420: f020 56fe 2810 abbf d0e0 b1d8 7415 c03f
00000430: 0cd2 5e28 b902 b3bf 0dd3 6bc6 6c31 c4bf
00000440: 7e3c b852 4beb 89bf 48f9 a2b0 364c b53f
00000450: c3b0 7675 f57e b2bf f89e d779 4d43 b83f
00000460: b91c 20c9 b4f7 91bf d456 6316 f2b9 a53f
00000470: a265 aad9 ee7d bfbf 1098 bebc e323 b53f
00000480: c35c 37c0 acb2 99bf 5297 9e59 7557 9bbf
00000490: 04af 466b 0252 a03f 7261 a2ad 1f75 aebf
000004a0: 59ab 09e6 e918 b63f 6939 ee02 da11 bb3f
000004b0: 1e90 be3b 8ff4 b7bf 5d97 ac09 ad7c bfbf
000004c0: 71af 2f3b 1747 b8bf 2e72 3497 efe8 8a3f
000004d0: 3c6c 477d edfc b03f cadf c229 46a2 9d3f
000004e0: 4fbe 504e 879d a73f fda5 64cb 78d1 b5bf
000004f0: a8ec be5a 6f7b ca3f 199c 9956 fe0c 74bf
00000500: 93bb 322d f5b5 9b3f 91bc 1622 a5b0 97bf
00000510: 3357 2fc7 0b12 b5bf cdee e5c8 96a3 b43f
00000520: 848d c69b aaac b7bf 1bad 5b75 1919 6bbf
00000530: 1ebd de3d 9fd4 8dbf 3072 fe47 5c61 b13f
00000540: 227a f151 8a82 93bf 10a0 96c2 ed5a 82bf
00000550: 5041 829b 0769 a13f a237 cdb2 7489 aabf
00000560: 828b 1d9e 56fe 12bf 2e47 4c21 900e b53f
00000570: 5e57 7c07 6246 b2bf f8fe a211 0184 b2bf
00000580: c38b 44bb 54be c0bf 572d 5a06 06b2 a0bf
00000590: d035 b56c 86be b2bf 4f0f 51f4 a85a be3f
000005a0: 4a16 a922 8eb0 a2bf 773c 5454 add9 b4bf
000005b0: 68bd 3547 754b a03f 74ed 5516 c005 a4bf
000005c0: 1e2c 1b8a fcc3 923f e039 1a1e e689 cc3f
000005d0: d4c5 358b 21d1 c2bf fa93 de76 7067 59bf
000005e0: ab99 fe7e f164 6bbf d8e8 d09b 9a7a a5bf
000005f0: b17f 0c0a 2e89 b1bf 2f1b b0ec 34a7 b43f
00000600: 611f be6c a03f b93f 009f 68d7 f520 c53f
00000610: dae2 36ab 0903 9abf aa61 794b ff50 a73f
00000620: 68e1 510f 10f8 8ebf 3d0a 3d1c 552e a6bf
00000630: 3095 c08f f62e 92bf fa40 b670 1295 a7bf
00000640: a2ec 4de3 a0ef a0bf 9f22 57b9 1e5d b13f
00000650: ad7a b2fb 8685 a9bf b9b8 6ae6 f159 a93f
00000660: 23ea df6b 1a1f 91bf b6a3 da1f c79a be3f
00000670: 84da 5b72 6fea babf b825 a58f a8c3 7dbf
00000680: ca5e 0986 98e1 bf3f afe6 4865 cff5 9dbf
00000690: fce3 7184 bccd a43f 20c6 7683 bb16 9c3f
000006a0: 5013 d202 27a5 b53f db29 f655 09d4 94bf
000006b0: 15fa 644c e0cd a73f 75b4 2c55 e07d c23f
000006c0: 735c a72e 4990 b1bf 0e3d 4dd3 70ab a73f
000006d0: 288b 89ac 9687 b03f 7e95 6fcb 4e62 c13f
000006e0: 72ed e642 8c1b 94bf 21d8 77d7 6d6a bb3f
000006f0: a23b 17df 28e6 a63f 4ea6 f1e0 6751 9c3f
00000700: 5e94 f854 b0ed b0bf 2ccb b29f 5c77 94bf
00000710: fa98 ed52 a79b aebf 7307 c3e5 c304 c0bf
00000720: 59fb f349 0b98 99bf 4435 4613 65a8 97bf
00000730: 0d3b 4527 0d8d adbf 7157 543d a42a b53f
00000740: aa9f 7209 f8b3 bf3f 3e43 0916 6b6e 54bf
00000750: 697a 470e e3d2 6dbf 4b9b 0e0f 1fd2 a03f
00000760: 1b33 b29d ed8a bcbf 8d2b 7b2b 2ea4 b3bf
00000770: 9e91 228f 4751 8cbf ff45 c914 3e04 c5bf
00000780: 9cd6 4970 baef 86bf 3a34 050e fa5f b6bf
00000790: c559 ebc2 9d52 aabf 4265 0608 e139 98bf
000007a0: fe95 fcaa 3b94 adbf d15e 8e2e 411f afbf
000007b0: 14e3 ed73 d28a 853f efd5 844a e1fe a83f
000007c0: ff46 e98a b64b 94bf a6a4 772f ce82 9cbf
000007d0: e428 2167 c166 a7bf 3a24 6a5c aeea b83f
000007e0: 7305 fc3e 831a a33f 45ba b6d2 8751 ac3f
000007f0: 9014 accd 4ce8 9dbf 6571 f57f 403f 6ebf

arr_2 f8 [100, 10]
-0.045204405983529594 -0.0006588097211030544 0.021013560854669242 -0.03797460371009971 -0.03139413595088849 0.13545709993255395 0.041699523932985476 -0.014198558346632128
-0.016047538219096404 -0.03509985422330184 -0.07785991312185357 0.26118633823490245 0.020248099717207414 0.26482714693868015 -0.052276791550567844 0.0759543768722457
0.1883125901808462 -0.29656499485016913 -0.17398134775808988 0.0950333089342646 0.0903997528562044 -0.17929145585192297 -0.04813463623204077 0.25972826329903914
-0.22615134523410535 0.22822957139678998 0.0025067466348343073 -0.28153612824938945 -0.00490671773141563 -0.1505578961075735 -0.5911902338504497 -0.19087813313848845
0.0015402697657903818 0.4480011697310641 0.6038929379782503 -0.3216338097608639 -0.27493789490998455 -0.11194310001970735 -0.1260738473702511 0.380740227964894
0.04724453152790213 0.04934686312314357 -0.07990752276584198 0.07579791253594453 -0.01627148388632736 -0.022920696040209104 0.09928472636256236 0.04781425232701446
0.03112208433800393 -0.07727386417471384 -0.049179853973453515 -0.09831594859036696 -0.028913784344132665 0.07931235624447334 0.058735053319995074 -0.0007443176510512186
-0.09287602705455494 -0.03720403391372698 0.016091608184914813 0.07060083695050424 0.030403955280982286 0.06304634468815976 0.11925380058981609 -0.2331998061808822
-0.15416654310385627 -0.034549319834091666 0.11575582419186407 -0.006039073704336345 -0.026690814203380396 0.05109795234604038 -0.061533592571372225 -0.054715674069534606
0.09383417858815173 -0.03416182191856564 0.033069827475945716 -0.09476930614685464 -0.00788123286077176 -0.04375670834357286 -0.07902602261429265 0.10774378231663116
0.24945283678440883 0.1123351295631448 -0.32750402238648046 -0.05025757788163117 0.22757957570556112 -0.13052317091298796 -0.28608995267866505 0.5296279166122952
-0.06982818085078651 0.10570661000806615 -0.3841542524463502 0.23365213517535074 0.23240232352165371 0.16135306604869884 -0.04196129661792615 -0.07201141939263926
-0.06435448345994067 0.12048089920281711 -0.0022169737871857906 -0.14347509595156963 0.15627943525970042 -0.20673143469481597 0.1289057542859799 0.009100044143519748
-0.08864195039880077 -0.15615137497100592 -0.11975953659344 0.13274792676522057 -0.042063026946534236 0.38151706646240763 -0.09301230618931565 0.3639455102621125
-0.1321881017496535 0.6295972502084027 -0.08385396080019218 0.09695676037488675 -0.19120566065418446 -0.3294560986188298 -0.5989545163104156 0.1110467776272247
-0.08980895712863106 0.04623054475230742 -0.07018271663369045 -0.022586981314519628 -0.002164055115458185 0.13432651003104185 -0.034196887435648665 -0.03516757163225831
-0.012807131496024136 0.028287114162274155 -0.004642905724040665 -0.59204593285396 0.10391317354305152 0.007494217425440113 -0.04840405132581633 -0.051917042944935446
0.02258851366240856 0.2505430436525819 0.1293007545566928 0.19799623265902072 0.03390604330609724 0.4213212009045129 0.19397210483941868 -0.31529581268545714
0.13930412257981536 -0.030252557109350986 -0.0035415331661651944 0.38257327438712313 -0.4520278372347601 -0.2135678623083428 0.365314416266116 -0.2176043789401521
-0.2884558865709195 -0.4961263388681932 0.27071790813514995 -0.1328119194971978 0.18282300853723263 0.11270146856468102 0.04176285602462431 0.19293019643667209
-0.15773714716189693 0.28527889768750253 -0.030267527332394753 0.575735588337339 0.09479693698120484 -0.014238669905298689 -0.13278920722977197 -0.07524963596696832
-0.25076370946385085 -0.16125387244792588 -0.07599582148427962 -0.14347914673542334 0.08703730291904556 -0.0511458140896794 0.07933011804510975 -0.03440755717336782
-0.12049714123499883 -0.11165432698961995 0.07656362098388858 0.018946051626310204 -0.22513166564885198 0.19191442894347693 -0.05736794025329048 -0.22869423072446396
-0.29914192137682666 0.4058926387022536 0.1413591322720305 -0.2744541992644511 -0.12747456753584335 0.3495171947558842 0.1935903472058186 0.2436564526680712
0.348723549772995 0.08389406025671005 -0.24847756340266638 0.41666717446463264 -0.07032984339566925 0.002822741216826212 -0.6912461758453455 -0.14119565465114692
-0.2155819064928089 0.4147308377266707 0.47792836074371037 -0.3802081636943613 -0.26572626174111835 -0.3343138396451341 0.23308506083344604 0.3543468758394789
-0.051856773391583816 -0.1674608785956155 -0.07372827412275322 0.4540007213272462 -0.20257264290093488 -0.1731766960356146 0.01661045080846128 -0.11526247828397908
0.09000475250640774 -0.27631675171325015 0.12539990941027443 -0.024553606082672118 0.02310094930515219 0.04698780951419258 -0.05122377016780374 0.3089802052602944
0.07703304467209399 0.19050301367730313 -0.2342453736242083 -0.039970387160421644 0.06030468935388474 -0.0664090568493451 -0.1660930785246235 -0.027676155766520563
0.16186202715217735 -0.26136134876179334 0.3012907778680357 0.01479313361388678 0.06944639951924922 0.16030200070416403 -0.10813340923500687 -0.1403922731610046
-0.07942756772501318 -0.10753435254553163 -0.05050894714583707 0.33752714130283645 -0.4915603103493951 0.23022105108939195 0.09588668336386601 0.20303213738640227
0.13300465246191986 -0.1632042822497973 -0.017285664930400464 0.19130975596555932 0.4390317793872462 -0.09581682886014979 -0.14988411298146306 0.08260909810595846
00000000: 1032 ab2a 0825 a7bf 361e 6c1a 7f96 45bf
00000010: e9bf 9232 9484 953f 6ae1 0642 6871 a3bf
00000020: 03f7 6366 e412 a0bf 5054 1c83 a856 c13f
00000030: 0f15 1ad7 a359 a53f 5939 fe3d 2214 8dbf
00000040: 174e 540f c46e 90bf 9d86 f7ab 9bf8 a1bf
00000050: 6f1b 8794 a0ee b3bf ac60 38e7 46b7 d03f
00000060: fdbf 5df8 eabb 943f 9e74 cc8f edf2 d03f
00000070: ce57 190c 06c4 aabf bf83 a7fc be71 b33f
00000080: 7f3a 2080 a01a c83f cb45 81be ebfa d2bf
00000090: 7214 5e53 0545 c6bf b440 e759 1a54 b83f
000000a0: 3179 152e 7024 b73f d009 abbd 05f3 c6bf
000000b0: 26cb d760 1aa5 a8bf 0bd7 2d4b 639f d03f
000000c0: aa0a ddfb 86f2 ccbf 3b8d 9068 a036 cd3f
000000d0: 1070 1c5a 0789 643f 4a4f de1b b004 d2bf
000000e0: a37f fe02 1119 74bf 4fe2 f72b 7b45 c3bf
000000f0: d345 03c8 07eb e2bf c4f8 acd5 b16e c8bf
00000100: 6b7e 5911 5c3c 593f 7a23 2419 0dac dc3f
00000110: b4dc 5c48 1753 e33f af7d 8df9 a595 d4bf
00000120: 2c72 c41c 9598 d1bf c3f5 9891 4da8 bcbf
00000130: 1d06 ab15 3023 c0bf 195f d842 0c5e d83f
00000140: 3684 a76b 6f30 a83f 8855 8cf6 fd43 a93f
00000150: 96d1 fbc4 d174 b4bf 546b 72f3 7d67 b33f
00000160: 3bbf 98cc 78a9 90bf 88b7 93df 8578 97bf
00000170: 1832 b84c b96a b93f a6ef 0d14 1c7b a83f
00000180: ea0a a9b9 77de 9f3f f947 774f 38c8 b3bf
00000190: 9546 e010 1a2e a9bf 98ef dee7 3b2b b9bf
000001a0: b086 a538 939b 9dbf 631c 3d88 d04d b43f
000001b0: 81c1 465a 8512 ae3f 687c 0bfc c963 48bf
000001c0: 1c1f c82a b9c6 b7bf 84a1 e039 680c a3bf
000001d0: 98b7 938b 517a 903f 01cc c57d e512 b23f
000001e0: 4349 67e6 3622 9f3f c267 9124 ce23 b03f
000001f0: b3fb 74c5 6a87 be3f a87e 7dc2 7dd9 cdbf
00000200: 255c 62b2 babb c3bf eaab 92cd 72b0 a1bf
00000210: bbbf 3977 2ca2 bd3f 20a0 ee80 6dbc 78bf
00000220: c6b3 6d38 d654 9bbf da07 70c4 8229 aa3f
00000230: fc1b 66bf 5481 afbf 321c 6a5d b103 acbf
00000240: 8b7b 4848 8405 b83f aff3 d287 a87d a1bf
00000250: 77b2 fc46 87ee a03f f0ba 901e cd42 b8bf
00000260: e707 1d2b 0924 80bf 47ec a17e 4767 a6bf
00000270: cc4d a9a6 0c3b b4bf bfb3 65b5 1895 bb3f
00000280: 4615 f10f 12ee cf3f b566 aabb fec1 bc3f
00000290: 3056 5d6e d3f5 d4bf 3a6c c17a 5cbb a9bf
000002a0: e54b 72d9 5321 cd3f 2183 38b7 fbb4 c0bf
000002b0: fb04 9e3b 4c4f d2bf e2bf 9c3e b6f2 e03f
000002c0: 9ce2 1779 42e0 b1bf d1a6 f4a0 960f bb3f
000002d0: f916 b8b7 fb95 d8bf 73fe 9b2b 50e8 cd3f
000002e0: e91b 85fd 5bbf cd3f 39ed e49e 37a7 c43f
000002f0: 62ef 5779 f37b a5bf 6bdc 3a23 576f b2bf
00000300: 19b9 cf11 8979 b0bf d767 de11 d6d7 be3f
00000310: 2b88 2fbd 5429 62bf 9983 7356 645d c2bf
00000320: 5327 bdeb f600 c43f eae1 88f7 2c76 cabf
00000330: de55 76d7 fb7f c03f 4d99 e83f 0ba3 823f
00000340: 9239 0426 3db1 b6bf 67ea 5cac c4fc c3bf
00000350: 7b8d 0d9d 8fa8 bebf 2ac2 0852 e2fd c03f
00000360: d756 36fa 4889 a5bf ff99 d48e c66a d83f
00000370: 076a 358d a7cf b7bf fc83 061c e24a d73f
00000380: c6b0 f72a 8aeb c0bf e77d e921 a925 e43f
00000390: 5be2 4603 7477 b5bf e7ad ef82 28d2 b83f
000003a0: 15ef a855 6d79 c8bf ad47 4208 cf15 d5bf
000003b0: 0f08 6ba9 a22a e3bf 7830 3cc6 8f6d bc3f
000003c0: bb5d c145 b8fd b6bf 5829 93ab 87ab a73f
000003d0: 97a6 af98 7ef7 b1bf bdb1 3ea8 0a21 97bf
000003e0: 6505 533e 5aba 61bf 9ad9 c86f 9c31 c13f
000003f0: 447c 5222 4182 a1bf 78a0 14e4 7b01 a2bf
00000400: 9fad 7217 a03a 8abf 2497 e618 4cf7 9c3f
00000410: e201 e483 7004 73bf 60cd ea4f 0af2 e2bf
00000420: c8b0 fdc1 0d9a ba3f 92a5 05ac 41b2 7e3f
00000430: 1967 e072 6ac8 a8bf aa67 1be3 de94 aabf
00000440: 23fb c77d 7121 973f d799 aeb0 e508 d03f
00000450: ada5 1558 ed8c c03f be37 00c8 f057 c93f
00000460: 6edc 4506 225c a13f d9c3 bf32 edf6 da3f
00000470: 2690 4ff3 13d4 c83f 9a2f 037d ce2d d4bf
00000480: f3d1 56ad b7d4 c13f 70c1 9ebd 86fa 9ebf
00000490: a54b 0b24 2203 6dbf b93e 749d 147c d83f
000004a0: 9383 732a 06ee dcbf b0a4 0b14 3156 cbbf
000004b0: f9b2 a7b7 4f61 d73f 0ad6 81d5 75da cbbf
000004c0: 4c4a caad 0f76 d2bf ede0 07b0 88c0 dfbf
000004d0: b672 7834 7153 d13f a335 6121 fbff c0bf
000004e0: cfd6 4f8d be66 c73f 524c b2e1 00da bc3f
000004f0: 376b a0e9 f061 a53f 489d 0dca efb1 c83f
00000500: 215c 3618 bb30 c4bf d9a1 f36b 0242 d23f
00000510: d4fb 1760 73fe 9ebf 8aab 610a 6d6c e23f
00000520: 2862 18b0 9c44 b83f 5685 a7ec 2929 8dbf
00000530: 4525 289b 3cff c0bf c097 8365 8f43 b3bf
00000540: c8ef ca3a 830c d0bf 8433 4286 f7a3 c4bf
00000550: c75a e84f 7674 b3bf 0a7d 7151 865d c2bf
00000560: a9c0 91a1 1348 b63f 1a58 afbd c82f aabf
00000570: dc70 9786 fa4e b43f 8bf8 9609 de9d a1bf
00000580: eca5 dd90 e6d8 bebf 3f97 e0c2 6095 bcbf
00000590: 886b 3068 ac99 b33f 344a 7e00 9866 933f
000005a0: e7be a04a 1dd1 ccbf 02ac f8e9 a690 c83f
000005b0: 7c1a 74a6 545f adbf f16a df40 da45 cdbf
000005c0: cb44 4b28 2425 d3bf e373 3a1e 25fa d93f
000005d0: 2ab6 0c59 0e18 c23f c7cd 8558 a890 d1bf
000005e0: 3ab0 512d 1651 c0bf 956f 375e 7d5e d63f
000005f0: cdfe 0889 91c7 c83f 3399 d577 2230 cf3f
00000600: c4ae 6794 7c51 d63f d597 21c5 147a b53f
00000610: 0957 4de0 1cce cfbf d41b e9cb acaa da3f
00000620: 1634 51f9 2201 b2bf bd4b c3a6 b71f 673f
00000630: d5b4 d74c b01e e6bf b430 88ff b212 c2bf
00000640: 1a7b ff1a 3098 cbbf 5f70 2b36 f38a da3f
00000650: 7868 ced5 6096 de3f e853 2f9f 5455 d8bf
00000660: be73 f7b8 a801 d1bf 0711 f8df 6565 d5bf
00000670: 08a0 bb34 bbd5 cd3f c2e6 ca84 9ead d63f
00000680: a4fb 9593 f88c aabf 6fbb 76aa 5b6f c5bf
00000690: d3d2 252e dbdf b2bf ea7f 9d0a 590e dd3f
000006a0: 5772 297e e6ed c9bf 7d7e f36a a72a c6bf
000006b0: 8b04 fa7b 5402 913f 8183 af7e d781 bdbf
000006c0: 7ae5 7f2c 8d0a b73f cd80 fc74 2caf d1bf
000006d0: af53 ebae 1a0d c03f 06eb 7e9c 9424 99bf
000006e0: 08b7 1677 c6a7 973f 3228 5942 c90e a83f
000006f0: 1b0d 4c83 003a aabf c513 2de9 54c6 d33f
00000700: 94f4 9307 70b8 b33f 5748 c41a 6762 c83f
00000710: 7946 7a9d c0fb cdbf 2c2f 53a3 ff76 a4bf
00000720: 1b08 2499 41e0 ae3f 0b7e 5317 2f00 b1bf
00000730: c777 2dba 8942 c5bf 74b7 955f 2357 9cbf
00000740: 589b 8a18 e5b7 c43f dbb3 57f3 24ba d0bf
00000750: 32e5 611d 5948 d33f 3bb3 9dc8 dc4b 8e3f
00000760: 9697 c23e 3dc7 b13f 11fe 40a5 c684 c43f
00000770: 65f3 4490 a1ae bbbf ea36 ebbe 5ff8 c1bf
00000780: 239e c775 5d55 b4bf fd2c 610f 5f87 bbbf
00000790: 7d24 4b08 4fdc a9bf 8c1d 5a70 0b9a d53f
000007a0: b595 3d60 b975 dfbf accc a326 e277 cd3f
000007b0: 3b72 2b99 078c b83f 2548 0e03 f5fc c93f
000007c0: e517 45e4 4b06 c13f 833e 6abf e0e3 c4bf
000007d0: b242 4356 55b3 91bf 8c8f a38c d67c c83f
000007e0: bfdd 97bf 1819 dc3f 935b 5ca2 7387 b8bf
000007f0: 5301 b911 672f c3bf f496 b7ae de25 b53f
