notebooks/models/simTwoLayers/experiments/he/biases_he_3.pkl.npz (npz, 2428 bytes, 3 tensors)

arr_0 f8 [100]
0	0xbfbca4cdfb27f4f9	-0.11188971883526112
1	0x3ffe22cba2970ef6	1.8834949828314484
2	0xbfe5cb6d414a1291	-0.6810823702986274
3	0xbfc80f0c107b359f	-0.1879592018580469
4	0xbff0b35a5dc404e7	-1.0437873518679284
5	0xbff35df24b0e1f4a	-1.210436146911848
6	0xbffbe3fa4a1f8aa5	-1.743158616584574
7	0x3ff16acbdb4531ec	1.0885733189817257
8	0xbfd0d9be4048617b	-0.2632899883042438
9	0xbfb45ea97a327a4a	-0.07956942780808976
10	0x4001a18fe308ac14	2.2038877236386814
11	0x3ff2a98364123c3c	1.1663850697548375
12	0xbff3e1aaf5b57ecd	-1.2425946805960166
13	0x3ff9558c275fc251	1.583385614209096
14	0xc0050c35e9e255d1	-2.63096220705004
15	0x3fd6ce8d935c1e7c	0.35635699644669905
16	0x3fe6513c149c083c	0.6974163439301786
17	0x3fb6040c8b2409ae	0.08599928280822297
18	0xbffc8d70ce348251	-1.7845314078223462
19	0xbfdf7a5aa85b5b5a	-0.49184290352916593
20	0xbfe031575964760d	-0.5060230966516329
21	0x3ff915f558746911	1.5678609328520603
22	0xbfdcc0568f00bcc2	-0.4492393871796133
23	0xbfdf580dfd9c25e5	-0.4897494293842029
24	0x40031223ae16f32a	2.383857116771101
25	0x3fc68c7678c24b46	0.17616158386644026
26	0x3fe07946babe40bc	0.5148042342498438
27	0xbfcbeadb114b3327	-0.21810472816869117
28	0x3fe07ec7df9cd317	0.5154761664803996
29	0x3fe50482bb47f089	0.6568006189186387
30	0x3ff3a29dcfb95efe	1.2272012819502716
31	0xbfb7c410be4fe779	-0.09283547064106114
32	0x3fe005d6afd408f0	0.5007127222200136
33	0xbfd4ee083d6c5beb	-0.3270283317410178
34	0xbff38740e96b2410	-1.2205208890829944
35	0x3fffc07abf6c5039	1.9844920613732155
36	0x3ff9b58ff287b232	1.606826732047136
37	0x3fe72dc42600cd3c	0.7243366949318566
38	0xbfd8e7462144eab1	-0.3891158413786498
39	0xbfe8eb1c3b2c96ae	-0.7786999850984182
40	0x3fe926a69e143731	0.7859681212882831
41	0xbff3c33550cd5b98	-1.2351582676253425
42	0xbfd3274541a51a03	-0.2992718831123115
43	0xbfde83c9ca47a003	-0.4767937159908799
44	0x3ffd9f58577159fa	1.8514026084645807
45	0x3fbe5449ffd936da	0.11847364898968796
46	0x3fd015c140e16772	0.25132781349167665
47	0x3ff0c4b2a800fe0a	1.048021942391531
48	0xbfe97fe9b828f093	-0.7968643757699446
49	0xbfc7fdb2c85b718f	-0.18742975981775742
50	0xbfa9f878d46d247d	-0.05072381585211703
51	0xbfe544b37de045bf	-0.6646363695637588
52	0x3fd145d3cf6a4c4e	0.2698869252719235
53	0x3fe2b662f5017d74	0.584763983275407
54	0x3fc6a6815e1f1fab	0.17695633979587674
55	0x3fac69669e835980	0.05549164471601653
56	0x3fc7c21bdd0f62f3	0.18561123174620028
57	0xbfeb4fbd95d7b8f0	-0.8534839560141148
58	0xbff6111d39a6b5cf	-1.3791782619476753
59	0xbfbb762e994320af	-0.10727206460717541
60	0xbfe660a82866ba54	-0.6992989338958275
61	0x3fde56b8d3876597	0.47404308945768875
62	0xbfa3e9c6e92c4a16	-0.038892951930524486
63	0xbff22d63df9a1512	-1.1360815748642534
64	0xbfdd7270daf77758	-0.4601099146219574
65	0x3fe111cb4403aa4b	0.5334221199421533
66	0x3fe1be4f64a699af	0.5544812169871899
67	0xbfdd5466698550a9	-0.4582763700939361
68	0x40015f7d5a767ecb	2.171625811330022
69	0x3ff0a29fccbaef69	1.0397031781457946
70	0x400a5f142dd66eb3	3.296425207239588
71	0xbfd7231520dc3eee	-0.36151626786248314
72	0x4002dc00846693c4	2.3574228614620285
73	0x3feb9a6a126b44ca	0.8625994071718648
74	0xbfc0857131ef8a62	-0.12907233179346905
75	0xbfccdcbbe3f91915	-0.2254862654828648
76	0x3ffeb6f827fff5e1	1.9196702539915054
77	0x3fdfef1b30933fdb	0.49896888488455965
78	0x3fe13469440d0e35	0.5376478509064727
79	0x3fd5b7504899a8c5	0.3393135746943126
80	0xbfb26b992d3f7bef	-0.07195432047545557
81	0x3ffa52f490b217d2	1.645252766816601
82	0xbff50173288919d8	-1.31285396417808
83	0x3fd0eaf47d1bc078	0.2643405172120832
84	0x3fcd339740a3cc97	0.22813692718736853
85	0x3fe7553e66e81568	0.7291557321447444
86	0x3fd1d035a7ef3fbd	0.27833310508594505
87	0xbfe8dc2e476abc92	-0.7768775362836939
88	0xc001b63a8ae56eae	-2.2139788485781855
89	0xbff0a10072840a3a	-1.0393070672295281
90	0x3ff7b3f5eaff1c0a	1.4814356975127816
91	0x3fedacf1664cbb02	0.92736120205322
92	0x3ff5fdfb5d49cab9	1.374507297904229
93	0x3fb2d9b937ffd59f	0.07363469712421143
94	0x3f93f106332ab68d	0.019474121926285327
95	0xbff1f442e728f0bb	-1.1221341161427023
96	0xbff908c3853adebf	-1.5646395878119816
97	0x3fe26cafbf443498	0.575767396514169
98	0x3fee2d80784358e6	0.9430544232261837
99	0xbfe4a3c42cf193d4	-0.6449910047346017

arr_1 f8 [100]
0	0xbfb32163d8ba57b4	-0.07472824135979189
1	0x3fe3bfc563ba07d9	0.617159552363087
2	0xbfdde8d733dec273	-0.4673364645523527
3	0x3fcafb11269e2514	0.21078695665009006
4	0x3fe578831f916271	0.670960961967536
5	0xbff4c72b9cce0a80	-1.2986255765141834
6	0x3fe6386b81f30a90	0.6943872011255099
7	0xbfd107e472070071	-0.2661067117260308
8	0x3fe9f5fb18b3d72f	0.8112769587012049
9	0x3ff910e569bc40dc	1.5666250353133853
10	0xbff44bba5a3607b5	-1.26848826636022
11	0x3ff02fc1b1d3d586	1.0116593309770407
12	0xbfe59cd59d9101f5	-0.6753948285550552
13	0xbfedb66f4530f759	-0.9285198546783519
14	0xbfc11ed7d0b1bac7	-0.13375375452183944
15	0x3ff7787146d7a54e	1.466904904106133
16	0x3fd68ed1034dbf3d	0.352466824747342
17	0xbfcabef5ebcb841b	-0.20895265592028597
18	0xbfffd59ffc860ce0	-1.9896545280651523
19	0x3ff2049820a42fe6	1.12612164259462
20	0xbfebb8e6d3afbd6b	-0.8663210043431894
21	0xbfe1dc3264ed2ac1	-0.5581294985980422
22	0xbfddcb7c8016bc6b	-0.46554481991456126
23	0xbff689b1f49cf1f5	-1.4086169772336892
24	0xbff9edeaf24fbcd8	-1.6205853905956271
25	0x3fe282f483db74fb	0.5784857344948756
26	0x3fe0b0afce277ec6	0.5215682054949518
27	0x3ff900ef21328a6a	1.5627280518316646
28	0xbff876393644ccfc	-1.5288631553528935
29	0xbfc7c5693ac3ebef	-0.18571200723076184
30	0xbfe2900c92e7154d	-0.5800841206734418
31	0x3ff4fec5d5845afc	1.3122003880031903
32	0xbfdc1c23f5fb39f4	-0.4392175581132556
33	0x3fee44678e2a2c09	0.9458501602797479
34	0xbffd595d3efc1d92	-1.8343174419731878
35	0xbfe6c9f11c9a3c4a	-0.7121511038439021
36	0x3feb1cb11f232682	0.8472524269247546
37	0xbfe0a53a928b1ed6	-0.5201695310761021
38	0xbff7e5a73daab254	-1.4935676964625104
39	0xbfb1de2c19e19c63	-0.06979632980220311
40	0x3fe59e78d3aa06f3	0.6755947240892212
41	0xbfe49f9b17e9f1ba	-0.6444831339900283
42	0x3fb3881bbde3da0b	0.07629559885013053
43	0xbf7a2b6e0d8723a7	-0.0063890742243949755
44	0xbff56a9bad032e69	-1.3385273702905585
45	0x3fd7274499c76a2e	0.3617717267749495
46	0xbfc9c96df96c5e82	-0.20145964316246895
47	0xbfed8fd03d8a581a	-0.9238053514443465
48	0xbff3f024c62d2126	-1.2461288205395902
49	0xbf9114b4bcad9fab	-0.016680549636845104
50	0x3fd54125037783e6	0.33210110987243835
51	0x3fb71bce72e885f7	0.09026804261568332
52	0xbfa0b417da48d6e3	-0.0326240018807036
53	0x3ff3b4ce5c963207	1.2316421143215182
54	0x3ff34b6e70fefacb	1.2059158719927605
55	0xbfbb746a1443f717	-0.10724509234202305
56	0xbfd7d3b048524b39	-0.3722954469932805
57	0x3fc48a263ca60518	0.1604659839759186
58	0xbff66e2d45e13c7e	-1.4018986444168884
59	0xbfb4141f65c0933d	-0.07843204721627912
60	0x3f9ba7314cbc5a76	0.0270049765668667
61	0xbfe923093261c060	-0.7855268463154168
62	0x3fd374f2a6ed46fc	0.3040129308838997
63	0x3fe1964b6610d62d	0.549596499774173
64	0xbfd53236462a43fd	-0.331189697762113
65	0x3f92a639945a0159	0.018212222747480442
66	0x3feca7005c0374a6	0.895385913575997
67	0xc000f295abf17908	-2.118449538523354
68	0x3fc11a922b30ad78	0.13362338169950383
69	0x3fe39e2c2c049e70	0.6130581721999544
70	0xbff58a0d1739dd7e	-1.3462038905398397
71	0xbff7816f510e0c94	-1.469100300427077
72	0xbff413bca2634493	-1.2548185675880503
73	0xbfeaa661216195ae	-0.8328099872566577
74	0xbfb375a293198c8f	-0.07601371852210746
75	0xbff2e2c94036fdc2	-1.1803677090064046
76	0x3fd2ebca2485097e	0.2956414562833273
77	0xbfe8b413cedbbfc1	-0.7719821014597913
78	0x3ff13419868050a3	1.075219655414039
79	0xbff3a5c10a421075	-1.2279673004823313
80	0x3fe2fc7bf5b7f084	0.5933208274068567
81	0x3fe767083fdb8821	0.7313271758287138
82	0x3fe9294e9077254c	0.7862923451986403
83	0xbff52a5fc6ad1f86	-1.322845245436811
84	0x3fc2a915a4688fde	0.14578505065685382
85	0xbff40fbf4e75265a	-1.253844553446831
86	0x3ff4a1959a57ad89	1.2894493130687315
87	0xbfd082cbbf436921	-0.2579831474119079
88	0x3fec10c7ddf2d5ae	0.8770484290059153
89	0xbff184c47b48adde	-1.0949139419343434
90	0x3fd8ef6960af00c8	0.3896125263381802
91	0xbfc1f7b2c0d19afa	-0.14037165083865216
92	0x3ff99fc339592bf9	1.6015045395058662
93	0xbfeff9aa6f08db20	-0.9992267769474417
94	0x3fd8077df9149b08	0.3754572803904215
95	0xbfdfaa88b197ad72	-0.4947835668851531
96	0xbfe5b54dd2716cb1	-0.6783818350044354
97	0x3ffc204933889eed	1.7578823102029972
98	0x3fd534ddcdac629f	0.3313517101792431
99	0xbfd82f018373e816	-0.3778690131872521

arr_2 f8 [10]
0	0xbff0f6705276dd58	-1.06016571247695
1	0xc003623f1d2d7f6c	-2.422971942854863
2	0x3fb968aa918abe93	0.09925333073874247
3	0xbff608939e311403	-1.3770939044345603
4	0xbfb11a278fee69c0	-0.06680533660838872
5	0xbff89ed41b760271	-1.538776500005181
6	0xbff8c034aa7f8582	-1.5469252262194861
7	0x3fe178f23f684185	0.5460139501974913
8	0x3fb667b9124f96bb	0.08752018639605812
9	0xbfe119a0e31df92a	-0.5343784747963458
