notebooks/models/simTwoLayers/experiments/he/biases_he_2.pkl.npz (npz, 2428 bytes, 3 tensors)

arr_0 f8 [100]
0	0x3fe56988f6da789f	0.6691326924663094
1	0xbfee46289fc2d417	-0.9460642929394706
2	0x3fc6d2de5b8bc03c	0.17831019849791285
3	0xbfed3f25504772d7	-0.9139582221938224
4	0x3ff219a0f4524dc6	1.1312570136841358
5	0xbfcf549aa6ebebf9	-0.2447694125220037
6	0x3fef8ce2251060b3	0.9859476779847881
7	0x3ffbe927b121b4a0	1.7444226187902032
8	0x3ffe17664d7b412d	1.8807127977962168
9	0xbfdf8e718d52cc8e	-0.49306906510464266
10	0x3feec57942db6959	0.9616056733896513
11	0x3fea2286ee9069e2	0.816714731164492
12	0xbfe5a4b98d49156e	-0.6763580092889876
13	0xbffe88856103553d	-1.908330325085742
14	0xbff3f226982bf350	-1.2466188377577119
15	0xbfb580e09a75bf1a	-0.08399776240343862
16	0x3fd72fdc217f4ad2	0.3622961356278839
17	0xbff2db0cf10c48a0	-1.17847913894051
18	0xbff0cb0383f9fdc3	-1.04956389954883
19	0x3fd593b7fae0e764	0.33714103221756475
20	0x3fe276ff2e75ddbd	0.5770259768896079
21	0x3ff95ee83e356ba0	1.585670702936774
22	0x3fd38b2f0bea1008	0.30537010348803095
23	0x3fdea7cd708ca815	0.4789918517222998
24	0xbff05cfc56444281	-1.0227015847960106
25	0x3fed56b3754e2ec5	0.9168336192246548
26	0x3fd23ecff43699d5	0.28508375977471917
27	0xbff10aa8376c953e	-1.065101830006213
28	0x3ff5b057f64ad5bb	1.3555526371759317
29	0xbff44c995f858f05	-1.268700955516523
30	0xbff3870d3e2f8225	-1.2204716138004497
31	0x3ff6f4c874491952	1.434761480560685
32	0xbfb7d820dd280ed6	-0.09314160727813756
33	0xbff18fdda9f5de0b	-1.0976235045508271
34	0x3fdf6e64311450ce	0.4911127547541242
35	0x3fefc17dfbb3180e	0.9923696437842879
36	0xbff7cdd6301072cd	-1.4877530934820016
37	0xbff9b9a8d53350a5	-1.6078270271437216
38	0xbfe36857a279a5db	-0.6064870999663826
39	0x3fe64aaaaa5f50c7	0.6966145827850817
40	0x3fe4a087221eef68	0.6445956865713756
41	0xbfe4a96ec3e0efa6	-0.6456826997523322
42	0xbfe7e0b6cab454bd	-0.7461809119291939
43	0x3fe94950efa79573	0.7901997261766794
44	0xbfc75648ae66ecb5	-0.18232067599988047
45	0xbff05b469b89c102	-1.0222841335017283
46	0xbfe372bd4f7170b2	-0.6077562858222534
47	0x3ff08c30fb06e259	1.0342263990152303
48	0xbfda524a3b2fa3e5	-0.4112725809086995
49	0x3fea044d412cbcb5	0.8130251191086219
50	0xbfc76ce32c5c6bb8	-0.18301047960343708
51	0x3ff4b51ee98b706f	1.294218933376239
52	0xbfc427da0442fcd4	-0.15746617515649197
53	0x3fe5be3d42352d8c	0.6794725697631505
54	0xbff5b1e3fc2fc8f3	-1.355930314163342
55	0xbfc6e9adf669edd1	-0.17900633365557764
56	0xbff09885598e2f2c	-1.037236547303972
57	0x3f90c2094e43663b	0.01636518993550438
58	0xbff69e7631e9ade7	-1.413686938259042
59	0x3ffafc2cf3733860	1.6865663060921392
60	0xbfa2991059cbff57	-0.03632403465417038
61	0x3fea32d55baab0d6	0.8187052526823446
62	0xbfa069dacd60a934	-0.03205760724115905
63	0x3fc700d5be778db8	0.17971298027178562
64	0x3ff3e02406729021	1.2422218562942435
65	0xbfd573eca427bf8e	-0.33520046263492353
66	0x3ff69ba7dd2b81e2	1.4130018844081111
67	0xbfe8aaeb9f20fef0	-0.7708643062578329
68	0xbff89a66f2b535dc	-1.5376958351874839
69	0x3fc37026afeaa166	0.15186008062051853
70	0x3ff4c1d98004030e	1.2973265648471997
71	0x3fc7ab581b852895	0.18491650909192417
72	0x3ff789e06d0d25e1	1.4711612949198456
73	0x3fd732f9b6aa9948	0.3624862941600395
74	0x3fe7e6cbe7ef18f7	0.7469234018288081
75	0xbfdc245b0e8a0341	-0.4397189752563016
76	0xbfe6491d70879ae9	-0.6964251706930017
77	0x4003997c46f7e2c0	2.449944071235535
78	0x3fd1f669e2511b6c	0.2806648931622735
79	0x3fea6bf0758ff66a	0.8256761833324167
80	0xbff0e1831125d206	-1.0550566358407436
81	0xbfe454f94b30727e	-0.6353727787532788
82	0xbfdbfabfc9817dde	-0.43717951467803384
83	0xbfb287ecf5d286d2	-0.07238656045458505
84	0xbfd7d5f3581bcf72	-0.37243350605353165
85	0x3fd0bd12574e3ead	0.26154001737539084
86	0xbff18d92489861ba	-1.097063335013543
87	0xbff881c3420d5e78	-1.5316803531804037
88	0xbfe05753686e74e8	-0.5106598891904044
89	0xbfe1d0b33dc08032	-0.5567260938732999
90	0xbfea9e0e46984ff0	-0.8317939165885928
91	0xbff1781e072cbf00	-1.0918255119576656
92	0x4004b47c64a9ea6f	2.588127886233728
93	0xbfd33faf1ad70f6b	-0.30076196309186426
94	0xbfc65ca8ea124bd1	-0.17470275334616628
95	0x3ffcd8cf265547dd	1.8029319283855252
96	0xbfccc108b3aede8f	-0.22464092992389736
97	0xbffb79bb59637443	-1.7172196857202529
98	0x3fd9c2dee622e2d1	0.40251896356816724
99	0x3fd85826166f90b5	0.38038017455097456

arr_1 f8 [100]
0	0xbffb268f23cc6371	-1.6969138525366498
1	0xbfe728952757395e	-0.7237039345143719
2	0xbfcea3348e77354c	-0.23935563045817287
3	0x3fff6c1aa20e673f	1.9638925867388506
4	0x3f846a5b85bd2eab	0.009968485850229433
5	0xbff513145392d114	-1.3171580566968872
6	0x3fc9deb927c1dff8	0.20210947457576345
7	0xbff70951c77e06e8	-1.4397752564113322
8	0xbfdf7fb084b08d3a	-0.49216855009054294
9	0x3fece29edd13ab25	0.9026636426836815
10	0xbfce10779fdad077	-0.23487754159362215
11	0x3fc65ca72748a60b	0.17470254343179223
12	0x3fe9ccb4337fcb71	0.8062382703632079
13	0xbff968775617a270	-1.5880044329625456
14	0x3fe88f500409e78c	0.7674942091828014
15	0xbff54dda58ceec9a	-1.3315070599626666
16	0x3ffbc6d8783412fc	1.7360462851949583
17	0xbffd16653f53c95e	-1.8179676507685012
18	0x3feb1273b6d8632a	0.8460024424740358
19	0xbff3d702b95b5c27	-1.2399928322318006
20	0xbff0731c5a63f0c7	-1.0281032114863125
21	0x3ff3212d5bafa4db	1.1955998975266116
22	0xbfd5001c11983443	-0.3281316921064141
23	0xbfc1a63e911bc362	-0.1378858765160898
24	0x3fd9b637259fe75d	0.40174654650001235
25	0xbf9e9e61e0f14454	-0.02990105567397834
26	0x3fe0e9ab1dc64b2a	0.528523977426038
27	0xbfdb50b09607f0cc	-0.42679991389719585
28	0xbfe28ec8b933d538	-0.5799296967731271
29	0x3ff49aed01ae9714	1.2878236833288996
30	0x3fc9b091976a1cc2	0.20070094960485646
31	0x3fda48b2431eda65	0.4106870322679355
32	0x3fed335b39259082	0.9125190845629876
33	0xbfe3f46a3d7ba3c3	-0.6235858155097208
34	0xbfd2a7c9a9974c32	-0.2914909511720821
35	0xbfde28ef48499ef0	-0.47124845561346174
36	0xbfd5fa0e89a7db6d	-0.34338725512446083
37	0xbfe912e99b481848	-0.7835586579174185
38	0xbfe806765d9a313b	-0.7507888630075635
39	0xbfdc7b566591b11a	-0.44502792281015646
40	0xc00045874ed5afd7	-2.033949485679823
41	0xbfee8648faaa05ce	-0.9538922210487557
42	0x3ff2dad22f3e36ea	1.1784231038504296
43	0x3fd81cc11ff004a8	0.3767550289049475
44	0x3fc87063d4187fb9	0.1909298692344217
45	0xbfe9d9e0f0255b26	-0.8078465166425743
46	0x3ff576419b5ad698	1.3413711613224333
47	0x3fbb96bbeb2f84b5	0.10776876918636698
48	0x3fd7fbb75005315c	0.3747385293434229
49	0xbfd66978add487b3	-0.3501874635277275
50	0x3ffcf3a792335cc3	1.809485980125644
51	0x3fd5b36198cccee9	0.33907356187704224
52	0xbff275cfacb42e7c	-1.1537625070804145
53	0xbfe4a488565f78be	-0.6450845419856461
54	0x3fea76168c4caaa8	0.8269150486206245
55	0xbfaa121a9d7c463c	-0.05091937229566354
56	0x3fdc165aeb1e6321	0.43886445008097225
57	0x3fbfc2210770a478	0.12405592376366481
58	0x3fd34286e30823fe	0.30093547984193936
59	0xbfdd4a576012e345	-0.4576624334545623
60	0x3fbda5ce9bffb549	0.1158112650734512
61	0x3fec8eb4d6657b09	0.8924202144079071
62	0xbff4cd4b48b4efa0	-1.3001206245525978
63	0x3fccc9bd1871b942	0.22490657514158313
64	0xbff82278d01dc6c9	-1.508415997461656
65	0xbfdfe16dcb724314	-0.49813408725553754
66	0x3fe69436492c2afd	0.7055922917510028
67	0x3ffb07e3cda2a47b	1.6894262344960953
68	0xbfea640f86f3ece8	-0.824714435176614
69	0x3ff4df81712583ba	1.3045668048655288
70	0xbff4545008dcff9d	-1.2705841394635862
71	0x3ff0420efae4e13c	1.016127567343644
72	0xbfd81997b9aea1d4	-0.37656205304167867
73	0xbfc6f91bedccd447	-0.17947720633825012
74	0xbfef6b3ef68418a1	-0.9818415465131417
75	0xbfd301024daa5577	-0.2969365843249174
76	0x400247a7295987ab	2.2849868040511487
77	0x3ff8bf7ba7a7a31f	1.54674878587884
78	0x3fb29b24b5db23da	0.07267980041355263
79	0xbfe2e16cc010bb97	-0.5900176764752015
80	0xbfd59932df09fff4	-0.33747550755651834
81	0x3fe27a0e484ec921	0.5773993885289067
82	0x3ff0b44e8e40cfc4	1.0440202290310348
83	0x3ff495177c121f23	1.2863993498339787
84	0x3feb5e5c48370bbc	0.8552686129045166
85	0xbffb2a1f6b3694be	-1.697783869554129
86	0xbff9a87b41af5e3f	-1.6036331716367298
87	0x4002ae1f2db200a8	2.3350204057643005
88	0x3fde05849b79e96f	0.4690867918322032
89	0x3fc34492e1548a08	0.15053020479633994
90	0x400428df6e4878d4	2.519957410418195
91	0xbfe41d915205f301	-0.6286093332306281
92	0xbfe020d9c0499e6c	-0.5040100818268463
93	0x3fde2e8158bc72d2	0.4715884558261624
94	0x4002e45afc7b0dae	2.36150166750459
95	0xbfe17312dc21316f	-0.5452970790297921
96	0xbfca75a509837a62	-0.20671523060350966
97	0xbfee8fa24abeecc6	-0.9550334415320314
98	0xbfe4099941e54425	-0.6261717116377709
99	0xbff3aaac6abdd121	-1.229168335875393

arr_2 f8 [10]
0	0x3ff25f059d51ba8f	1.1481987138064687
1	0xbfea6cc211b57c04	-0.825776133144132
2	0x3fd1f1dd3a9ad54b	0.2803872177422206
3	0x3ff1fb009dff7dcd	1.1237798854634662
4	0x3feb383a9186f197	0.8506138651205671
5	0x3fde6f05ee745aa4	0.4755263165147119
6	0xbfe7a48ff8e75193	-0.7388381825826847
7	0xbfd430e437f49385	-0.31548409904853997
8	0x3fe137c0495c22c4	0.5380555565653471
9	0x3fcd3ca3f637fed4	0.22841310045622853
