notebooks/models/simTwoLayers/experiments/he/biases_he_1.pkl.npz (npz, 2428 bytes, 3 tensors)

arr_0 f8 [100]
000000 be a9 c8 32 58 ca cd 3f 01 36 22 a3 19 a4 ea 3f
       0.2327375648467988 0.8325317560390318
000010 5c 87 86 6a 65 bc de bf dd 73 fc 89 23 a2 d5 bf
       -0.4802487888610949 -0.33802116847237845
000020 8a d9 31 6d f6 38 ed 3f bc 1b 13 21 3c 48 ea bf
       0.913203442831944 -0.8213177343358136
000030 1c 15 2f f6 36 68 c0 3f 0d e6 77 a3 94 bd e2 bf
       0.1281803800649549 -0.5856421654454508
000040 7a eb 9a 0f 1f 71 f7 3f 20 9b e3 c1 28 87 e1 bf
       1.4651175126625433 -0.5477489268203932
000050 c5 b4 b2 b7 41 ed da 3f 8d 2d 6a c1 99 26 ef 3f
       0.4207310003210519 0.973461988223265
000060 52 25 e8 be 48 12 cf bf 26 14 e8 93 83 90 e5 3f
       -0.24274548837301296 0.6738908661651564
000070 dd 71 77 12 84 68 e2 3f 15 b3 bc c2 9b 82 82 bf
       0.5752582894015706 -0.00903817832985391
000080 81 7f 6f bf 36 12 d9 3f fe d0 a5 a8 39 2d db 3f
       0.3917366857040108 0.4246353289556878
000090 04 30 f8 f5 49 8c e3 bf 60 a6 12 3a 74 b4 e1 3f
       -0.6108751110164126 0.5532780775294661
0000a0 0e 93 10 db 94 8f ef bf 68 3e c8 0b 85 75 e0 bf
       -0.9862770346267966 -0.5143456678506029
0000b0 6a 48 a7 ef 01 61 cc 3f 15 52 64 ca 42 7b b8 3f
       0.22171043588474798 0.09563081208427378
0000c0 62 77 f6 f5 77 ad f4 bf 70 d2 20 d3 07 67 cd 3f
       -1.2923507316513327 0.2297067433261364
0000d0 5b 01 8c 52 90 48 d6 3f 2c 4a fe 1e 68 ec ee 3f
       0.34817894040317804 0.9663582425440089
0000e0 6f 50 29 e7 0c a4 e0 3f 55 08 a6 5b 96 fa e6 bf
       0.5200256838675282 -0.7180892744074848
0000f0 c9 4d 38 fe 83 bc db 3f 52 8f e7 7d 3f 2b e5 3f
       0.43338107896962846 0.6615292986939301
000100 95 1d d8 5f ff 2e e5 3f f1 7b b3 a4 00 a9 fc bf
       0.6619870063740786 -1.791260379184447
000110 dc bf aa ec 59 53 f3 bf 85 96 89 18 6e de e5 3f
       -1.2078494305424021 0.6834021071669701
000120 fd dd 87 63 84 95 d6 bf e5 bb 0a 5d d6 5f f3 bf
       -0.3528758022289081 -1.2108977922869084
000130 77 ed 19 c3 de 22 d7 bf 70 18 e4 e1 fc ae ed bf
       -0.36150330593928665 -0.9276108180936387
000140 9c a1 f8 58 34 4a e9 3f a0 4b 4f e5 52 32 f1 3f
       0.7903081643790304 1.0747860867893237
000150 a9 d3 f6 65 34 65 e7 3f 2c 5e 0a 03 0b 6f eb 3f
       0.731104087017788 0.8573050555596118
000160 67 4e 57 3f 3f 7d e1 3f 7c 9e 7a c5 64 03 bf 3f
       0.5465389477853478 0.12114553281082324
000170 43 5e ab 9e e1 54 e2 3f 62 71 02 94 05 c7 e2 bf
       0.5728614901553971 -0.5867946520625476
000180 ef e5 04 51 6c cc e0 3f 05 d4 ba 63 fd 0e d6 bf
       0.524953993072982 -0.3446649049686246
000190 7e b2 d2 9d 38 36 eb 3f 28 2d f4 ec b4 59 b1 3f
       0.850368793724172 0.06777506623273111
0001a0 43 02 2f 22 fd 8c bf bf 63 89 95 32 87 18 e7 bf
       -0.12324506840287434 -0.7217441547366373
0001b0 26 54 99 31 fe c4 e2 bf a3 04 7c dd 4d c2 eb 3f
       -0.5865469902734091 0.8674687696331101
0001c0 31 e1 02 45 d2 18 dd 3f 52 e9 c4 90 53 f8 f1 3f
       0.4546399759233451 1.1231265692755028
0001d0 9e 61 77 26 c2 d6 e1 3f 72 33 8a 59 b9 20 fd 3f
       0.5574656249328205 1.8204892633104603
0001e0 d2 88 cf 2b ca 94 ec 3f bd 30 57 c9 54 7a 05 c0
       0.8931628089597103 -2.6847320298894304
0001f0 d5 b0 db 10 96 13 f7 bf c2 09 00 8d 66 f7 eb bf
       -1.4422817858240269 -0.8739502672108801
000200 0d 9e 83 a3 37 c6 f0 3f 03 67 6d ec cb 18 dc 3f
       1.048392904975006 0.4390134629116888
000210 6c ec 31 43 b9 19 a5 3f 3b 24 d2 99 c3 34 cd 3f
       0.041211881115452126 0.22817273150238457
000220 3b cb b5 17 d2 7d db 3f be a5 a3 07 1f 3e db 3f
       0.4295544845146428 0.42566657777805605
000230 68 10 02 23 ee bd c4 3f a5 0c 24 65 6d 9f f2 bf
       0.1620462103784377 -1.1639226866543961
000240 fc 5a 29 ae 66 ee ec 3f 7b c3 1d 98 f9 6b ee bf
       0.9041016961662929 -0.9506805392285139
000250 5b 34 04 b4 91 2d ee bf 32 cf 06 79 ae 26 f4 bf
       -0.9430626407571582 -1.25944373394027
000260 4b 50 11 fc 14 58 e0 bf 68 1e 21 f3 5d 59 e3 bf
       -0.510752193755715 -0.604659056531955
000270 e7 0d 29 e2 45 98 e3 3f 3b 93 fc 8a fc b0 ec bf
       0.6123380105204291 -0.8966047968466236
000280 79 ad b1 45 a0 95 ed bf 15 95 25 b4 c0 70 fb 3f
       -0.9245149003231027 1.715027526567899
000290 06 f9 cd bf 85 78 f8 3f cd 93 94 c9 d7 16 f9 3f
       1.529424428211827 1.5680768846734623
0002a0 7f 13 1d 2a 49 e1 d5 bf 91 11 46 75 c7 bc eb bf
       -0.341875353933851 -0.8667943277837812
0002b0 d1 36 52 8c dd eb df bf a3 fa e1 fb e3 d6 cf 3f
       -0.49877108290898514 0.24874543951951464
0002c0 d8 b5 e5 a0 b3 05 df 3f 3e 92 b6 f8 d1 ca de bf
       0.4847230025542024 -0.4811291626777211
0002d0 12 ee 31 c0 44 d0 e9 bf 6c 80 b7 7a d8 ca eb bf
       -0.8066734079179148 -0.8685114285290303
0002e0 88 a5 70 d3 04 87 ee bf 2b 02 26 f6 75 33 b7 3f
       -0.9539817933738712 0.09062897929653306
0002f0 ae c4 44 cd 9a 6b 94 3f 2f 54 39 94 2e eb e3 3f
       0.01994172933445231 0.6224587340353817
000300 ec e8 62 5f 5c 47 03 40 d0 53 0f f7 83 16 f1 bf
       2.409844155508031 -1.0679969454551959
000310 93 25 b5 6d 3d 42 e3 3f 54 6b d9 85 e3 66 f0 3f
       0.6018359320379879 1.0251193264473004

arr_1 f8 [100]
000000 48 97 72 61 9c ba e9 bf 1e 44 16 29 e7 2c ce 3f
       -0.804029646232018 0.23574532991600078
000010 a6 cc 49 27 a9 76 c8 3f 69 79 fc 24 e1 02 dc bf
       0.19112123888371463 -0.43767574893890654
000020 1f 9a 1b de d5 81 a8 3f 9b 61 aa 3b 8a b1 cd bf
       0.04786556564595323 -0.2319805899940207
000030 d5 04 07 9a ff 1b f1 bf c1 e9 cc 7a 59 46 f4 3f
       -1.0693355576225276 1.2671751782314546
000040 a1 54 d8 33 ce bb eb bf d5 48 a2 d3 c0 55 e4 bf
       -0.8666754734610046 -0.6354679234957766
000050 ed ca 06 06 07 8d e7 3f ad 46 73 5d 65 33 e7 3f
       0.7359652631479016 0.7250239205552212
000060 85 c2 c2 84 51 93 ec bf 6c 45 ba da 30 d0 f8 bf
       -0.8929832070335385 -1.550827841191075
000070 8d 4f 3f 3e e9 a2 e1 bf 6d 6d 8b a3 97 a2 d2 bf
       -0.5511366096275069 -0.2911738488307581
000080 29 59 f9 4e ca 28 c1 3f 31 96 0f 6f 91 72 f8 bf
       0.13405732017663155 -1.5279707277599182
000090 65 98 fd fe 83 a6 cc 3f b3 8c 73 43 f8 1e d7 bf
       0.22383165312493528 -0.3612652453140967
0000a0 81 12 a5 f4 94 a2 c2 3f ab 7b 0f b0 45 c8 f1 3f
       0.14558660455272235 1.111394584404233
0000b0 8d 97 4c a4 27 1b de 3f 30 cf 4e da 9c 7a e0 3f
       0.47040740055887725 0.5149673713517355
0000c0 c4 da 4b 37 27 07 ef 3f 2b 2d e0 af 8a 17 e3 bf
       0.9696231918340676 -0.5966237483093314
0000d0 19 e2 bd 45 e0 11 01 40 2d 58 77 27 68 3a e4 3f
       2.1337285469601395 0.632129742700959
0000e0 00 c8 c7 8c ce 23 f7 bf 3e 53 c7 2d 7c 3c de bf
       -1.4462419032320213 -0.4724417159134652
0000f0 28 47 cb 36 f8 48 c4 bf e3 a7 14 f0 a8 5e c8 3f
       -0.15847685504427855 0.19038879130067618
000100 ac 51 19 bc e6 72 bb 3f 46 48 95 0a 7e cf 00 40
       0.10722200481661187 2.1013146235282276
000110 63 44 c6 99 42 9b ea 3f ac ce a1 4d 2d 9d e8 3f
       0.8314526561172325 0.7691866413355988
000120 41 1d 0b 80 8a 5f d2 3f 45 f5 51 8f fb 03 eb bf
       0.28708136085738906 -0.8442361640187889
000130 ee 06 94 a5 f5 be f6 bf 4f 26 8d 68 43 2c f4 bf
       -1.4216209857844961 -1.260806473163388
000140 af 50 04 20 59 b9 ef 3f 8e 64 95 f5 39 a5 00 c0
       0.9913755059556218 -2.080676954862219
000150 b9 5e 4b cd c9 21 e5 3f 3f 53 d6 90 1c 50 da 3f
       0.6603745469719434 0.41113962311037605
000160 8c e8 60 84 5d 32 04 40 53 85 a3 c4 0e 2b b9 bf
       2.5245924322198956 -0.09831325817824181
000170 54 b8 0e c6 87 49 f8 bf c4 c0 2c 52 d1 96 ef 3f
       -1.5179517494793986 0.9871603589035876
000180 04 50 8e a6 a0 3b e5 bf 30 3d 6b 16 45 08 d8 3f
       -0.6635287526173674 0.3755047530111879
000190 e4 6f 88 3e 45 79 f4 bf 53 78 fa 2f 27 48 e0 3f
       -1.2796070521062513 0.5088077485159012
0001a0 18 e6 3f 1f 2a 3d c7 bf 03 af 32 74 97 52 f7 3f
       -0.1815540936075173 1.457663968942996
0001b0 42 4c 4e 36 bd a5 dd bf 44 aa bf 3e e1 32 f6 bf
       -0.46324091246896526 -1.3874218417282842
0001c0 6f f5 e7 da 85 9c f8 bf 94 d7 69 32 0d f0 e6 3f
       -1.5382135916728108 0.7168031677854168
0001d0 dd bf ce 06 92 63 ed bf fa 93 24 6e 81 f3 c2 bf
       -0.9184045918427689 -0.1480562007720037
0001e0 ba d8 08 68 59 6e d6 3f de 81 1f 3e fe 8a c8 bf
       0.3504851833307715 -0.19174173386910714
0001f0 8c d4 be c5 aa 5b e1 bf 08 17 33 b2 18 e9 f0 3f
       -0.5424398290839618 1.0569083176537237
000200 61 df d6 ee 58 2f f2 3f e2 9c 7d f3 73 43 e4 3f
       1.1365594224607423 0.6332340007474182
000210 19 13 0b 85 73 c8 c2 3f a1 eb cf 38 d7 c5 c6 3f
       0.14674228664639413 0.17791261934311556
000220 6a 25 1d 4c 31 15 e0 bf 5f ad d8 9c 2b fb ff bf
       -0.5025869833563494 -1.9988208891689607
000230 8c 3c c5 e4 15 d1 f1 3f 63 31 6a 4c 66 8d f1 3f
       1.1135462700220016 1.0970213875726464
000240 61 7b 2d 9a a3 43 d5 bf 1c 2e 7c 20 ce 34 c1 3f
       -0.3322533612862824 0.13442398630319097
000250 a4 7f 7f 24 32 68 bd bf c3 96 b7 9a d2 23 d2 3f
       -0.11487115279260124 0.2834364424619304
000260 5e 14 f7 cd 55 7e ed bf 75 68 6e ad 9f bf ea bf
       -0.9216717741734433 -0.8358915698365893
000270 c4 db 83 25 c8 a0 d3 bf c3 f0 ce bc a1 a6 ae bf
       -0.30668834365445385 -0.059865049646278055
000280 a8 f3 d9 76 87 de e6 bf b0 d1 0b 39 47 bf ef 3f
       -0.714664203769293 0.9920993913825011
000290 3d ad 4d 79 35 ed c4 3f 5e 8b b9 e9 a7 0f da 3f
       0.16348904059428007 0.40720556091962645
0002a0 50 b8 b9 c6 e4 13 f4 3f 40 ce 18 9c 82 34 c9 bf
       1.254856849929201 -0.19691498395842366
0002b0 2c bc e0 c6 52 32 e8 3f 7a 96 f0 a3 47 d1 aa 3f
       0.7561429867108749 0.0523779285070249
0002c0 38 12 4b 9c 25 e9 f6 3f 2c 09 57 70 cf c3 fa 3f
       1.4319206338124228 1.6728052509575475
0002d0 dc 13 e7 2d fd dc c3 bf d2 85 60 87 2b de f1 3f
       -0.15518154851284194 1.1167407310643864
0002e0 97 39 de 1d ce 76 e0 3f af e8 1d ef 9d 19 e2 bf
       0.5145025809631986 -0.5656270666361446
0002f0 e3 a2 f5 4e 56 95 eb 3f f3 58 fc 92 c4 03 e2 3f
       0.8619796316316662 0.562959944802769
000300 e6 69 94 0e 0d 53 f6 3f d0 16 dc 3b 51 35 dd bf
       1.3952761239548805 -0.45637923093486865
000310 f3 5b fd 86 6b c2 d0 3f 60 33 48 98 bb 01 e8 bf
       0.2618664568194042 -0.7502115225084758

arr_2 f8 [10]
000000 4a 9e 37 70 27 13 e5 3f 24 d5 35 15 bb 95 ef bf
       0.6585881416076032 -0.9870276846183157
000010 e0 49 30 8e 2a a8 e5 bf b7 52 ae 06 f1 03 d3 bf
       -0.6767781045076013 -0.2971155705684327
000020 c3 6e 9f 56 06 ff e9 3f 0c 4a 42 e9 ae ca f6 3f
       0.8123809520579574 1.4244832145383297
000030 79 d1 9a f5 28 08 e5 3f 8c 49 c2 7d d0 62 d8 3f
       0.6572460934608407 0.381031153499088
000040 c5 43 f5 2b 5d bb f3 3f e5 fe e9 31 89 e6 b0 bf
       1.23324315234298 -0.0660176989422286
