notebooks/models/simTwoLayers/experiments/he/weights_he_1.pkl.npz (npz, 715948 bytes, 3 tensors)

arr_0 f8 [784, 100]
0	0x3fa62ba54f99bda1	0.04330174061476134
1	0xbfa86c46c770fa92	-0.04770108398996799
2	0xbfa796417e54163a	-0.04606823603721151
3	0xbf827133fd48bbac	-0.009004980246656157
4	0xbf8e7a8531e24b80	-0.014882126412236962
5	0x3f84619082bb6020	0.009951714505788856
6	0x3fab46c916d37f52	0.053274425541302364
7	0xbf9d1629bc5c2cbc	-0.02840485775145106
8	0x3f84353bd42fcee5	0.009867160237241499
9	0x3f8b9be6c8947b88	0.013480952259269832
10	0x3fa237d37a9f1a37	0.03558216926426321
11	0x3fa6edfc8a397002	0.044784442780581926
12	0xbfb226afc246db18	-0.07090281003079857
13	0xbfba01816e033020	-0.10158547340250879
14	0xbfa3634f6581c610	-0.03786705125902412
15	0x3fa6a6d560382a3e	0.04424158858826786
16	0xbfa1067768af3e3a	-0.03325246003043643
17	0xbf88c5d92ff45365	-0.01209611585231025
18	0xbfa837363f94c094	-0.047296233426437656
19	0x3fa9ba0df97be762	0.05024760885676362
20	0xbf8de8be4220ae00	-0.014604078667693976
21	0x3f93cd65a17f712b	0.01933821485714408
22	0x3fa0ffe1303b8a1a	0.03320220674301684
23	0x3f9cf7f5661f542b	0.02828963695340662
24	0xbfae4fc99a906f24	-0.05920248042840928
25	0x3fb3844cc2e2c73a	0.0762374854846514
26	0x3f406532b04fc0bc	0.0005003449920178075
27	0xbfa825c5d441739c	-0.047163183364978795
28	0x3f59667f4b5ad7ee	0.0015503161534247095
29	0xbfa12ead9eab682e	-0.03355925142177828
30	0x3f50365b57056f74	0.0009895221702071718
31	0x3f95d22e759d643f	0.021309591225279197
32	0x3f6e9d576f7d13af	0.003737135670152068
33	0xbf98455730749c1a	-0.023702013332833706
34	0xbfa171ead27a5d32	-0.03407224482833228
35	0xbf937ee591e079bf	-0.01903876021253281
36	0xbf9f4825dec3de79	-0.030548660012725357
37	0x3fa6bfa0ca574004	0.044430756282622524
38	0x3fa7df3c365e8ce8	0.04662502444923594
39	0xbf9df07b6fcdf891	-0.02923767919445958
40	0x3f92ccb8fed3f93d	0.018359079888790254
41	0xbf6d163bbe09e911	-0.003550640758757891
42	0xbf817544357f4ff1	-0.008524449236496397
43	0xbfaddf5c2dbfcd78	-0.05834472712003963
44	0xbf72c6782882ca38	-0.004583806388995408
45	0x3f92b385b1644e55	0.01826294799054858
46	0xbfb397acedfdd12b	-0.07653313455904669
47	0xbf8b37e02cec3962	-0.013290168162282515
48	0xbfb78ffb38b6d660	-0.09204073080658182
49	0x3fbb44e196e1804a	0.1065197938310131
50	0x3fae5b89b5a56d10	0.05929212896691116
51	0xbf9fe7936afef6fe	-0.031156829267039214
52	0x3f9ce9a552486cca	0.028235037943983333
53	0xbfb8bba26bb65f70	-0.09661307458588708
54	0x3f91697a5fd27371	0.017003929232135066
55	0x3fa2428b7a964e1c	0.035663946832894505
56	0x3fa0257966136354	0.03153590556184463
57	0xbfb5b7eba18c9eaa	-0.08483765310358629
58	0xbfb0a1d90d459cb9	-0.06496960233708905
59	0x3fa538db20925ea6	0.041449401594204446
60	0xbfb599e1e9d2f134	-0.08437931021302775
61	0x3f8c10748e1478f2	0.013703260980545615
62	0xbf9c3f58f401cf46	-0.027585401433000166
63	0xbfb230b163f27069	-0.07105549516785604
64	0x3f71985d329c18d0	0.004295696309560351
65	0xbfba682ee6b66b21	-0.10315220959311634
66	0x3fb4fccb81e0fb42	0.0819823448264119
67	0x3fa1ab47b23cc466	0.034509888179294276
68	0xbfbbebaa15daee5d	-0.10906470330785951
69	0xbf771608697eed3d	-0.005636246547449372
70	0xbf780fc0ea7f4b9f	-0.005874398782867467
71	0xbf965a3cefd47094	-0.021828605783512048
72	0x3f957afe4a6f9d45	0.020976994794094556
73	0xbfa0296ee1c3bb74	-0.031566109713700025
74	0xbfb5647e4ffa4087	-0.08356465771271547
75	0xbf8bb7ffb6c890dd	-0.013534543767555746
76	0xbfa3135e8132a4d5	-0.03725714995500488
77	0xbfa8dd84c799c020	-0.0485650533345281
78	0x3fc0dcd25a03b5d0	0.13173894305457035
79	0xbfa6dfc22f09cf97	-0.04467589210699357
80	0xbfaa3549bed5a93c	-0.051187805695763505
81	0xbf9be14a20e3c363	-0.02722659898512648
82	0x3fb121382fd84676	0.06691313903891136
83	0x3fa069cf038af61b	0.032057255918953774
84	0xbfb061bb7da03035	-0.06399127785715637
85	0x3fa9782169c2fb05	0.04974464813266447
86	0x3fb63a16fb7d150c	0.08682387962206323
87	0xbfbbdd50a1c246f1	-0.10884574841682217
88	0xbfa95be9369cc9b9	-0.04952935020118638
89	0xbf9c9d35bd31851f	-0.027943458244753857
90	0xbfc1c67014facaa3	-0.1388683416785926
91	0xbf966a7686ebf909	-0.021890499100657688
92	0xbf8828eabea9a277	-0.011796792930185191
93	0xbf91df7d0ea4e897	-0.017454103487786723
94	0x3fa7c715581ee602	0.04644076061908821
95	0xbf6d1278ee238011	-0.003548847381452454
96	0x3f86de3c2e268eee	0.011166067274479965
97	0x3f9e7a615072853f	0.02976371816169387
98	0xbfac892d59d530d3	-0.055734078613200254
99	0xbfb1fd3e1d6a2b40	-0.07027042596943733
100	0x3f5beb111caa999f	0.0017039935216104152
101	0xbf48115106ea3993	-0.0007344861640648396
102	0x3faff7fc349e76e3	0.06243885176011845
103	0xbfac2bd25758feff	-0.055021832621148896
104	0xbf81651c76730c7e	-0.008493635525502304
105	0x3fb31de9e41f4f3f	0.0746751958789078
106	0x3f9e1c91adc738e2	0.02940585730703383
107	0xbf98d6a0a143459c	-0.024256238787364034
108	0x3f632f687e416b74	0.002341941917661067
109	0x3fa021453d2dc418	0.031503833501922596
110	0xbf8c83ec990a6687	-0.013923500461987771
111	0x3f9329452d8cd2c2	0.018712120919377247
112	0xbfa523a3c0b91b95	-0.04128753402306199
113	0x3f7cc2e4f27e56d2	0.007021803212315896
114	0xbf9601db52ca204d	-0.021491457870553444
115	0xbf8b058b6e423114	-0.013194169332813512
116	0x3f9851a9e4ec94af	0.02374902209989632
117	0x3faf58425543bcdb	0.06122023859813349
118	0x3fb246a56de516f1	0.07139047558765889
119	0x3fc026b8a36f5496	0.12618167858332602
120	0xbf7396321602e614	-0.00478190960728277
121	0xbf91e0233a3872a7	-0.017456579617020875
122	0x3fb2b0703e931530	0.07300473716448574
123	0x3fadf853840f3a4a	0.05853520381025541
124	0xbf8ac3b697ab8bb2	-0.013068605903247963
125	0x3f6f3324b6888962	0.0038085667658986225
126	0x3f910366e6353064	0.016614539910094442
127	0x3fa3f445219f9d44	0.03897300754015956
128	0xbfc2f31258f19a83	-0.14804295866925452
129	0x3f99c7316ba7004c	0.02517392367894926
130	0x3f9141e93feb90a7	0.01685299351346772
131	0xbf9cfd8135d3c29f	-0.028310793791151864
132	0xbfa9384c4ee1b5da	-0.049257645253287755
133	0x3f8072bda241c771	0.008031350626172192
134	0xbf8c2d9157eca051	-0.013758788581597655
135	0x3fbae850a05c9e38	0.10510734477122063
136	0xbfb6ed6b4862da57	-0.08956022755851599
137	0x3fa88df6d7b9eab2	0.04795810111405298
138	0xbfa188e33ca4ffde	-0.03424749484338439
139	0x3f8069be247f86ec	0.00801418827899477
140	0x3f9cd6b6fc848cea	0.028162821924650062
141	0x3f84d70bafad9380	0.01017579202534491
142	0xbfb9da6c04e20fa7	-0.10098910445418473
143	0xbf9210d38242ac9c	-0.01764231188341779
144	0xbfa94723994918fc	-0.0493708729377875
145	0xbfa07fc3ad717434	-0.032224764749777896
146	0xbf736ca69660f5c7	-0.004742289287660246
147	0x3f75e882b05999d7	0.005348692420375354
148	0x3f89c71979f2e78e	0.012586783441623142
149	0x3f9169b403b3d19e	0.017004788137414566
150	0xbfa1f1bf6255cf8a	-0.03504751277333103
151	0x3fa0f29cc1b4df1e	0.03310098518926295
152	0x3fb49bffde5c0e06	0.08050536326123145
153	0x3fa6a6972c7c7007	0.044239734821729874
154	0x3f9ebead3262e468	0.030024248314223817
155	0xbf9b2b535ca88337	-0.026532461672221088
156	0xbfa0a59bb7935e87	-0.03251349082864601
157	0x3f89cf78569edb47	0.012602749007653137
158	0xbfb2a9c2f13a9616	-0.07290285481811795
159	0xbfa876d6c798dbfd	-0.047781669487839885
160	0x3f7d8934d8def4a8	0.007210928377330429
161	0x3f97c3256e6fda1d	0.02320536123803595
162	0xbfa57676135e6b84	-0.0419194124835576
163	0xbfa2920963bbc495	-0.036270421432967805
164	0xbfb7e37e01e6ae3b	-0.09331500574506262
165	0xbfa8a7052b13247d	-0.04814926291289454
166	0x3f72c1f2c7c68f2a	0.00457949482043655
167	0x3fbdb1c11b2d8da6	0.11599356568836203
168	0x3f98243973b21819	0.02357568520212547
169	0x3f7bb3717f7dc3f7	0.006762927390682619
170	0x3fa5c4bd9b1c8869	0.042516637024406397
171	0x3f93ed8876f21e6b	0.019460804233430922
172	0xbfaac870129c5d12	-0.05231046893293913
173	0x3f725a2093183ec4	0.004480483288275831
174	0x3fc0cbc40543b184	0.131218435831567
175	0x3fbaf9b6fd5b25c5	0.10537284551096267
176	0x3f649fdc52b60eed	0.0025176337418900603
177	0xbf918c587615a3c5	-0.01713693829279685
178	0x3fa020d76b598ea7	0.031500560621478706
179	0xbf9ec0ff54fa4efc	-0.03003310161746152
180	0x3fa384bce962c734	0.03812208508442297
181	0x3fb32771c7096007	0.07482062444012182
182	0x3fb304c7170b64af	0.07429165184602725
183	0xbfa2f90ea095d1e6	-0.03705640516537638
184	0x3f8a59708a841879	0.012865905024693302
185	0xbfb060ffca897fd0	-0.0639800900912626
186	0x3f89109cf007307f	0.012238718104434774
187	0xbf96fb265a52e55f	-0.022442435515335087
188	0xbf63cf84c67a72c9	-0.0024182885425275452
189	0xbfb23d72aeebf00f	-0.071250121789433
190	0xbfbbabc1f5d50bff	-0.10808956386340184
191	0xbf9001a69f485ca2	-0.015631297561495068
192	0x3fbb48ac18d6ce75	0.10657764059470216
193	0xbf9747ca9cf578ef	-0.022734800176629596
194	0x3fac98952890839b	0.055851613237116036
195	0xbf92b95b175db75c	-0.018285201359894074
196	0x3fa1e9df30460599	0.03498742546345141
197	0x3fa6ba8d2ff61271	0.0443920250936899
198	0xbf936c759fec3b5e	-0.01896842754927818
199	0x3f8e6b165c7afa1d	0.014852690408017339
200	0xbfab68a466b9edab	-0.05353273157103485
201	0x3fa2366a7b6b91a6	0.03557141071886187
202	0x3f90a4cc6aef13d9	0.01625365641281804
203	0x3fa39016590809a5	0.03820867382821128
204	0xbfa21f1eeb06fc4b	-0.03539368266091766
205	0xbfb0b140bbda409c	-0.06520466409915787
206	0xbfa85e9840adce2d	-0.04759670056855856
207	0xbfaad9e53a5811f3	-0.05244366013724635
208	0xbf85b99300557881	-0.010607860992134956
209	0x3fa328591e03bd17	0.03741720668210229
210	0xbfafc6ac4f327d73	-0.06206263033640882
211	0x3fa21d1ec9c50bcd	0.03537842000016376
212	0xbfb8e78aa8e32c9a	-0.09728304503657839
213	0x3f99f767cbdf43dd	0.02535783941113211
214	0x3f9981fad410d011	0.02490989608141098
215	0x3f994aee4bb3cece	0.02469990098047852
216	0x3f9f6d9b7d25aeee	0.03069155646646398
217	0xbf96a2042ea7a139	-0.022102418277343026
218	0x3f91b3918906751c	0.017286561954837784
219	0xbfafcd5f5efeb402	-0.06211374315839892
220	0x3f721f1998475179	0.004424190502011143
221	0xbfa757c73822c60c	-0.045591569521445136
222	0xbf71bbf9fd6fc9fb	-0.004329659007441307
223	0xbfa0a452d1957344	-0.03250368889232516
224	0xbf80c8d0f431e405	-0.008195526554333208
225	0xbfa688e73ab6157d	-0.04401323882761241
226	0x3fb0bdbc9f60d01f	0.0653951539141535
227	0xbf9d79b56346060b	-0.028784593757796666
228	0x3f8e62552cd56e34	0.01483599227019914
229	0xbf7ba65474ee4304	-0.006750421437474289
230	0xbf58b620912eca53	-0.0015082662618907297
231	0x3fa19d639ae3f1f7	0.03440390840293966
232	0x3fa0af1b381fc57d	0.03258595523937922
233	0x3fab600bc5ce7e6f	0.05346714772826721
234	0xbf90174377ff3879	-0.015713743399651457
235	0xbf991c38f993b73c	-0.024521723015758598
236	0xbfa89d01b4ae2510	-0.04807286577767844
237	0x3fa3cc25717fca1c	0.03866688738334664
238	0x3f9d104b07f3390e	0.028382465706095643
239	0xbfa0c1511a02ccd6	-0.03272489016071638
240	0x3fabab8de734d9d2	0.054043230508273546
241	0xbf9cf47a80872c62	-0.028276361555793612
242	0x3fc47ce9d0f050cc	0.16006205274664465
243	0xbfa26e1bce685116	-0.035996312090136026
244	0xbfae4f2cbc490862	-0.05919780538944576
245	0xbf916a6c3a53be13	-0.017007533130650353
246	0xbf7af92349cce42f	-0.0065852526138821385
247	0xbfaf56abcf2bd10c	-0.06120812324471289
248	0xbfa9d9e9f8b5d867	-0.050490676508091074
249	0x3fb8dd4192d433b5	0.09712610087099345
250	0xbf83fd451ed397ed	-0.009760417941333055
251	0x3f7478bdaae68ba6	0.004997959984765743
252	0xbf72db1ef1358a7d	-0.004603501194056944
253	0x3fa7087fb2bf5723	0.04498671586013205
254	0xbfb7d8b9d86bf5b1	-0.09315072568639128
255	0xbfb6eb441715f4e0	-0.08952737392060639

arr_1 f8 [100, 100]
0	0xbf7447e9caf5dd0e	-0.004951394322566983
1	0x3fc00cf2e91c00e7	0.12539516813558935
2	0x3fb46dea8e988c25	0.07980218869538243
3	0x3f951746ba3445b4	0.020596604456903214
4	0x3fd257d7c375c411	0.2866115006245887
5	0x3fc49af5174cec8b	0.16097892415732348
6	0x3fadb367a23234af	0.05800937514241277
7	0x3fc754451df41816	0.1822592159516609
8	0x3fab75991664bb03	0.05363157652242558
9	0xbfaf547f7bdb7d76	-0.061191543454465355
10	0xbfcd18cfeabe1b65	-0.22731970750848088
11	0xbfbd0c688d1f2d41	-0.1134705872092825
12	0xbfa3c57c5ad350e2	-0.038616071784106656
13	0xbf7e75052ad2b36c	-0.007435817894628421
14	0x3f722c52c7fd9fa7	0.004436801303974314
15	0x3fce460a75542bc7	0.2365124771971223
16	0x3fcc499a015a7d97	0.22099614206397852
17	0xbf8b408fc805dea5	-0.01330673531695876
18	0x3fc6107ba51921c4	0.1723780208724418
19	0xbfc2f3ad6cdbdc6c	-0.14806144538281119
20	0x3fc01d2256509093	0.12588910307488685
21	0x3fa69207daede816	0.04408287570454676
22	0xbfbedcfc39664019	-0.12055946732857627
23	0xbfa7c6d82b10556d	-0.046438937432109785
24	0x3f8e45e927698ec2	0.014781781687993049
25	0xbfb419a2febef369	-0.07851618499166836
26	0x3fd781903d1165e1	0.3672829243056111
27	0xbfacf37026eda6ff	-0.05654478526305517
28	0x3fb7d3c8cf9f328f	0.09307532376187509
29	0xbf8225e6f42f75d1	-0.008861355139681589
30	0x3fccd797bd209375	0.22532936796883588
31	0xbfc99b92eed8159e	-0.2000602403860911
32	0x3fb630c5eb3d7bdd	0.08668171876114124
33	0xbfa9af19df3940f8	-0.050164040087681216
34	0xbf621ca2fc5f5a73	-0.002210920650195286
35	0xbfbefb102f686db5	-0.12101842076702136
36	0xbfc909a96a8b9046	-0.1956073541870202
37	0x3fb0353689594665	0.06331196645012367
38	0xbf905bf4b4d7a228	-0.015975783860911502
39	0xbfa7e3c90a5b4130	-0.0466597390310447
40	0xbfd31e83a4f45868	-0.2987374411471877
41	0xbf9de932cad8ab5a	-0.029209893828162727
42	0x3fa7e9a1bfab3379	0.04670434441286537
43	0x3fb17b8ad6f1ca7f	0.06829135654133188
44	0x3fb02587a7706b23	0.0630726608073187
45	0x3f97a80a9659c1f2	0.02310196440379459
46	0x3f8e0dadfaf9952e	0.014674529287001716
47	0xbfb4820855e51e90	-0.08010913941427078
48	0xbfbe5d73cf3af0d2	-0.11861347016651116
49	0xbfb3a05e748cd66e	-0.07666578622305462
50	0x3f7d52133819bed5	0.007158351015831695
51	0x3fd3e953163e04e4	0.31111600086303626
52	0x3fbf3ec1c5439287	0.12205134454741016
53	0x3fd0f8564c4b6beb	0.2651572938027004
54	0x3fb3e658d69ac7a9	0.0777335666596445
55	0xbfab523dcbc737ea	-0.053361827016132526
56	0x3fa52889679514fd	0.0413248957579899
57	0xbfc8b1cdadad1edc	-0.19292613010679005
58	0x3f76a6c719b9a4cc	0.005530145393643337
59	0x3fb66733a143cd3e	0.08751223265771998
60	0xbfc33c06e4e84264	-0.1502693765364881
61	0xbfb9b6d281c89af6	-0.10044589680238034
62	0x3fbf40c9cd7cca50	0.1220823408773779
63	0x3fb38aaa32694764	0.07633460741751957
64	0xbf9a8ce5d9b0b216	-0.02592810765433925
65	0xbfb1ce895c45e3ac	-0.06955774786719243
66	0x3fb43b5b12638c14	0.07903069685885128
67	0xbfaaea44cc8bc61d	-0.05256857869052232
68	0xbfcc07e0ea279b04	-0.21899043496451764
69	0xbfb67a5637a47c69	-0.08780421122036021
70	0x3fa0233579b1c09f	0.031518622498766684
71	0xbfcde780b1e464fa	-0.23362740217343242
72	0x3fa62c12113121c7	0.04330498180258107
73	0xbfbc2a643a2ed5e1	-0.11002184315187648
74	0xbf6508925a30b561	-0.002567563862177977
75	0x3f9b6048bf01fb9b	0.026734482439220036
76	0xbfb71eb493457bfd	-0.09031227679723482
77	0xbfaf60f31a21f8f6	-0.061286541881587484
78	0x3fab063989a95b4f	0.05278186612547719
79	0x3faea17fd6dcf6d1	0.05982589242783621
80	0xbf6f096e1ca39181	-0.0037886763212659495
81	0xbfbe1dbaaa99e7c1	-0.11764113106792619
82	0xbfbe2adbb99446f9	-0.11784146576635725
83	0xbfd156e07bc47cb8	-0.27092754446671163
84	0x3fc516d1d40daba1	0.16475890020532538
85	0xbfa5ef8bc93f06ad	-0.04284321624392127
86	0xbfc05cada978a90f	-0.1278283193108298
87	0x3fc0d7c598ba0bf2	0.13158483464584908
88	0xbfc81c98bdb57731	-0.188372700339579
89	0xbfac853a8c835a8c	-0.05570395436523254
90	0x3f93a98483716768	0.01920134594215686
91	0x3fc987b59b0d0318	0.19945402212945207
92	0x3f9e6a8196c11f9b	0.029703163935010584
93	0xbfa0e29077f3e6b1	-0.03297854866282302
94	0xbfc9310f2f24e6e2	-0.1968096714206729
95	0x3fbb55bc3f5808f3	0.10677696749192815
96	0x3fb02eab4be28fea	0.06321211435948695
97	0x3fae42a84fb89111	0.05910230610996526
98	0x3f713bc58cf1277b	0.004207393342832928
99	0xbfbe2f9bb4891e26	-0.11791394384010143
100	0xbf7c6f29958ea6de	-0.006941950262367517
101	0x3f946fd72eed9c0c	0.019957887877719613
102	0x3fb2b713526669d2	0.07310601007194542
103	0x3f7c0429b27d0475	0.00683990753151519
104	0x3fc0d1756a767ca5	0.1313921708906253
105	0x3fb2bb8b649faefe	0.073174202028607
106	0xbf99a10c225aede3	-0.02502840957343534
107	0xbfa843b0c2fe6521	-0.04739143734259189
108	0x3fa49e3b52858d8f	0.04026971227974762
109	0xbf73e903a4cda3c5	-0.004860891564796914
110	0xbfa7b62ccc87d623	-0.04631175991736949
111	0xbf8e571806cefb4c	-0.014814555843143083
112	0xbf6b7984af4d5755	-0.0033538428782930265
113	0xbfa2b06bff683e34	-0.03650224201930677
114	0x3fad25e3eddcd9b4	0.056929705415700665
115	0x3fb38911ec30f675	0.07631027237308692
116	0x3fbc2e835a4f1340	0.11008473353201698
117	0x3f90b830e0ee27f5	0.016327632645278773
118	0x3fc749a38930a36c	0.1819347782013908
119	0xbfb298640b371808	-0.0726377990132222
120	0x3f8672be4936c233	0.010961042985258995
121	0x3f73a0096ec702dd	0.004791294905260837
122	0xbefe25eea7e283b6	-2.8751538132202214e-05
123	0xbfb89b3284f30d21	-0.09611812349162509
124	0x3f627ab1e581b6d7	0.0022557711163731886
125	0x3fb98bcb3110e8c7	0.09978933284665735
126	0x3fa061bb56dceb01	0.031995634415997294
127	0x3fa6719ad761b888	0.043835486213411434
128	0x3f9a3c25b227c4f6	0.025620068548907825
129	0xbfa128f847337987	-0.03351570004609799
130	0x3fb96cb0cdbd51f5	0.09931473753869809
131	0xbf8e7c5b809e3928	-0.014885630476581271
132	0x3f98d8c6caf572aa	0.02426443685304728
133	0x3fa9e09e11ae9637	0.0505418202003906
134	0xbf9e85fa7b0ad691	-0.02980796218863319
135	0x3f91780c658100b2	0.0170595108941149
136	0xbfbc8549d7533f64	-0.11140882021868276
137	0x3fa6656012a2d092	0.04374218204012083
138	0xbf9e15ca3378a082	-0.02937999667315739
139	0x3fb2fd0c6ce989c9	0.0741737142466611
140	0xbfb1508e42575ed6	-0.06763543243084355
141	0xbf4ff1e359d6041b	-0.0009748802291796895
142	0x3f877d3ccec6b31f	0.011469340381915992
143	0x3fc07244a8310c7b	0.12848718845825488
144	0x3fc70bf29a232d3b	0.18005211378327055
145	0x3fa70dca41b27ad1	0.04502708484618768
146	0x3fb9c2b951451aa6	0.10062750085954039
147	0xbfb11d4552c2286d	-0.06685288687200037
148	0xbf836b3b0a699397	-0.009481869941007122
149	0x3fb7184e5db8bfec	0.09021463192107121
150	0xbf8124e188ba56a2	-0.008371126160720724
151	0x3fd14c3f9eec8f69	0.27027884025505117
152	0x3f43763b28571fa1	0.0005939282279365695
153	0xbf9bda79282e3ca4	-0.02720059688323019
154	0x3fcaff4677f981a7	0.21091538293968634
155	0x3f54c8ecf7a8959a	0.0012686075339244153
156	0x3f92c1c21e3cefdf	0.018317254157622528
157	0x3fb488ff27b2512a	0.08021540373949124
158	0xbfa953e596ee732d	-0.04946820704865327
159	0xbfaabb2e7f30d27e	-0.05220933249112124
160	0xbfbd6e435c3ed485	-0.11496373178563786
161	0xbf568b4d9f789485	-0.00137598591198554
162	0xbf8e725785a0cc19	-0.01486652733374254
163	0xbfb6b802c05af243	-0.08874528118298834
164	0xbf6ade5442f71c7e	-0.003279842923550157
165	0x3fbe7ec700785529	0.11912196885562722
166	0xbfb22808ed306f82	-0.07092338362457265
167	0x3f97a809aec93218	0.023101950924955345
168	0x3f8a526655c01c5d	0.012852477542777569
169	0xbf98452d8d336144	-0.023701392882544484
170	0x3fc1529e74a9e8ce	0.13533383079977174
171	0xbf96141368399660	-0.021560958134065777
172	0x3f89b3185cdcdffc	0.012548628171870739
173	0xbfbd36bfc7353cdd	-0.11411665547824464
174	0x3f943bb649dfa9a7	0.019759033450023413
175	0xbfb9e8414dc9cad8	-0.10120018147589904
176	0x3fa9f249532b4448	0.05067662372824394
177	0x3f6ca93c8a19d354	0.0034986669932614376
178	0xbfb6d7314bb5d461	-0.08922107790370283
179	0x3f682f61e1b5a139	0.002952281165267714
180	0x3f93007f6d22ce1c	0.018556586300020425
181	0x3fa4998c417348ed	0.040233977307836934
182	0x3fae695b75c7f425	0.059397562148639595
183	0xbfd3b1c9da2a5eb0	-0.3077263479731114
184	0x3f9344f848086e1d	0.01881778659490695
185	0x3fa622cf38416a89	0.0432343250438026
186	0x3f912915e93a229a	0.016758291587879094
187	0xbfa52df52cd5719d	-0.0413662545422284
188	0x3fcc14c5cf0d3739	0.21938393220846722
189	0x3fbd4437c96482d7	0.11432217280208633
190	0xbfb9f479437a71ac	-0.10138662240428314
191	0x3fb002a765d0289d	0.06254049525901668
192	0xbfc9703b6b0df04b	-0.19873755194919548
193	0xbf90a098422fabac	-0.016237620391546123
194	0x3fa27084e3a45f60	0.036014702595081216
195	0xbf91ab7e2eb17f9e	-0.01725575599664319
196	0x3fb2e8e148ba4c2b	0.07386596704081742
197	0xbf9c4dd58a9def07	-0.027640663705354587
198	0xbfcbdb977f953f88	-0.2176389096225615
199	0x3f8cf0fd58f79844	0.01413152625805137
200	0x3f91462d15f3085b	0.016869263138467577
201	0x3fb54abc7f576935	0.08317163571283433
202	0xbf584c7ee76c340f	-0.0014830817505668869
203	0xbf95e71708378333	-0.0213893507733502
204	0xbf6d6fe89b96fdec	-0.003593401252800046
205	0xbf98104ea06fde06	-0.02349970678548454
206	0xbfaedb67701062c0	-0.0602676700875171
207	0x3f8b3e47b15dbdab	0.013302383518491853
208	0x3f8b3eb9c43859e6	0.013303233433401961
209	0x3fa142309e59e901	0.03370811398504437
210	0xbf5a0c1ad51a459b	-0.0015898000750989908
211	0xbfb9e9b5977a7105	-0.10122237156105392
212	0xbfab020ee116d5f3	-0.05275007722540783
213	0xbfb0462576a2bd95	-0.06357034822825931
214	0x3f798d94ae2b1bd5	0.00623853758106115
215	0xbf525da1b7f0cddf	-0.0011209563524631134
216	0xbf7818e287ce6dac	-0.0058831070754438546
217	0xbf6f3e3105b68f32	-0.003813834902489343
218	0x3fb53e5b5bf500bf	0.08298274035496699
219	0x3f7ce39a64f3bc6d	0.007052996733576494
220	0x3f4466b0516ee2e3	0.0006225930145467819
221	0x3fb373ac2018c219	0.07598377021418691
222	0xbfb50ffc385b795d	-0.08227516532813213
223	0x3f8ac45af432de07	0.013069830491402546
224	0xbf70542932e5d539	-0.003986512120140611
225	0x3fb86a7f51125519	0.09537502030646684
226	0x3f8c15b8e5257e4d	0.013713306897158573
227	0xbf8b994c4cbe1150	-0.013475986568444981
228	0x3f926a6fb2a9d3f2	0.017984147338626806
229	0xbf8a102a5265240a	-0.012726145400522543
230	0xbfb45d98e962aec7	-0.07955318162810975
231	0xbf8241adbfe3cfa7	-0.008914334696306826
232	0xbf97e7fe57a4c83c	-0.02334592256483624
233	0x3fb0a6e7f5b9410f	0.06504678486931346
234	0xbfa94e04ab301f30	-0.049423356911630356
235	0x3f8144e47dea8281	0.008432183354046831
236	0xbfa90ac589333f3c	-0.04891030597502641
237	0xbf9d7666142ffd91	-0.028771967870850516
238	0x3f95301aecf77a4c	0.020691319192218935
239	0xbfa20de44915fe60	-0.03526223556673069
240	0xbfa8fab7c2dc088f	-0.0487878251424415
241	0x3f86e27a29fbc5d8	0.011174158483728755
242	0xbf88fcd1d9db1fff	-0.012200965367256343
243	0x3f9c90b5db903ef4	0.02789577629670155
244	0xbfaa36ba1437e42e	-0.05119878289037448
245	0x3f8754acc041bf70	0.011391973130429028
246	0xbfac5b6086e6f019	-0.05538465162996448
247	0x3fa28b281a57bb6f	0.036217930999433594
248	0xbf506064418244be	-0.000999544054171061
249	0x3fba42001d1c52bc	0.10256958685597345
250	0x3fa2e75a6ba6f29f	0.03692133487809212
251	0x3fa276d227bc0ebb	0.036062781668105136
252	0x3f8b1d617bb8bc82	0.013239633167442703
253	0xbfa1ba0bf3c93720	-0.03462254858878411
254	0x3fa4afea0cca0f4f	0.04040461927527749
255	0x3fb28a0e4e7d2238	0.07241906563025047

arr_2 f8 [100, 10]
0	0xbf901a0f97ba6b77	-0.015724414478067907
1	0x3f91941df1306451	0.017166583868036437
2	0x3faa1d1f076764f6	0.05100342717532584
3	0xbfc097c5cf6ffae9	-0.12963173512249362
4	0x3fbb4eb9424ca705	0.1066699778426959
5	0x3facaf35e84e33a9	0.05602425060997202
6	0x3fbc8741228cc166	0.11143881886960613
7	0xbf7d45a46700faf6	-0.007146494099343972
8	0x3f77a8da7c117f26	0.005776265578873374
9	0x3f87c829b6cff33a	0.011612249270905307
10	0x3f85d06b5df90c75	0.010651434712718658
11	0x3fb4493c81782e07	0.07924249802470494
12	0x3fd04d66092e3cda	0.2547240342764333
13	0x3fdddbd92c714255	0.46654347744064256
14	0xbfc24de8c7989b7d	-0.14300260301498816
15	0xbfcf787bbd14406f	-0.24586436016443566
16	0xbfd1a504b778d45b	-0.27569692532717277
17	0xbfb10d5aa7acb29d	-0.06661001771562743
18	0x3f8128b58badd330	0.008378427815594586
19	0xbfc758070dd30310	-0.18237388777745211
20	0xbfb4dfbd9802f550	-0.0815390106317484
21	0x3fc0b3d932724be2	0.13048853839117586
22	0xbf965c66258d4ecd	-0.021836849252692404
23	0x3fda3b4046682a5a	0.40986639857934437
24	0xbfceaa521cc157f6	-0.23957277683319916
25	0xbfae35058e52f706	-0.05899827349047197
26	0xbfcb840fde7b0bce	-0.21496771205246862
27	0x3fcc5d798bd2d1c1	0.22160262420005775
28	0x3fb87967a9aac88e	0.09560249225867976
29	0xbfbc97eb2369ec71	-0.1116930924853692
30	0x3fabd2ccfb2a7181	0.05434265676487638
31	0x3fa6dd4c1cf3c8eb	0.044657114538397234
32	0xbfcefbed9d6ace03	-0.24206323801409732
33	0x3fb3b3820b9bb443	0.07695782454875748
34	0xbfb63a1f66d0646f	-0.0868243814478704
35	0xbfc0481b59a6a286	-0.12720052602277948
36	0x3fb54a1001206dc0	0.08316135432726579
37	0xbf9bbcc7648da7e9	-0.02708732176998999
38	0xbf5e10b5f859e6b3	-0.001835038857647947
39	0x3fbb225dfaf990b3	0.10599315049472828
40	0x3fd6060ea9e55f17	0.344119707025571
41	0xbfc8060e5f3484ef	-0.187684818732158
42	0x3fcf7dde6b6c1127	0.24602871175023575
43	0x3fd8057d36cfb41c	0.37533502915067785
44	0xbfe2328daf2e9315	-0.5686710759660821
45	0x3fbf7bbde81e1ed7	0.12298190037665378
46	0xbfce1ab1e8d6075e	-0.23518966549823522
47	0x3fd3a6e0dc9ad905	0.30706044715351793
48	0xbfd3a95c4c469820	-0.30721194695286336
49	0xbfb53f5d166390c1	-0.08299810215573002
50	0x3fc7e7a1d3bede6f	0.18675635184421277
51	0xbf817caff82ab991	-0.00853860355468042
52	0x3fa8692b35e39695	0.047677374199151114
53	0x3faf5a6838b72338	0.06123662655188017
54	0xbfcfb380f53c090e	-0.2476655194696566
55	0x3fdbaf8d7f650d0c	0.43258988800899156
56	0x3fc3dd599974ec1b	0.15519256585125238
57	0xbfc809d2e452545f	-0.1877997984744608
58	0x3fc8f32c874a4636	0.19492107969249312
59	0xbfcbf02d98973af7	-0.21826715422363183
60	0x3fa54f91d5a417d9	0.04162269337579944
61	0xbfa43760a00ad2a0	-0.03948499635354108
62	0xbf9232f54d58d56d	-0.017772515149962077
63	0x3fb8d14f048de80e	0.09694379674138551
64	0xbf965ac5d421bbdd	-0.02183064563035574
65	0xbfa22256c132c77d	-0.035418234905036684
66	0x3f596898f2c9bae1	0.001550816882765531
67	0x3f92b93d455efd5a	0.0182847570029002
68	0x3f7ee7cc04e241b6	0.007545277547379594
69	0x3fa297d31d3c02b1	0.03631458026757651
70	0x3fd009c4d21eac19	0.2505962421370796
71	0xbfccf441900b8309	-0.22620410474248612
72	0x3fc908989172b852	0.19557482816657284
73	0xbfcdf210496d618f	-0.23394969544711983
74	0xbfbabfd5be34e7f5	-0.10448966878621475
75	0x3fc28fc42db81496	0.1450123999822252
76	0x3fd258a00bdd27db	0.28665925177176427
77	0xbfc068f8f98fcf2f	-0.12820350824005675
78	0xbfbe9ca82d084e19	-0.11957789515900465
79	0x3fc2dfdd3e0d6453	0.14745679407022524
80	0x3f6be991b9606bf5	0.003407272927700595
81	0xbf9890055a77a6dc	-0.02398689617795112
82	0xbf8392cea22d13f9	-0.009557356189938903
83	0xbf9ac336ff234a5f	-0.02613531048047901
84	0xbfa152b9dcb44857	-0.03383427447455805
85	0xbfa8d18bfacbe3e9	-0.04847371517639216
86	0x3fb8252206f04d6a	0.09431660336877248
87	0x3fad8dfd292dc9b5	0.057723914410320466
88	0x3faae95fe6baec32	0.052561757006934676
89	0x3f5a7438ccb6b3cb	0.0016146235164839924
90	0xbfab05858ee63399	-0.05277650231719306
91	0xbfab603fa243a75f	-0.053468693311357944
92	0x3fa52822811df639	0.04132182909141275
93	0x3fa75957fd75bdf7	0.04560351342194829
94	0x3fa263e62ef17720	0.035918420057653444
95	0xbf85494a587b723a	-0.010393696618330773
96	0x3fad1500ad3a4485	0.05680086245150399
97	0xbf900d02d4724d39	-0.015674633232788813
98	0xbf898bcae001b08e	-0.012473664246691631
99	0xbf930d328cf3af93	-0.01860503182699309
100	0xbfc7a785592571e3	-0.18479983189435165
101	0xbfac756944e0faad	-0.05558327642255754
102	0xbfb2a0d277503402	-0.07276645100519377
103	0xbfbe46e911c79a73	-0.11826950725626677
104	0x3fe10ca6c2add257	0.5327943613361396
105	0xbfe243ad0ed67ccf	-0.5707612314035034
106	0x3fbdfa770c8d80dc	0.11710304314101755
107	0x3fac6e7f6ba9ccde	0.05553053082703639
108	0x3fd06522ea0d0f38	0.2561728749899319
109	0x3fb5e36c70b4b43f	0.08550145866020474
110	0xbfbf3f6326b46646	-0.12206096358240712
111	0x3fc0459263cecccc	0.12712316392353384
112	0x3fc89fec1abd567a	0.1923804407658059
113	0xbfc997d0c99b07a3	-0.19994554370901793
114	0x3f70e721a0336de9	0.004126674032899549
115	0xbfc208ad4c89bc2d	-0.14088979947288874
116	0x3fd4683037ad4e63	0.31885915219502275
117	0xbfb35818d742e89a	-0.07556300406841601
118	0xbfd03767d9ce2702	-0.2533816935543741
119	0x3fb7572aea70de5e	0.0911738226285421
120	0x3fa5d34b9f133100	0.04262768093903624
121	0xbf851af035e66999	-0.010305287022494268
122	0x3fad6b3def0f3a61	0.05745881598669623
123	0x3fbe48db4f106940	0.1182992046382525
124	0xbf8344b4517b54e6	-0.009408386932970147
125	0x3fa26ab996b79e72	0.03597049679575272
126	0xbfb11424e6f011b8	-0.06671362531785163
127	0xbfa6bbfdc613dc85	-0.04440300982417348
128	0x3fa097b704007714	0.03240749286508851
129	0xbfa340eb22b030cf	-0.037604663834004286
130	0xbfaf4cf825944e1e	-0.06113410433513543
131	0x3fa4d16736a607f5	0.040660119458166756
132	0x3f976d44294cbffb	0.022877755184879316
133	0x3f7491e05efa15f2	0.005021931123001521
134	0x3f7010f101231e37	0.003922406600572573
135	0xbf7c9e0c6a70acdc	-0.006986664294383629
136	0xbf7b55ce1649fa59	-0.006673626926043307
137	0xbf615f4a7124ed83	-0.002120633501503101
138	0xbf9183ec6cec862c	-0.017104810856045358
139	0xbf47befc0e8512f9	-0.0007246714349454501
140	0xbf8dfe7f89088fa8	-0.014645573014668248
141	0x3fb48c841c9a40eb	0.08026910494141119
142	0x3fc1cdf7ab0fe2aa	0.13909812786711956
143	0xbf8cd5c8bb79aab8	-0.014079635831156664
144	0x3fbbc8e2ada9ef3e	0.10853401889647515
145	0xbfac5fee8261868c	-0.055419400611538355
146	0xbfa0653cd32e0a1d	-0.03202238157156876
147	0xbface550a9c5e574	-0.05643703529762947
148	0x3f90be97759e44d4	0.01635204940209152
149	0xbfb89158cec60dfe	-0.09596781776604499
150	0x3fd5da3151d5f9cc	0.34144242278844383
151	0xbf93859d7d38caab	-0.019064389007506104
152	0x3fb9fdc2f266b388	0.10152834337232097
153	0x3fb944ae4e50ed64	0.09870423709883408
154	0xbfd936c1749b21d6	-0.3939670218210528
155	0xbfc548c5bcbd5f31	-0.1662833377438289
156	0xbfc4ae64de43c6f4	-0.1615720830227968
157	0x3fda3a62a7edf108	0.40981356047974815
158	0xbfd20575cde07d76	-0.28158326249282284
159	0x3fc3604e4e0495ae	0.15137652215450487
160	0x3fdf6cb6fa501a2d	0.4910104221784504
161	0xbfadc958bacd6c5b	-0.05817677765181691
162	0x3fa814b53e27893e	0.047032989346706064
163	0xbfbf5928ce316e10	-0.12245421442042237
164	0x3f99b1bdf932f28f	0.02509209474077295
165	0x3fa0b62fb559e981	0.03263997162590027
166	0x3fdb937fcc5d9b95	0.4308776374586441
167	0x3fd2643868ba05ab	0.28736696459972205
168	0xbfdf6790a90df212	-0.4906961108133895
169	0xbfe414d899a6ace5	-0.6275446892736026
170	0xbf8f20c5fb56e1be	-0.015199228985566356
171	0x3fb2d421cb9cee89	0.07354937764187687
172	0xbfb8618b92a0d682	-0.09523842172424149
173	0x3f63bea98189d1a9	0.002410250727104397
174	0xbf9a22494a8fd6d7	-0.02552141683187056
175	0xbf81f32aa8d01157	-0.008764584805256588
176	0xbfa2e02a7fda13ba	-0.03686650095645612
177	0x3fb9a43d1f00ec45	0.10016233450817065
178	0xbfb3b48201d52d68	-0.07697308106178513
179	0x3f6d27d2992f47b5	0.0035590279817165568
180	0x3fca5cb421fe168a	0.20595409068862508
181	0xbfba83dbe5c78a38	-0.1035745082840912
182	0x3fc8078e57132d91	0.18773059131340777
183	0xbf7a81ed14d4d8a1	-0.006471563433754352
184	0xbfe1744642fe0313	-0.5454436596338347
185	0xbf8012fc60951775	-0.00784871263261853
186	0xbfcd1557782599a2	-0.22721379629656463
187	0x3fd2c63a0133ce30	0.2933487903348775
188	0x3fce1b071bb51e03	0.23519982197670694
189	0xbfab2a59877b5100	-0.05305747774915126
190	0xbfcc812629dcb133	-0.22269131702467745
191	0x3fd3d762133781c8	0.310020941511564
192	0xbfb5fc136e9f77d0	-0.08587762308840685
193	0xbfbb23ac27a16615	-0.10601306884327528
194	0x3fdc1b91b1957390	0.4391826853005165
195	0x3f9b85557ed347f5	0.026875816217234633
196	0x3fd7d0467cd5cf24	0.3720871180623695
197	0xbfcd0522f51d3201	-0.2267192551465911
198	0xbfd44bcdd39304a8	-0.3171267095713781
199	0xbfc300d5fc72d379	-0.1484630091341861
200	0xbfb2dd52f79f4524	-0.07368963761770836
201	0x3faf7900c24fd7ee	0.06147005435916229
202	0x3fcdc863b0166e71	0.2326778993418546
203	0x3fbf5969e70cdff1	0.12245809450985214
204	0xbfd2a4e9273944a9	-0.2913153536838516
205	0x3f81b514d91fde3b	0.008646166683305192
206	0x3fd61ce7394f32b7	0.34551411244028024
207	0xbfbfe5c4f31c423d	-0.12459975180923606
208	0xbfccdcc383c7fbaa	-0.2254871743643581
209	0xbfc7b53e094bf1c3	-0.18521857694567076
210	0xbfd6e84eb59bad3d	-0.3579289220349045
211	0x3fdf239120ba8c2b	0.4865458316436981
212	0x3fdcdbddf47ae400	0.45091961741451314
213	0xbfdca0ab83808b60	-0.44730651704792557
214	0x3fb20c23edd0f91d	0.07049774700223961
215	0xbfbdb7eedc117e3f	-0.11608784554254557
216	0x3fc4905be0791c87	0.1606554838237779
217	0x3f9267b2da2b7b25	0.0179737039242084
218	0xbfc847cf531f7d15	-0.1896914630769763
219	0xbfc6e4a54b38aac2	-0.17885271237294914
220	0x3fc9ae71ce4246bf	0.2006361252902504
221	0xbfe1183d2b0f1f97	-0.534208854770429
222	0xbfe2db01491ca721	-0.589234011456231
223	0xbfdfc10061a86a94	-0.49615487610723474
224	0x3fd1ba357f53b227	0.2769902938296433
225	0x3fd649914d70f115	0.3482402092229376
226	0x3f77f7f05029dd27	0.005851687167356879
227	0xbf8e1ab472b7444f	-0.01469937300763227
228	0x3fc344a0bbc1e760	0.15053185623019782
229	0x3fd7720efd951b6a	0.3663365818396672
230	0xbfc0dd677f127d95	-0.13175672249506634
231	0x3f787092722ca062	0.005966732077276134
232	0xbfa83f04e3500311	-0.04735579752742159
233	0x3fbff72069d66849	0.12486460288929026
234	0x3fd02bf6cb08a8e7	0.2526833517791957
235	0xbfc0125179db6729	-0.12555902910281105
236	0xbf91f4aff224656e	-0.017534970430550904
237	0x3fbf0cd0f787d7e7	0.12128931086758109
238	0xbfde3352ef6f5d46	-0.4718825662834728
239	0x3fdad3b824117b1e	0.4191723205785126
240	0xbfc42bad4851b8ca	-0.15758291274273112
241	0x3fd30a4e73f6ddb8	0.2975040562118596
242	0xbfb13b92debf2776	-0.06731527269508128
243	0x3f85adc28e6bd82b	0.01058532712111678
244	0xbfc45e46e139cecd	-0.15912710187296
245	0xbfdbd50ac79ac197	-0.4348780583632332
246	0x3fd9e469dd814cea	0.40456625586848693
247	0x3fb00aabcf3549b6	0.06266282852928992
248	0x3fc76b0eafb9b5d3	0.18295463161795897
249	0xbfcbc3d99ea4dfd6	-0.21691437002459563
250	0x3f60cc8ae5c514d2	0.0020506584970997133
251	0x3fa52566f1a7df0c	0.041300980566971374
252	0x3f9a8dcdaa7bda5a	0.025931561975961116
253	0x3fb19399b2384535	0.06865845299787028
254	0xbf87a8ec6aeac00e	-0.011552664769027412
255	0x3fad49f50a514643	0.0572048735708788
