notebooks/models/simTwoLayers/experiments/he/weights_he_3.pkl.npz (npz, 715948 bytes, 3 tensors)

arr_0 f8 [784, 100]
00000000: 6c22 c8ae d519 61bf d686 5af4 c42e 49bf
00000010: f2be f0ab 070e a3bf 609a 598d 80ff a93f
00000020: 5084 8936 2947 ab3f ab81 f836 8a24 8c3f
00000030: 694c 8630 625d 98bf f85d 5cf1 f635 a6bf
00000040: dfa5 4ba6 a4df 8f3f 329c 3013 88c8 693f
00000050: da9f 9d0d f769 9ebf a2c4 6d8a 2351 913f
00000060: 4a8e e922 ba58 99bf 2977 ba2b cf57 a93f
00000070: 2988 be51 2dee a33f 7b5e e4a9 c197 aa3f
00000080: fc16 70c9 ed1f 9a3f c19b 7af5 d1ae 76bf
00000090: d90e e47a 434b a2bf 94e8 2843 acf0 95bf
000000a0: cb2d d268 9f0c a5bf aee7 05af 3b1a 933f
000000b0: 52d6 c1ae 3352 93bf 71ac 90a4 3d96 b03f
000000c0: e0e1 3948 bc1e 98bf e655 1ca0 b39e 933f
000000d0: 2cd9 a45f 5b85 b43f 4d41 8e5a ecf9 b3bf
000000e0: c0da 7e21 cb62 a4bf 483e 37b6 271b af3f
000000f0: cd12 b146 af91 893f 104e 45c9 6aa4 90bf
00000100: 26b5 063c e4bd 7bbf 8867 9aa4 e8a3 a5bf
00000110: 2354 e1fd 8f88 9a3f 8d83 785a 5448 a13f
00000120: 9751 bd3c 1568 b03f f89e 8623 a36a 9fbf
00000130: e842 1dc3 3a5b 79bf 9f02 10bc a618 59bf
00000140: 70f5 4a7b f2ad 9dbf 7a72 2c71 366c a6bf
00000150: 467a 32de 332b 9e3f fcb4 372a ccfa 98bf
00000160: 6b56 580f 95b5 a5bf 0d1f 2106 d816 ad3f
00000170: c7f6 e39c 17fd ad3f ce7f b152 2eba 86bf
00000180: 5f35 ea55 814f a3bf 71f9 5cb8 b1c0 8dbf
00000190: dfbd 7325 9110 b4bf c9f9 606f 2d7b 9abf
000001a0: 8824 9ac2 e1c6 b6bf ef26 6a63 d6bb 893f
000001b0: d4bf cfdb 3379 6e3f be3b 8fad 4c34 7bbf
000001c0: 3512 02b3 1f75 a13f 45bd f8cd 3c2b a63f
000001d0: 6b01 18f2 3692 933f 3223 a6a7 51cc afbf
000001e0: 6811 5d60 a032 843f 75a0 0eb5 8af2 b4bf
000001f0: 4290 58f7 4419 b73f 49e4 a678 d737 a3bf
00000200: cae7 268b 858e b0bf a745 af6c 24bf bd3f
00000210: 4011 b984 0a3d a73f 2618 e060 124f 93bf
00000220: bf98 28f4 f16d 4dbf 2ec4 50ab a63f aebf
00000230: f7e4 3300 09f2 b23f e528 b0e8 3665 a3bf
00000240: b0ef 8aa3 0068 763f eb87 8357 6f6e 973f
00000250: f689 ef74 c3cf ac3f 4703 2eab 4756 a73f
00000260: 7db6 813b ae35 6c3f 0c81 d21e 0b77 4f3f
00000270: f1d7 c15e d122 753f e9c9 0e80 2b4f 8a3f
00000280: c5af 26c7 8699 a23f f03f 9fc6 cd6e ae3f
00000290: 9b41 ff9a 574a af3f 9a37 5f44 392f b23f
000002a0: d34e abb3 d877 b5bf bdd1 5c53 6240 a33f
000002b0: 42ce 4bd8 5dd6 93bf 98f2 095b 2907 963f
000002c0: 609e 78a3 a5e7 a4bf 30a3 7e21 aa17 953f
000002d0: 9704 c10d 24dc a43f 2ed6 58c4 8374 713f
000002e0: c82c 3960 0dc5 9cbf a81b 28a8 4285 9d3f
000002f0: 64b1 0af5 5cd6 a8bf 034a 60be f9b1 85bf
00000300: 1769 8319 543d b13f 72c6 4d3c 1408 32bf
00000310: 1aa9 11ed f354 b1bf b05e b0f8 51dc b83f
00000320: 80fc a152 df31 90bf cb2b df2c 211f a13f
00000330: f84f 5e6f 3e3a b43f 2c79 782c 8ea3 a3bf
00000340: 6de7 79a4 cc81 8b3f 9637 933e 0ea5 a23f
00000350: 2746 bc6b 6f4d 4ebf 92d8 30ec 0369 b7bf
00000360: 22e2 fa83 b123 a53f 8163 4e26 e58b a8bf
00000370: b61f 29be abd5 a9bf 3ce1 3cdb d998 88bf
00000380: f170 12fc d1df c3bf 4397 807b 6f65 903f
00000390: 3a6c c989 2c9c ac3f afcd 216a 08d7 9a3f
000003a0: 8c55 0b8d b58a af3f 6939 add9 b843 b53f
000003b0: 3ff9 8467 04be b13f adb5 919a 318c a73f
000003c0: bcce 9979 a379 b93f 417b 89be bc49 bd3f
000003d0: ae6a b538 71d5 b83f 9a32 920d 5b89 a7bf
000003e0: bdf4 fd7e 9559 823f 0a8c 269a 2fcf aabf
000003f0: b867 ff62 5d41 b1bf 2fc4 9a7d 3523 79bf
00000400: 3e4d 38d6 dd1c 973f dd5b a46c 8281 ab3f
00000410: 2c4a b401 0297 67bf 7de0 eb7d 0250 a2bf
00000420: 2493 cfc5 fc74 943f 70c1 1044 049b a3bf
00000430: bb74 7dbc e9b4 a13f 1920 bde6 94a1 adbf
00000440: 6adb d63c a228 a13f 29b3 6943 8381 a23f
00000450: 42df eb60 1044 993f 7c10 9f8e eb89 a5bf
00000460: 706a 6671 c596 75bf 83cb b78b bc64 bf3f
00000470: 43ed 6c5b 284c a2bf d329 b2c6 85a3 963f
00000480: 1fee 6baf 3196 ae3f 0873 6f54 6192 b1bf
00000490: 096d c9d1 4fd6 93bf c6bb 91a4 cfc2 b2bf
000004a0: d163 be7e 6215 813f 5e27 6cf0 4535 b0bf
000004b0: 78a1 a323 fede a63f b790 b2fb da3f b03f
000004c0: 75d2 b633 6680 74bf c4d1 bacc bf5d 893f
000004d0: b0eb b411 358c a33f 00c6 6930 09c3 4abf
000004e0: 1524 b172 a72f bc3f bb02 5ab2 cd6d a73f
000004f0: cebb ece7 fd56 a8bf 53f0 acec 9834 b8bf
00000500: b204 73f1 090e 71bf 4217 5551 d97d abbf
00000510: d7fc deb1 8246 653f 7158 d925 974b 9c3f
00000520: 98e5 c5ec ef19 ac3f c4f4 4b64 1ce1 6a3f
00000530: 31e8 87a5 8908 b7bf fdbd f83b d6d9 9a3f
00000540: 7237 3e6e 5e6b 963f 41d6 0ce4 1300 bc3f
00000550: 550e 0e61 ba92 a03f 61a4 3fcc 6e69 b33f
00000560: b5b1 f6b3 eae2 8c3f 396b 5309 908d 9bbf
00000570: aa5a 6bc0 f896 ae3f 06b5 70e1 6893 8d3f
00000580: 06a4 7ec1 521b 89bf 47db 872b 7191 9dbf
00000590: 78b9 390d bd7d aabf 2155 76e4 b579 933f
000005a0: 8b86 23fd b4ba aebf 0100 d723 c2d3 6c3f
000005b0: b75e 9457 53d7 5dbf 38b1 1062 25c2 a1bf
000005c0: e4db d147 8307 973f d2c9 562c a382 aa3f
000005d0: b1c7 9f4c cb3c b2bf f431 a41a 762f b4bf
000005e0: 9b27 09df 6ca4 5ebf efb8 b008 e667 adbf
000005f0: 81e3 a7a6 59f7 a53f 8a09 86f2 322b a13f
00000600: 91bc f506 5f4c 593f c360 3096 1c19 acbf
00000610: e280 b202 ff10 aebf 49da 722c 4c8e 653f
00000620: 5d15 8afd 3153 b73f 4b33 1cb9 1e7e 89bf
00000630: ae73 ef5a 1b36 c1bf 440b ace6 38ee b53f
00000640: e95c 2a6f 33aa 483f 4186 76d9 cd6c 94bf
00000650: fcab 7548 a97c 933f 462e 5b73 2901 a43f
00000660: 96c1 4b08 4d43 99bf 43cf f26a b994 a13f
00000670: 1c76 167e f77f 9f3f 7e2e e00b 961e 913f
00000680: 3ab5 8f27 ab37 b1bf a160 cd4a 5339 803f
00000690: c6b2 f012 fc5b 923f a9aa 3255 f074 953f
000006a0: 4335 36de c7af 7cbf 65c6 8466 f7fe 873f
000006b0: 4945 46dc 142f 6b3f 251d 6001 f0a1 7abf
000006c0: 7aa1 127e 6692 a33f 0886 1441 d6fd 973f
000006d0: 526e ff7d 3f4f b0bf 6867 8724 7764 58bf
000006e0: 4da6 2c11 c8bd b6bf dec1 b2c3 2965 903f
000006f0: 1268 71fc 568f a0bf 4cb8 0845 fd6b c03f
00000700: 9718 269e 855b a4bf 0536 9096 98ed a43f
00000710: f20b c433 bd0b 98bf 9d9e cbf2 d577 9fbf
00000720: a173 7b95 9343 a13f 9032 da41 09df 753f
00000730: 603f f0ec 8c75 82bf b0be a9b7 163b a5bf
00000740: f90c cfdb 8345 b33f 1560 ab60 aacd a63f
00000750: b114 bafc 2202 953f 9751 a2e5 4a77 8b3f
00000760: 4c49 4ec6 b70e ba3f f946 0517 c8fb 863f
00000770: b360 7d8a a947 ab3f d8b6 0089 29fe b0bf
00000780: 4bce e65c 6ce5 b5bf 5ba2 f418 af1c 72bf
00000790: e711 54da 4221 883f e93c b252 6640 76bf
000007a0: 02aa 95b1 9336 89bf 76ec baaa 9482 443f
000007b0: fc33 5ed7 ff9a a8bf fb24 4b80 78f4 a7bf
000007c0: 4918 5bb3 3f51 a53f ee5a 4cd4 c437 b4bf
000007d0: d228 3220 edb3 a03f ba71 bc1d fda9 b5bf
000007e0: 7b2b 25fd 7026 90bf 4d1e 9235 8c12 a03f
000007f0: 70ab 1811 b811 be3f 9f85 04a1 9f13 a03f
-0.0020875142565766527 -0.0007685147945332936 -0.0372164151561928 0.05077745175804149 0.053277290255899445 0.01374156933076239 -0.023793729984003784 -0.04338046737955986
0.015563284230171113 0.0031473787035056983 -0.02970109959224474 0.01691108257677299 -0.02475252950752197 0.04949805649560652 0.03892652151922988 0.05193906020047919
0.025512423915663426 -0.005537815238915778 -0.03573046565182176 -0.02142590675269014 -0.0411119285064064 0.018654758985099988 -0.01886826280720861 0.06479249255851173
-0.023554746540385696 0.01916008629549095 0.08015986523682689 -0.07803227625686766 -0.03981623443489957 0.06075405215562718 0.012484902710761326 -0.01625220159014701
-0.006772891560485028 -0.042266149609715475 0.025911569471947737 0.033754955333512894 0.06408817990206327 -0.030680226367308244 -0.006190518893917064 -0.0015317562358633586
-0.028983868384547973 -0.04379434710992754 0.02946167987522077 -0.024394216610677852 -0.04240098774259312 0.05681490969487699 0.058571565534277385 -0.011097299479104008
-0.037715951669364804 -0.014527691305940423 -0.0783777920184927 -0.025860509799025686 -0.0889721965887863 0.01256530276193099 0.0037199032653844975 -0.006641673587139017
0.03409670887143471 0.04329862608244154 0.019112452055197886 -0.06210570498939773 0.009862187329084462 -0.08182589454975349 0.09022933043212425 -0.0375354132442643
-0.06467470786347387 0.11619784978326796 0.04538758154061151 -0.018856322443774463 -0.0008981162466781474 -0.05907936898473341 0.07400566344212565 -0.037881580261528026
0.005470278258766045 0.022882213322084437 0.05627260973394137 0.04558013882252126 0.003443565652608892 0.000960236005671107 0.005160158016328951 0.012846317143929436
0.036327564058722873 0.059439115997179104 0.061114061041396904 0.071033076469773 -0.08385996233419783 0.03760058658227503 -0.019372431112925755 0.021511694127627295
-0.04082982655046119 0.020598085684159162 0.04074204128165453 0.004261507715957387 -0.028095444677359166 0.028828660500973463 -0.0485104607699636 -0.010593367693251038
0.06734204886325688 -0.00027513975174207124 -0.06770252740685515 0.0971118194723839 -0.015815247934821475 0.033440624930868156 0.07901373118357913 -0.03835720341543189
0.013431166428961661 0.03641552461486623 -0.000924758343417935 -0.09144615665795389 0.04128794418415206 -0.04794231503109981 -0.050458304369896664 -0.012010290148837137
-0.15526795204357982 0.016011945641501112 0.055879012889555615 0.026210910299096998 0.06160514208537923 0.08306460680362239 0.0693056824429492 0.045991468542392645
0.09951230734605593 0.11440639163764123 0.09700687059868571 -0.045969815642000714 0.008959930360783347 -0.05236195332260969 -0.06740363757071932 -0.006137093494246889
0.022571054649302306 0.053722453844038155 -0.0028796233360790704 -0.0357666758263244 0.019977521489539588 -0.03829205828549476 0.03458338189987261 -0.057873395124772915
0.03351313584010181 0.036144353846657325 0.024673705974208156 -0.04206787219985217 -0.005270739804837818 0.12263086711008779 -0.03573728672059897 0.02210816407436218
0.05973963991524677 -0.06863983451280486 -0.019372222117778146 -0.0732850815563629 0.008341569416915025 -0.06331288451852177 0.04467004952477088 0.06347435612639428
-0.005005263544650353 0.012385843692165895 0.03817907181879521 -0.000816707121727045 0.11010214376541712 0.045759609242855125 -0.04753869491684491 -0.09455257204257465
-0.004163779106591979 -0.05369452588870029 0.002597098601625807 0.02763210457336424 0.05488538518234093 0.0032811693694144457 -0.08997402468949713 0.026221606645945517
0.02189395473356321 0.1093761855853126 0.03236944613220475 0.07582752691782126 0.014104684464506837 -0.026907206124501235 0.05974557255620046 0.014441317920580687
-0.012259146242131546 -0.028875129968550153 -0.051740558494986766 0.019018976277569103 -0.06001821127007386 0.0035189430043089946 -0.0018213571441431495 -0.034684341641283145
0.022489596613436094 0.05177793422935263 -0.07124014492708743 -0.07884920263695233 -0.001870256728710085 -0.057433308182554536 0.042902757257201614 0.03353270731442411
0.001544087219226307 -0.054879086812606136 -0.058723420218713476 0.0026313293234026297 0.0911132091515205 -0.012447586082566927 -0.13446371021464415 0.08566623336450357
0.000752711405158116 -0.019946304700743992 0.01903023247488632 0.03907136471897536 -0.024670795089095053 0.03433780127070787 0.030761591978821654 0.016718239283405094
-0.06725568500379078 0.007921839447292025 0.017929018646259086 0.02095389862067046 -0.0070035750717470395 0.01171677857982729 0.0033183486395464185 -0.006502091904628392
0.03822632111524889 0.023429248544863085 -0.06370922876470189 -0.0014887965681879781 -0.0888333360604971 0.016010906762575654 -0.03234359580592651 0.1282955729561216
-0.03976075702216624 0.04087521398478703 -0.02348228100255407 -0.03073057455449534 0.033718692777007016 0.005339656983448862 -0.009013272267139605 -0.041466436309631205
0.07527946583200053 0.04453785352751553 0.020515963244652272 0.013411126263499535 0.10178707686853733 0.011222422792943375 0.053281114726531874 -0.06637820811075856
-0.08553197162728414 -0.004421886419813416 0.011782190597394894 -0.005432510089249145 -0.012311128479912451 0.0006259179985684943 -0.04805755142215415 -0.04678703847964446
0.04163550438310943 -0.07897596533835458 0.03262272851959981 -0.08462507225016838 -0.015771642161137116 0.03139150766315577 0.11745787064925906 0.031399715810276556

arr_1 f8 [100, 100]
00000000: be8f 4474 1027 64bf 2878 709a 831e b93f
00000010: 6006 37b6 6bdd 9ebf 6949 13a0 3f4c c3bf
00000020: cb1d 0116 2e8d b43f e3a5 5cdb f291 a33f
00000030: 0a94 1f5a af1c c5bf 7cbc 47ca e397 ae3f
00000040: 0f15 1d14 ef04 aabf a244 c6d8 d088 753f
00000050: f4a4 c896 c6a7 a43f 8d1e 791c bd2f d0bf
00000060: 8939 3214 3bb0 a13f 916e 52db 1bcd 81bf
00000070: d5a9 5a54 6326 bebf a96e a36f 6d74 c23f
00000080: f399 ce94 985e b43f f787 5ec6 ff83 bd3f
00000090: 85c9 5f17 b50f 99bf bec7 fb97 02a6 99bf
000000a0: 1572 f9df c5bf 883f cf97 b99f 7fbd bc3f
000000b0: e867 8777 403c 933f 8f18 bd44 94a2 973f
000000c0: 9f97 bdbc 4fb9 afbf 9f5e ca20 6510 b13f
000000d0: 8161 c7da 8409 a5bf e5e0 9507 e141 bf3f
000000e0: f081 a959 9736 a03f 25cb d7b4 77c9 753f
000000f0: 8e48 f209 ad79 bcbf fd18 76e4 ed82 a03f
00000100: 4a0c 8571 db56 b53f 643f d5d9 367b b6bf
00000110: 6b9c c874 f642 a6bf de18 2580 be39 a2bf
00000120: 5607 32ad 8ad6 a8bf 48c9 8c9d cbe5 5e3f
00000130: 147c c8a8 c663 b7bf 9c98 47b0 2082 613f
00000140: a1f2 1880 1b18 ad3f e41c a964 0b63 b93f
00000150: aede ea77 2c66 b5bf 1276 735f 5081 a0bf
00000160: 3b92 a1c4 7ce2 af3f 8378 17d7 3f8c b3bf
00000170: 9a98 ad4a 6f4b b7bf 0772 d6d5 797c 72bf
00000180: 9f18 222e 2d1e b6bf 50ee 0c27 07af 903f
00000190: 925a bd3d 7a13 a1bf 51e4 cf87 a12a c5bf
000001a0: 64d9 0bd9 7098 84bf 4d23 0afa 32ec 95bf
000001b0: 8162 d579 6fb9 c03f dafe 03b8 360b b13f
000001c0: bfc6 789a c6b8 97bf ae1d f197 51f6 bebf
000001d0: 5aa0 e908 b5bb 99bf 6601 ee6b daee bc3f
000001e0: b0eb 5059 bc6f a9bf d2c3 70ec dde8 53bf
000001f0: 21b0 5914 8827 ab3f f66c 6de2 c06f cabf
00000200: 1187 bda1 e504 a53f 2e94 61fe 0f3b ba3f
00000210: ea1c 52b9 c7ec 9cbf 7979 d793 8bc0 9fbf
00000220: cd76 8899 0095 c7bf ff33 563b 5166 a3bf
00000230: 008b a8be 6479 a93f 6ae7 6bed fcf6 92bf
00000240: 846a 3d5a ade2 8cbf 2969 69dc 3573 c63f
00000250: 1980 61ef 4032 b1bf ec0c 90dd 1ce2 a23f
00000260: b8ab a6cf 430f af3f 244d 634c 7c59 b13f
00000270: 04d0 6984 9c56 75bf caf7 129b 9313 843f
00000280: 86b1 5c1a 14a0 a5bf a8e4 32c3 b61d 943f
00000290: 38e1 463a 553d 9cbf 23c6 75ce 7980 983f
000002a0: 52f4 9537 50dd bf3f ba66 cabe 08b0 79bf
000002b0: 9078 a14e 915e b7bf dda9 ed2f 2ace af3f
000002c0: 9b7c b5b8 688f 86bf 1135 5cbd b410 7cbf
000002d0: 2382 aade fb16 a43f 0322 b3ec 3670 453f
000002e0: a566 ef00 d338 7a3f 7ea2 2f46 580b 9fbf
000002f0: e019 fa8c 65eb 9ebf e9fc 4246 e8a4 babf
00000300: a4d8 49bd 1d6b bc3f c33f 506d d378 a83f
00000310: 6ff5 86bd f6fa b1bf c24d 78e0 797b b13f
00000320: 02e1 7c58 6f96 a8bf d5fa 9f59 2efd a63f
00000330: 1aff ff0f adc8 773f 78be eca9 a51e a33f
00000340: c73e bf01 d4f1 b23f 021f 3420 6d20 82bf
00000350: 504d aeab 5dd7 b13f dd49 88af 1683 9abf
00000360: 1966 b939 21c8 a43f 3c8e 49ab 8bfd a03f
00000370: 7366 65b8 497d 4c3f 31f7 43ee 037e b83f
00000380: d6a0 42fe 544e bbbf b728 8395 ccbd b1bf
00000390: bb90 ffa9 c026 a43f aefa 99d1 758a 9e3f
000003a0: f393 4b28 d90c adbf bfc1 7650 c310 a83f
000003b0: 1a33 eee6 9974 893f bcff daf0 d12c a13f
000003c0: 5be2 f0bf d470 ce3f 650a e87e af0d a33f
000003d0: ed16 96b9 7e7d 863f 4878 86ed fda4 89bf
000003e0: c988 40c8 1c18 7e3f b3a0 d775 fc48 a43f
000003f0: 2653 d4b1 49e5 afbf fcd7 cb5d 6847 b23f
00000400: cc7c ecd6 fdbf a7bf 2b8a af62 c197 92bf
00000410: 3078 ec11 d303 a53f 3305 f077 b2bf 9f3f
00000420: 6ea0 6710 fc40 73bf 8cb3 fcc8 7b8c b13f
00000430: e52d a41a 73f4 84bf 2c3e 74f9 3b9c 943f
00000440: 13af 70f9 6901 abbf f0b1 31f3 e032 9ebf
00000450: a59c 10e0 ee04 963f 445f c4a8 c9e4 adbf
00000460: 0d1b 47a5 6ea7 c5bf f216 add9 3b42 71bf
00000470: a97c d088 e952 923f d8f0 ced2 b02e 85bf
00000480: 1208 c3fa a233 61bf ed69 cc58 6cf2 a7bf
00000490: 055a 2a31 5949 b23f 7b9e f42c 8027 9f3f
000004a0: df76 44e3 1d9e 96bf ed2d 7110 ec58 b2bf
000004b0: 40db c9f3 fe17 99bf 4701 4c3a 0bf8 83bf
000004c0: 4515 1a03 856a c1bf 00ba c4dd e8d3 963f
000004d0: bb64 8ab7 981b a83f 00a9 6dfa b783 bfbf
000004e0: 9650 5659 7532 be3f 4616 6a5c a42c 883f
000004f0: b9f7 13d0 cd31 a73f 2a51 912f 505b 92bf
00000500: 4be5 452c 43fb ba3f 3541 ef5b 51e9 afbf
00000510: 5758 d2d9 716c ad3f 3557 0835 c5a0 88bf
00000520: aeff 409c c38b 853f c085 c40a 5268 a53f
00000530: 152c 1e09 0bd4 9cbf a739 3b1e 9dfd 94bf
00000540: 7445 f508 a475 bdbf eae0 e049 11ab 97bf
00000550: 1348 71fb 4876 9a3f ff37 4c08 7dee a53f
00000560: ae04 12fe dd59 7a3f 2144 5049 d5c1 c1bf
00000570: 40a5 aa69 b2d8 bf3f bd64 f1ba 64d9 5f3f
00000580: b764 8519 2811 593f b236 37c9 b308 c13f
00000590: 9cb5 c394 7892 d23f 8413 7a77 5319 ab3f
000005a0: bbdc cce1 e8ca 91bf 75d5 5957 1fcd b73f
000005b0: 190e 3935 6fe2 ae3f 1f66 e96e 3107 a43f
000005c0: 60be 3981 bfb5 a9bf e1c4 f950 3e15 a03f
000005d0: 5a49 463b c70e c43f d473 fbb9 1ed2 bf3f
000005e0: d2ff cbbb a639 97bf ac70 35d1 ec91 a2bf
000005f0: 9336 7fef 1991 b73f 84ab 418e b294 a23f
00000600: 31b3 50e6 e399 a4bf f85e 7e65 2da5 86bf
00000610: fc19 ed5f 3f22 a33f adfd 792d f56a ae3f
00000620: a25c b277 625e 953f 83d3 f7ec 058d cfbf
00000630: 2348 4e1e 1a96 b43f 93b8 20e3 ef43 a7bf
00000640: c72a 4698 a687 a6bf 22e7 fe3f 1730 bdbf
00000650: 3bff 32b3 02ad 6d3f bb99 8df4 65c1 8a3f
00000660: 125c 2b8a f439 9cbf 2ebd d144 42b9 b13f
00000670: 5a59 916c 471e 9fbf e049 fa8b 96a8 c13f
00000680: e339 fafd 282b 8b3f edeb daeb 509c 81bf
00000690: 4717 d742 9f03 943f 421e ea29 c76b 4a3f
000006a0: f842 d4b1 b6d2 6d3f 9ae3 a950 9410 933f
000006b0: 4511 6644 ace0 a83f 2d49 050b 8fd0 af3f
000006c0: c56c 5b0f 52db acbf ba9d 7a06 1b46 ac3f
000006d0: 1611 6936 b3c9 a23f a4da a3c4 e344 913f
000006e0: 06ca d755 6c31 a13f ca45 b70d 98d2 c13f
000006f0: e3e9 3ce2 20cd 88bf 8e42 a814 ab41 abbf
00000700: cc39 c9ab aac7 c3bf 959e df5d 4114 b1bf
00000710: 3c82 2b69 c79b b3bf 7638 bd72 3b55 aa3f
00000720: 9df5 9b1f f7ca 8cbf c821 e378 1dad aebf
00000730: 76bd 4db0 1202 b4bf f197 f8fd 8bef 713f
00000740: 2be3 af21 e65d 933f 93e7 9edf 466c 623f
00000750: 64a4 8e22 bffa ab3f fc24 056c e82d 8abf
00000760: 00b8 f9c0 8147 623f 5c35 617e 9544 913f
00000770: 0486 5dfe 2d05 b2bf c20b c33e f26a 31bf
00000780: 9cc1 0650 1d0a a93f f793 9de6 b505 62bf
00000790: 41f2 599a e920 65bf 8b1e baed 36cb 82bf
000007a0: a483 8cba c728 a2bf 6262 ea84 e86a 853f
000007b0: 9848 1458 cdc3 b4bf 1bc0 4525 2ced a93f
000007c0: 5187 f015 80eb 95bf 275f 165b 923b a13f
000007d0: bb86 ca0d 3f32 493f 9462 5c68 7e98 8abf
000007e0: a437 02d6 78ee a1bf 1808 adc0 5d06 9fbf
000007f0: 6cdc 0624 52c0 89bf 7f4e d0f4 3aeb b0bf
-0.0024600335474520276 0.09812185783854999 -0.030141528126256367 -0.15076442066363008 0.08027923619476167 0.03822287490613598 -0.1649378957801278 0.05975257724991764
-0.050818892674707176 0.005257430846897256 0.040342527300092274 -0.2529137399728619 0.03454765912566688 -0.008691995268512972 -0.11777325448443972 0.1441780848607455
0.07956842072471897 0.11529539673804821 -0.024473981429716147 -0.025047340895021135 0.012084527871757659 0.11226651811156717 0.01878452996775329 0.02308112783000432
-0.061960689344046964 0.066656418328757 -0.04108824892654451 0.12209898410026516 0.0316664978934148 0.0053190876037543565 -0.11123162739593992 0.032248911035866336
0.08335658570745 -0.08781760042370262 -0.04347963500577453 -0.03559680284756593 -0.04851182331277808 0.0018858421737602705 -0.09136621113474092 0.002137245030314606
0.056824550043960594 0.09916754920515164 -0.08359029700920459 -0.03223658719228352 0.06227483654291573 -0.07635878564130576 -0.09099479268260993 -0.004513240737108243
-0.08639795662210979 0.016292678602651656 -0.033351726566867815 -0.16536349421929455 -0.01005638277409266 -0.02140884066696751 0.13065904091742556 0.0665773581749777
-0.023165801218232526 -0.12094602546232266 -0.025130108517629736 0.11301961073877961 -0.04968060102733973 -0.001215187761556037 0.053035976871655295 -0.20653544479396374
0.04105298613900577 0.10246372185209005 -0.028246994672852667 -0.03100793924192533 -0.18423469063502865 -0.03788999413800553 0.049754284166075635 -0.018520309439714756
-0.014104227367785833 0.1753909422139455 -0.06717305988559054 0.03688135342238205 0.06066333684733344 0.0677716909879576 -0.005209552188365055 0.00980296437262131
-0.04223692724039822 0.019644599594106055 -0.027577716524065127 0.023927596308061305 0.12447072369646264 -0.006271394883378962 -0.09128673715301461 0.06211978755057477
-0.011015718590611725 -0.006851869596869579 0.039237852984346476 0.0006542461573185169 0.006401848061580094 -0.030316714557474082 -0.030194842080641382 -0.10407878604290811
0.11100946303654041 0.047796828359536934 -0.07023565413597564 0.06829034548018512 -0.04802272753880922 0.04490036815695012 0.005806613946333328 0.037343194000979574
0.07400250475552204 -0.008850910706783125 0.06969247285296842 -0.025890688384672223 0.04058936910287176 0.03318439927968739 0.0008694276773823631 0.09567284171131686
-0.10666400153661768 -0.06930235529140104 0.039358158828492994 0.02982505885892788 -0.056738649529314865 0.047002891132595696 0.012429430351198745 0.033545075084020465
0.23781833049885645 0.0372137873091745 0.010981550253528616 -0.012521728335567542 0.007347214155773504 0.03961934031014049 -0.062296202619256655 0.07140209474513876
-0.046386654363453766 -0.018157025955483668 0.041044803560211895 0.03100470406571283 -0.004700646043126351 0.06854985863601665 -0.01023187565853951 0.02012723646208607
-0.05274516267703979 -0.029490961879149624 0.021503193307719787 -0.0583861368669987 -0.16917212553217845 -0.004213556089615033 0.017894410109985746 -0.010342961724625274
-0.0020998175806150677 -0.04677141746488531 0.07143170786216764 0.030424120658749203 -0.022087542530349388 -0.07166934396189335 -0.024505599622411056 -0.009750449863987
-0.13606321956118897 0.02229274610106735 0.04708554497228464 -0.12310361732457764 0.11795743399699385 0.011803897924674744 0.04530184903158791 -0.017926457312868717
0.10539645987400552 -0.06232694861648939 0.05746799262958351 -0.01202539508907883 0.010520485120764391 0.04181152707520708 -0.028152630263814944 -0.02049870965020664
-0.11507630556777376 -0.023113508352452884 0.025841846796829836 0.042835147154718804 0.006433360250526805 -0.13872781829607653 0.12440028266668879 0.0019439204877669668
0.0015299693678428158 0.1330780727861814 0.2901898815897199 0.05292759736497657 -0.017375601560357206 0.09297366983976992 0.06032130741780523 0.039117378987338684
-0.05021475269756759 0.03141207445595185 0.156700996344237 0.12429992714483201 -0.022680859768115465 -0.03626956991021876 0.09205782029240543 0.03629072176484896
-0.04023658930268537 -0.011057238254394516 0.03737066312764978 0.059409772683462016 0.020867861324032184 -0.24649118490892982 0.08041537513625534 -0.04544019362980225
-0.04400368317427233 -0.11401505768199319 0.0036225369200052738 0.013064190412205847 -0.027564831669987973 0.06923307590635794 -0.030388942719889435 0.13795739970062382
0.013265915156151336 -0.008598930547455164 0.01954506726703833 0.0008063051680701832 0.0036405151610171514 0.018617932723347864 0.048589118337107474 0.062138052077573704
-0.05636078298058459 0.055222363034143254 0.03669509925069485 0.016864355923611143 0.03358019397628102 0.1392393176052294 -0.012110001472696424 -0.05323538424648176
-0.1545308436202063 -0.06671532193979098 -0.07659574811578634 0.051431520229571356 -0.014059000637184843 -0.05991451359438177 -0.07815663151062843 0.004378840297738038
0.01891288357362268 0.0022488960503012716 0.05464741989937563 -0.012782874866973597 0.0022313627485379683 0.016863189543348298 -0.07039153537837001 -0.0002657739085060695
0.04890529252895989 -0.0021999886275119135 -0.002579170470936171 -0.009176663522580305 -0.03546737816055348 0.010457817608128642 -0.0811127033269109 0.05063760714517703
-0.021406174983105434 0.033657621020380106 0.0007689292793495375 -0.012986171302644046 -0.03502252209101123 -0.030297722706798508 -0.012573854183626852 -0.0660893294992153

arr_2 f8 [100, 10]
00000000: b30b 061a 22b6 933f e9cf d495 2aef a9bf
00000010: 57f0 9a0e eba7 b5bf cf3d 0916 5e57 9cbf
00000020: 0745 32e8 3f88 a0bf d81a 28d3 359f 61bf
00000030: c3ae 89b0 6c3e 973f f882 c419 5aec 9d3f
00000040: 3e64 ac03 f5e8 75bf 4f2e 63a1 fcfe b23f
00000050: 51d0 4360 0e67 c1bf 188e ce7c afb7 ad3f
00000060: 1f48 6172 bf8d e1bf 11db 3cff 455b ab3f
00000070: 223c 4d2f 1e04 c83f fa72 5f80 1688 d3bf
00000080: 9f36 36f0 3b4d 5cbf dd94 7bd2 c444 df3f
00000090: 04f9 2830 3a7d b0bf 358f 41a2 57cb d43f
000000a0: ba39 83f5 ebbd 803f 95fb be18 5e1d b13f
000000b0: 8971 9063 c717 843f e712 fa74 db00 8bbf
000000c0: 10d7 9fb5 7f79 a0bf 4728 1c71 7f7a b0bf
000000d0: f80a c013 7da7 a1bf 786f 0bf6 7534 b3bf
000000e0: 27fc 31c1 ba8e bd3f 070b fe86 1f8f a4bf
000000f0: 5341 3c05 0993 b53f b495 715d 81e4 6c3f
00000100: 7f90 b100 939c 833f 1757 48f2 e276 b03f
00000110: a078 ba56 f559 a93f be5a abe1 4ba4 b83f
00000120: 15cb 6f03 5d28 a0bf 7f69 d414 b207 c33f
00000130: 71d1 c96a ab12 b93f ba64 3a33 d5a2 b0bf
00000140: 4683 9448 2b61 d1bf 320d 5383 2d97 7ebf
00000150: 5ab3 9035 687e cf3f 94d7 3fc4 e851 d83f
00000160: 3366 202f 828e e0bf 98fd ccaf 698c c73f
00000170: 1e3e 70ab 2be2 cb3f 83ec a877 b112 d03f
00000180: 36e4 a2e0 8b16 9b3f ebf2 46a4 bcdd d8bf
00000190: c3a6 79c7 fc80 b4bf 02bc 2d2a d537 a33f
000001a0: a8a4 2c01 bb5a a6bf c47a afc8 0f1d b43f
000001b0: a1c5 8a9b ca13 76bf a1bf e573 b200 7bbf
000001c0: 7619 4856 963c abbf 3cbc 7790 541a a9bf
000001d0: d187 b134 bc9e a33f 0110 bb62 74c8 b1bf
000001e0: ca86 fc6a f327 db3f a9c6 3fd9 6f43 cabf
000001f0: 5705 f316 b3ad c43f 4238 6a3f 74f7 9f3f
00000200: 80a6 e27a 61d3 bdbf 741d 28e5 8c9c d23f
00000210: 7311 03cd 4339 c13f b7a5 1b39 d0de d9bf
00000220: a445 6302 210d cf3f b8fd 598f 64e0 dbbf
00000230: 7eb8 bb2c f1c7 cebf 4257 7a0e 02bf c93f
00000240: 7198 1440 a797 c23f 25d9 8f27 df76 b8bf
00000250: 165b ee85 5194 d3bf 025f 313a d412 a23f
00000260: 7205 3a6d 3f3c cabf b37f ae37 a3b4 c7bf
00000270: a7b7 fa10 b037 d03f 088a f84c f45a d93f
00000280: 4392 4bc7 8b50 a63f 3df8 3ecf 2ddc 8cbf
00000290: 4cb6 a525 7be8 ba3f 1f73 5ff3 58bc b6bf
000002a0: 7768 1099 8e3e b6bf 92da f3ab e24e aa3f
000002b0: 86b9 a6e5 e806 cabf 2b3b 224d 2c38 983f
000002c0: a2f6 7ec3 a9e7 6c3f 9e32 5ac6 d0d3 883f
000002d0: 52b2 2d99 3533 d5bf ebca 6eff 0447 de3f
000002e0: c8cb 0e83 51ef c5bf 0e71 5a02 6313 d1bf
000002f0: 9e74 07fd 9349 ca3f 8fd9 c9c2 7663 e23f
00000300: 6381 b4bc 8033 cb3f 40eb 1565 cada d9bf
00000310: 3dbe 9e7a 5284 b13f 5560 acad c234 dbbf
00000320: 39ae 421b c54a a63f dd11 6194 e11c a53f
00000330: 77e3 b434 2948 91bf 3550 effc 8d44 adbf
00000340: 6d7e 7aad be70 7dbf 03ac 314f 9aa1 9cbf
00000350: 7a4d 22a1 c5e1 b63f 621a 8ffc 7ea2 a2bf
00000360: 2bce 96dc e72f b63f 6e9c 1555 551d 84bf
00000370: 3855 778e d1ba d13f 65ee 925b 4d32 bdbf
00000380: b3cd d034 b979 cf3f 26e9 7d08 1240 d8bf
00000390: e6d0 0a2e 3dc1 cebf 4019 7b92 5e39 b2bf
000003a0: 45f0 197e 0840 bdbf bb33 0277 8085 b03f
000003b0: 7370 63c5 1944 e53f 5894 e4f6 50c5 e1bf
000003c0: ebe5 6424 6477 b5bf 7ae0 5abf 2170 9abf
000003d0: 35f7 6ead e6ca 87bf f487 6d92 7f7a b4bf
000003e0: 6adc a492 e0a4 69bf 7ff5 a76b 5939 a43f
000003f0: 1958 7714 eb45 82bf 962b 46e1 a7c5 9dbf
00000400: 98da 4a6a 0a23 c03f e79a ceef e89b a2bf
00000410: b626 88e9 960c ad3f b214 349c 2fbf a8bf
00000420: a3e8 86c4 8415 c83f a335 0e90 b706 b0bf
00000430: e560 360d 4cf5 a93f 1d02 0710 f725 c2bf
00000440: 3b91 252f 65ea 8c3f f835 ebe5 eafe ad3f
00000450: 4859 f45f fe29 893f e809 2ad2 5c04 a33f
00000460: 06a4 90c3 a06d c43f c0d4 012f 650a b9bf
00000470: 9af5 d1b4 db33 e63f 4b77 dd28 4dbe cdbf
00000480: 7d0e 70b7 92b0 b53f 75fb 338b 1250 d2bf
00000490: 8348 55d4 a74b 98bf 4a48 5bc1 71f2 7f3f
000004a0: 4079 b660 d35b b3bf 1db9 4581 ebde cebf
000004b0: b3a6 e274 461d 76bf b096 fd02 978e dd3f
000004c0: c849 e2ab a374 db3f 815f 3900 7c29 c33f
000004d0: eb4d 91de 7815 dcbf 83e2 1cef 390b c8bf
000004e0: 442b fa4e 88f7 bbbf 03f1 a1ef 646e c6bf
000004f0: 9dba 3967 3ce6 b7bf 495b 6c77 bb3e da3f
00000500: 5460 223a d1b1 5fbf b605 038b b69f abbf
00000510: 3624 90a8 ba7c b93f a714 a9ce 4814 a3bf
00000520: 1e3b bbd4 8f8f 933f 50ac 394d e34f b23f
00000530: 5e9b 1318 2e12 bdbf d98e f00e 5a29 943f
00000540: e490 7e48 3cd4 a1bf 75b6 8ee7 ae70 c1bf
00000550: 568f a5f8 8873 b0bf 54ca 2ad6 3e7e ce3f
00000560: 66fd ec52 2a0f c23f 4a6b 8b5b 1ea5 de3f
00000570: dd2a bf3c e1eb af3f 60cf 026b 6d8b dfbf
00000580: 477f a8fd aa59 b43f 988a 358a 7a0d ce3f
00000590: 0fc5 3cb9 37a1 debf 2a64 777a 8724 d6bf
000005a0: 873f f50e bf4b 8e3f db1d 0f8d c8d0 af3f
000005b0: ed74 3e36 fc41 9ebf 0598 deae 1a03 a33f
000005c0: 2970 4e70 4995 b03f 17ed 24d2 44c2 763f
000005d0: 79ab d5c0 2911 b03f 6d02 4eb7 aae2 8ebf
000005e0: f509 b6f5 836a 72bf f2c3 7400 f48f b73f
000005f0: 3d82 25a2 60f5 d63f b53c 26b9 e681 c23f
00000600: e59a 8013 d7f5 c93f 1a00 9ae7 c36f 9e3f
00000610: be93 9608 6dde e2bf b128 ad49 4370 c3bf
00000620: 9414 c6c8 dd8e d7bf 815c 40ef 1bea bd3f
00000630: c99f 27fb f7e7 d43f 45dd e8a5 0551 c0bf
00000640: 05c1 3e2a 3758 bb3f 3493 a9f0 b429 d2bf
00000650: 6120 61d3 d5f5 bd3f fdd4 4646 3a66 e53f
00000660: 6c37 d9d1 3daa d1bf e1ac df52 082d e33f
00000670: 5d4b 8cf5 b376 8e3f 3b97 dc5f c71e d7bf
00000680: 9108 080c 2bcb cabf 03db 0765 e787 cdbf
00000690: 8a15 c5b4 c321 8e3f c45e 6d50 968d 823f
000006a0: 9769 fbd2 7ee0 98bf 0ba7 1cc0 9c61 b7bf
000006b0: 3208 2c1c 5edd 9bbf 6e12 de71 8c46 8e3f
000006c0: e033 671b 4e7c 9b3f dfaf 5b71 27f9 b3bf
000006d0: af2c 59ff a4e5 9d3f 7a8f cc4f 3cb4 5a3f
000006e0: 351a dbc9 f250 b8bf bea4 a498 f7ea abbf
000006f0: 97ce d4fe cc23 5e3f b48d ed34 2b4f a7bf
00000700: c346 02dc 73ca a03f 2ec9 f041 c2d7 833f
00000710: d694 7923 f897 a9bf f934 fc9a 800b abbf
00000720: 6470 8e30 16c0 a63f 3406 283e 7426 a8bf
00000730: 71f7 8e35 2dcb 8bbf be9d 4682 43c3 9ebf
00000740: 7ef1 370f 1f15 58bf ca4a 269e 0c77 a3bf
00000750: b64a 1652 2c78 be3f e3b2 365c 2531 ac3f
00000760: c42c 869f 2cfc 9dbf 582b e9f4 1fcc b33f
00000770: 3705 7f0e 79c2 81bf 7761 dc62 92d3 84bf
00000780: e0b4 8203 af35 b43f d743 3a02 ed4a b0bf
00000790: e4a2 c89b 7521 93bf 38d5 7f99 3ab5 543f
000007a0: 4269 96b1 c34f 72bf 5841 ecbe 93f3 a2bf
000007b0: 0ef3 e03c eb76 a33f 59ba 54b1 493b 903f
000007c0: 593c 6caf 6ca2 a63f 1d39 aeed 3a59 883f
000007d0: b2eb b58b 452f bbbf 930f 291e b5ca 5a3f
000007e0: 17bd 2ff7 5bc9 b3bf 1dfb 7624 7f83 b93f
000007f0: 00b5 61a6 4a87 df3f 7da4 86ed ff46 d1bf
0.019249470556598158 -0.050652819433167746 -0.08459347826550477 -0.027677030653931397 -0.03228950223377507 -0.0021511126772141113 0.02269906833173142 0.029221923659068033
-0.005349118315984445 0.07420329036829652 -0.13595752430376476 0.05804203413506687 -0.5485532030090815 0.05343073597616955 0.18762566861775648 -0.3051811460152717
-0.0017273984275080546 0.48857231669383144 -0.06441081691534484 0.32491103024789264 0.008174746923398913 0.06685436348105463 0.009810979581794015 -0.013185228831625163
-0.032176962777084595 -0.06436916839098315 -0.0344809614762393 -0.07501923806142752 0.11545912949257851 -0.04015444300514131 0.08427482965294546 0.003526928583186895
0.009575985392253237 0.06431406416990303 0.04951445277878119 0.09625696429734895 -0.03155794779731572 0.14867235200001613 0.09794112546098234 -0.06498463154493353
-0.2715557297506631 -0.007468393120862603 0.24604513755312035 0.3799993435380824 -0.5173960609856237 0.18397255977650384 0.217839678487949 0.25114094434292883
0.026453195176802967 -0.3885337452191339 -0.0800931918144228 0.037535344504128446 -0.04366096867881569 0.07856844567821059 -0.005389968334087143 -0.006592461663203071
-0.05319661906473787 -0.049029009471148716 0.03832042830687466 -0.06946494493882939 0.4243134064473507 -0.20518301113002238 0.16155089016505528 0.031217399950542075
-0.11650666475420657 0.2908050763948815 0.13456008444166975 -0.40422444893792026 0.24258816353407753 -0.435570850364424 -0.2404767483162153 0.20114160258224884
0.14525309208801532 -0.09556383815638421 -0.305927639762943 0.035299903968448745 -0.2049636157353621 -0.1852001211054791 0.2533989110769376 0.39617640988049674
0.0435832672863268 -0.01409183300699734 0.10510987919925546 -0.08881145421714763 -0.08689204441944463 0.05138309811620902 -0.20333586896363104 0.023651783187740676
0.003528434342995394 0.012122756055100322 -0.33125057181203943 0.47308468765838424 -0.17136591815287106 -0.2668082735997509 0.2053704247945562 0.5746415905439778
0.21250924314609695 -0.4039789187587992 0.06842532628683613 -0.4250952430752524 0.04353919942635937 0.041235970843022086 -0.016876834718661606 -0.05716365540106986
-0.0071875999780385115 -0.027960215648288777 0.08938250717101495 -0.036395996408420186 0.08666848311877888 -0.009821573885984782 0.27702750122746833 -0.11404880033199445
0.2459022052658902 -0.378910549443065 -0.24027218578488102 -0.07118788791840291 -0.11425831869741028 0.06453707604869312 0.6645630698435653 -0.5553364584089975
-0.08385301483658451 -0.025818373970395637 -0.01161747185494342 -0.07999417614840337 -0.003130377405934183 0.03950004042779209 -0.008922421037748806 -0.029074309467926072
0.12606935682352538 -0.03634574820835273 0.056736675269417544 -0.0483336332490948 0.18815669628185558 -0.06260249392490506 0.050699593174785375 -0.14178360254847258
0.014118948460869354 0.058585491720446414 0.012287127784060062 0.03714265885811924 0.15959558056900408 -0.0978148689044529 0.6938303500789289 -0.2323700379883412
0.08472554186305988 -0.28613723367737204 -0.023726103148256527 0.00779957233108248 -0.0756198989024357 -0.24117797672392607 -0.005399012776402467 0.4618279961781395
0.4289941004327855 0.1497035027593903 -0.43881055579296796 -0.18784259963446823 -0.10924579551844454 -0.17524396611032253 -0.093356871797122 0.4100788751833773
-0.0019344847901603584 -0.05395288893624743 0.09955946555432224 -0.0372641327162822 0.019102332457630593 0.07153149257071445 -0.11355865562255249 0.01968899456200188
-0.03482235321942698 -0.13625131899373213 -0.06426292486645244 0.23822770554905282 0.1410878090773437 0.47882803859618106 0.062346495309233176 -0.4928849740056105
0.07949322407557445 0.23478633640759905 -0.478589945693856 -0.3459795661888757 0.014792912143690063 0.06213976594841216 -0.029548588572301183 0.03713305840146578
0.06477793685775225 0.0055563629451243135 0.06276188810231344 -0.015080770224586726 -0.004496112316135105 0.09204030047546022 0.35872665247555685 0.14458927193161278
0.2028149457193741 0.029723225603902483 -0.5896516006219981 -0.15186349008064817 -0.3680948696786086 0.11685347167109407 0.32665824438890617 -0.12747259713226292
0.1068148115289241 -0.2837955808848165 0.11703239832525149 0.6687289593307068 -0.2760157155324723 0.5992471331241199 0.014874845438986812 -0.36125358926289025
-0.20932519996137391 -0.23070995743884035 0.014712838129194567 0.009059118585056487 -0.024293882014583792 -0.09133319559319035 -0.027211637944681573 0.014782998299559948
0.026841373846583028 -0.07802053945096031 0.029196336827493393 0.0016298855764000629 -0.09498517444726746 -0.054527032263942385 0.0018395902546445625 -0.04552588482945499
0.03279459057479308 0.009688871037813653 -0.04998755867999598 -0.05282213107975937 0.04443425505380175 -0.04716838129753534 -0.01357112235734423 -0.030041746927649042
-0.0014698794665256305 -0.0380176489881215 0.1190211964042572 0.055062453753043326 -0.029282281147555947 0.07733344773548134 -0.008671708826912023 -0.01016916622352036
0.07894414745051703 -0.06364327721008976 -0.018682325013432158 0.0012639114629540826 -0.004470600536843174 -0.03701459603883234 0.038016654187663076 0.015851165245459906
0.044207950986781604 0.011888943079409625 -0.10619005833534237 0.0016352432945873948 -0.07729124817682408 0.09966272964718965 0.492632544023607 -0.26995847888844776
