notebooks/models/simTwoLayers/experiments/he/weights_he_0.pkl.npz (npz, 715948 bytes, 3 tensors)

arr_0 f8 [784, 100]
00000000: d8f2 11a0 b15f 753f 5118 7d64 d51a ab3f
00000010: 1b61 b330 70ff b43f 2e1c eb06 97c0 85bf
00000020: 8f3d 7ebc 212a b13f 548e 3088 4702 b1bf
00000030: 6dc7 60fd f6a6 a4bf d4a0 b302 fb15 87bf
00000040: 7e19 1df1 8adb b23f 387c 3714 8729 833f
00000050: 3715 7c85 868e abbf 67fa b547 a600 983f
00000060: 5b09 69fb 4e6a b03f 586b 28e1 85b2 9ebf
00000070: 1012 e502 f280 803f de4b b566 b004 a33f
00000080: 064b 17bc 9ca8 a8bf 939c 60b5 c8d4 8bbf
00000090: 505e a603 2016 b1bf f93c 433b fca2 a23f
000000a0: 897a 2445 7b93 9cbf 239b 4bc4 e83c 95bf
000000b0: c895 d935 f73e a73f cc49 d897 12bb a8bf
000000c0: d38e 1584 c932 ba3f 4e3f 3dd6 e99f afbf
000000d0: 9df2 67a8 cd9e a93f 5be1 4317 7b20 863f
000000e0: 665d ab61 e131 ba3f 4e84 2e33 cbe7 b4bf
000000f0: 9539 764c e7df 99bf 378e 6310 bcc6 99bf
00000100: bff1 3cd3 dbf5 b8bf 6b69 08ce 0ed7 a43f
00000110: 34d2 fcc6 bb31 b2bf f5f3 ebbc f363 a5bf
00000120: 52ea 1aa0 f385 bb3f 4ea8 0aa0 acc5 abbf
00000130: 97bf d462 5271 70bf 24de 4eb9 72a3 43bf
00000140: a0b1 4408 78b9 87bf 3552 5995 5f1a a8bf
00000150: 0fda 834d 1303 bc3f 2925 9d6b e845 85bf
00000160: 156e 328a 9171 aebf 909e 0b29 fb14 b13f
00000170: 41c7 57ab 705a a53f 6a9e 1b45 d6eb 953f
00000180: 3fc7 78f2 a5cb a63f 403d fee1 a4b0 b2bf
00000190: b94e 0d1b 4fca 99bf 8ba6 21cf 8ec7 96bf
000001a0: e473 b495 f6f3 bd3f cb60 0355 7a13 963f
000001b0: 5704 913a 14b9 9a3f 56bb bbab 469e a13f
000001c0: 632e ddba 24b5 9abf 37e8 a14b 39b7 b0bf
000001d0: af70 d68b 469c 7cbf bfd4 fc48 e987 a23f
000001e0: 1b2b 2605 d1cb 8c3f 1dae e8db 9960 903f
000001f0: 15ae c3bd fc38 b5bf 5079 a71b 17ae a23f
00000200: c3e0 3ea7 64c8 a8bf f908 8aa4 0e0e 9a3f
00000210: 6ecc c235 905b a83f 98c6 4ed4 bd4b 73bf
00000220: cb52 37e4 d616 b33f f2cf 85d6 a78f b5bf
00000230: a0d4 9c31 3101 5abf 6714 ecc8 4ded 63bf
00000240: bb62 fb64 c708 89bf 7a26 866d b38d b53f
00000250: b442 d646 bc42 833f 90e6 f0db 24f1 98bf
00000260: 570c bf00 d38f 9dbf 72cb 30f9 07e1 a43f
00000270: 2b79 e196 61f5 4abf 8367 045c 3272 b63f
00000280: 3352 0d27 c871 8bbf 6307 8479 0b0d ad3f
00000290: bf9e 7816 cc33 a7bf 9999 7f21 bd13 a43f
000002a0: 5141 8087 0baf 993f d705 009b 23c5 afbf
000002b0: 0af8 0c76 627f 94bf 1af3 70b1 234b ac3f
000002c0: 12b5 5ab1 f377 acbf 4c9b ef2b 99d7 973f
000002d0: 86a1 9bd1 dded 8abf a107 45fa 8d03 5abf
000002e0: 5ec1 4f18 6689 a43f 5aee 368f 9e02 7e3f
000002f0: 8c32 0de1 7a20 923f a034 11d2 a760 a33f
00000300: 8c48 ce2e d8c9 a1bf f27c d69f 249c a73f
00000310: 31bb 8e9a f243 903f 4106 bfcd 6b1d a3bf
00000320: eb31 e436 9805 a3bf 4d25 3536 8d21 a4bf
00000330: a68f 7e2c 6c13 9bbf 18fd 6462 eea7 b13f
00000340: b07b cf39 e9e0 a1bf 8cae 175b f9f4 733f
00000350: d103 d9ab ea56 b23f 2bef 2d8f 7967 a23f
00000360: c989 417a 88ff 69bf b769 0996 c17f 863f
00000370: 7cda 82ee a6c2 a6bf 9fe7 63e4 a543 a2bf
00000380: 1792 3dc7 e0bb b13f efd2 4741 93ab b23f
00000390: 08a2 3b4f 9db9 a13f 9fd2 acbc bff6 803f
000003a0: 100e 6b1e 108b 9ebf fa27 0d6c 4ca9 8e3f
000003b0: 3971 cf14 7089 a8bf 3b3f 5d15 e3cc 84bf
000003c0: cc4e e221 b467 97bf d471 776f 2491 a5bf
000003d0: fcd8 9c19 6a1b b9bf ebb1 6742 eeda 4cbf
000003e0: 249a 8de6 a1cc b63f 45e9 9813 d4f3 b8bf
000003f0: cf40 5678 5c82 973f f883 7b0c 5c53 7e3f
00000400: 2c8e 84c3 28dc 90bf c286 a71f 965a a1bf
00000410: f6f9 6178 2668 8fbf 6a66 bcab 8e54 b0bf
00000420: 41cc c333 2026 a83f c844 8bb2 5800 a9bf
00000430: 51e8 ad0b eace a03f 6166 5a36 53a7 793f
00000440: 40f9 5ea4 09d4 a7bf 4550 228d c65e 7abf
00000450: 46f3 c918 0402 94bf bfe5 ceaa e918 afbf
00000460: 5ba7 f5b0 d092 91bf 5e35 c3cd dc0d 58bf
00000470: 4f81 43b1 8175 a1bf b9d4 2cb6 e689 86bf
00000480: 1081 f47a ec2a abbf 1cab 4d6b bca2 733f
00000490: 6f2e a41f 87db b33f 21c7 8f43 dcf7 9b3f
000004a0: a86b a947 5746 b13f 42f4 a604 2d54 a3bf
000004b0: 9bb4 242a d78c a83f c8bb dd6e 7ea5 92bf
000004c0: d0ac b25e b112 9c3f 2181 cdb7 c7c4 94bf
000004d0: 4c12 fb14 af78 b6bf 38ff 0775 7b8f a03f
000004e0: 2835 5d06 0889 93bf 954c b07a 4cec 633f
000004f0: 6b3d ab46 7cf3 a8bf 1e8b 5645 384d 7b3f
00000500: 9f05 3fc0 b404 933f 5b3a 89c8 2771 913f
00000510: 356c 3dda 512d 313f cedb a3b2 5ae3 73bf
00000520: 6046 ffc1 09c9 b8bf 8001 790d a137 79bf
00000530: 6502 ccd6 f01b 8cbf 6928 9792 8edf b5bf
00000540: d57f 6660 6f52 b23f 4444 a0bf e634 60bf
00000550: 1248 efb6 2770 b3bf 0bea 61b2 8785 a9bf
00000560: dfd6 6249 20d9 a33f 32b3 ff73 77c8 7bbf
00000570: 607d a8d6 fad0 353f 8406 4be1 0de3 91bf
00000580: 6500 2e74 3ce1 c03f d641 fb19 eda0 463f
00000590: b551 2d42 d6cc 883f 9233 7b97 e5e5 a5bf
000005a0: dafe 6a93 b568 adbf 0030 3e26 7045 6dbf
000005b0: e9de de99 bfd8 b3bf 3241 5d3b 51ac b53f
000005c0: 119e 923b aa62 94bf f9d2 4a24 67a2 a8bf
000005d0: 1549 677b e365 8bbf f188 a57a 630d 53bf
000005e0: 5d59 1816 5d4f 7e3f 1bad 1414 730d 813f
000005f0: b5a4 b966 ae05 bc3f c95a b77f 6308 c23f
00000600: 1e50 765f f5c4 b03f a008 e5ee 5e1c b0bf
00000610: 0d1b 89b1 13ad aabf da86 62d2 49d4 953f
00000620: 483e 4a36 48c3 7ebf 99b5 d8c4 dbbb acbf
00000630: f6b4 899b 2633 a33f 7ad0 37f7 867b abbf
00000640: f834 ad4b a8f0 aabf 2e9b 0b9d d14b 98bf
00000650: fdc8 de79 69bd afbf 8126 31e1 d80f 903f
00000660: cbe9 ed5e e646 553f 2b3d f28f 863e bcbf
00000670: 3c27 b3a7 b712 a93f f7e3 0723 3a37 87bf
00000680: 742d d58f c9df b1bf 824f 0795 be34 83bf
00000690: 2631 7f2d 919c 933f 4d08 97eb bf5f a83f
000006a0: 47a6 88ac 493a 94bf fcb7 cf4b acab 46bf
000006b0: cbd9 fcca a446 bcbf 7aa9 1f86 6e1a 9cbf
000006c0: fc8f a960 35c1 b53f f0a8 26ec 526c bf3f
000006d0: 9d54 6e17 c90e 85bf bc53 2bf8 34a7 733f
000006e0: b6d8 4165 8da5 adbf 97cf c605 1dc7 923f
000006f0: 89c9 98b2 40a1 a83f 2ad0 e161 1356 8e3f
00000700: 53d5 d032 52c7 a5bf f9e5 3b42 9a88 a53f
00000710: cf7b 0ca1 f282 c03f 90da 9821 186b 973f
00000720: cbab 53c8 fe76 9dbf 49e5 f3d2 9e78 abbf
00000730: 9c36 3d3d f2a3 75bf a9e8 a08e 6589 a2bf
00000740: 8e89 3235 0c00 b1bf b567 48e0 2ddc b33f
00000750: 7df6 833b 0e32 9c3f c79a ed86 c3cf 993f
00000760: dd55 fb8a 7dcd a5bf 0c2f 43ec c861 b1bf
00000770: 6f58 4b83 d7ea ee3e 981a 5b47 8e45 a2bf
00000780: 2050 cf98 c014 9abf 890d cf64 6c8c bfbf
00000790: 73d4 402f eec1 873f 0fdc 7bb7 8631 a93f
000007a0: e873 6447 dab1 80bf aca9 212d 05e1 99bf
000007b0: 90c2 4064 e981 a23f 1e31 28d4 0de4 8d3f
000007c0: 553a 678c aa33 b3bf 0a6a 0d69 476c acbf
000007d0: 97ab 61f1 a2ff ad3f 1497 da6f 655d a23f
000007e0: e086 91e4 6765 9dbf ff41 3810 6b30 ad3f
000007f0: f75a 7675 4e7c 8cbf db3b 000a afd0 a2bf
0.005218213890768118 0.052939098850899875 0.08202267827016778 -0.01062124242652204 0.06704912998087863 -0.06644103121703299 -0.04033634036058129 -0.011272393245647917
0.07366245638431754 0.009356551460710447 -0.05382175807430161 0.02343997776687914 0.06412213933893922 -0.029977886073634025 0.008058443749754424 0.0371451497436721
-0.04816140934021544 -0.013589447055052417 -0.06674385155781093 0.03639972899838457 -0.027906347365496607 -0.020740162831226826 0.04540226490352556 -0.04830225089621684
0.10233745073997662 -0.061766917612315994 0.05003969841707099 0.010804139754768618 0.10232361444956481 -0.08166189193299653 -0.02526818660913362 -0.025172174930857074
-0.09750150592021266 0.04070326104211371 -0.0710713730630424 -0.041778199016313446 0.10751269015137524 -0.05424251035340487 -0.004014322109739419 -0.0005993185210319591
-0.011584222557382173 -0.047076212864940827 0.1094219269033163 -0.010387244972337744 -0.05946020900702479 0.06672639610371278 0.04170562831485692 0.02140745922852575
0.044522462700469216 -0.07300787465486724 -0.025185810114023186 -0.02224562777738596 0.11700383334068892 0.021558677138131793 0.026096645426381872 0.0344106754908952
-0.026081632523796815 -0.06529577347274161 -0.0069849734985859965 0.0361931706997125 0.01406062409366409 0.015993503615545735 -0.08290080674094498 0.03648445332122441
-0.04840387860844111 0.02544424895541739 0.04757357269536376 -0.00471090461808079 0.07456725188906003 -0.0842232607590743 -0.0015871982963749157 -0.002432491229571943
-0.012223775643563575 0.08419343398977644 0.009404631530544584 -0.024357391285070806 -0.02886895839743561 0.04077935139539236 -0.000822708750785305 0.08768000360978871
-0.013400615398191018 0.05674014910074623 -0.04531705641084959 0.0392130950347564 0.025081806321453574 -0.062050926848325076 -0.020017183737984147 0.05526076832800282
-0.05560266056031983 0.023283379847181693 -0.013149006804682239 -0.0015877615451959997 0.04011076971790105 0.0073267167785463164 0.017702026353890107 0.037846798317880515
-0.03474307605132862 0.04611315203805501 0.015884199794238888 -0.03733384024191056 -0.037152058315857626 -0.03931847845758316 -0.02644127866336956 0.06896867658814576
-0.03491906004614209 0.004872297331057884 0.07163874335766642 0.03594570038600716 -0.0031736054971116296 0.01098586310506709 -0.044453827490930714 -0.035672363404912526
0.06927304138441347 0.07293053001178483 0.03461925117682446 0.008283136315733684 -0.029827358109072277 0.01497134880778005 -0.047923567333528934 -0.010156416024670647
-0.022856535499683514 -0.042122973067055064 -0.09807456136045184 -0.0008805907607985474 0.08905994299639325 -0.09747052648973405 0.02295822605589209 0.0074037166266132035
-0.01646484082551873 -0.033894244541227816 -0.015335369633473466 -0.06379024212619702 0.04716587669272388 -0.048830768389629464 0.03282863037652873 0.006263089225876679
-0.04653959399682828 -0.00643804129699183 -0.019538940442078066 -0.06073694429455711 -0.017161618042713083 -0.0014681488310544703 -0.034099629295954 -0.011005213198226437
-0.053061857232252874 0.00479386903030379 0.07756847879880423 0.0273126999126766 0.06747956752353323 -0.03775158578671568 0.047949527639823596 -0.018209434048397616
0.02741505756845869 -0.020281906693868316 -0.08777899038529674 0.03234468272785168 -0.019077420605119105 0.002432011960544831 -0.04873264658601325 0.00666543942262157
0.018572639688277822 0.01703321610903639 0.00026210068084759074 -0.004855493820506275 -0.09681759821185087 -0.006156567680193681 -0.013725167803842095 -0.08544245795124684
0.07157035926365947 -0.0019783503348738424 -0.07593010154894866 -0.04984687855263211 0.03876591583086308 -0.006782976735831879 0.0003328907393171567 -0.017467705608174913
0.1318736617358837 0.0006905706140632416 0.012109445471346495 -0.04276959871422216 -0.05743949341331041 -0.003573149720926594 -0.07752606875044034 0.08466060351679941
-0.019907626997023146 -0.048114035778246085 -0.01337793083522291 -0.0011628600573990145 0.00739990579452007 0.008326434183422429 0.10946168907107075 0.14088100181716914
0.06550534802073613 -0.062932904552357 -0.05210172216589202 0.021317628351090835 -0.0075104542526243726 -0.05612074640189774 0.037499624716341204 -0.053676812818509625
-0.05261732028757565 -0.02372672577885309 -0.06199197399782184 0.01568545221770146 0.0012986421313302295 -0.11032906545937197 0.04897092744938766 -0.01133580607801042
-0.06982097398320325 -0.00937794582652152 0.01915194359007546 0.047605512150327024 -0.019753600268961582 -0.0006918517389047358 -0.1104529376578746 -0.027444579063663245
0.08497937784119353 0.12274664178281447 -0.010282107379490585 0.0047981328122732 -0.05790368901300395 0.018337682225776666 0.04810526065957094 0.014812613892196753
-0.04253632421788702 0.04205781992454755 0.12899620879849613 0.02286946969089826 -0.028774243332843768 -0.05365463566881574 -0.00528330444997285 -0.03620450368949097
-0.06640697764172485 0.07757841802268113 0.027534696943794835 0.02520661841426877 -0.04258339234881323 -0.06789832847715277 1.4742541773509803e-05 -0.0356869184593524
-0.025469788862963694 -0.1232364412417636 0.011600361649565216 0.04920598020355992 -0.00815172701237006 -0.025272446517570366 0.03614739750662921 0.014595134770410353
-0.07500711372197462 -0.0555136028039734 0.058590976682203415 0.03586880674747142 -0.028707145047866756 0.05701002667422372 -0.013908970794358917 -0.03674838063317739

arr_1 f8 [100, 100]
00000000: 4da5 c5e1 47bc 653f faf5 a25f 927d ab3f
00000010: d6fc bafd 8113 85bf 3bdc 5635 33a8 b83f
00000020: 9919 8edf 358d 76bf 144f 71b5 09db b0bf
00000030: dd22 819b b9ba 8e3f 9336 75df 8a36 95bf
00000040: ecc8 fbf3 81ac 6b3f f5b5 1ddd 3f91 9bbf
00000050: 2c2f eced ef00 70bf 171f 8f41 0413 7b3f
00000060: 3c5c 37c5 91de bcbf a9e8 c5f8 d464 b7bf
00000070: f4eb 3a7d 5b06 96bf 1fa6 53b7 c349 80bf
00000080: 649c df20 b57a a63f 3e5f 1e1e 8f8a b3bf
00000090: 4bcb 6bc4 b421 87bf 4605 9afb da69 b9bf
000000a0: 60ef 0446 0615 993f 0a1d 3d96 bcb3 90bf
000000b0: 6a83 4af9 5285 b5bf c75b 473e b204 92bf
000000c0: 72bd 681a b0e7 b7bf 6f76 9ebb da59 973f
000000d0: 259c fb1f 7da6 863f 96b7 8d7c 685b 51bf
000000e0: 7a7a 4ea3 9198 9abf 135b f1fe b3f6 8c3f
000000f0: 8122 306b 50bb 8cbf dd1f fdc4 4eb5 7dbf
00000100: 0a59 a22c f3ed a1bf 809f 2028 5aac adbf
00000110: 3276 fc55 525f 903f 5ad0 fbe6 93c6 af3f
00000120: 3eb3 9253 606b afbf 5df1 c598 b7ea a4bf
00000130: 010d 77e4 e835 96bf be61 7c2a 56f8 b03f
00000140: 1325 a407 aa4f a13f 16f1 fa89 72b3 adbf
00000150: 2a41 75f7 0dbd b23f 4cde 0739 7da3 b1bf
00000160: 1d59 1b62 15a3 b23f c11e b05f d2f2 84bf
00000170: e193 1512 dc89 8d3f 3879 6387 0089 acbf
00000180: 6758 01e6 022d ab3f a811 36f6 a60c 95bf
00000190: fcac 69df 6613 aa3f 7f1f c0fb 4916 6ebf
000001a0: 61cf bfc4 7e28 a03f 28fb 62fd 4787 0d3f
000001b0: 3744 bc89 9523 90bf 83f1 4bc4 ee6c a03f
000001c0: 60b5 4c18 eb1f a43f 2393 ffcf 86ef c13f
000001d0: f43c 1856 510d a53f 66f9 7fdf 6b37 af3f
000001e0: b13d e4bb ff81 98bf cecf cb9a 4959 6b3f
000001f0: a0dd 7503 d545 9b3f 3a7b 4ca9 c54e a93f
00000200: 9e40 6e30 a064 a0bf d575 4841 b1a9 a73f
00000210: b6d7 476c f3b5 aa3f 26fa b550 abc8 9dbf
00000220: 1ef5 3f90 fe24 9b3f 18ba 45a8 e789 a2bf
00000230: 3781 61a8 8d89 993f 6f99 8d13 9702 b6bf
00000240: 5aab 0bcb 81ec a6bf 8dac b0a3 acfe b3bf
00000250: beab 243c 44a1 a93f 6a6c d4b1 9a4f 93bf
00000260: ce2d aa61 bda6 82bf 611e d8fc 8d8a a23f
00000270: b9e0 f445 d131 9b3f b599 d050 d185 a9bf
00000280: ef54 e62e c470 98bf 70d9 6bb8 2f38 a8bf
00000290: ba18 948a e8e8 893f a4f0 6962 6d1b a23f
000002a0: 16e1 b58d c8f6 b5bf 0f0e c898 a62a a23f
000002b0: 36e1 0671 cb9c b03f f8c8 37da 920c a23f
000002c0: dbc6 65e0 5ade aa3f c2dd 2d13 a36c 8b3f
000002d0: e671 0178 85cc a8bf 07db bbce 9b0d 98bf
000002e0: c61c 46b4 4cf4 753f 8558 ce38 e661 a7bf
000002f0: ea6b 7ab9 41a9 54bf dccf d114 7059 a33f
00000300: fc8c ebca abdb a6bf 3d68 c39e 21da b1bf
00000310: 6657 9027 c3bb b4bf 91f5 bbe6 bd19 a53f
00000320: b9d4 d753 6d35 b43f 2c31 0210 42d5 b2bf
00000330: 19b9 3462 071b afbf caca cccd 6cf3 c13f
00000340: f32d eba2 c0ac a7bf bebc 7511 d3b3 a13f
00000350: d3c5 89d4 99e4 903f 7703 a70f c85b c0bf
00000360: 0562 44a5 a935 a43f 244a 9a3a cda3 b33f
00000370: e05d 3fc4 a0a7 88bf 0ec1 d1b3 12ba b13f
00000380: a85f a7f2 72f5 a23f 060e 0c69 eca3 953f
00000390: d6c9 652b 399d b13f 5a13 337b e968 973f
000003a0: 5ec2 0fd7 4610 b23f 88bb 678b 6970 a13f
000003b0: e6bc b481 4a5c abbf 707f 6527 010f 883f
000003c0: c198 3d7d 417d aa3f c5f8 288e d735 993f
000003d0: 511c 8261 73b4 93bf 7e03 91a9 8cfd a5bf
000003e0: 1008 709c 08bb b7bf e2fa e8fc cd9d 783f
000003f0: 2f5e b523 1285 953f d34e 75f8 2c07 8b3f
00000400: db12 c2ae a37d b33f e093 a6e7 9e58 c3bf
00000410: 9469 be3f f086 a83f c9c1 eb31 3387 a03f
00000420: bfd6 508d 78ba 993f 309c f3ec 12f3 c33f
00000430: f7a1 eb46 13cb 90bf d34f 5c58 3c30 993f
00000440: ea2e 1bcb b76a ac3f 4eb9 2c3a 82ae 9b3f
00000450: 3fa9 1b8c 9e86 c5bf 9b8e 50fb 6d03 a23f
00000460: b994 8c93 0f3e aabf df9d 0ddd 7614 b13f
00000470: 8ca3 5df1 1636 9bbf 15fa d555 c5fb c1bf
00000480: dd03 9d3b 5b4c c43f b73f 15eb 0659 b73f
00000490: 8d62 129e bd01 afbf a763 84da cd01 93bf
000004a0: a49e bf40 143c 7b3f e106 47c0 a626 b13f
000004b0: bb16 6d4e ac0f 80bf 1529 edcd 877a aa3f
000004c0: 31d1 b20a 8660 babf 0289 af0a 75ae b8bf
000004d0: 414c ccc6 1610 9bbf 23b4 22c0 c1fd 80bf
000004e0: 2994 eec8 1623 a93f 2f84 c331 316a b13f
000004f0: efb5 cc5f ac14 993f 04be fc19 ffbe 953f
00000500: 2eb0 2986 bf30 983f a141 6907 3634 a23f
00000510: 577f 661b f4dd 763f cfcc 9c34 f0bc a4bf
00000520: bd66 16d3 e914 b23f 0bd8 29d7 daa8 a13f
00000530: b7a1 aabf 8a3c 84bf 54cd a1fd 777b acbf
00000540: 6b05 35be 462d bebf cbb6 0dbb d882 a23f
00000550: 5c97 2bd3 5164 c33f fd76 6b59 6b23 ae3f
00000560: 9dcf 0c66 e03e 91bf dee6 2311 5a7a afbf
00000570: 8764 cb73 93e7 ac3f fa40 23b5 9f2b b0bf
00000580: efd8 ff85 ccc4 b23f 15ba df18 5f28 a03f
00000590: 77d7 394c 5a96 753f 683a 8c5c 419c 8fbf
000005a0: e8e7 bff0 e431 aebf 3a0e 58a3 7b30 b93f
000005b0: 852c c2ee 1137 b5bf 6969 91b6 0397 90bf
000005c0: b15b 4e4f d65f 953f 0e18 80b0 801f 9cbf
000005d0: d0b4 df09 9ab3 adbf e229 c935 7e08 913f
000005e0: 5a8b ce6b ea52 b23f 8538 fe30 c469 b4bf
000005f0: cd08 e71f 2760 c03f f2c6 27c5 d24e a3bf
00000600: aa1a 5503 d01c b1bf de3f 9d5e 43a1 84bf
00000610: 4a94 8cb0 45bd b33f 0a3b cc9c aadb 95bf
00000620: 1155 4dba 582d 90bf 8c32 6ed7 7caa 7d3f
00000630: 1dd1 5501 fcde 98bf 2ac7 48fb 8c9d 87bf
00000640: 1309 e1b5 31e6 ae3f 7397 1777 ed14 a6bf
00000650: fc12 2e11 089f 84bf bb13 e860 e7ac ac3f
00000660: 4b59 93b2 514c 9bbf 5d6e d2d2 fde1 8bbf
00000670: e381 4119 1d96 7b3f 57f3 2e42 491c b1bf
00000680: 7eab 7643 78fe b03f 2cc5 bfc2 f064 abbf
00000690: db48 97f9 6320 ad3f b277 c9fa a97c c7bf
000006a0: db56 b767 2437 c73f f3e2 ce62 968c c73f
000006b0: ac86 f1e4 776d a83f 3192 1eeb 891b b33f
000006c0: 8241 eaf0 ef90 ae3f 677f 686d ac55 b13f
000006d0: 5a3a 2168 3dca 843f 340b 60c0 bc08 77bf
000006e0: 6a4c 86ae 6a04 c73f 81bc 5561 cbad a5bf
000006f0: 6838 080a d474 b2bf bb61 6cf8 8f58 90bf
00000700: 6c3e 6320 be5d bbbf 7ed3 c0f9 f763 763f
00000710: 3205 d6e8 648b b0bf 015f cc26 fbe7 b0bf
00000720: f490 c5d8 1e24 b83f 9c6e 7869 9f0a afbf
00000730: 74d1 c6c6 fa5f 903f 8aeb ca4b 3bd9 a8bf
00000740: b309 b32a 9e92 94bf 7ad7 4e72 9d66 92bf
00000750: 6de0 462a 9884 7bbf 2873 28e9 e67f bf3f
00000760: 3397 ab8b b7da a8bf 1bd6 46fc 792a a5bf
00000770: 2047 6157 0ba0 7fbf 5cd5 3c93 333a b73f
00000780: c9b1 b48f 947a bdbf aa1a 91e7 6fff a1bf
00000790: 2f0a 43f1 e1a2 c83f 0bba 6da9 4256 cc3f
000007a0: 42e2 aa58 caa9 b0bf ee41 f7f7 6c66 97bf
000007b0: 3881 a1dc c54f a4bf e8d4 ab37 fc3c a63f
000007c0: f346 d7e4 c262 b63f d426 ac0a a946 70bf
000007d0: 64ce 9374 2e35 babf ed76 cf97 37ec acbf
000007e0: 00a3 8282 4575 97bf 93c7 2afa 3227 a8bf
000007f0: 3347 a061 2ec6 9abf f6fd a81d 20cb 86bf
0.002653255838755675 0.05369241158903644 -0.01029111438344758 0.09631652881840662 -0.005505762522153645 -0.06584225349189082 0.015004587228888361 -0.020715875519548076
0.0033781564851490444 -0.026921270247319346 -0.003907143806610763 0.006609932542182915 -0.11277113976335412 -0.09138232301293904 -0.021508626478617246 -0.007953194648922466
0.043904934180141436 -0.0763329933673704 -0.0112947580759958 -0.09927147524469601 0.024494264625203654 -0.01631064097389604 -0.08406561456878384 -0.017596039820855027
-0.0933790268397752 0.022803704930643705 0.011059739626444973 -0.0010593910576192959 -0.025972629158440765 0.014142423837410633 -0.014029148360365841 -0.007252986615476656
-0.035018538664347856 -0.05795556773983801 0.015988623140506593 0.0620619029486142 -0.06136609096697619 -0.04085324993045234 -0.021690024322890803 0.06628931557896231
0.033810914452326334 -0.05800970014886013 0.07319724360900595 -0.06890089647628733 0.07280095715700381 -0.010228770775952413 0.014423102666748679 -0.05573274281208501
0.05307778413468683 -0.020556076791324124 0.050929274341649816 -0.0036727375973021887 0.03155895377849905 5.632103391083602e-05 -0.01576074269457114 0.03208109041404141
0.03930601760508057 0.14012227207344904 0.04111723113975954 0.060969706566526935 -0.023933406680098638 0.0033384740439661225 0.02663357576008496 0.04942910853991696
-0.03201771346277947 0.04621652528679091 0.05216942498002146 -0.029085804749678833 0.026508309892951158 -0.03620838097673501 0.024938786890176003 -0.08597702243205217
-0.044773155246579946 -0.07810477253285537 0.0500584910790489 -0.01885835371386372 -0.009107093375198352 0.03621333800770966 0.026557226080712513 -0.04984907256612151
-0.023867669451267778 -0.04730366827236565 0.012651268700676222 0.03536550356236148 -0.08579686603286904 0.03548164954193222 0.06489249715275922 0.03525217927735186
0.0524776839182672 0.013390802405168215 -0.048435374163748254 -0.023489412777929732 0.0053599354035959775 -0.04566878741677364 -0.001261057075601308 0.03779173139710654
-0.04464470722248312 -0.06973466993386608 -0.08099002567209154 0.04121201936321051 0.07894023224783354 -0.07356655970415166 -0.060753088701277665 0.14024124192072512
-0.04623987187150282 0.03457507694371874 0.01649704322557517 -0.12780094875600032 0.03947191374226481 0.07671816521386937 -0.012038475026129924 0.06924549951668643
0.03702887737352906 0.02113313094288396 0.0688052874518584 0.022861145157338704 0.07056086302305561 0.03406076266025254 -0.05343849976849828 0.011747368826661136
0.05173687604728761 0.02461945347953855 -0.01924305231707663 -0.042950053881674485 -0.09269765681531816 0.006009869232512984 0.021015437535736033 0.01319728024706227
0.07613585487895184 -0.15114198981350935 0.04790449884531536 0.03228149399172115 0.025125392556410327 0.15585552759077492 -0.01639967079509749 0.024598067181685068
0.055501693289981294 0.02703288536138731 -0.16817075577939453 0.035182415893612894 -0.05125473667275444 0.06671851059729005 -0.026573523027227305 -0.1404959363098476
0.15858021174247386 0.09120219458895816 -0.06056015543544389 -0.018561569654682277 0.006649092782005237 0.06699602312348986 -0.007842394011855594 0.05171608341932391
-0.10303533326333959 -0.09641200552826848 -0.026428562053365082 -0.008296502758037566 0.0490958328512437 0.06802661385474161 0.024492925021311448 0.021236406289231638
0.023623459399843387 0.03555458870380624 0.005582765143486621 -0.04050398485414918 0.07063161281112236 0.03449138523585312 -0.009881099676321321 -0.05562949153036337
-0.11787836211899154 0.036154530366599845 0.15149901209877725 0.05886397806692221 -0.016841417530670467 -0.06148034533721412 0.056454284558364036 -0.06316564724261645
0.07331541320295164 0.03155800989758376 0.005270340657821274 -0.015434752117952047 -0.058974413288481575 0.09839604127778837 -0.08287155226769201 -0.01620107461745005
0.020873402204951656 -0.027463923237540704 -0.0580108773282092 0.01663396075518076 0.0715776932907323 -0.07973886676902182 0.12793435151804147 -0.03771074921304586
-0.06684589463575699 -0.010073210072420066 0.07710681495935137 -0.0213457735254066 -0.01579798352334644 0.007242667829711846 -0.024288117963309753 -0.011530972879970475
0.06034999222949202 -0.0431284149051824 -0.010068953537265106 0.05600665147725389 -0.026658321880711083 -0.013614638325001477 0.0067349564234011365 -0.06683786264234236
0.06638290068683081 -0.05350448968227747 0.056887745111127784 -0.18349194283922327 0.18137030662790363 0.18397788834206316 0.0477101771327971 0.0746389578840272
0.05969953361375514 0.0677135245427941 0.010151366939820484 -0.0056235669235345405 0.1798222877665439 -0.042341571456625544 -0.07209515805172517 -0.015962838685568786
-0.10689914980616216 0.005466431288415728 -0.06462698635552469 -0.06603975007271502 0.09430115501669772 -0.0606279197929471 0.015991133100855717 -0.04853234577372863
-0.02009055266968014 -0.017969570257001057 -0.006718248744100303 0.12304537956556472 -0.04854367809256956 -0.041339695020195154 -0.0077209895153645125 0.09073183388394085
-0.11515167721217447 -0.03515195562117886 0.19247078209271382 0.22138245842820967 -0.0650907961343217 -0.022851660380014786 -0.03967111891029379 0.043434030338099394
0.0874444779103916 -0.0039736369315137195 -0.1023739847767558 -0.056489693910163875 -0.02290829285689977 -0.047174065626122495 -0.0261466261945948 -0.011129618554263292

arr_2 f8 [100, 10]
00000000: 0584 569c 3709 d5bf d083 4d84 ce4b a4bf
00000010: ded1 98e6 bc48 c2bf 9ea0 af6b f1d9 b73f
00000020: 3067 8c26 c2ba d33f 3e55 4405 e6da e53f
00000030: fd40 9837 84aa b13f fef1 da12 8de6 b6bf
00000040: f725 ac74 c8b0 c8bf c414 bb94 8983 d7bf
00000050: d380 8c87 b91d 90bf e6d2 24e3 7526 8f3f
00000060: 7777 f689 7aec 7b3f 41f4 9a7c 2391 933f
00000070: 184f b853 2b5e 993f 721a 3b23 ba17 a8bf
00000080: ed49 e1a9 c661 b13f 18db 29ad 3079 94bf
00000090: 0422 b260 e650 a8bf b0b4 4ca8 ec47 a1bf
000000a0: b3ec 3bd2 f04e 9cbf b136 5f61 fef6 afbf
000000b0: c50e d52c 8597 9b3f fd57 72ec c9ba aa3f
000000c0: e2c1 7bce a7c1 b73f 18e8 245c 6b90 b3bf
000000d0: c41f fa88 e015 a53f 7ede daeb 8d01 863f
000000e0: 1d6f 630c 8fbe 95bf 4828 450d 9057 b23f
000000f0: 1c2e 35a6 c73e dcbf f01e bf6b cb2c d3bf
00000100: 2f7d b8e4 720e e23f 1f29 ccb2 b2ec cbbf
00000110: 457c ee34 547c d63f c2d6 ce1c 60ca b83f
00000120: ff6b 8522 ac3e d3bf 7d9b 24fc 38ea b6bf
00000130: 0b93 38f9 0838 df3f 2dbc a60a ae18 c43f
00000140: 37e4 89ef 4e51 c7bf 71dc 2a8d e918 cb3f
00000150: 6430 ca66 f47e c53f bb79 c10d b79b b13f
00000160: 914e 6c3e 0aff cbbf 4467 ea74 96d0 803f
00000170: 4b75 aac0 e999 c23f 1f84 2852 c3f6 cfbf
00000180: 1a8a 7c07 2eac 933f 261a f172 8de5 c03f
00000190: c877 f102 a251 d73f 5109 c738 1afd d7bf
000001a0: dea8 d47d 03b5 acbf 9307 c344 bbb1 c0bf
000001b0: 847e b390 ad91 cbbf 722d 73c3 ab2f de3f
000001c0: 76a0 c36c c1f8 c3bf abb9 83a7 b198 c8bf
000001d0: be07 37cc 82dc c63f d9a8 b7ac 941a 76bf
000001e0: 54aa 9689 5a47 a1bf 7dc4 1252 8d4c a33f
000001f0: 099c b8b5 b76f ad3f f287 d4ae dae6 95bf
00000200: 5f8e f5a8 82df b8bf 904d e539 cfe7 50bf
00000210: 0007 0d38 42bd b23f b5cb 7dfb 3857 ae3f
00000220: 6b84 8283 012b aebf 730d 9d75 cc0d 76bf
00000230: b8ca 0b4a 017d bdbf 06a8 db75 d27c d33f
00000240: fcff 9589 da01 dd3f 25ab 54a3 2f46 8fbf
00000250: 9af2 2de4 7e27 c6bf 5855 2dcb fa15 a13f
00000260: e3df 5cde 050c d3bf af4d 4e09 0eb6 bc3f
00000270: fd15 959f e397 d0bf 7dfe 15e2 6fc7 a83f
00000280: cafe ce71 3203 63bf 6855 49cc 17ab a63f
00000290: 2705 a8d7 c650 a5bf 6b01 793d 9bed b4bf
000002a0: 1bc2 f319 149d 88bf 3ab2 ee82 ece5 75bf
000002b0: 02f2 d0ea f830 95bf 312e 340f eb08 a53f
000002c0: b44b 66ee 30fa ac3f 8971 6a04 e6e1 8abf
000002d0: bb18 7a90 686c 723f 352f 7a5a c7e3 883f
000002e0: 9140 36dc e7a3 963f c6b1 8814 00d7 953f
000002f0: 73b4 18b5 5feb 97bf d75a e0fa 35f7 8dbf
00000300: 9b66 a04b 39b5 92bf 539f a862 22d9 be3f
00000310: d5c0 967a 9805 9bbf 515b eb7f 9218 ae3f
00000320: 462b 9eed f932 d23f 744a 7d14 5db6 e6bf
00000330: d048 426a b8a6 bb3f 693c 8255 a9c5 abbf
00000340: bd56 7fc5 d210 dc3f 3c1d 67b9 08db dbbf
00000350: 8f26 c67e 0776 d03f f79f 7f97 f9d2 c73f
00000360: 43d3 8ba6 1e55 a0bf d32f ab5d 18da b43f
00000370: b60f d6ef 1cc5 c8bf 7730 9329 b51f 9c3f
00000380: 57d2 c850 ae36 a43f f61e 39f8 c9d2 cd3f
00000390: fdc0 33e7 0333 b7bf c778 d0e4 b978 cd3f
000003a0: fa81 1b94 b1f8 d33f b20c 64b4 4862 ccbf
000003b0: b71a 3ae7 2f8c b73f a248 1df0 03eb d2bf
000003c0: efd4 cabe edc4 7f3f 28d8 2f13 7a17 d1bf
000003d0: c19c 370a c28b dabf 7b0e e91e 4873 d23f
000003e0: 406d 8637 c1b5 c6bf 5f9e e45f 9e26 d93f
000003f0: b90d d23f 3bbe e4bf 7926 d65d f645 e13f
00000400: e747 3d79 8f5b ccbf fab4 018a b0ef cd3f
00000410: 30ca 0795 e0da cebf 77de 624c 94d6 b7bf
00000420: 4804 3de6 e96c cebf c72e 4cc9 f132 c73f
00000430: 9263 3c43 656a a0bf 1c0a 1c54 933a e03f
00000440: 8bc4 ea02 9400 e0bf 05c7 3d0b a1c6 a9bf
00000450: ffc5 7f65 44ad c33f 10a2 ff9a d2ba e43f
00000460: 5205 41d2 82e9 96bf 200f cffb b99d 81bf
00000470: 616d 550f 6b1a ba3f c345 636f 7829 a2bf
00000480: d365 41a9 8299 c3bf 057f e3b7 9114 d03f
00000490: 34be 8446 bbfe bebf f928 087c b843 c5bf
000004a0: 6fa5 01f0 54ec b43f 83db d344 ccc6 b03f
000004b0: 1047 eabb 3897 94bf c02d 13e6 b612 ddbf
000004c0: 1ac9 2f0f 7268 c63f b31e 2fce 9020 e2bf
000004d0: f85e 372f 1071 c93f 29e7 7086 ff0b c6bf
000004e0: e288 80f3 3dab d2bf 80f8 9d15 c15b d33f
000004f0: 71bb 6774 77fc d23f 4d92 feb7 e70d da3f
00000500: b9d4 2331 6cd0 a23f 32b9 1a06 2f3b b23f
00000510: 9529 9ca0 efc7 48bf ba3a bbba 79f6 783f
00000520: 03c1 8aac fab6 ae3f 90e4 e9d5 bd10 9a3f
00000530: 6f1d 58e5 c74c b03f 0c63 9a34 07ff b13f
00000540: 79ec f45a 37cb 7ebf c1e8 c09f 59d2 9d3f
00000550: cfd3 37bb 0bb0 a93f 346c 9fa9 f869 a03f
00000560: 0590 f13f 76ff a43f ea14 e835 6156 c13f
00000570: e46a f48c 975b a53f 6893 6847 c8ec c0bf
00000580: f801 4b44 f1a3 9dbf 35e0 3d36 a370 aabf
00000590: 3aa9 05b9 c13d c0bf 0659 46aa af35 933f
000005a0: fe60 dbfb 5de0 9c3f 9f59 3b79 dcd9 9e3f
000005b0: 2a77 867c a872 ae3f d980 6dde e1bd 82bf
000005c0: f531 06a2 94c6 863f aef5 cf85 2eb3 a7bf
000005d0: e59d c0da 4d82 b03f c253 9d63 c425 86bf
000005e0: 2378 dca5 b7a8 883f 3dd1 4a2d a9d4 703f
000005f0: a524 89c2 8823 863f 7883 2ce2 8b98 b53f
00000600: 3329 88a4 f4a9 b13f 7230 2d9e 9bbe 93bf
00000610: a853 6991 1bd5 643f b684 dc34 5dbd 763f
00000620: 2e54 3a6e 5efb b0bf 94be f3c1 82d3 933f
00000630: fef1 4c74 ceba 733f acc4 46ea 93dc a23f
00000640: 885f 9455 9f97 bbbf 0f9b e164 5ecc aabf
00000650: bab7 2af1 40bb d4bf ac76 4da8 c2b2 ccbf
00000660: 191b f1fd 6660 d73f 765d 2f42 29cd e1bf
00000670: ff73 d336 0142 d7bf 1857 7538 2f18 c63f
00000680: b0fd 2917 0355 e03f 5602 6c9e ed69 d83f
00000690: 0259 e57a 1d3e 9a3f c683 d543 4a84 a0bf
000006a0: 8fc3 81a6 fbc0 b93f f222 b25e 79d7 753f
000006b0: a5e9 c543 6ce1 9a3f 5a2b 5058 6b7f 96bf
000006c0: f1c8 b7c1 4fd5 bcbf 7086 4412 09d4 8b3f
000006d0: 2ed2 0f4d 709c b43f 6c02 1fb3 eb4b 9ebf
000006e0: 4886 7607 452e bbbf e056 fc0a 4043 ac3f
000006f0: 5677 ab4f a9a1 b43f 4a53 8ca2 3b07 71bf
00000700: b518 537d 1713 9e3f d909 8c7b 702b c8bf
00000710: c2a0 2232 5f18 9cbf df11 3b13 7e38 683f
00000720: 092b 16ca 27dd 7f3f 1ae1 58c6 d065 b33f
00000730: 2179 6ead 8249 8e3f f4e8 015b 8140 9b3f
00000740: 5d4f 30a2 51e8 a43f 8c97 84ab a93f c9bf
00000750: 9463 a7ba 0ab1 71bf 1c2c 5c3c e752 763f
00000760: 0efb 24b5 5695 8f3f b6e0 221a ac17 623f
00000770: 057b ca67 2d83 a33f 120b 2686 63d1 b13f
00000780: d76d 4498 cf4a a63f 5917 bfc3 e44e b4bf
00000790: 8608 affb 2c6a 9c3f 6d99 d418 3998 8cbf
000007a0: 06bc da19 a9b1 95bf a7a4 fd9b 4e63 9f3f
000007b0: 789e 0895 dbe0 ae3f 5a35 ddbf 44b9 a03f
000007c0: 785a e986 b86b b7bf 2800 2eb9 4dab 6c3f
000007d0: 6809 b426 a644 a53f ee12 a4a9 639b a3bf
000007e0: 37b4 30ba 84ba b33f fd33 5482 74a3 843f
000007f0: 6a5f 0c78 d936 acbf 72a2 df7d 013f c1bf
-0.3286875750291645 -0.03964085927032779 -0.1428447843515092 0.09316929701856444 0.30827382816788695 0.6829710104818003 0.06900812489789483 -0.08945543012936949
-0.19289498993775542 -0.3674034073304251 -0.015738390825504944 0.015210076326732613 0.006817320506710681 0.01910834739713985 0.024773289666042947 -0.047056023407596195
0.06789819381200575 -0.019993553704320183 -0.04749221735352552 -0.03375186495245808 -0.027644884902639343 -0.06243128718015834 0.026945191251128948 0.052206335175625875
0.09279869834040924 -0.07642241477597655 0.04118253395159813 0.010745152244779673 -0.021234736567620083 0.07164860080698177 -0.4413317797777567 -0.2996090461933667
0.5642637698364633 -0.2181609509501152 0.35133843583202334 0.09683800414390034 -0.3007002198334589 -0.08951145320734884 0.4877951082037703 0.15700316925128402
-0.18216883369658074 0.21169776337567073 0.1679368497756314 0.06878227315744471 -0.21872070358277942 0.00821034950540745 0.1453220549346191 -0.24971810828813631
0.019211501318873038 0.13200538742440066 0.3643574742071647 -0.374823146292461 -0.05606852446574505 -0.13042393548499528 -0.2153832394169407 0.4716596039476918
-0.1560289174151454 -0.19215984992429233 0.17860445949014364 -0.0053964431385599915 -0.0337475102381474 0.03769342066642254 0.057492962773089636 -0.02138845150069097
-0.09716049790363844 -0.0010318301861687897 0.07320035808973202 0.059259205531723515 -0.058921859076925674 -0.005384253186835652 -0.11518867547764955 0.3044935370404577
0.45323813854338346 -0.015270588085134993 -0.17308031217171022 0.033370816518678736 -0.29760882105938274 0.11215293624109422 -0.25927057823386673 0.04839658388936827
-0.0023208604092984407 0.04427408570033259 -0.041631902528033664 -0.08175058604047584 -0.012018353502271364 -0.005346225617284756 -0.0206946271248274 0.04108366547196985
0.05659630689765241 -0.013126179704436651 0.004497917608779096 0.012153203438422725 0.02210962564055358 0.021327973607343308 -0.023358817508939155 -0.014631673544540131
-0.018269438973311663 0.12050070675524908 -0.026388533098441542 0.058781221499592314 0.2843613453375621 -0.7097611808952267 0.10801270097934723 -0.05424241226966659
0.43852681433541446 -0.4352437792371864 0.25720393543506587 0.1861259450663508 -0.03189941199335646 0.08145286833604297 -0.19351541243315545 0.027464705145391535
0.039479682313331814 0.23299526806135135 -0.09062218088707037 0.23024676964354837 0.3120540567743145 -0.22174938972611852 0.09198283572377873 -0.29559420059843877
0.007756165211209905 -0.2670579135295861 -0.4147801494386379 0.2882862378939774 -0.17742171488939995 0.3929820953803524 -0.6482216116423195 0.5397903282875652
-0.22154420299426578 0.2338772462711985 -0.24105460430981074 -0.09311797013185151 -0.2376987814150502 0.18124220208152605 -0.03206173368216193 0.5071503298534625
-0.5000705773328645 -0.05034354459975358 0.15372519451152297 0.6478055026355509 -0.02237514885223863 -0.00860162067136333 0.10196560978277126 -0.035472644421712406
-0.15312226547648197 0.2512554450786271 -0.12107439490932209 -0.166129170000495 0.08173113688976284 0.06553341560707619 -0.020108114690237378 -0.4542672392678604
0.1750624250558495 -0.5664752985985245 0.19876291566355753 -0.17224115433219225 -0.29170178203106734 0.30247523413698474 0.29665933959670726 0.4070987030811793
0.03674638843396267 0.07121557139428061 -0.0007562561088161774 0.006094432359261043 0.05998977047181777 0.025454488927128482 0.0636715826914178 0.07029767069105847
-0.007518020850791556 0.02912273442800806 0.0501712480580988 0.03205849714841982 0.041011519723525715 0.1354486001220388 0.04171441646231758 -0.13222602354758384
-0.02894570330932031 -0.05164060628061443 -0.12688466581614383 0.01875948406958463 0.0281996426554949 0.03012794961872489 0.05946852226337136 -0.009151234245735317
0.01112094993075006 -0.0462889231057305 0.06448828306803696 -0.010814222612376304 0.012040552853758218 0.004109059188227624 0.010809963642844098 0.08435892364333408
0.0689995671929509 -0.019281798867539064 0.002543023914123716 0.00555168541703315 -0.06633558455571695 0.019361537063501702 0.004816824400049045 0.03683912501163297
-0.10778232421250611 -0.05234045964680522 -0.323929057611959 -0.22420533388042452 0.3652589301968177 -0.5562940876651925 -0.36340360979176006 0.17261305100208157
0.5103774502203375 0.38146534415139877 0.02562757551762563 -0.032259293346903514 0.10060093703374505 0.005332445241159377 0.026250545155087974 -0.021970441117484675
-0.1126298759407154 0.013588019247040978 0.08051206475631353 -0.029586489494024468 -0.10617476875497645 0.055200578061130434 0.08059175677359795 -0.0041572885027292925
0.029369704269605907 -0.18882566483087151 -0.027436721262944948 0.0029566252140702377 0.007779269625994408 0.07577233164272848 0.014788647573194926 0.026613255672125427
0.04083495240061439 -0.19725533366107262 -0.004319230948078085 0.00545015646435856 0.015421559718217927 0.0022085534447705236 0.038110178870956836 0.06960126900780164
0.043539512002293605 -0.07932882098165574 0.027748778211169632 -0.0139622173979432 -0.021185533717183368 0.030652263899729217 0.06030927843340533 0.03266348688212402
-0.0914874390958661 0.0034996526750887998 0.04153937551929482 -0.03829490133106171 0.07706479592953107 0.010077390887568422 -0.05510596838411071 -0.13473528524561434
