notebooks/models/simTwoLayers/experiments/he/weights_he_4.pkl.npz (npz, 715948 bytes, 3 tensors)

arr_0 f8 [784, 100]
-0.06410979911316654 0.0177301869460658 -0.04133484887723459 -0.10807139782426312 -0.006543905598624932 0.07698668373082014 -0.033999075836924804 -0.02783882840801474
-0.03491988228564027 0.01536961943867464 0.04857582897611329 0.026292599099661855 -0.022466166185239823 0.022436303515132195 0.022539575328051422 -0.03163714488867588
-0.02141229368763768 0.024593716158997112 0.014440887282763932 0.04805298970004666 0.017042301087278337 -0.021256978395527922 -0.012583707339866565 -0.023262885140838515
0.03162523646461906 -0.02104901001032614 0.015021998384038882 0.05227106495062916 -0.04598294733416743 0.06965354346301963 -0.036790323883584615 0.042497798126586
0.01991564083579651 -0.1110278400925815 0.006806403072661728 -0.08549532465422 -0.011582123989717946 0.1266549773426809 -0.06878088532624317 -0.013907822791007073
-0.06754945235542287 0.05137794147001137 -0.08394298243980682 -0.020193365939468407 0.005745492573150856 -0.027334040811320803 -0.015600380997025468 -0.03297127464094391
-0.055532224895651516 -0.0537971988308014 -0.05326242644272797 -0.05906203847911163 -0.09108880882352177 -0.08648501264802891 0.02150276420651461 -0.04150675621089604
-0.10330022436517573 -0.010344987970401015 -0.011840047061452058 0.027729597252772586 0.03469883176419238 0.01028903021356493 0.02723152560935402 0.0884300916216484
0.011827658076370972 -0.04318588473669206 0.008721944803126973 0.06542714361517055 -0.11688655568561114 0.04032071524403791 0.007295182660121564 -0.05424460663444839
-0.032954122346772356 0.05364718984603378 -0.017187857959869525 0.11102909978430141 0.06660273664699047 0.032585951130889156 0.034329742157546826 -0.07319303062865413
-0.052250891069655046 -0.05860110293100809 -0.00792512535564732 0.05154471786581035 0.008959127389237365 0.02847467379524339 -0.050706533710032545 0.06886439288708694
0.06410857044795525 -0.016045285629670898 0.053223945989778775 0.1194195481650747 0.029136909351187006 -0.024040539678087048 -0.0006587662992542535 -0.06795542303053978
0.01863596815532337 0.053780218245508646 -0.03941841717956557 -0.09278850600794104 -0.07975391997087614 -0.012896208271819096 -0.004643728680719303 -0.09855065298175657
-0.08196810364602593 0.04152286518293447 0.0224885847036888 0.052157027667084896 0.04092481014354728 -0.0169908715631581 0.06745438947870916 -0.040207835387929915
-0.05774369108247162 0.019796137376953158 -0.11356625939448473 0.12008035492742726 0.012622662705839631 -0.02969229453335568 0.06196634548697907 0.000654246080790859
0.08612569329402456 -0.00782201652885863 -0.01595569629544769 -0.046456716263425055 0.014406591574240965 0.030668983717238064 0.031138759445210214 -0.0044993708989858
0.016242651125227044 0.04947340460951376 -0.01074631968878954 -0.08036316227236105 0.012395661329948448 -0.04264852741085809 -0.02190243637352385 0.06543150731172873
-0.02367343206526886 0.050180940982704224 -0.06086113699681584 0.025358125529449625 0.08746015995153512 0.06834612232304874 -0.08678158751491989 -0.07468577111201258
-0.008634363599183728 0.08851704784137202 0.006631775509530416 -0.03781718782040357 -0.08452150839044559 -0.06650269935410326 0.05095870289768227 0.057915164840619
-0.037564680655784395 0.004758246800948864 0.021898269838304486 0.034677130680854686 -0.032264575290439815 -0.05824120183959356 -0.04438256792357294 -0.042922015301849324
-0.009206905305278339 -0.012233682260173514 0.0003498611762903102 0.07052601400540623 0.03720498608066993 -0.010301046614291551 0.053193554665929364 0.12007223356810975
0.0003680270169630468 0.013954714894309429 0.07277810778110663 0.028536853433456702 0.07324354234008597 0.11559893562250961 -0.030946178430118144 0.11074847121434235
-0.002134003457423258 0.01382401521188456 0.05856525806910568 0.0569439258952503 -0.08365681459516727 -0.09047831926041852 -0.021757640723080268 -0.08401111592647904
0.010174146994938618 0.012062864903041372 -0.027623210008244692 -0.07837053270240013 0.10753080909287265 -0.04369677438088424 -0.04284929182274459 -0.04714676970126911
0.13306875571440216 0.030680110957238542 0.05130421209747759 0.08989246297144321 0.0010712053251542989 -0.01902842157603327 0.0730158167240015 0.03881296216088406
0.03189379298923554 -0.045081695933146274 0.014309988348426205 0.03228893870496718 0.0030412757333147626 0.030213013381060163 -0.09848124064814755 0.05642181781768366
-0.019332296619407663 -0.045865726445576585 0.08099240923393573 0.05679297026402701 -0.047726078739893915 -0.0010715401624554807 0.04807701024436878 0.01074856249633647
-0.09366794562830688 -0.04415897508550892 0.036385456188545925 0.03358562026939671 0.00877442561392435 0.041501825366772695 0.04257062595559926 -0.12624113950863622
-0.038267235599595883 0.03839641454423349 -0.002455595531868257 -0.030324942312166526 -0.0103200189657696 0.055027950116740394 0.06660956579398608 0.07476185668214534
-0.0510990535710318 0.06082533452677392 -0.048780307264930656 0.020160197903314005 -0.028868618828767102 -0.08468200175818824 0.0831772826750839 -0.07988764333538942
-0.023731177807579756 0.06868872248410691 0.036454577216908646 0.03199073685875496 0.011553205423109121 -0.03236800821422689 -0.022033122549031618 -0.01507766229672376
-0.19268339216704103 0.03751399553046679 0.08572596844318187 -0.015632272250644997 -0.015409082845874788 -0.01135654551933808 -0.010111403971113648 0.03008037410922217
00000000: 634f 8bf2 7f69 b0bf cb5d 57b4 dc27 923f
00000010: 2fc4 3960 d729 a5bf 80c8 492f 91aa bbbf
00000020: f21a 8c48 c8cd 7abf 3df3 d938 66b5 b33f
00000030: 79ac a0ad 5368 a1bf 9717 4926 c881 9cbf
00000040: e342 cbd0 04e1 a1bf b884 ba66 1b7a 8f3f
00000050: 9830 a859 eede a83f be1f 0a75 72ec 9a3f
00000060: 6de0 20e4 5e01 97bf 2dcc 5cd7 8af9 963f
00000070: 674d 994b 9d14 973f 6377 456d be32 a0bf
00000080: 2ba6 7bb4 1aed 95bf c928 5c5a 182f 993f
00000090: 7d69 d614 2f93 8d3f 0d34 79c6 669a a83f
000000a0: a116 4677 8973 913f 8f10 15ac 63c4 95bf
000000b0: 38b5 e59b 7cc5 89bf bfe0 8fcb 39d2 97bf
000000c0: 4707 b0d8 2e31 a03f a91b 6e26 df8d 95bf
000000d0: da76 3d7e dac3 8e3f 0fe7 fae4 45c3 aa3f
000000e0: 33a8 f2ad 138b a7bf 1e64 398b d0d4 b13f
000000f0: f14a c76b 2ed6 a2bf e91d 367a 45c2 a53f
00000100: 7346 4608 c464 943f d1a5 240e 526c bcbf
00000110: c28c 9be9 07e1 7b3f 8ccc 5987 05e3 b5bf
00000120: 504e 085e 5eb8 87bf e3fd c7f4 3a36 c03f
00000130: 99ee 10c5 9f9b b1bf 2c15 5e60 b47b 8cbf
00000140: 38b0 bac0 eb4a b1bf ccf1 b2a4 354e aa3f
00000150: a1c3 4e8c 497d b5bf 7f86 39d9 91ad 94bf
00000160: 26ae 37eb 9588 773f 939a 686d 74fd 9bbf
00000170: d5b8 7fb1 17f3 8fbf a9a0 9464 9ce1 a0bf
00000180: d814 9a43 b86e acbf b57c 3073 4e8b abbf
00000190: c4af 5a77 3645 abbf a1df 6727 613d aebf
000001a0: 30ba ed9e 9851 b7bf badc eabc e123 b6bf
000001b0: b68d 2914 d204 963f ae49 faa0 5f40 a5bf
000001c0: 6161 512d e271 babf 2345 15c8 c02f 85bf
000001d0: 50da 4b37 983f 88bf 23e0 53c5 2565 9c3f
000001e0: 0bf2 4597 0bc4 a13f 66d3 3242 6a12 853f
000001f0: 3942 a6bf 94e2 9b3f a94c 7fbf 5aa3 b63f
00000200: f9a0 0265 1939 883f f292 2fd5 751c a6bf
00000210: 56de 7e9d cfdc 813f e00c 1952 d5bf b03f
00000220: 3104 03fe 46ec bdbf 2021 a6b2 eaa4 a43f
00000230: 2edb 18af 8de1 7d3f 1d6c f5f6 f2c5 abbf
00000240: b7db 7edb 5cdf a0bf 0071 d2fb a477 ab3f
00000250: 5ac1 4d9f b199 91bf 5757 7a30 676c bc3f
00000260: 9911 b97f e00c b13f 331b d514 1baf a03f
00000270: a38c b1ff aa93 a13f c15e d848 c7bc b2bf
00000280: 5b7c a9f8 a0c0 aabf 8448 32b9 f600 aebf
00000290: dfee c051 0c3b 80bf 9bc8 07bb 1164 aa3f
000002a0: 1a8b 19b9 2959 823f a4fe db02 7728 9d3f
000002b0: 02cb f4ef 34f6 a9bf 4316 4fcb 18a1 b13f
000002c0: a79f 7755 6b69 b03f c23d 23e4 2c6e 90bf
000002d0: 63c4 c746 2b40 ab3f 7741 df8d 4792 be3f
000002e0: 6e57 14e3 10d6 9d3f 9d44 c84e 159e 98bf
000002f0: 932d 02db 2196 45bf f683 80cf 8665 b1bf
00000300: b190 06a7 4e15 933f 1689 12ad 1489 ab3f
00000310: 48ea 4a99 a62e a4bf c5b1 bfce fcc0 b7bf
00000320: e2b1 00be c06a b4bf 65b0 28c6 5369 8abf
00000330: 2301 0b6d 4d05 73bf df5b 8e97 9d3a b9bf
00000340: c98d 7994 dcfb b4bf 616c fe27 7c42 a53f
00000350: aeb9 575f 3f07 973f 8663 2c70 53b4 aa3f
00000360: fab5 52c2 18f4 a43f b2f6 c616 0e66 91bf
00000370: 2e5f c8dc b044 b13f ed76 1114 1f96 a4bf
00000380: 07c4 7fc1 9490 adbf 590b 7c4a 7045 943f
00000390: e842 07aa ad12 bdbf e52c 4e0d 96bd be3f
000003a0: 6985 141c e9d9 893f ea18 db27 a867 9ebf
000003b0: cb6f a386 0dba af3f 8fd2 a0c2 3670 453f
000003c0: aa0c 0b5c 550c b63f cb16 7149 fd04 80bf
000003d0: c16d 18a7 b056 90bf 3eda 0fba 2cc9 a7bf
000003e0: 45fb 43fd 3381 8d3f 4ab4 44a8 b067 9f3f
000003f0: 0f1d d2c5 d6e2 9f3f 1aca d1ad ee6d 72bf
00000400: 5f62 88dd e9a1 903f 7ea7 a3fd 9354 a93f
00000410: 66fa ec9c 2a02 86bf 7f4f c321 ae92 b4bf
00000420: 5903 3280 e562 893f 1c86 e71c 07d6 a5bf
00000430: 0141 b59f 976d 96bf f627 0888 1ec0 b03f
00000440: 6683 0422 d93d 98bf f372 cef8 50b1 a93f
00000450: 9155 ffe1 3029 afbf e6ee 58ff 7af7 993f
00000460: 99dc b1fe c963 b63f ca97 2fa8 217f b13f
00000470: d583 4570 5137 b6bf 2013 6750 9b1e b3bf
00000480: 9bfc 3daa e4ae 81bf 36fe 9da1 0da9 b63f
00000490: f675 d8ae eb29 7b3f 32a5 d441 c65c a3bf
000004a0: 3076 589a 33a3 b5bf f953 d226 5206 b1bf
000004b0: b6c4 c854 4217 aa3f 13a6 dd75 0ea7 ad3f
000004c0: 4974 cd85 ad3b a3bf 298a 5726 627d 733f
000004d0: aa91 2d03 806c 963f e503 636c 33c1 a13f
000004e0: 822f 627f fb84 a0bf 6d90 5c72 cad1 adbf
000004f0: 9a0d 7ddb 4fb9 a6bf ebec ffd7 dff9 a5bf
00000500: 7ce3 77e9 11db 82bf 3e9f bc09 f90d 89bf
00000510: 1c47 704f b2ed 363f 1ea3 ab2b fe0d b23f
00000520: b3e1 ed2c 880c a33f c568 9512 b718 85bf
00000530: f3da 4b83 2f3c ab3f 242c 55cc 0dbd be3f
00000540: d890 7c00 781e 383f babc c420 4a94 8c3f
00000550: 9adc c808 96a1 b23f 84e6 e8d0 c338 9d3f
00000560: a56d feba 16c0 b23f 847a f34f e497 bd3f
00000570: 3d95 2ce1 5ab0 9fbf c595 f205 035a bc3f
00000580: 78d5 e461 547b 61bf b027 e0e9 c34f 8c3f
00000590: 295e 2df8 43fc ad3f cc15 da16 c127 ad3f
000005a0: 6016 c672 886a b5bf 9a75 384e 9629 b7bf
000005b0: 5bff 5f8d a247 96bf e999 67a3 c081 b5bf
000005c0: 1b19 dde4 2ed6 843f e17a 0952 6ab4 883f
000005d0: f040 623e 4249 9cbf c849 ed5a 1710 b4bf
000005e0: 53c6 5d9c 2387 bb3f 5d2c d071 6c5f a6bf
000005f0: 4626 12a6 57f0 a5bf c53e f513 9f23 a8bf
00000600: a9d5 f4a0 6508 c13f 3ec4 cb64 9b6a 9f3f
00000610: 1f20 36b2 8b44 aa3f 7c86 9e44 3103 b73f
00000620: c488 aff5 f58c 513f 094a 74c1 2f7c 93bf
00000630: d999 eb20 2ab1 b23f d4a4 48e6 4adf a33f
00000640: 1d17 ab1b 6254 a03f 72b6 5cb3 f214 a7bf
00000650: 3378 b31f 8e4e 8d3f df50 85ff 2c88 a03f
00000660: 98ae 017a 04ea 683f 9782 8a01 29f0 9e3f
00000670: d771 da0b 1136 b9bf c59a 9d0c 52e3 ac3f
00000680: 109d f276 d8cb 93bf fa9b 2e66 b67b a7bf
00000690: fb4d e224 ebbb b43f f677 dadb f713 ad3f
000006a0: 2655 b576 8d6f a8bf 18ec 0f7d 5d8e 51bf
000006b0: 58c7 60c5 8c9d a83f b5ca 34a3 5703 863f
000006c0: ac36 285b 9ffa b7bf 2060 a253 019c a6bf
000006d0: 1e7b c250 1da1 a23f c08a 5869 2232 a13f
000006e0: eb85 6c78 53f8 813f 1d64 592d ba3f a53f
000006f0: b3c4 7f2c d1cb a53f 07b8 cc6e ab28 c0bf
00000700: e032 d15a c397 a3bf a195 80e1 b1a8 a33f
00000710: 13ed 0cd0 c11d 64bf 3d74 ef6d 800d 9fbf
00000720: 36dc 9d7f a922 85bf 4911 3c9c 9f2c ac3f
00000730: 2499 af12 530d b13f 4324 70d1 9723 b33f
00000740: 7a65 e3b7 a729 aabf 191b 1f8d 7f24 af3f
00000750: 008e c880 bbf9 a8bf 1ad6 b3fa dfa4 943f
00000760: 1a40 0037 bc8f 9dbf c479 1c3c b8ad b5bf
00000770: e410 dc3c 1b4b b53f eee1 7a3f 8473 b4bf
00000780: cb03 5162 fc4c 98bf b55a ac88 9595 b13f
00000790: 584c dfa1 2caa a23f 8ea5 2a01 1761 a03f
000007a0: 8458 a6fb 34a9 873f acfb 6e21 8a92 a0bf
000007b0: d17e 1bd3 d98f 96bf a76b b793 09e1 8ebf
000007c0: 097e eb71 d9a9 c8bf 962b e4cf 0835 a33f
000007d0: 0ca3 e116 23f2 b53f bd93 5008 e801 90bf
000007e0: 6639 1317 cc8e 8fbf 8709 cfbc 1942 87bf
000007f0: fd09 fbaa 49b5 84bf 85c4 33bc 63cd 9e3f

arr_1 f8 [100, 100]
-0.045955126306044904 0.058465352797595335 0.04234874726862034 0.05299111520714723 -0.05767623822670576 0.07668415774521208 0.1103346443776823 -0.038008274519130386
-0.003174019319562487 0.015968124730530362 0.03594506292620049 0.03855845497028532 0.06282980522298921 0.041940068550996135 -0.06081808303508202 0.08998651325722613
0.03763796106099241 0.029013883069476117 -0.0444818872438114 -0.12938655220490744 0.01729599830103335 -0.038573748003151165 -0.01590518132768624 -0.01788035047747069
0.16811849818277638 -0.08094067474692854 -0.003810075183196347 -0.043384649369690026 0.07938332790108853 -0.06283726109563773 0.05477466322306762 0.004178150045083911
-0.01520988162925632 -0.13792948152920856 -0.00838764525007386 0.010751715955081327 -0.0022130413321382156 -0.026054354915320474 -0.020403740739613582 -0.06831085315566499
0.001323936625821589 -0.07035015414687873 -0.17114303185870883 0.022642163397603037 -0.2029382778485942 0.034599301780685564 -0.2225249137018881 -0.11325354776239183
-0.12730162935177972 0.3360612606985077 0.04798773335220157 -0.09846188521727291 0.039283545260429015 -0.020027298038368408 -0.015358858835899223 -0.062439739343968945
-0.18786019643201063 -0.03601568570237639 0.11870195142327093 -0.25343553146667563 0.026556475950632197 -0.04730231120820624 -0.0027223162666063813 0.010048776450854708
-0.01585197079992378 0.1903238486751009 0.1134796077417157 0.11525232434721937 0.034751035977352705 -0.04010602931216422 -0.04236101000337949 0.015530471566015723
-0.012085259474058753 0.06924939203447363 -0.07506120403276212 -0.1348211249465976 -0.10284452844702313 0.11926032772422013 0.10553425149348075 0.03774802750620416
-0.04736009874133523 -0.04221407371700622 0.045197203699257664 -0.13586806292954426 -0.0018463488040381107 0.16775548001178556 0.022612919453219416 0.03293215360885424
0.21872979664963677 -0.02120960873263735 0.08286290221734191 -0.006938753308477003 0.029497113363755496 -0.03812305380077164 0.08944072040051153 -0.05733354683046416
0.06548956712864679 0.07278084788093281 -0.11575461469551097 -0.142480476414438 0.05301043426151106 -0.06481669201178308 -0.05177873264661018 -0.05862901407152006
-0.0142812084019668 -0.04484488744954933 -0.0593011475046235 -0.018986174984251817 0.02929410067194043 -0.054722198139915745 -0.10433457560889209 -0.04638504026680511
0.009172777063550993 -0.05111343577518441 0.03928112894214572 0.04919514034512638 -0.08650536100710374 0.015033597804269707 -0.021276880354878257 -0.050793076890446036
-0.017634919727624092 0.005168143029417425 -0.02680554772264776 -0.10111613822082549 0.03370387073765163 0.09425177301776527 -0.009387999099483573 -0.048330449514251805
0.05984561729064068 -0.04949877565340929 0.06692125622292318 0.0726488435202254 0.08981450644315778 0.0816285833287596 -0.017359651750079922 -0.10033684493898554
-0.06622132124088714 0.05329147622140397 -0.01435184378243076 -0.05234077339917709 0.038297347442805135 -0.021691245937224407 0.05119319721241198 -0.15011798339706584
-0.10916989248701173 0.007071100603231109 0.01956568935689858 0.04170455358798684 -0.0010995336354913787 0.010854977540513315 -0.02081333789957127 0.02589603427944648
0.022828980620675225 -0.07813742540653765 -0.08711300358639482 -0.049998866124205885 -0.012447561413650617 0.056229636999187316 0.08344445918976458 -0.10052320841454998
0.037930185464042886 -0.01981125562057408 0.030663434651946934 0.05991556520557862 -0.012510154178079666 -0.0034828551231240097 -0.03644666793366377 0.006317927161849136
0.029603225251293296 -0.02838645249728967 0.06185223545099391 0.01856726719881425 -0.09427528098716718 0.06470657343564024 -0.024533553825503922 -0.06248400175338142
-0.04390999977726617 0.06088773977339947 0.045907587352675784 0.026295037209000054 0.0250880406759979 0.08553019100557423 0.05893937018242349 0.0078070186917148475
0.0129783425707858 -0.0183287555074324 -0.059360112849011284 -0.02726061350228148 0.03426917564376639 -0.0033457933471549607 0.008583732468617876 -0.09739266513355917
-0.11487262018741258 -0.06830111869887344 0.07547080898106867 -0.006316834147049894 -0.06962447173076787 0.0003947733220975889 0.020277070787654457 0.034590401390938816
0.005591151723996364 -0.03616796910796422 0.017569328266942876 -0.002317869629281312 0.01252020244456031 -0.023202375722860023 0.032156351337006964 -0.03711959627006169
0.04123841009261419 0.10542832606181449 0.051700655068650486 -0.03060712940890145 -0.11399799150421516 -0.06366377803256283 0.016933036347931668 -0.043752290335270214
0.06767494415419341 0.031677296218699684 -0.0021392931996839144 -0.023197193940720128 0.06767298302198269 -0.0725541782362627 -0.03771345499631811 -0.0976552889631798
0.045362255559187686 0.034345156974561704 0.049499454493430836 -0.1166317559992326 0.0755707348158496 0.03251295370664755 -0.05203990242211325 -0.031097646125435304
0.006673269622404414 0.04495312695007355 -0.024520537135496467 0.05508912455468003 0.04450596382635479 -0.008261074716682578 -0.0025437245360617243 0.0052948691738717
-0.0455405205962395 0.055053735215559084 0.010480291148356441 0.05579280212890789 -0.02776747968179907 -0.04599279535734569 0.034770378197162666 0.019785865530857125
0.008209054909548583 -0.03896605703103717 0.007675409530574449 0.07514472728293091 0.031059195236183255 -0.043218204233621556 -0.010326315009342907 0.02691572788348768
00000000: 7dd2 2229 6e87 a7bf def6 6db4 2bef ad3f
00000010: bc30 1729 bcae a53f e926 96c5 a621 ab3f
00000020: 8148 e169 bd87 adbf d711 a3ad 92a1 b33f
00000030: a3ca 3729 e43e bc3f e4f8 1210 d275 a3bf
00000040: bea0 94a5 6600 6abf 89fb fbb5 f259 903f
00000050: b2fe 702b 6467 a23f e1cf 290e efbd a33f
00000060: f193 a536 9d15 b03f e815 a32d 2b79 a53f
00000070: e93c 483b 8c23 afbf dd56 852b 5b09 b73f
00000080: d5ae b067 4845 a33f f249 a7bb d0b5 9d3f
00000090: aefb f375 54c6 a6bf 3392 2111 bd8f c0bf
000000a0: a2eb 37cc 0ab6 913f 60bb 5034 f0bf a3bf
000000b0: fbb4 8ea6 7249 90bf b8c1 2a02 3a4f 92bf
000000c0: b919 c62d e884 c53f 7e48 f42e 87b8 b4bf
000000d0: 4901 d489 4e36 6fbf f4ea 6144 8336 a6bf
000000e0: 43cd 2e3d 7752 b43f 0a40 604d 1a16 b0bf
000000f0: f88d 62b6 6c0b ac3f ec99 d29c 1b1d 713f
00000100: 0fb6 63c1 5b26 8fbf 6b3d 295a aca7 c1bf
00000110: 46ee 50b0 8a2d 81bf d740 39e3 fe04 863f
00000120: 59ea ad84 1521 62bf fc63 1e29 fead 9abf
00000130: fc53 c5dc b7e4 94bf d8f3 43f0 d17c b1bf
00000140: 0ae1 a120 feb0 553f c053 54bb 7702 b2bf
00000150: 90be 62ce 03e8 c5bf bbac 36dd 812f 973f
00000160: d8ae 3ba9 e1f9 c9bf db96 39eb ffb6 a13f
00000170: d889 7245 b27b ccbf 68a2 cb3b 2ffe bcbf
00000180: 618e 6577 6b4b c0bf 8ac4 0917 0782 d53f
00000190: 37b8 b622 d991 a83f 2d23 e950 cc34 b9bf
000001a0: 8436 540c f91c a43f 757c 6838 0982 94bf
000001b0: e587 3b23 7774 8fbf 2efe e7fc 19f8 afbf
000001c0: baa3 f28b cd0b c8bf 672d 78e0 a570 a2bf
000001d0: 9b96 5547 4063 be3f d0cc d2a9 4938 d0bf
000001e0: 2de5 d1ee 9e31 9b3f 1b34 542f 0238 a8bf
000001f0: 47c2 b36a 1c4d 66bf 5717 c5f1 7394 843f
00000200: 2eba a6c0 7f3b 90bf 39ad da28 885c c83f
00000210: ce79 03e4 ff0c bd3f 8bfa db23 2d81 bd3f
00000220: 0bb9 0c46 e3ca a13f 9f4c 8908 c788 a4bf
00000230: 371a 2ea1 57b0 a5bf 3f6e bd9b 70ce 8f3f
00000240: 6157 a311 28c0 88bf 8d52 0e02 54ba b13f
00000250: 84e3 8408 3637 b3bf 0050 3a91 d141 c1bf
00000260: 3ca4 40de 0454 babf 1028 4947 d887 be3f
00000270: 02b8 c5ee 4a04 bb3f 095c 419f b553 a33f
00000280: 686f 7536 953f a8bf 7c48 1744 159d a5bf
00000290: a796 847f 1624 a73f b537 6deb 1f64 c1bf
000002a0: fc17 beee 2540 5ebf 210d 30f6 0279 c53f
000002b0: 801b 1356 d727 973f fc47 79b5 7bdc a03f
000002c0: 84ad a285 56ff cb3f e674 78bf f8b7 95bf
000002d0: ae3b 13cf 8036 b53f d408 8f68 cf6b 7cbf
000002e0: a21a e5c4 7d34 9e3f 918e 986a dd84 a3bf
000002f0: 4706 0d49 96e5 b63f 6978 3399 d25a adbf
00000300: ccf6 0b9d ecc3 b03f 5c7b 6c01 c4a1 b23f
00000310: e971 7a2c 18a2 bdbf 8e5e 42dd cc3c c2bf
00000320: 2cf9 ff02 2f24 ab3f 68ee 6ca4 d397 b0bf
00000330: c5e7 b0f6 bd82 aabf aa5b 1144 9f04 aebf
00000340: 0a3d 4558 773f 8dbf c62b fab9 e8f5 a6bf
00000350: 2796 4b52 b85c aebf e1b2 88a2 1c71 93bf
00000360: 2e28 68d1 45ff 9d3f 6099 c046 8c04 acbf
00000370: 140d 15b6 abb5 babf 9e6b f0ad c7bf a7bf
00000380: 71f8 024c 2dc9 823f 49cb 144e 8a2b aabf
00000390: 7c1d 50f8 a71c a43f cd13 cffd 1a30 a93f
000003a0: 6a45 7420 3725 b6bf 7bd1 4857 efc9 8e3f
000003b0: 16f3 2345 9bc9 95bf b721 37d8 8c01 aabf
000003c0: 1ead fd6d e30e 92bf bea9 add4 302b 753f
000003d0: a0d2 47db e972 9bbf 549a c14a bfe2 b9bf
000003e0: e836 223d a241 a13f 8489 b35a e220 b83f
000003f0: 6376 dbe8 033a 83bf 201f 21c8 c4be a8bf
00000400: d6fb 24b2 15a4 ae3f bb32 3f4d e757 a9bf
00000410: 257b e25e c021 b13f 89f7 0257 1d99 b23f
00000420: e636 e15f 15fe b63f 73da d05f 9ce5 b43f
00000430: 616b 2582 bac6 91bf a8c5 98eb acaf b9bf
00000440: 940b 0769 e1f3 b0bf 5290 0d37 0549 ab3f
00000450: 5f75 76dd 7f64 8dbf 305e feeb 68cc aabf
00000460: f4ae 94bd b59b a33f 68b5 a3df 3a36 96bf
00000470: 5d27 9ca7 fe35 aa3f e0ad 9dea 1037 c3bf
00000480: 7286 f0dd 8ef2 bbbf e9d2 661d 96f6 7c3f
00000490: d573 a52f 0709 943f cd65 829b 4c5a a53f
000004a0: 33a1 5640 c703 52bf 6f55 486c 223b 863f
000004b0: 59a3 6576 1750 95bf 3126 4e71 7d84 9a3f
000004c0: 4ed2 aaf4 7a60 973f cef7 b676 d000 b4bf
000004d0: c6bb 75ad 094d b6bf 1e5c ae8d 7399 a9bf
000004e0: 241e 7e69 1b7e 89bf c875 f487 21ca ac3f
000004f0: 45a0 40b7 9d5c b53f e025 a194 e3bb b9bf
00000500: abd4 32d4 956b a33f c5a7 eedb 6649 94bf
00000510: f175 0d44 3c66 9f3f 119c 28c2 40ad ae3f
00000520: 858d 8078 ec9e 89bf 6d7d 379b 1388 6cbf
00000530: 0c82 a53d 23a9 a2bf b451 9ea8 d3e0 793f
00000540: 56e0 3dd1 4e50 9e3f 0353 8094 5611 9dbf
00000550: 0b9d e4a0 18ab af3f 137b 9435 4c03 933f
00000560: 6f3d a9c0 6c22 b8bf 3007 be28 9c90 b03f
00000570: 5e3d 57ed 521f 99bf 3fa3 1b30 e7fd afbf
00000580: d07d 051a 5f7b a6bf 33b4 1b86 ad2c af3f
00000590: a5d1 a204 3381 a73f 7e64 7013 16ed 9a3f
000005a0: ff81 e5e8 adb0 993f f787 307d 4ee5 b53f
000005b0: c5bc c216 4d2d ae3f 7ce1 5c9f 40fa 7f3f
000005c0: c9b6 2ea7 6394 8a3f 5f57 ecf5 c5c4 92bf
000005d0: ba2a bfde 7264 aebf 7f43 d8cd 34ea 9bbf
000005e0: 0d3d 4db9 ba8b a13f 88a3 2a20 a368 6bbf
000005f0: bfb5 d711 5994 813f 4971 9ec7 b9ee b8bf
00000600: fd27 e9c2 4a68 bdbf 2785 179f 2e7c b1bf
00000610: ac58 6010 0e52 b33f 219f 3641 aedf 79bf
00000620: 9dbd 15cd e8d2 b1bf 3a68 fb81 32df 393f
00000630: 720d 912f 83c3 943f 7e8d 7545 d5b5 a13f
00000640: ee19 d35c bfe6 763f e97f f6a8 9b84 a2bf
00000650: 77de 46a9 b1fd 913f 6a09 22c8 ecfc 62bf
00000660: 7e3a 4f20 31a4 893f a93f ad13 5dc2 97bf
00000670: 6ac7 b31a cc76 a03f 2391 0af8 5601 a3bf
00000680: 1fa6 5f6d 331d a53f aeec 81cc 59fd ba3f
00000690: 1c3c 671d 8278 aa3f 48ba 57af 7957 9fbf
000006a0: 86fe 51ed f82e bdbf fff3 96f4 444c b0bf
000006b0: 086b 58d5 e456 913f 16ec 3a40 b366 a6bf
000006c0: 89a0 e627 2553 b13f 17ee 91ae 0138 a03f
000006d0: 6dc9 884a 6c86 61bf 1363 5655 01c1 97bf
000006e0: 32f5 e640 0453 b13f d480 b61e e992 b2bf
000006f0: 071e a88f 2d4f a3bf 6bd7 60e0 efff b8bf
00000700: 5cf2 32b8 b839 a73f 29a5 f63b b095 a13f
00000710: 3e31 7014 fe57 a93f e916 b129 94db bdbf
00000720: 6d9a 918a 9a58 b33f 839a bbb1 89a5 a03f
00000730: 47e2 fa5d f9a4 aabf 7f84 5db4 0fd8 9fbf
00000740: 5fe3 912c 6e55 7b3f 3bfe 34a4 1804 a73f
00000750: 932a 4f64 e91b 99bf fabd a748 a434 ac3f
00000760: 07e9 3856 7cc9 a63f be59 e7ad 2eeb 80bf
00000770: 8a49 28b6 93d6 64bf 1d98 039f 12b0 753f
00000780: 5413 354d 1651 a7bf 3b04 8cd0 0030 ac3f
00000790: 30c4 e0dd b076 853f 2ce1 fdc8 df90 ac3f
000007a0: 07b0 8004 146f 9cbf b1a5 d21f 5e8c a7bf
000007b0: 20e6 734a 6ccd a13f b928 83f5 be42 943f
000007c0: 78cd f0b2 e8cf 803f 906a 34e9 5bf3 a3bf
000007d0: 0bf3 ac0e 4070 7f3f 93a3 2552 af3c b33f
000007e0: 9931 1e4f fbcd 9f3f 01ee 8c4b b220 a6bf
000007f0: 8acd 068a f625 85bf 32cc 07ec cb8f 9b3f

arr_2 f8 [100, 10]
-0.09418450735805786 -0.049643998282091276 0.12716739131470337 0.10551857862579182 0.5995325036014044 -0.06680397369229643 -0.17225398668487335 0.09674635280593512
-0.36880860774360724 -0.176393936620059 -0.03870445602557946 0.4059935404051603 0.378731680132892 -0.3596633858144394 0.14325181627928846 0.10017598913631241
-0.12768342452679535 0.6055423270852025 -0.44370292871406253 -0.5876874315158424 0.11427013166555858 -0.007379215680562148 0.20000287637606232 -0.14895678339438814
-0.019596412833821308 -0.08975592793654864 0.13343038819804834 -0.15516184675471817 0.2797438860067169 -0.21534371395522672 -0.09476172459895445 0.05582388543426786
0.012720093325158093 0.07344594110930307 0.04899416714196114 -0.02148765066301335 -0.025388583567328604 -0.0847933884011456 -0.06625063282365111 -0.020309542559218307
-0.4360730744671517 0.2197492829194133 0.19291287038068367 -0.24131490557064558 0.3085743895949996 -0.31483318433231516 0.19036100920036247 0.17479342945694248
-0.24135935868093664 0.08906369380318484 -0.0026926747178527147 -0.07669591288528052 0.01612153213501514 -0.005654371778380703 -0.07989619938199682 -0.030260967157062245
-0.03990065055411122 -0.015039471381659113 0.12390350620323236 0.11643726378264478 -0.26551325939443104 0.1348270663231936 0.4343700032044971 -0.290405818409104
0.024286512887689106 0.22797669503100104 0.19898603109348934 -0.30094376181287374 0.1407658704371229 -0.33797814937116255 -0.05567101042888892 0.036031193442416995
-0.05973259435211934 0.0011248547084763655 0.057941527546970496 -0.054700837404942325 0.019797934455840206 0.030019242677258088 0.08773489957302466 0.007042395664119105
0.01752213563650864 0.25079105886495734 -0.20425094989191486 -0.15268925528980026 -0.20050577667353367 -0.10041748403936046 -0.10293647707115111 0.3335865797091269
0.06663039272014859 -0.17398744321090373 -0.3391652701665648 0.04415117449129537 0.2691532322122294 0.017591879309475023 -0.09951467935816065 -0.052084181265208404
0.31766069176106676 0.06521984190691424 0.2810347970520183 -0.28069825969589296 0.03711581731064225 0.0400155017650589 -0.13185401384675308 -0.03614395139013228
-0.09140877113441297 0.02993383280031967 -0.046235789447486755 -0.04048718260542976 0.001524522611092573 0.03254124962052626 0.17363285194174874 -0.23646121922657554
0.1762804891859889 0.13637870509968594 0.0950151725697625 -0.4945783374489961 0.2723993169822912 0.11648601106814671 -0.15001623824591567 -0.0970693223032057
0.0010097419788198615 0.008120180403416779 0.015573633038099461 -0.03786436468654338 0.02813265747738998 -0.0974164534368832 -0.07153183012602561 0.0058516379308535095
0.08189568149359087 0.015527164132309394 -0.009776586352678642 -0.03706542185089309 0.008649217144845536 -0.013189264368569834 -0.030513023131919944 0.002513393231717415
-0.009560440125379682 -0.012548942569503218 -0.10859633631863985 -0.02963743201832037 -0.024939045140248643 -0.03758604007139501 -0.08771439610619873 0.013183166276597975
0.010678652463495942 -0.04335689518669531 0.05111528730282054 0.00048500945439915443 -0.06864382323363274 -0.037187330791778855 -0.09478797935050497 -0.12125544353734848
-0.06310153793153064 0.16679244616902533 0.16610260032292243 0.339126621010266 -0.7249002734260547 0.5129463632236013 0.06671899283272674 -0.0918312235235937
0.026071856980236955 -0.010441117425596318 0.011630009395821914 0.03093583919081152 0.0035723372377669143 -0.00905841463968058 -0.06836280656800198 0.039639485870427045
0.043574749013354654 0.05954297436025808 0.0513836150650789 -0.021741159382309805 0.0505343853160431 -0.06568968145626136 0.02556654055339489 -0.02076731005551561
-0.006379358621588751 -0.023657237967670434 0.03050940409975115 0.01849073594194464 -0.006841423217541137 0.025576879541035845 -0.006475408618116446 0.10138934614908986
-0.11034941333652432 -0.06355873125774773 0.03396855423047715 -0.05616296432927243 0.01420625166682237 -0.039272850222227776 0.01186440719640182 0.1834287620543768
0.011448910792008615 0.1376615156932586 -0.17379780121385416 0.2825959334066055 -0.2981625131839526 0.3088569489768129 -0.5684829881763989 0.06622778865879948
0.3606124405246824 0.10092424943931828 0.09451717935367299 -0.19922503692107796 -0.1342055141878777 0.23347031640844723 0.25868649096060087 0.06424162841901634
-0.4306883043156073 -0.2993853209686275 0.10938443751876671 0.058584378229415805 0.03396352576082336 -0.020666765505275478 0.032823801126740854 -0.012027966088172293
-0.03645569332142302 -0.08421768173856911 0.045379190623358184 -0.0051651319771495625 0.037498602493870485 -0.016800818237579326 -0.00994511118632395 0.05067324083329451
0.04660818447230287 -0.00485559137349141 -0.102791215687563 0.03673538455671388 0.014331454511210944 0.05282329913367351 -0.2101264244943205 0.44871082530874484
0.1464968414500725 0.44342461561160607 0.43668639309366725 -0.9435758216810428 -0.1108793663154238 0.20857357066448096 -0.33266389433765964 0.057542236570165814
-0.0441847727938098 -0.09102835310601139 0.47945711216790593 0.38812786612317357 -0.25606448136516796 -0.07359223609868507 -0.3043955050214883 -0.3187075471289075
0.3172155890750778 0.0660163715047276 -0.001979442739491008 0.030242756393345338 -0.19452197047390982 0.10479401811767766 -0.04238302790295104 -0.061657522077154255
00000000: f289 e4d2 791c b8bf fae6 202a f06a a9bf
00000010: 813a 6865 0547 c03f 4774 51fc 4303 bb3f
00000020: d36c fbc9 5e2f e33f 6a52 40b2 101a b1bf
00000030: 3065 b52b 6b0c c6bf 7f0b 4f75 5ec4 b83f
00000040: 547e 2f6b 8f9a d7bf 0578 7f96 1394 c6bf
00000050: 2dbd ad09 12d1 a3bf d15a 9b54 ccfb d93f
00000060: 5950 08cd 233d d83f c110 e993 b904 d7bf
00000070: f28d 0155 1356 c23f 7756 2f35 22a5 b93f
00000080: 43bc 4a32 ee57 c0bf fa96 654d 9a60 e33f
00000090: 27d8 fdf7 a065 dcbf 5f2f 54df 55ce e2bf
000000a0: b2c6 69ae ce40 bd3f 3652 4a20 ab39 7ebf
000000b0: 2d10 92ba b199 c93f d11e 9910 0411 c3bf
000000c0: 03f1 f500 1511 94bf 590f 1c97 3efa b6bf
000000d0: b935 cd38 3f14 c13f 5601 b3e8 57dc c3bf
000000e0: 43e8 69e6 52e7 d13f ce1e 6b00 6290 cbbf
000000f0: 4da8 10ec 4d42 b8bf c039 8dc4 f294 ac3f
00000100: f641 ab06 fe0c 8a3f 4ba1 166b 5acd b23f
00000110: 0093 2373 c315 a93f 9449 76d3 db00 96bf
00000120: 7329 7400 77ff 99bf 1196 19fe 04b5 b5bf
00000130: 6b1f 512d cdf5 b0bf 33b0 5a54 06cc 94bf
00000140: 6c2a 600a 9fe8 dbbf 9caa ba97 be20 cc3f
00000150: 5e9a a172 5eb1 c83f cf4b bb25 68e3 cebf
00000160: 5a65 eccb aebf d33f 05c8 9915 3a26 d4bf
00000170: 807c 79e2 bf5d c83f 4a60 898f a15f c63f
00000180: c11f 0f0c dde4 cebf 7348 25d4 e0cc b63f
00000190: e21e 43bb f20e 66bf d642 94e5 57a2 b3bf
000001a0: ea0d 20b5 2982 903f 9591 e1dd 0929 77bf
000001b0: 7c9d 6bcb 1374 b4bf 16c0 2321 bbfc 9ebf
000001c0: f524 70aa db6d a4bf 9ce8 ddad 03cd 8ebf
000001d0: 73ab 00e3 23b8 bf3f 7370 fb1f d5ce bd3f
000001e0: 7638 7053 2bfe d0bf 7fa3 3c68 0342 c13f
000001f0: 591c 88d7 b7cc db3f 63a7 2849 0296 d2bf
00000200: 5a95 584a 90de 983f ac43 b420 572e cd3f
00000210: e424 f4cf 5f78 c93f f6f9 ba9f a942 d3bf
00000220: 32d0 f5b4 9d04 c23f a6f3 931a 6fa1 d5bf
00000230: 6434 4122 e980 acbf ee2a f13a ae72 a23f
00000240: b5c3 7e46 4595 aebf 6ed0 e18b fb6d 523f
00000250: b5fe c90b 83aa ad3f 0ba3 6f87 bf01 acbf
00000260: dd92 10e4 e845 943f 01b3 3246 5dbd 9e3f
00000270: dc4c 625c cb75 b63f 6692 01b1 7cd8 7c3f
00000280: e63c 0f9e 52f1 913f a811 fdf0 f50c d03f
00000290: 0d3a fb26 e524 cabf f8cb f54e 528b c3bf
000002a0: 7167 bc5c 2caa c9bf a849 e5d1 f5b4 b9bf
000002b0: 3c07 9682 0b5a babf 790d 8f86 7b59 d53f
000002c0: b015 a77d b00e b13f dbb3 4075 3845 c6bf
000002d0: 4b7b d33f e2b4 d5bf f24a 0a95 fb9a a63f
000002e0: c4b5 7d7a ce39 d13f 9dcc 3c09 9b03 923f
000002f0: abb2 5045 cb79 b9bf 3e94 581e c7aa aabf
00000300: 49aa 9582 8d54 d43f 5a5d 0a60 3fb2 b03f
00000310: 3217 985f 79fc d13f c907 5cd5 f5f6 d1bf
00000320: fbeb 062b d800 a33f 56f2 d36e e97c a43f
00000330: abb8 a8a2 97e0 c0bf 2271 56c2 7581 a2bf
00000340: 9300 97b2 9066 b7bf 996a af83 f9a6 9e3f
00000350: 42d4 29a7 37ac a7bf d61e 656a bcba a4bf
00000360: a109 6db0 4ffa 583f 8b42 c825 3fa9 a03f
00000370: 41ee 4cee 9939 c63f d6da ac79 5c44 cebf
00000380: a304 fdeb 5b90 c63f c311 237f db74 c13f
00000390: dc98 cf12 ea52 b83f c9d2 29e6 2ba7 dfbf
000003a0: 4111 798b fd6e d13f d0ab faf7 06d2 bd3f
000003b0: ab4c 916a bb33 c3bf fcb5 bcfc 88d9 b8bf
000003c0: e705 b131 2a8b 503f 8190 292a 50a1 803f
000003d0: cada a0a4 11e5 8f3f 2b69 0640 f562 a3bf
000003e0: d484 42af cece 9c3f 678d 9ae1 48f0 b8bf
000003f0: a9a9 03f7 e84f b2bf ed22 a818 e3f7 773f
00000400: cbd7 b289 1df7 b43f 8fe2 2eb1 b4cc 8f3f
00000410: 81cf 3535 bf05 84bf 8cf5 522d 3dfa a2bf
00000420: 6e56 2f46 aeb6 813f 086f f818 f902 8bbf
00000430: 7f93 d051 ce3e 9fbf 274c 6eb7 f796 643f
00000440: f016 648d 6c94 83bf 39b2 7b8f 42b3 89bf
00000450: b837 f430 f8cc bbbf 8241 0665 4659 9ebf
00000460: f155 15fd 9e89 99bf 631b c939 7a3e a3bf
00000470: 8b1d aa5e 7374 b6bf f730 20a0 c6ff 8a3f
00000480: adbd c478 b0de 853f d512 c4fd df32 a6bf
00000490: ce1f 956e c82b aa3f 3173 b1be 1bc9 3f3f
000004a0: 2a61 dc3f a492 b1bf d406 27c3 370a a3bf
000004b0: 8745 5d67 0644 b8bf 6d73 74c4 980a bfbf
000004c0: 2a44 be21 6c27 b0bf e005 c272 7459 c53f
000004d0: ff70 159a d942 c53f 064b 9c24 40b4 d53f
000004e0: 5d3e e70e 6232 e7bf 5cb8 d47d 0e6a e03f
000004f0: 2f16 3df4 7e14 b13f 9516 c945 4082 b7bf
00000500: 01ef 4db4 94b2 9a3f 9657 030f 2762 85bf
00000510: 78cd 0e70 79d1 873f 1639 6506 a5ad 9f3f
00000520: a561 68f3 bb43 6d3f 745c 0cd5 378d 82bf
00000530: 70eb 7892 3980 b1bf a931 e36e a04b a43f
00000540: 5d35 e3f3 6d4f a63f a9f1 2aaf 6a7c ae3f
00000550: cb70 8204 f44e aa3f 40b9 1882 5043 96bf
00000560: 1901 8398 a4df a93f 940f 8af9 09d1 b0bf
00000570: 7adb 317e 1d2e 9a3f eaac 0e96 0644 95bf
00000580: dc09 630a 3e21 7abf ee11 8a5d 9a39 98bf
00000590: cac5 5073 db3d 9f3f 0837 9948 3cef 923f
000005a0: 2092 a38f c005 7cbf 4661 a654 d330 9a3f
000005b0: ed84 e343 f585 7abf b587 dff5 a6f4 b93f
000005c0: bcc4 69f1 db3f bcbf 6395 2090 6245 b0bf
000005d0: 6c4c 068b 5364 a13f b9ce 145e 64c1 acbf
000005e0: 5b44 76d2 2a18 8d3f 4a7d a62e 921b a4bf
000005f0: 89e7 28c7 5d4c 883f 16ac 15fb 977a c73f
00000600: 0678 69cb 8672 873f c900 e97d e49e c13f
00000610: 6944 2aa0 013f c6bf 98b1 fd40 0d16 d23f
00000620: ee2a c138 1815 d3bf 2bdb bfef 4fc4 d33f
00000630: 8099 513c 0331 e2bf d53d 60ea 4df4 b03f
00000640: 7364 a533 4614 d73f 8d18 b7ee 2bd6 b93f
00000650: 00f4 3b22 4732 b83f 006a 0fbd 3480 c9bf
00000660: 3f9d 3073 a52d c1bf 96d0 c7f6 5ae2 cd3f
00000670: 1df0 a5c8 518e d03f 3ef9 19ad 2372 b03f
00000680: df88 73ad 6590 dbbf 2d9d 9d0c 2129 d3bf
00000690: 119f d555 9e00 bc3f 278a 1a89 c5fe ad3f
000006a0: 0a97 ccd0 aa63 a13f 0448 d627 ab29 95bf
000006b0: 2c51 bd00 48ce a03f da86 e347 1ea2 88bf
000006c0: b914 2315 52aa a2bf 2ee5 cf3c 4a8f b5bf
000006d0: 54e4 4af7 f03b a73f 34fa bd8e 0828 75bf
000006e0: afb8 b64e 0433 a33f 6c7a 81d3 3b34 91bf
000006f0: 591b 673a 1a5e 84bf 129a 52d0 d7f1 a93f
00000700: d1a6 1128 07dd a73f 4f1f 6ee2 74e3 73bf
00000710: d0b4 b16d 8650 babf 10dc 8df6 face a23f
00000720: 6927 7043 cf59 8d3f 88ed 7dcc a70b ab3f
00000730: 2440 9d34 6ce5 cabf 8cfb 039c adb7 dc3f
00000740: e967 7f93 68c0 c23f 1ac4 92a3 1161 dc3f
00000750: 1783 3c7c abf2 db3f 3453 edeb c531 eebf
00000760: 363e 2014 9762 bcbf 922d 68ec 89b2 ca3f
00000770: 3860 af80 5d4a d5bf f644 6a10 2d76 ad3f
00000780: 7bde 42f4 629f a6bf ed5b 9957 a24d b7bf
00000790: ed20 26e2 6caf de3f 3994 ea42 16d7 d83f
000007a0: b75b 4847 5c63 d0bf 7a8a 48d7 f0d6 b2bf
000007b0: f377 c748 377b d3bf e20c fa56 b465 d4bf
000007c0: 23f7 369d 424d d43f 3707 9dec 72e6 b03f
000007d0: e0c9 923a 3137 60bf b0eb 9906 f5f7 9e3f
000007e0: 57fb c48e 18e6 c8bf 62c1 a1e0 c7d3 ba3f
000007f0: 744c 7f6d 3ab3 a5bf 815f bf21 9391 afbf
