notebooks/models/simTwoLayers/experiments/he/weights_he_2.pkl.npz (npz, 715948 bytes, 3 tensors)

arr_0 f8 [784, 100]
0	0xbfb8c1e185d6e9fb	-0.0967083884960757
1	0xbfb2d412e483c4d3	-0.07354848937008578
2	0xbfaaaf1da2d76bf2	-0.05211727726756256
3	0xbfb739c8ec9e2a4f	-0.09072547699739995
4	0xbfa8af2409207104	-0.048211217989065275
5	0xbf957ce4f570dce3	-0.02098424671222866
6	0xbf81c58c4d9dc986	-0.008677574270880905
7	0xbfa7046009ccf8bc	-0.044955254742022416
8	0x3f90410642542372	0.01587304859006928
9	0xbfa8591144f4f869	-0.047554530780403344
10	0x3fb97d8b3559e26c	0.09957189610020983
11	0xbf9f6ba73413cb57	-0.030684101632640317
12	0x3fa504e3c4fa32db	0.04105293063648726
13	0xbf806619d27ed2ae	-0.008007241951284296
14	0xbf91aafd977d1118	-0.017253839846731983
15	0x3fb5f2dacfecaa9b	0.08573691917687613
16	0x3f8e3b09f8760117	0.014761045355726794
17	0x3fa61e5ad0a5fbc4	0.04320033833481987
18	0x3fb7fe439e705602	0.09372351282248562
19	0xbfae334013b923ee	-0.05898475876580976
20	0xbfc001da6c4c624d	-0.12505655563360776
21	0x3fa1d3c37b067acf	0.03481875302099057
22	0x3fa2a094655b4714	0.03638137566816915
23	0xbf95fa84914246d0	-0.021463462224864227
24	0xbfb292e6c6c922df	-0.0725540385548231
25	0xbfaaa8cb77d2a7dd	-0.05206905210191313
26	0xbf8bc70a098ff0ef	-0.013563230912034345
27	0x3faa467fabf13da5	0.051319112528854384
28	0x3fadee948161f286	0.058460846704268696
29	0x3fb2e0d320190d51	0.07374305280341288
30	0xbf668826b808559f	-0.0027504688480443763
31	0x3f941cece6fbd940	0.019641591642505007
32	0x3faf5e25523cfa03	0.061265150345651186
33	0xbf8e04e586b50b7e	-0.014657776997983648
34	0x3fbaf75eedec5594	0.10533707913085372
35	0xbfa9e89f3ad965b2	-0.05060288995145913
36	0x3f96a88102e7e452	0.022127166559560436
37	0xbf829761f4ce9316	-0.009077801974692028
38	0x3f93ad5c9bb7af79	0.019216010097735634
39	0xbf74a25d4299da87	-0.00503765516042754
40	0xbf9dde6a4dc9f971	-0.029168759343968845
41	0x3fadee1ccc8ee83c	0.05845727917717666
42	0x3fb3d3ddb0bcdcb0	0.07745156826864519
43	0x3f94277baf9d2457	0.01968186625825682
44	0x3f5314cf6b296522	0.001164629513956968
45	0xbfa6f08520417da9	-0.04480377215144966
46	0x3f7baeb68cd15fc5	0.006758416258058679
47	0x3f849317de88ca03	0.01004618308897865
48	0x3f53242aad64e326	0.0011682907839498185
49	0x3f964176625505e2	0.021734094382969256
50	0x3f8c8d4672ca1d58	0.013941336038682792
51	0xbf99aab04c7620f1	-0.025065188090167948
52	0xbfb7ccacd7baabb8	-0.09296684519601583
53	0xbf711bb8f9d373d9	-0.004176828920404462
54	0xbfb483e0556a1a51	-0.08013727269472183
55	0x3f836147dbb5311e	0.009462891952943194
56	0xbf8e85352fb607a7	-0.014902511137510134
57	0x3fba3feba44bef0c	0.10253784905574664
58	0x3f7bf0fd0ddee9fa	0.006821621411229101
59	0x3fa4239f9dc2ca5b	0.03933428574363936
60	0xbfb278fdf2922407	-0.07215869114055816
61	0x3f5b63add5119513	0.0016717145520258089
62	0x3f7920013ce88940	0.006134037814748361
63	0xbfa53f99b45d76b7	-0.04150085760805438
64	0xbfbd4eb1b3f69526	-0.11448202746995104
65	0x3f7e762066e270b5	0.00743687302579248
66	0x3faa2497c2e33cc6	0.05106043104171358
67	0x3fa1187186379049	0.03338961375610034
68	0x3fa106f402fde829	0.03325617348214422
69	0xbf7ac12b1f342ac8	-0.006531876034623969
70	0x3f9ffe59b7bb4229	0.03124370750339459
71	0x3f9b0374de72f573	0.026380373074734686
72	0xbfade062d286f582	-0.05835255451118383
73	0xbfaa3e126a6c06f1	-0.051254821291889636
74	0xbf7fa5c69e2f4b72	-0.007726455546577126
75	0x3fba5250ce5353a2	0.10281853711360481
76	0xbf91ba4f0e398af5	-0.017312274211131535
77	0xbf752ff4ec6ba563	-0.005172688229074881
78	0x3f787e6b9c6eddb1	0.0059799388463299
79	0x3f748245845acee1	0.0050070491321780606
80	0x3f7a0ddd7b9289c7	0.006360879103484546
81	0x3fa8d7ac8605e0fb	0.04852046142599594
82	0x3f73d44a813e9534	0.004841128382314697
83	0x3fa5680dc6c78298	0.041809492602401466
84	0xbfa7e9db08f5963d	-0.04670605167738671
85	0x3fb7c88d7a0ba70f	0.09290394048334981
86	0xbfba97ea1355a005	-0.10388052913697272
87	0xbf7cfa0b2b5cc5ad	-0.007074397688300688
88	0xbf7370b4d9c1dcc7	-0.00474615711947663
89	0x3f90781de32fb7e2	0.016083209029538532
90	0x3fb60cbc08b86d3a	0.086131813172348
91	0x3f6b3efaa7865504	0.0033259292214987708
92	0x3f96d6dfa087c10b	0.022304052517882627
93	0x3fb4e47cf359f2e8	0.08161145154185656
94	0x3f9c409c939d79b2	0.02759022379847815
95	0xbf8f4ea314450f8b	-0.015286706977924577
96	0x3f84671890aa01e7	0.009962264933393207
97	0xbfaa9a413e7a2c4f	-0.05195812118207554
98	0x3fa436e3103a8ffb	0.03948125432114576
99	0x3f971ddb8b01625e	0.022574835166184186
100	0xbf83f2fe8f4708a9	-0.00974081873653561
101	0xbfb2401d5551b327	-0.07129081089960874
102	0x3facb834903be0d1	0.05609287510554995
103	0xbf8381955aca410c	-0.009524504502480123
104	0x3fa47cc8199d73ab	0.040014508368336386
105	0x3fad8d8b06b80298	0.05772051293388819
106	0xbfa55ecab7c444fe	-0.041738829548316744
107	0x3fa4692a91334a3d	0.03986485502686719
108	0xbfa7929d286ef364	-0.0460404502732448
109	0x3f75235da88a7fda	0.005160680630666515
110	0xbf8a9cbfce1a5fdb	-0.012994287946000263
111	0x3fa34ebce8bba9d5	0.03771009770374049
112	0xbfc1f48f365677e7	-0.14027586129390032
113	0xbfaa7ae5d5b032e3	-0.05171888574122876
114	0xbf72843ce9b044d1	-0.004520643177799503
115	0x3fc2eebb6a94ce7f	0.14791052536167013
116	0x3f8c8dc9b795ffca	0.01394231406698045
117	0x3fac27a8d090f82a	0.05499007745719127
118	0x3f60e8551428d365	0.0020639096922203
119	0xbf977955f56f8910	-0.02292379675407924
120	0x3fa9b5a9268f8466	0.05021408649168606
121	0x3fa1c67d71816762	0.03471748362126338
122	0x3fb5adef937927d4	0.08468530035420879
123	0x3fb132e5c24a05f7	0.06718288415324723
124	0x3f8485d285c691a9	0.010020870883473547
125	0x3f9df2b3b6b2fa42	0.029246147180624023
126	0xbfb15274a78d9e40	-0.0676644238534374
127	0x3fb108e4bf67b81e	0.0665419547364938
128	0xbfa1f6d65af8e4f0	-0.03508634434224145
129	0x3f95110c16f4076c	0.02057284250350426
130	0xbfa14515bd9d9791	-0.03373020114558679
131	0x3fbcd9137969a4ed	0.11268731798340399
132	0x3f9684b14376cfa8	0.021990556471521622
133	0x3facf01336140685	0.05651912722715927
134	0x3fbf9d6c7aaee178	0.12349584574883987
135	0xbfaadde5b587131b	-0.05247419205583111
136	0x3fa02e3ae51785a4	0.03160270735294127
137	0xbf8708d16e03155f	-0.011247287912179159
138	0xbfad2709f431aa6a	-0.0569384680355441
139	0xbf940f530fb4adf1	-0.01958970816956013
140	0x3f9fd5a0b8589244	0.031088362933717542
141	0x3f94e87856f04fac	0.020418052965467545
142	0xbfb14d7e2bfd6f10	-0.06758869718526861
143	0xbfaaf6f0e8526c39	-0.052665260657896736
144	0xbfb227607141760f	-0.07091334118873525
145	0x3f9e4bc65001116d	0.02958593238169398
146	0xbfa5ad7142a29019	-0.04233888567367234
147	0x3fb14cff3687cf71	0.06758112984954125
148	0xbfbab74ad2aaa8a1	-0.10435931819179924
149	0xbfa6134aeb2d8f1b	-0.043115941246268906
150	0xbfa531134aca0ed3	-0.04139004028277573
151	0xbf9a082eb8bbfbcf	-0.025421838784492053
152	0x3f9e5881617783d9	0.029634496282486687
153	0x3f946ebadccf8154	0.019953651168067424
154	0x3fbd46b3b71d15c6	0.11436007710025028
155	0x3fad22377890005a	0.056901677577116686
156	0x3fbb5d9ae57726fc	0.10689704992469368
157	0x3fa6032e701039f1	0.04299302213631851
158	0xbfa2016afdcd5d7e	-0.03516706798717005
159	0xbfbad89372eaab5a	-0.10486718707640588
160	0xbf7cc8024139328a	-0.007026680762987634
161	0x3fb0027567611197	0.0625375153914035
162	0x3fa1aa3a661b8073	0.03450186249188016
163	0xbfb208249120f4cd	-0.07043674987012878
164	0xbf6ceeef5c80bfbe	-0.003531901838890377
165	0xbf9846398e76a2bb	-0.023705386467244276
166	0xbf97e3277887749a	-0.023327461940301754
167	0xbfc10ae783db44c0	-0.13314527452761205
168	0x3f866f32dcb54002	0.010954282150720477
169	0xbfbd1f07b7afd142	-0.11375473246136372
170	0xbfa57a0503858c25	-0.04194656055440075
171	0x3f82912b22fd623c	0.00906594944506011
172	0x3f9d5827728dfe0a	0.028656593672620224
173	0x3fb56131378e892d	0.08351428610197749
174	0xbfb1c6e150aa9d75	-0.06944092006107445
175	0xbf92417889980877	-0.01782787647062675
176	0xbf70b0821ed99ca6	-0.004074581416353562
177	0xbfbec244597e8614	-0.12015177903096969
178	0x3fa7f85a9aa17d77	0.04681666505416165
179	0xbf6e349f9df1f826	-0.0036872022170078176
180	0xbfa38e57f723d3aa	-0.03819537059636187
181	0xbf91a9eb056f1a87	-0.017249748427071523
182	0xbfb0ddb2abab8432	-0.06588284197961583
183	0x3f7d14dcc7f4fc15	0.007099974084950685
184	0x3f9d4ad0310a5df0	0.028605702393717125
185	0xbfba3f0ba9efb14c	-0.10252449892840793
186	0xbf8b0a38539529b2	-0.013203086901417336
187	0x3f9b2a666ac81c81	0.02652893091911013
188	0xbf9c5dc8abe6de03	-0.027701507083945042
189	0xbf6764c1b5ff3110	-0.002855661718035425
190	0xbfa1d5aee22d9b29	-0.03483339796985369
191	0x3f9d2de11b0ca9dc	0.028495328212707935
192	0xbf9847558bb97d22	-0.02370961823760099
193	0x3faf4cb4033b17a3	0.06113207377852283
194	0xbf9c70424aebed4b	-0.027771983931399274
195	0xbfb3dabdfe8d9ed6	-0.07755649056127409
196	0x3f7a01cf0629e289	0.00634938114910056
197	0x3f9049a3dda2e265	0.015905914690593898
198	0x3fa42cf7d834c4fe	0.039405579702711066
199	0xbf8174587d7f8c7e	-0.008522692994978206
200	0x3fa2c7402641d173	0.036676411314064426
201	0xbfa32ef0034c3d51	-0.03746748008972623
202	0x3fb0354e74476333	0.0633133920558862
203	0x3fabe77abbd01df6	0.0545004228843559
204	0x3fae28498a2806bf	0.05890111743430059
205	0x3fb4fc92d5d9262a	0.08197896691231024
206	0x3f9bc9b253c01190	0.02713659893199033
207	0xbf9d3ff26a812837	-0.028564250708122265
208	0xbf50c927227ee819	-0.0010245210814745552
209	0xbfb5cb016cde03ac	-0.08512886913196266
210	0x3fb2c6c16aaf4bf1	0.07334526877029625
211	0x3fc21a8d1de0e21b	0.1414352794543142
212	0x3fb7bc39c0919b69	0.09271584464441464
213	0x3fb8e7de313c9d73	0.09728802396840823
214	0xbf8b1f7313f1bea1	-0.013243578954841797
215	0x3fa54d6c7eb04032	0.04160632177820424
216	0xbfbac4743a71678e	-0.10456015040236208
217	0xbfa7b698aca5f502	-0.04631497485659432
218	0xbfa59f5d5dccaaaa	-0.042231481266147355
219	0xbf92b32dfc8168f7	-0.01826164106055558
220	0x3fc08e018db7807a	0.129333681295069
221	0x3f8aed9016eabb63	0.013148427676552726
222	0xbf947de8b58cc95a	-0.020011554795197874
223	0xbf8830e254defe05	-0.011811989035662948
224	0x3f9ae95792437123	0.026280754377567505
225	0xbfaba8e562485799	-0.054022949454675735
226	0x3fa52a563f7efb54	0.04133862996194773
227	0xbfa7413441820e48	-0.04541934299143385
228	0xbf645b34faec8ef0	-0.0024848971146570406
229	0x3fa0f7a371906bbe	0.03313933144837432
230	0xbfa299af03fd9ab8	-0.03632876323427098
231	0xbfbc6bcd06b940b5	-0.11101991094733672
232	0x3f937c98030cb9b7	0.01902997511495538
233	0xbfa5ef60f449827f	-0.04284193975468486
234	0xbf958ce2211029c3	-0.02104523970414519
235	0xbfaa8d56a8c52ec9	-0.051859577276073994
236	0xbfb53ac78d6f0569	-0.08292815402002919
237	0xbfac0994d7fc130a	-0.054760600438418974
238	0x3f8ca034352e2c63	0.01397743975919336
239	0xbfadd54a1c1a5e45	-0.05826789467863284
240	0xbf953b5690f1e1c3	-0.02073416957543529
241	0xbfa0ab5f649b9cc1	-0.032557469397767054
242	0xbfaa566d2aff5e1e	-0.051440631388399036
243	0x3fa971ddead79bc2	0.0496968602345116
244	0xbfb311162d5dede8	-0.07447947127905474
245	0xbf8f8d335609ee17	-0.01540603739089534
246	0x3f87be4d51396715	0.011593441048876532
247	0xbfa37d8d92ea6b97	-0.0380672685471019
248	0x3faa49d42cfdd1d4	0.05134451913082541
249	0x3f935b0286b3346b	0.01890186259406727
250	0xbfa29dc6bdece2dd	-0.036359987911458204
251	0x3f7aa08d712d102c	0.006500771053485049
252	0x3fc33ee67278d81e	0.15035706128554777
253	0xbf9451e9d00be9af	-0.019843724558975925
254	0xbfafba5243109bad	-0.06196839398062735
255	0xbf9a2e17ddb1d7c2	-0.025566456705256042

arr_1 f8 [100, 100]
0	0xbfb7801b822fd9c2	-0.09179851463691249
1	0xbfa489b0e5705a98	-0.04011299896972281
2	0xbfb5f52d10a82d90	-0.08577233940757467
3	0x3fc4914cb386fa27	0.1606841923330233
4	0x3fc8c47f417405c6	0.19349661537130042
5	0xbf9bace5cad910ff	-0.02702673960290358
6	0x3fb8d90ff49a1c72	0.09706210824707442
7	0xbf8c1fdbc1250c31	-0.013732640106019019
8	0xbf9eaa851ffa902e	-0.029947357251003996
9	0x3fc36b6e69357910	0.1517160428729274
10	0xbfa9eeebd39020a4	-0.050650949073373114
11	0x3fc8b5428bbcc554	0.1930316145240264
12	0xbfa5e78d65a2acf4	-0.04278222909609922
13	0xbf5855d19d0a188a	-0.001485304546947871
14	0x3faf0896887c6301	0.06061239639365646
15	0x3fbf15f61975faf4	0.12142885324099578
16	0x3f8bd9f3c46d5c6a	0.01359930461118904
17	0x3fb101e4a4df1d6e	0.06643513703521872
18	0xbfaf94b7ccdf2ce9	-0.06168150306583604
19	0x3f851c85a708d097	0.010308307800279954
20	0xbfa7966d5b439a63	-0.04606954325736436
21	0xbfc5257456be7b2e	-0.16520551906156683
22	0xbfb003c76b67af2e	-0.06255766269867699
23	0xbf9091dfc6a6a198	-0.016181465625466268
24	0x3fc882a407066dcb	0.1914868387510594
25	0xbfbdfd2a003fe536	-0.11714422708600555
26	0xbfc9aacd2c124bb3	-0.20052494670798424
27	0x3f929a4bea81c1f7	0.018166719616091922
28	0x3fa7038850d075ee	0.04494882570746116
29	0xbfbb50be3896a82e	-0.10670079118304507
30	0xbfa786e4769819c4	-0.045951022602867236
31	0x3f936499a45d5d9b	0.01893844667151044
32	0xbfaeeb4f12157ef7	-0.0603890142035634
33	0x3fb19b0509e4c03f	0.06877166263143496
34	0xbf42ff04b049f9e4	-0.0005797169583983655
35	0xbfa6bc065bc09d5c	-0.04440326566719463
36	0xbf76f1b4d888223c	-0.005601602963459625
37	0x3f8353c66355ce4f	0.009437131792515844
38	0xbf839bde36bde1c5	-0.009574638410172373
39	0xbfb6e89e213ab5e5	-0.08948696433318266
40	0xbf9b2a36da42e294	-0.0265282221523387
41	0x3fb14ff38ce28a69	0.06762621106694557
42	0xbfc755cd091276ac	-0.18230593626951952
43	0xbfa62347d7b4d2e3	-0.0432379198850066
44	0x3fc1e75c9088d482	0.13987309510563156
45	0xbf816a043686f688	-0.008502991594350875
46	0xbfb8d4454921a904	-0.09698899302899028
47	0x3fb1e394fa930eca	0.06987887494602343
48	0xbfa1d53c22f41ac4	-0.03482997824362635
49	0xbf8a1235e8c4448d	-0.01273004643056399
50	0x3fc615c900b73b09	0.17253983054111924
51	0xbfb96551f420a34f	-0.09920227251190038
52	0x3fc00b3d9ac2bec7	0.12534303719211534
53	0xbfb21a25f7e0c8de	-0.07071149160109111
54	0x3fca43f6bd10207e	0.2051990912589225
55	0x3f8a7aab4cbddc4c	0.012929285315960957
56	0x3fb1fd21cd6411a5	0.0702687384073842
57	0xbfb5029dae4288ff	-0.08207116608040009
58	0x3fc0e2862df14146	0.13191296809464798
59	0xbfa9dfb45dbd36db	-0.05053485531116816
60	0xbf9e3fc1b922c08c	-0.029540087628163778
61	0xbfa226ea227c8d09	-0.03545314475038636
62	0x3f93fd66078679e6	0.019521326264674864
63	0x3f37c4fb159d0569	0.00036269311896227355
64	0x3f46731ab06afa05	0.0006851082151440596
65	0xbf9945711393a5b5	-0.024678961582059695
66	0x3fa16d849aeec1f1	0.034038680946995366
67	0x3fc78d59e6d08d7f	0.1840011956238463
68	0xbfb44a3253cd1500	-0.07925715013432821
69	0x3faae1709af42c22	0.05250121966863498
70	0x3faecef31045683b	0.06017264913198558
71	0x3fc476a37b86d7d3	0.15987056285456322
72	0x3fd3458712b53b88	0.3011186297125552
73	0x3f89dba0c674dd6e	0.012625938469325883
74	0x3fb2731242a642ab	0.07206834914382891
75	0xbfa1d29b4e6762b6	-0.03480992633894202
76	0x3fc01f6e45997435	0.1259591903534855
77	0x3f84fc4dca58785f	0.010246856439206363
78	0x3fc8700029b90405	0.19091798817865438
79	0x3fb3ab74f51e1e5b	0.07683497413938183
80	0xbfb098ad037c0d57	-0.06482964835236281
81	0x3fa2beed5ea29d28	0.03661290912833187
82	0x3faff9d927dfe858	0.062453065984258316
83	0x3fbb9d8afb7e2356	0.10787266387900493
84	0x3f9b0feb1d81cae8	0.026427911449398517
85	0xbfb249a42d686f4e	-0.07143617733566751
86	0x3fa700e9f8248316	0.044928847828719906
87	0x3fbc461064a78546	0.11044409234411487
88	0x3fc34cd2d58d968f	0.15078196933170715
89	0x3fa3247f07f0e110	0.037387819022514646
90	0xbfbec4b69076322c	-0.12018910433671043
91	0xbf9491571ca4d2e7	-0.020085679171830597
92	0x3f839b646a29d24d	0.009573730935906211
93	0xbfa05e88ed4a912f	-0.0319712438261227
94	0xbf97e20763706e41	-0.023323169178281814
95	0xbf8e38c745d39799	-0.014756733721195835
96	0x3fa2a9c1b6d97c0c	0.036451390810491174
97	0x3f6e3ed13f876916	0.0036920630338787104
98	0x3f6b13ac1b9f8804	0.0033052789194565352
99	0xbfc39e64d1e3c4bc	-0.1532712960102226
100	0x3fa2d0f00ff90b61	0.03675031847935518
101	0x3f8eadbf70568c43	0.014979835143838943
102	0xbf81021d55d4dddc	-0.00830481451212866
103	0x3f8f6f53f24ac113	0.015349059898057271
104	0x3fab16a0583dcbc6	0.052907000323919415
105	0xbfb110146e731f8e	-0.0666516084339703
106	0x3fb53e34082406f3	0.08298039625881497
107	0xbfabf14b1d052481	-0.05457529763459324
108	0xbfaa096b366f7683	-0.05085310973639159
109	0x3f80923a91dc347e	0.008091409279155078
110	0x3f97f042a3a63988	0.02337745784603265
111	0x3fb043dc20dada23	0.0635354595386635
112	0xbfa3a35793fb7903	-0.03835557633805033
113	0x3fa77f495adc762d	0.045892994252636356
114	0x3fabc52fbecd7321	0.054238788644147336
115	0xbf89669861c03ccd	-0.012402716143724036
116	0x3f91412248045c26	0.01685002865368914
117	0xbf7b743e2f8d56c7	-0.006702654755675836
118	0x3f7967f51cd4f46a	0.006202657195271669
119	0x3f504deb630a95d1	0.0009951399517061819
120	0x3fa8517247267f06	0.047496386704777335
121	0x3faad44202c113f8	0.05240064891453494
122	0xbfafe82086fda573	-0.06231786392056451
123	0x3f9ed46098202958	0.030107030186664246
124	0x3f961ffadbca6caa	0.021606368699036572
125	0x3f85957eb87ecddf	0.010539045338965046
126	0x3f699937a3e622c6	0.0031248175357102307
127	0x3f86ebabc335cd9d	0.011191694159356664
128	0x3f7fd64a4b2ee5ac	0.0077727224442524605
129	0xbf89260d037f6163	-0.012279607457387603
130	0xbf9b6d662b850f69	-0.026784511953578703
131	0xbf8653e10cf8fbe4	-0.010902174194709909
132	0x3f9c395b99a9ef66	0.027562552694220165
133	0x3fad28f99112a750	0.05695323844822886
134	0xbfa42bf482e3c3ab	-0.03939785096907341
135	0x3fa90299cd1d36a6	0.04884796742281354
136	0xbfa831e2418abb14	-0.04725558328697424
137	0x3f7283dd74b0c3ab	0.004520287572675234
138	0x3fa49c0f70067c25	0.04025314562317587
139	0xbfa33cced09689bf	-0.037573302233130594
140	0xbfaf662678025e1f	-0.06132621970135354
141	0xbfa3609d008d227c	-0.0378464759037955
142	0x3fa227b7a6396d6d	0.0354592695627741
143	0x3fa63b6c3677c100	0.04342210926904677
144	0x3fab7a8d8e7b7188	0.05366937984738046
145	0xbfa6b51fe0bd51b9	-0.044350620445274776
146	0xbf70d20cf787bc50	-0.004106569911967631
147	0xbfad396bac2a36cf	-0.057078709379408836
148	0xbf9dc577262e0f82	-0.02907358332187427
149	0xbfae3b844c27dd5e	-0.05904782704959176
150	0x3f9b453ea28133ab	0.026631334942340306
151	0xbf9aea7e1bb40ee4	-0.026285143319014007
152	0xbfb08017d48a9e78	-0.06445454539299955
153	0xbfaee2a05ae6c5fb	-0.06032277211796707
154	0x3fbc31bf835385f9	0.11013409572799295
155	0xbfa6af64f7003e02	-0.04430690302990216
156	0xbfbd845abd37ae7f	-0.11530081862991358
157	0x3f9a559ac7cb840c	0.025717180676000637
158	0xbfbce7d5c62a9938	-0.11291252220198522
159	0xbfb679089bf90250	-0.08778432662894287
160	0x3fa1b31222c319aa	0.03456932710973899
161	0xbf7b123ece55970c	-0.006609196983253584
162	0xbf89bdf23ed1aba3	-0.012569325010380277
163	0x3fa7b16825f5cac4	0.04627538169269976
164	0x3fb8dcdb3484ea77	0.09711999923903557
165	0x3fabaed4c2dbf36c	0.0540682304253782
166	0x3fb0a3fed239f6af	0.06500237114411321
167	0xbfa175a81b31feff	-0.034100774116266656
168	0xbf4611f5c089e1b6	-0.0006735277139134274
169	0x3fc10d72507f1eab	0.13322285585876634
170	0x3fb64d23f40f87ce	0.08711456974518159
171	0xbf89f2f46d318b14	-0.012670430738756212
172	0x3f8ffd234c5723dd	0.015619540946220251
173	0xbfa4f4c34fc632bb	-0.040929893005431116
174	0x3f48799146250319	0.0007469138475145492
175	0xbf9f314753044bc1	-0.03046142048067302
176	0xbf916bccc76a7b3b	-0.017012786551841002
177	0xbfab1cfe0d19313b	-0.05295556936161679
178	0x3fb339ab323983bd	0.0750987050646605
179	0x3fab8c47177a8275	0.05380460893252784
180	0x3f62a0a37d0abadc	0.002273864091271489
181	0xbfb2bda91a94c404	-0.07320649050667788
182	0x3fa73088905e1ab3	0.04529215585994475
183	0x3fa2b8532cbca89b	0.036562537394574345
184	0x3fa80de477aedd9c	0.04698099099135364
185	0xbfb215ec38a6c988	-0.07064701445668764
186	0xbfaefbd4d8fdb479	-0.06051507138077112
187	0x3f834f412425acbf	0.009428509631752012
188	0xbf94d13e2b9e74c0	-0.0203294481394678
189	0xbf73dbffdc4279fa	-0.004848479704519177
190	0xbfbd26288fdc271a	-0.11386350166517581
191	0x3fb5c5f9bc509308	0.08505211684730452
192	0xbfb4179831e05541	-0.0784850236671746
193	0x3fb41d1a306bfe04	0.07856906587766593
194	0x3f97e7397b0a3bac	0.023342989096416453
195	0x3fb009f7e57555f4	0.06265210487375567
196	0xbf8c38d41e28b621	-0.013780266924267317
197	0x3fa0329ba0cfee34	0.03163610780753992
198	0x3fb161c7de9d912f	0.06789826569508216
199	0xbf9768b8ab112447	-0.022860417786692257
200	0xbfa0cc68ea3df04e	-0.03280952319525508
201	0xbf9cb8a3cbf17d04	-0.028048095057212855
202	0xbfb073dc7e5766ca	-0.0642679031801904
203	0x3fa06ac4c8a1e19a	0.032064580432179926
204	0xbfb59b8e0fba28c3	-0.08440482982601609
205	0xbf9387619118b246	-0.019071125489221318
206	0x3fb27a29e76bfb5c	0.07217656993814842
207	0xbfb1a9887c76784e	-0.06899312056199955
208	0xbfa00fa475ed277d	-0.03136934222727825
209	0x3fc7ea93a54b9452	0.18684621401840446
210	0x3fb37bdd6befd164	0.07610877881217487
211	0xbfae0cd82310309f	-0.05869174411790933
212	0x3fbd77e1769810d7	0.11511048455583094
213	0xbfa55b960e2fa8a4	-0.0417143719021891
214	0xbfa231f0bbe0394e	-0.03553726476103468
215	0x3fa09292841a67ae	0.03236825811946119
216	0x3fbbda92a8636b26	0.10880390749973098
217	0xbfb253060fdb56ba	-0.07157934081200326
218	0xbfb9a5d0b5d05592	-0.10018639029325119
219	0x3f95a7dafcb09b89	0.021148130104986094
220	0x3f913e63ac8bc744	0.016839558988926542
221	0xbfc34ca17e040b92	-0.15077608731379805
222	0xbfb19c7298467a92	-0.06879345147761232
223	0xbfb70a58c840310c	-0.09000162972387588
224	0x3fb6dfbf89cbeb0f	0.0893516265313503
225	0xbfb9999a5709e1ff	-0.10000004410711226
226	0x3f65ae75677d8d2a	0.002646664910501824
227	0xbf9519f787f2f7b5	-0.020606868431734166
228	0xbfac0e1127851182	-0.05479482276362814
229	0x3facdcbd96c1a636	0.05637161698616604
230	0x3fb56a2a4c2b62dc	0.08365120277029398
231	0x3fc8c4dcab668707	0.19350775117077765
232	0xbfbe78f58857c9ac	-0.11903318957028003
233	0xbf9c280f38543779	-0.027496564686820577
234	0x3faccdac9a23cf45	0.05625666982260084
235	0xbfb6825912c7b120	-0.08792645176408032
236	0xbf8cdb5125b63ee8	-0.014090188945174956
237	0xbfa309ddd023c46c	-0.03718465009468094
238	0x3fbb1bc3902bcc38	0.10589239377786519
239	0xbf93824cd6e3218a	-0.01905174314086503
240	0x3faab5cabc3569ac	0.05216821238964839
241	0x3f9b93961413d14b	0.02693018434088516
242	0x3fa7e66be6dad287	0.0466798514657159
243	0xbfa1de4f29c3af79	-0.03489920983142176
244	0x3fb99751b15fbd83	0.09996519642276351
245	0x3f9aa0d76f8254f6	0.026004186802841077
246	0x3fb630b742518286	0.08668084496594916
247	0xbfc2614670e68a55	-0.1435936023018082
248	0xbfa56d0bdfebe4b9	-0.0418475828973412
249	0xbfa661b868e7429c	-0.043714297109209016
250	0xbf5d6d723db440fd	-0.0017961135516238451
251	0x3fc7e55f69e52a10	0.18668739958441494
252	0x3fad216bcc621e00	0.05689560766137092
253	0x3f93bed62977508f	0.01928267124260735
254	0x3f9568e40c60a62e	0.0209079392008446
255	0xbfb678351c816c6b	-0.08777172037064111

arr_2 f8 [100, 10]
0	0x3fa98853c08999ef	0.0498682186633238
1	0xbfa694c6aa2fe5c7	-0.044103821062843766
2	0x3f8ca2b5b090c25f	0.013982219172335051
3	0x3fa1bb9c84c60734	0.03463448639651148
4	0xbf96cfb076fc41e3	-0.022276646864215165
5	0x3f99639bb680ddcf	0.024794037832377044
6	0x3fa91581ef11c09b	0.04899221461607902
7	0x3f9821c1edc3f5a2	0.023566274773647707
8	0xbf979b87f6ae1f19	-0.02305424159160827
9	0x3f91198c91645634	0.016699024557132527
10	0xbf8d332e9e5b5855	-0.014257778365770838
11	0x3f9f545e113dfd62	0.0305952737830898
12	0xbf9b732802ee9f6d	-0.026806473902666484
13	0xbfae89080dc61de3	-0.0596392170728526
14	0xbfb06d9085cba76d	-0.064171822228358
15	0x3fb153bb3a2288f3	0.06768388909634719
16	0xbf839907f564e1bf	-0.009569227386791888
17	0xbf952ece29302af0	-0.020686360610890853
18	0x3fa19c1a128e609b	0.0343940875674786
19	0xbfa584399f44d300	-0.0420244223518349
20	0x3fa6b1795f1327b7	0.04432276998120648
21	0xbfb882e0caaa2cab	-0.0957470412051175
22	0x3fa4eda79bc123aa	0.04087566162394947
23	0x3fa1faae8446b999	0.03511567463589244
24	0x3f787d373d268c98	0.005978790070375294
25	0xbf6b5b15f272ea60	-0.0033393314984924566
26	0xbf84b2ebaae383a9	-0.01010688891659746
27	0xbfb2e0731d35c338	-0.07373733008513461
28	0x3f9f62264a1dcf01	0.030647848390301217
29	0xbf29a774534a5f02	-0.00019572539317346682
30	0xbfd53ada515a79cd	-0.33171709007902167
31	0xbfb1ee3cc410c4fa	-0.0700414637256194
32	0xbfd5d0481d3518c4	-0.3408375058392148
33	0xbfb045910e871ba7	-0.06356150250131397
34	0x3fd5119fa85eb98a	0.32920066301712636
35	0x3fd1ac02dd175f67	0.27612372961947645
36	0xbfe8f2b0d27ce47a	-0.7796253310290375
37	0x3fd52e0eb72cf328	0.3309361256431651
38	0xbf98ac72a5606330	-0.02409533628824362
39	0x3fde5faa69a8a5b7	0.474588969404603
40	0x3f92ba32e0fafc93	0.018288416845049737
41	0xbfb2e22426e18fea	-0.07376314114804897
42	0xbfca934edf3b7a98	-0.2076204862596185
43	0x3fd1728934025bbc	0.2726157195951904
44	0xbfccbb14085c87c7	-0.2244591751887681
45	0x3fe5b86563be378b	0.6787592838388589
46	0xbf7c035c2184ef65	-0.006839141737426367
47	0xbfe718aab729abc7	-0.7217610909841533
48	0x3fcd5dbdab90934d	0.22942324521241134
49	0xbf9ab59397e21de1	-0.026083284516543407
50	0xbf82bd84d192e640	-0.009150540967641452
51	0x3f9c418dbe057f97	0.027593817446699722
52	0xbf820167a1e22732	-0.00879174196986163
53	0x3fb1c05c7d3d011f	0.06934145028663295
54	0x3f98063ee7f3161c	0.02346132555682888
55	0x3f74b2b9a9754c49	0.00505325817296682
56	0x3f8fa96b9db9e812	0.01545986247150569
57	0x3fa556b36d045d9e	0.041677100236650264
58	0x3f4b3b8e1e0de674	0.0008310741360297428
59	0xbfa3dcfda03fb741	-0.03879540043986519
60	0xbfc73192787e667e	-0.1812003219936748
61	0xbfc644f6656fbf29	-0.1739795680327856
62	0x3fbca2e53876eb75	0.1118605864384515
63	0xbfb8354b028fcac0	-0.09456318676511
64	0xbfac64c92818c03a	-0.0554564343877932
65	0xbfc91e3ed70bb272	-0.19623551845815573
66	0xbfd794fbcda1e31e	-0.3684682376984244
67	0x3fc029c9246adebe	0.1262751987285266
68	0x3fd597f57cf4452e	0.33739983751827907
69	0x3fbc1f67287c4c94	0.10985417116562451
70	0xbfa7572bf0e70d83	-0.0455869418688293
71	0xbfa19268636556a6	-0.03432012761429108
72	0x3f889d5d8284a192	0.01201890043792345
73	0xbfacbef391361656	-0.05614434383009541
74	0x3fa1fef7c0fc0c3e	0.03514837485092713
75	0x3f94f8a28bb00044	0.020479717040871273
76	0xbf7410c65a254d78	-0.004898810208334374
77	0xbf9d5e943f5f389e	-0.028681103103558862
78	0x3fad49472d9f0d0a	0.05719969207668825
79	0x3fa627543ceb3023	0.04326880687366976
80	0xbfa46554949c7197	-0.03983558954334681
81	0x3fa8dcc300251441	0.04855927826660223
82	0x3fa6dbd45b475b7f	0.04464591612093382
83	0xbf8b975d9b29a9b7	-0.013472300813380451
84	0xbf80c87630147af5	-0.00819485029438514
85	0x3f71778de0bb4cdf	0.004264406404860226
86	0x3fa9e822b1341c1d	0.050599178439419946
87	0x3f99500e5ee94487	0.02471945242206577
88	0x3fa738bf696b26ea	0.04535482560966193
89	0xbf981290161fb4f1	-0.023508311605770996
90	0xbfd0d42fbb144f3e	-0.2629508330294249
91	0x3fd183e72b076a76	0.2736757202343719
92	0x3fb258d4205f6f1c	0.07166791715956972
93	0xbfe2123b014f1412	-0.5647254014553502
94	0x3fce2eada6acb5ab	0.23579950941477298
95	0x3fc8654d5c3e6994	0.19059149746028636
96	0x3fb1d02e87a67aee	0.06958285152220942
97	0x3f7c170639c02362	0.0068578952014000955
98	0x3fba8bb1b2bcb04e	0.10369406331727868
99	0xbfb8b6436bb79f53	-0.09653111820045739
100	0xbfa1fc929d17d367	-0.035130101848983845
101	0xbf522a4739f42a1d	-0.0011087127275596416
102	0x3f98a0ac4cfb98b9	0.02405041904321401
103	0xbfca36bff8ebafb2	-0.20479583410576435
104	0x3fa4a41c86f24e44	0.04031457087799287
105	0xbfc209e0eba19579	-0.14092647080830625
106	0x3fde198d98b5c044	0.4703096381481411
107	0xbfaa5c94cb6d1ba3	-0.051487588722515264
108	0x3fb36c4f6e9dde2d	0.07587143374063805
109	0x3f92b9ab62e978fc	0.018286397850141065
110	0x3fbc2522c42a6e50	0.1099416474266317
111	0x3fb8b4ced75c15eb	0.0965089107304135
112	0xbf9f323bf5abe585	-0.030465065831753364
113	0xbfda08536e631838	-0.4067581727980527
114	0xbf75b0f817f94076	-0.005295724025543893
115	0x3fdc94039c81b15e	0.44653406413887875
116	0x3fc793915f651740	0.1841909137530653
117	0xbfdb440705da2b74	-0.42602706500536347
118	0x3fd6fd71c83791a4	0.3592190222973619
119	0xbfe0666e3266bf56	-0.5125037178422456
120	0x3f9ddcf0935da87e	0.02916313075494558
121	0x3fcd7839bc1b5331	0.23023149189853023
122	0xbfaca2c09449b951	-0.05592920122295431
123	0xbfc10574b2410392	-0.1329789991741817
124	0x3fd26e168188abf2	0.28796923303406097
125	0xbfbd92dcf4fae7da	-0.11552220326385002
126	0xbfb4da57d82df0d4	-0.08145665195292234
127	0x3fabd7d27471b293	0.05438096686780116
128	0xbfd63fb0365974dc	-0.3476372271305317
129	0x3fbc3fc9d68b50b6	0.1103483341970016
130	0xbf871d383b2b30c6	-0.011286200814901181
131	0xbfa675c1eef8d765	-0.04386716882838363
132	0xbf9815e797730335	-0.023521059626321523
133	0xbfa8d97f399f7810	-0.048534370216415934
134	0xbf99ba1f348763ef	-0.025124061184985832
135	0xbfa4e748e4b1b17e	-0.04082706252742961
136	0xbfacf13cb9788939	-0.05652799381302249
137	0xbfa89d1af2bafaa9	-0.04807361805932448
138	0x3f90b1d7c518180f	0.01630341663805984
139	0x3f991c7a7aeb242a	0.024522699119902715
140	0x3fdff0dc9502d5ef	0.4990760283647821
141	0xbfdf3d211e0cf84f	-0.488106040331222
142	0x3fa0131db59b6bff	0.03139584390529392
143	0xbfd67f547113083f	-0.35152159731308424
144	0xbfd5d02eec93a3fc	-0.3408315000838795
145	0xbf659763d4fbdc41	-0.002635664924919762
146	0xbfc5c2f4cb11f0cf	-0.17001209178477558
147	0x3fe247259b2baff3	0.5711849241902186
148	0xbfb52223d47a22be	-0.08255218446187038
149	0x3fbbed9235f7690b	0.1090937978509922
150	0x3fb78bf45f68918b	0.09197928742702836
151	0xbf955e094963d437	-0.02086653242527722
152	0xbf8adeed0f7adae8	-0.013120510134610311
153	0xbfa6ec59be50aba8	-0.04477196167166336
154	0xbfa3ed60162bca3e	-0.03892040510790594
155	0xbf9b00582b76b6a9	-0.026368501332106806
156	0x3f75668b1a192107	0.005224746100403139
157	0x3fa0f6afdc44b55b	0.03313207210372112
158	0xbfa45b3b7c136711	-0.03975854768368781
159	0x3fa4edc9219f3e57	0.040876660684827364
160	0xbfe08f689a3e0f5b	-0.5175059330508519
161	0xbfaf2f31bdafc5b7	-0.06090693893919357
162	0xbfc900782387e15e	-0.19532682166005605
163	0xbf5ff3941c6371d6	-0.0019501634974893232
164	0x3fe0b4c5fdf0fc3f	0.5220670661727879
165	0xbfc6cf020895ab8e	-0.1781923810879928
166	0x3fb861bd57401962	0.09524138813148889
167	0xbfc1fcfa4c34d6bf	-0.14053276749625884
168	0x3fb3960b91213da6	0.0765082578011432
169	0x3fc45e72d176e4b0	0.1591323397422335
170	0x3fbcd193e0b41707	0.11257290111469952
171	0xbf9c8a4a663432bc	-0.0278712868576345
172	0xbfa026a4c0f83c00	-0.0315448270376848
173	0xbf8b174a906fd7f4	-0.013228018315185587
174	0x3fa99b3a4c477265	0.05001241856709696
175	0x3fa1b39195efa4a1	0.034573125412699975
176	0xbf91c630dcd0538c	-0.017357600667384385
177	0xbf878ec6104ead6b	-0.01150278794542344
178	0xbfb46c5b8e32e4ea	-0.07977840634966396
179	0x3f881552f3f970ae	0.011759422369486874
180	0xbfcf7d7d97e29ffb	-0.24601716915390157
181	0x3fd2d0e303271b48	0.29399943645369264
182	0x3fd7117c7dfb24a1	0.36044227888903363
183	0xbfc11caa0cccf939	-0.13368726372750375
184	0xbfcf3ec364e0caac	-0.24410288263023483
185	0x3fa910b5a887f53d	0.04895560915245276
186	0x3f8124964e06e602	0.00837056565875383
187	0x3fed468f9871fb44	0.9148633935400103
188	0xbfd0f712f6aafd61	-0.2650802048555843
189	0xbfe3d69b5325315f	-0.6199471115046825
190	0xbfa32fa97b6c8cb7	-0.03747300750389953
191	0xbfa83281504f3aee	-0.04726032357540598
192	0x3fb6d07c9c2e6c3e	0.08911875546475387
193	0x3faa27e02659e791	0.05108547657159968
194	0x3fb076d96332fb2d	0.06431349441389207
195	0x3f80a1657fe7b3ea	0.008120339361051127
196	0xbf96720f27830fca	-0.02191947630559791
197	0xbfa4bcb25fc82a08	-0.040502142135739716
198	0xbfb562f59ceefcc1	-0.08354125100503308
199	0x3f85e61ce38e2976	0.010692811674535046
200	0xbfa79cfa02936461	-0.04611951142732874
201	0x3fc2f5e5c04d8f1a	0.14812919511597827
202	0x3f713d757171a7a2	0.00420900226809265
203	0xbf9d34f2fb2f838a	-0.028522297459747693
204	0xbf9606d1870d5c07	-0.021510385387355082
205	0xbfc04972c36b7ef7	-0.12724146406161882
206	0xbf65d29e71684a90	-0.002663907488803581
207	0x3fbd80377caed133	0.11523768228545776
208	0x3faeb0c98f7bedd3	0.05994253040804733
209	0x3f74e2abcc624182	0.005098982894324757
210	0x3fc2d5dbde17722a	0.14715145439449034
211	0x3fdf651ed6f8f578	0.4905469035473611
212	0x3fcb08ea5dcdbd49	0.21120957927949238
213	0x3fdc2d524679a19b	0.44026619798980854
214	0xbfd7312f63d3292a	-0.36237702129860117
215	0xbfca3b40da1057ea	-0.20493326804779538
216	0xbfc940a8b3ba7fe5	-0.19728573585325573
217	0xbf6033c6d1410f88	-0.001977814021332184
218	0xbfd69349857768a9	-0.3527396968253336
219	0xbfd4eababffbf8ae	-0.3268267512174913
220	0xbfb5da75dece1c71	-0.08536469163492356
221	0xbfa7684fc035373d	-0.04571770879066015
222	0xbf90582d8ecae739	-0.015961372223251422
223	0x3fafb31d5de729d1	0.06191341182018884
224	0x3fa4420da82d945e	0.03956644704775479
225	0xbfb0d9dfa28992e2	-0.06582448690603429
226	0x3fb3b57bc92f3e86	0.07698796903354763
227	0xbfa59e2995bdfc51	-0.0422223086634338
228	0xbfb73463d12fa2a4	-0.09064315659601135
229	0x3f9d4bd99c00d6e9	0.02860965742748692
230	0xbfa080b1d0847006	-0.032231861785675206
231	0x3f9c75d2d162483b	0.027793211011676738
232	0x3fa0a10ac40bfbeb	0.03247865336560792
233	0xbfa446832454c9cd	-0.03960046595092912
234	0x3f91d1e94636b1f7	0.0174023102860463
235	0x3fa2216bc19d034a	0.03541123140758502
236	0xbf9217379ac7543c	-0.017666691610276994
237	0x3f8817e300eaca7d	0.011764310327042832
238	0xbfa527d2ed57fec8	-0.04131945750486704
239	0x3f9c8c9639f7c47b	0.027880046165539057
240	0x3fc96b6fd1f8c2b0	0.1985912108662169
241	0xbfc12c86946ae759	-0.13417131659462703
242	0x3fd83021f5655a9c	0.37793778385586463
243	0xbfe043524c56edf6	-0.5082179537779996
244	0xbfd412b334148b1d	-0.31364135824166955
245	0xbf9c578af8cbdc9f	-0.02767769950420684
246	0x3fc190bdbadc7aaa	0.1372296488197738
247	0xbfe3cd40484b35de	-0.6188050662983036
248	0x3fe5a1ab50987d03	0.6759850095876633
249	0x3f96bf405c81ef36	0.02221394123669925
250	0xbfd6eabe76546ffe	-0.3580776362957748
251	0x3f9db434f93e3034	0.02900774737604213
252	0x3fd532c8fc9b6bf3	0.3312246767870299
253	0x3fe2b1ad6252fbb9	0.5841891212838767
254	0x3fc0f35524e54354	0.13242592145482013
255	0xbfda1b736cf930ac	-0.40792546884473313
