notebooks/models/simTwoLayers_architecture/experiments/xavier/biases_md_800_200_100.pkl.npz (npz, 9870 bytes, 4 tensors)

arr_0 f8 [800]
000000 50 2e d5 5c f7 8f f7 bf 19 5b af c3 2e 13 8e 3f
       -1.4726480127600503 0.014685025545913487
000010 e7 5b ed fa df 9a bd bf 80 15 6f ca d3 e8 da 3f
       -0.11564445377494757 0.4204606511014717
000020 7a 19 67 ef 87 87 e0 bf f1 17 01 59 df 92 eb bf
       -0.5165443111261958 -0.861678766094654
000030 56 ca 26 f2 2a 9d ed 3f 81 9c 10 af 26 7f cc 3f
       0.9254355172655078 0.22263034389581907
000040 70 04 6c 9d f6 5c d0 3f 14 6c a7 05 ed 0c f5 3f
       0.25567403195606797 1.3156557293757531
000050 71 92 20 1d 99 5f d2 bf c3 f9 b7 90 47 bb fb 3f
       -0.2870848450132036 1.7332225468704656
000060 e5 09 a7 ba 93 90 f3 3f a2 91 3b 2e d9 b6 f7 bf
       1.2227971354592395 -1.4821407133068552
000070 56 ef 79 9e 96 be d1 bf 7e 58 32 c3 9e 6c 87 bf
       -0.2772575900669286 -0.011437645275048643
000080 ee 71 ef 25 27 ca f0 bf e3 b8 de 4a ba 7b e5 bf
       -1.0493537408684648 -0.6713534796051842
000090 56 0d a5 c4 d1 3f d2 bf d2 c8 3d 5a a2 51 eb 3f
       -0.28514522746646287 0.8537151110197334
0000a0 c4 29 30 54 c3 9f 06 c0 f5 32 36 34 92 86 e0 bf
       -2.8280092789839006 -0.5164271373519954
0000b0 4e 8b 5d a3 4b 08 e7 bf 95 9d fb 10 eb 1f c2 bf
       -0.7197626295786479 -0.14159906701318606
0000c0 9a 33 9d 71 7d ff f4 3f 08 28 2b 2a e8 96 d9 3f
       1.3123754919099384 0.39983562582040166
0000d0 3c d0 ba d1 65 3c b3 3f 2e 78 aa 00 53 32 d1 3f
       0.07514034624438265 0.2686965471747297
0000e0 2e b9 d3 33 a9 7f d8 bf 17 fe 73 39 ab ac d8 bf
       -0.38279180585131456 -0.3855388699593915
0000f0 8e 11 81 19 cc 0e cf bf 8f 6c 2f dd d3 c5 bb bf
       -0.2426390766651249 -0.10848735952406428
000100 d4 c2 ac ed b8 47 ec bf 34 69 52 22 95 52 fb 3f
       -0.8837551729285118 1.7076617565822518
000110 4d 3a 9b 0a 0f 2a f4 3f d0 12 68 b0 ef f9 67 bf
       1.26026825087651 -0.002926796095609731
000120 11 fd 9a 60 f0 bf d1 3f ff eb eb 2e 68 2d 8f 3f
       0.27734002527354656 0.015223325664456054
000130 86 43 fa b8 75 1e 9d 3f e5 c2 f3 b9 77 ab de 3f
       0.02843650762094143 0.47921555671113786
000140 f3 51 d8 a0 b7 33 d1 3f 33 d1 9e 80 2b 6b e2 3f
       0.2687815733673055 0.5755822670094289
000150 2b 89 8d e9 f2 39 d7 3f 0d 23 44 29 47 22 d2 bf
       0.36291191871545675 -0.28334216146372243
000160 54 1c 0f b6 0c 78 de 3f 05 73 1d ac e9 0f 76 bf
       0.47607724932863005 -0.005386269361989053
000170 0f c9 eb 3b dd c6 f3 bf 50 57 91 d2 99 3f f8 3f
       -1.2360508289971823 1.5155275559713637
000180 5f 9f a9 b8 da 82 ff bf a5 4f c3 09 8b 16 cd 3f
       -1.9694468701727244 0.227250461356218
000190 c6 a7 e8 15 7d 48 de bf 65 e5 14 7b 18 04 e9 3f
       -0.47317435397655705 0.7817499545991892
0001a0 b7 92 05 a2 32 d6 f3 bf f7 3d ca c9 92 37 c8 3f
       -1.239794381043948 0.1891959653189443
0001b0 d0 43 1b eb 7b ab ce bf 21 bb b6 d6 ac 7b d7 3f
       -0.23960827808198681 0.36692353218215784
0001c0 83 cb 38 ff a8 28 b7 3f 18 46 56 1a d0 34 fc bf
       0.09046417456629112 -1.7628937748708093
0001d0 1f 61 d7 06 b0 a1 cd bf 84 16 cc 52 c2 04 d4 3f
       -0.23149681409882647 0.31279047094026446
0001e0 22 95 68 e2 f1 ce b8 bf c2 e6 85 8b 2f a9 87 3f
       -0.09690772798110861 0.011553164906888628
0001f0 68 93 ec ed 8c cc e5 3f 4f f2 3a 5d 19 52 e8 3f
       0.6812195441203643 0.7600218602088463
000200 38 6e 39 64 e1 4a d7 3f 07 17 4a d6 32 70 dd bf
       0.3639453390839864 -0.4599730580015237
000210 4c b0 e6 7c cf b5 d5 3f 16 bd 8f f6 3e ba 9b bf
       0.33922183225036373 -0.02707765941516723
000220 1e b9 8b f2 9a 94 c4 bf eb 23 ed 73 54 22 ae 3f
       -0.1607850727372772 0.058855666304744
000230 79 c9 67 23 13 77 e3 bf 4e 48 72 c7 05 40 e1 3f
       -0.6082854930412359 0.5390652556836899
000240 22 74 0c 74 da 44 df bf 7b 9e 86 5c 5d 00 e6 3f
       -0.4885774739539689 0.6875445181985492
000250 16 d5 6d 48 85 59 d6 3f 15 ec f2 95 3d 17 f5 bf
       0.3492139060320637 -1.3181739671115384
000260 95 2f c1 bd 61 69 f6 3f d1 c0 49 bc 2b 22 e0 3f
       1.4007279789247822 0.5041712453367159
000270 cf da 7c 45 b3 76 01 40 71 e5 ef c4 28 e1 a8 3f
       2.1829591206290853 0.04859282878892202
000280 e9 be db d1 c0 f4 b3 3f 1f 70 90 a9 e4 e6 ea bf
       0.07795338748450899 -0.8406852065850251
000290 d6 61 84 7f 4e ae f2 3f c2 d7 47 f0 4d e9 e1 3f
       1.1675553303849617 0.5597295468312427
0002a0 70 94 42 62 9e 69 ad 3f 2c 97 95 b9 87 3e c5 bf
       0.05744643163169705 -0.16597076951728107
0002b0 15 a5 96 9f 2e 35 c5 bf c0 22 c8 04 94 a4 f2 3f
       -0.1656854895821104 1.1651802241123477
0002c0 d3 07 63 76 f2 e6 bc bf 1c 0c f7 5a a1 27 c7 bf
       -0.11289897337249437 -0.18089692060138496
0002d0 ce 12 de 2b 38 2e f6 3f 6e f9 59 50 69 eb e6 bf
       1.3862840379307957 -0.7162367410053727
0002e0 f1 9d 2e 42 3a 7f dc bf d0 93 d1 e8 98 1e aa 3f
       -0.4452653547582193 0.05101468889259986
0002f0 74 d3 d0 2d e3 b4 f8 3f 9f df 18 eb b1 ce df 3f
       1.5441619672467057 0.49699066122729535
000300 2b 3d 2e c8 08 2e f0 3f 15 0f 78 20 17 8d 6b 3f
       1.011238843875456 0.003363175553887996
000310 4d 5d 96 f7 4f b4 b4 bf a7 64 b9 58 0a 45 d4 bf
       -0.08087634844411191 -0.316713892597884
000320 a1 69 b3 fc 29 99 ee bf 22 d0 2d 5a cd 9d a5 bf
       -0.9561967788279625 -0.04221955991570804
000330 9f 24 fa 4e 5e 2b 9f 3f 30 1c 4a 46 46 45 ea bf
       0.030438874788647593 -0.8209563610879567
000340 e7 f9 29 73 fb 86 e3 3f e7 d4 a2 65 19 c5 00 c0
       0.6102273225113181 -2.0962398472134853
000350 21 7a 51 ac 9c 19 ff bf 38 f3 97 48 7c 18 d1 3f
       -1.943752930753938 0.2671194752618251
000360 41 c5 81 27 af a2 eb bf a3 3a 87 89 ce b9 a0 3f
       -0.8636089107150512 0.03266759327708726
000370 44 d9 27 4a 0f e9 d9 bf bd a9 b3 8a d2 3f cc bf
       -0.40484983674777575 -0.22069770596074348
000380 88 40 98 7a 6d 47 e7 bf bf f0 4e 24 f1 e3 bd bf
       -0.727469195788232 -0.11675936829027743
000390 6b d9 3e 4f d0 7d b9 3f eb 27 73 7f ec 4c b3 3f
       0.09957601484970773 0.07539251433914244
0003a0 19 da 5c 18 a7 48 e0 bf 00 51 14 d4 03 d1 e0 bf
       -0.5088687396844903 -0.5255145208525676
0003b0 20 bf 18 fd 4d 6f ed bf 88 1f 02 8e 48 b6 fe bf
       -0.9198369925779595 -1.9195027873228998
0003c0 4b cd 7f db 55 84 f0 bf fd 4a ab 3a 43 21 fb 3f
       -1.0323084425152327 1.6956207553636766
0003d0 c6 04 4e 57 88 db fa bf 0a 4b fc d8 03 ca e2 3f
       -1.678596821817608 0.5871600378035009
0003e0 57 60 91 d8 ed cb f5 bf d3 65 3c 0c 77 0d ed bf
       -1.3622873744661967 -0.9078936804755194
0003f0 2c e7 6c d0 c7 cd e8 3f 1c c8 7c 65 0b 28 cf bf
       0.7751196928795472 -0.24340956168595163
000400 90 6e 3a 34 9c 68 f9 3f 9b 53 65 71 9f 56 f0 bf
       1.5880395927587507 -1.0211481503986082
000410 5e 9b e8 7d 55 89 d0 bf 4b 52 15 84 26 60 fd 3f
       -0.25838219924701444 1.8359742316726109
000420 29 b1 0a 40 9e 31 f0 bf b7 1d 47 03 6e c0 fc bf
       -1.0121138097411608 -1.7969799163855507
000430 43 68 63 d1 8c 47 dc bf 68 4c 1f 67 14 53 f8 bf
       -0.44186706970288386 -1.5202831295216814
000440 da ce 11 44 9e 60 c9 bf 8d 64 b7 ee 5f 24 ec 3f
       -0.19826105426510915 0.8794402754239329
000450 9d 62 35 f4 22 1f 04 40 9a 04 b8 a0 40 f2 ce 3f
       2.5152033880988953 0.24176795814131397
000460 87 7b 19 64 93 4a f4 bf cb e6 4e 5b 52 77 00 c0
       -1.2682069692743612 -2.058262551637062
000470 b7 e1 41 7c 27 b7 f8 bf 1c 73 60 4f b6 24 e3 bf
       -1.5447153905680417 -0.5982314634635233
000480 43 4f d0 f7 15 9d d7 bf 54 e6 91 ac 32 19 b3 bf
       -0.36896275711591303 -0.074603240138367
000490 a6 68 24 8c 40 53 d5 bf 64 7b e6 b8 0a 29 9f 3f
       -0.3332063072754273 0.03042999986211771
0004a0 b2 83 b1 bf a1 01 e0 3f c2 70 2b 19 6d 14 c9 3f
       0.5001991981517817 0.19593585709561095
0004b0 c4 19 31 b8 ae 3d f5 bf 54 36 d2 c0 c6 c5 f6 bf
       -1.327559203623978 -1.4232852489543761
0004c0 be bc 55 5f 39 d8 f4 bf 29 08 40 fc a0 99 e8 3f
       -1.302789089586255 0.7687535216102833
0004d0 c9 34 ad 57 83 6d e4 3f 34 96 57 a8 03 1b ea 3f
       0.6383682930405935 0.815797642510637
0004e0 06 c5 7f 3a e6 95 f0 bf 94 05 18 28 d2 4a fe bf
       -1.0365965161439035 -1.8932668272176203
0004f0 93 bb 6e 0c 46 10 f0 3f 22 42 84 5f b0 ae ee bf
       1.003973053517005 -0.9588243356284389
000500 11 2d d0 7e 17 08 05 c0 be 1e 2d 78 c5 c9 86 3f
       -2.62895106385043 0.011127035837162121
000510 d5 2e 80 fc 0c 19 01 40 69 99 53 c1 1d c8 e0 bf
       2.1372318007105187 -0.5244282508763664
000520 42 0e 8a c9 2c 2e c8 bf 80 d7 80 74 98 68 08 40
       -0.18890914765153083 3.0510720350093266
000530 41 7a 10 1b 1b 50 e6 bf 31 eb d6 07 56 ae ec 3f
       -0.6972785500145805 0.896281256972861
000540 b7 1a e9 07 d5 60 7c 3f 5e 30 b6 e3 07 34 d5 3f
       0.0069282838363224275 0.33130070912807763
000550 19 fa 03 8e cf 35 e4 3f 9a b5 19 d0 c4 14 fe 3f
       0.6315686963787953 1.8800705079005184
000560 27 0b 84 ca a1 87 d6 3f 99 7d a3 1e ec 22 e0 bf
       0.3520283200925171 -0.5042629812632412
000570 57 ec 00 56 36 a5 d2 bf f4 e5 cd 1b fc 20 fa 3f
       -0.2913337554816215 1.6330529295067864
000580 ae 25 a2 3c c9 70 fa 3f 71 ec b2 09 c2 c4 f9 bf
       1.6525356644145677 -1.6105366114486765
000590 77 a5 88 66 f3 d9 ec bf d6 d1 81 ed 4a bd be bf
       -0.9016053202259816 -0.12007587717545873
0005a0 0c 83 ed f3 34 95 0a c0 eb e0 10 11 88 90 e4 3f
       -3.3228549057824974 0.642643006641291
0005b0 37 53 34 d2 e1 61 ea bf 5c d3 1e 86 a7 21 f5 3f
       -0.824448500209292 1.3207164038733117
0005c0 9c f8 94 a4 a3 d4 b9 bf 22 8e 4d 55 67 09 e7 bf
       -0.1009008671580624 -0.719897905928921
0005d0 f7 65 03 75 7c 12 f2 3f a2 7c 95 ad f6 7b b4 bf
       1.129513222773651 -0.0800165342129611
0005e0 97 23 47 48 48 a1 db bf aa 80 05 14 66 54 e4 3f
       -0.43171889360797294 0.6353025809330763
0005f0 b7 5b b7 d4 e7 0e eb 3f 33 ca 30 05 b4 f3 e8 3f
       0.8455695299734235 0.7797489262941951
000600 a2 ef 54 a4 5f 58 f2 bf 9f 6a 04 ff cb 9d ef bf
       -1.14657558624365 -0.9880123120122625
000610 f8 8f 4a 0a 54 6d f2 3f d8 9a 52 7e 77 a0 e8 3f
       1.1516914751055065 0.7695882289161444
000620 df 8a e4 e6 04 a1 e2 bf ee c0 ad bb 38 08 f7 3f
       -0.5821556577323824 1.4395072299194527
000630 b7 cc 15 9e c6 54 df bf 4a 50 6d 9a cf 8d d0 3f
       -0.4895493072319356 0.2586554534984812
000640 c1 ea 4f 9a d8 1a 01 c0 b0 26 ce 0c 8b a5 ed bf
       -2.1381084495199905 -0.9264579057791789
000650 3b 3c e1 c2 a0 51 ee 3f c7 c3 77 21 41 84 fa 3f
       0.9474643522497738 1.6572886760079528
000660 25 cc dd df 81 f9 cf bf f8 00 39 d0 c8 31 f4 3f
       -0.2498018591973913 1.2621544011781776
000670 f1 34 bc d0 79 61 f2 3f a4 5d ea a9 59 3b ed bf
       1.1487978128164367 -0.9134949034368458
000680 42 3f d7 ed b5 28 eb 3f ab f5 bf 27 aa e5 c8 bf
       0.8487195630386639 -0.1945088094798114
000690 16 a2 74 64 df ea f3 bf d1 e8 74 cc ae 68 cb bf
       -1.2448419498488241 -0.21413216574894148
0006a0 57 0e af 87 a1 12 e7 3f 20 22 59 2a 52 60 b1 bf
       0.721024289138266 -0.06787599119082488
0006b0 c7 1d 63 5e d1 55 ff 3f 72 ac 7c c3 35 b1 d1 bf
       1.9584516226767492 -0.2764410409024044
0006c0 96 32 79 d4 af 07 d8 bf 60 ac d9 96 be 06 b1 3f
       -0.3754691672263929 0.06650916273945162
0006d0 84 4b 27 c3 ee 90 d2 3f 07 3a 8b 4a d1 94 f0 3f
       0.29009598787268254 1.0363324081296257
0006e0 df d6 21 ff f0 79 00 c0 69 39 97 11 36 f5 ca 3f
       -2.0595416958047816 0.21060825213357795
0006f0 9a e5 73 3a b9 79 e2 3f 4b a1 88 a4 2c 74 f6 bf
       0.577358831563447 -1.4033628871057597
000700 4a 99 de b1 4e 1f d6 3f 11 35 84 db e1 3a e8 3f
       0.3456608521468253 0.757187775366818
000710 34 18 ee 32 a2 9e fd 3f a7 86 f6 f6 c9 7a b1 3f
       1.8512289037185043 0.06827986029977727
000720 c8 1b ed 05 8d ee d0 bf fd 70 3d ba 4f 26 e8 3f
       -0.26455998972636197 0.7546766889095405
000730 8f 0f 2d 0e bd c6 e5 bf 40 34 0e fd 8b 75 c7 bf
       -0.6805100705027928 -0.18327474457001536
000740 e6 a6 75 25 79 06 f2 bf 24 ea a3 6e d9 1b e8 bf
       -1.1265803778900874 -0.7533995781844323
000750 ef 8a c8 65 9f c5 df 3f f8 26 bb fd c9 79 04 40
       0.4964369291284773 2.559467298768933
000760 2c 07 42 51 10 c8 ee bf 42 e0 10 f0 28 87 f2 3f
       -0.9619218432492054 1.157998025662906
000770 0c 9b 19 19 ff ca d2 3f 4a 98 79 48 2b 08 e5 bf
       0.2936399216763881 -0.6572472014929727
000780 2f e6 73 a8 14 c7 f2 3f e5 7b 7b fe 17 91 f7 bf
       1.173603685396653 -1.4729232731549413
000790 73 9d 24 1d 50 f9 db bf 35 94 63 d7 76 30 f0 bf
       -0.4370918545341375 -1.0118320859558143
0007a0 a1 51 cf 60 52 f8 ec bf e2 f3 6d 88 c9 e9 d5 3f
       -0.9053127184693502 0.34239424060052503
0007b0 38 88 15 94 a9 62 88 3f 23 cf bd f8 ce a6 ef bf
       0.01190693362395133 -0.98911236364663
0007c0 b2 cf 1a 1a fd 22 f1 3f 48 9e cd fa 1c 3a ea 3f
       1.0710421580997544 0.8195938967227869
0007d0 52 a5 b1 4a 51 bb f0 bf 8b 74 c8 ef 9c e5 e4 bf
       -1.0457318227511974 -0.6530289347898742
0007e0 4e 26 40 66 ad fc f4 bf cd 08 74 a7 c1 c9 ff 3f
       -1.3116888040698487 1.9867569485800687
0007f0 fc 33 e5 15 36 3d d0 bf 9a 03 b4 0a 1a 85 e0 3f
       -0.25373603952613144 0.5162477692648395

arr_1 f8 [200]
000000 32 76 24 d7 5a 40 d6 bf b3 fc d1 81 a2 d1 f3 bf
       -0.3476779080391196 -1.2386803694824209
000010 94 4c ce 96 e2 d4 d7 3f 15 83 01 27 c0 e4 df 3f
       0.372368476172775 0.4983368283192687
000020 26 59 b9 e8 92 9c e8 bf ee 9f 9f d4 95 97 ba bf
       -0.7691130204573582 -0.10387550774578333
000030 b6 bf 0a bf 8a f7 e6 3f a5 a7 b5 92 42 95 02 40
       0.7177175265587639 2.322880884331385
000040 e6 47 f8 dd 72 dc e3 3f a8 8a 8f 63 58 ce ca 3f
       0.6206602416370941 0.2094221578727986
000050 34 f8 b1 3d 8b 8f ee 3f a4 ab fd f2 87 c3 d8 3f
       0.9550224499687432 0.38693426827983957
000060 60 af f9 bf aa a4 f4 3f a3 bb 56 e7 70 8a 03 40
       1.2902019022976319 2.442598159155254
000070 d4 a6 87 f9 f1 69 fb bf 62 32 e1 69 d6 32 ea 3f
       -1.7133655307065299 0.8187057559931186
000080 94 bb 3f e4 f1 6a f4 3f 22 68 4d 28 00 cb 00 40
       1.2761095920538752 2.0991213940260574
000090 83 3d de f6 71 9d f4 3f 16 47 a0 1d 82 95 ef 3f
       1.288438762978189 0.9870005205759493
0000a0 c1 f2 be 40 da 9c e6 3f 60 6a 6d 2e f1 ec d9 3f
       0.7066470398491093 0.4050867989914533
0000b0 b2 51 3b 86 2a 77 ef 3f 59 6e 57 0e cb f3 d5 3f
       0.983296644374198 0.34300495529689595
0000c0 ae ea 61 89 58 5b dc 3f 3f 2e ea 46 c0 96 d7 3f
       0.4430753080011226 0.36857611584921196
0000d0 54 49 31 01 be 2d f3 bf ce 77 8d 31 2e 6e d7 bf
       -1.1986675306876196 -0.36609988059160237
0000e0 69 6e cb ad f8 58 cb 3f 21 18 d3 32 18 e3 e1 3f
       0.21365269170825066 0.5589714996974672
0000f0 ab 98 57 30 24 62 b8 3f cc 68 d0 f5 60 78 e9 3f
       0.09524751835087623 0.7959446717316268
000100 9d 79 41 05 b1 b3 ba bf b3 8d 4b c1 b0 71 f1 3f
       -0.10430437448801518 1.0902564573851634
000110 6f a3 ae ab 20 7a 0b c0 df 26 36 bb f8 c3 bb 3f
       -3.434632626788179 0.10845903940767297
000120 4f f8 80 be a9 cb bf 3f 63 82 a6 71 c0 e3 f1 bf
       0.12420140171977433 -1.1181034507245833
000130 65 c2 1d 9e b3 71 d8 bf 1b e0 18 9c c8 37 d3 3f
       -0.38193979683913987 0.3002797626863882
000140 e4 f7 e4 1d 81 f9 ed bf 6b a1 25 52 ea 7b e4 3f
       -0.9367070754885813 0.64012638134322
000150 ce ae c6 9b d8 5d e8 3f e8 4a 89 bf f7 83 e1 3f
       0.7614558260442779 0.5473593464797348
000160 4d ec cc 34 e8 fc d9 bf 64 cd 52 36 ab f7 f6 bf
       -0.40606122165963116 -1.4354660150537137
000170 82 ec 48 08 6f 0c ea bf 6c 81 7d 8f 75 42 e5 bf
       -0.8140177881063126 -0.6643626978439392
000180 3d 7e 3e 52 ca ad e8 3f 75 41 40 da f5 d0 f2 bf
       0.7712146383600565 -1.176015713255848
000190 10 81 a6 da cc b1 e7 3f 6f 35 63 e1 72 20 dd bf
       0.7404541273608931 -0.4551055146265161
0001a0 14 6e 4b e4 22 c9 f3 3f 48 57 72 e5 13 01 c7 3f
       1.2366055410155967 0.17972038939904622
0001b0 02 c5 0d 57 8b bd d8 3f d1 c6 9b 21 38 1a fc 3f
       0.3865688657889025 1.7564011872131469
0001c0 33 b3 e8 30 86 64 e9 bf dd ff 6e b3 43 34 e0 bf
       -0.7935210185292817 -0.5063799385607087
0001d0 0d 8b c9 af d0 6d ba 3f 56 1e 87 a1 e4 77 c2 3f
       0.10323814670259086 0.14428384673213895
0001e0 3d 6c a8 60 d0 a3 c2 bf fa fa 85 1f af 70 be 3f
       -0.14562420577644444 0.11890692252744009
0001f0 d5 b1 a4 d6 08 96 d5 bf 6d bd 3e 33 61 7b f4 3f
       -0.33728238068831945 1.280121994186483
000200 d2 0f 24 5d 50 1e ee 3f 0b 29 52 04 88 04 ec 3f
       0.9412004298360392 0.8755531391518913
000210 a4 df 51 86 24 10 ef 3f cf 53 ce 43 62 37 d1 bf
       0.9707205413278541 -0.2690053617637291
000220 bb ba 1a 34 b5 08 f3 3f 23 1d 44 ee ea 41 e0 bf
       1.1896259341553292 -0.5080465940126583
000230 ce 85 a1 d5 59 4d eb 3f 42 10 67 50 04 5e d9 3f
       0.853192250488229 0.39636333324256523
000240 a6 eb aa a8 50 28 f5 3f d3 4a 5f f3 ff 58 b6 3f
       1.3223425472813033 0.08729552928643196
000250 69 73 ca 00 26 71 f3 bf 0d 24 15 c0 0d 39 d0 bf
       -1.2151241331950706 -0.2534822822386225
000260 57 6c 33 68 cb 12 e7 bf 70 0b 35 dc d7 71 f0 3f
       -0.7210442576573638 1.0277937509387947
000270 8d 79 2c 48 fd c6 f1 bf e1 74 96 bf 94 2d e6 3f
       -1.111081392220146 0.6930640928218531
000280 ac 59 24 03 20 b9 f6 3f 3a 26 42 f8 29 bb d4 bf
       1.420196544907962 -0.3239235805891415
000290 00 e4 73 ee eb 55 dc bf 0e 88 4c 0d 3a b3 e9 bf
       -0.44274423872371926 -0.8031282672639024
0002a0 78 af 5a e1 67 af ff 3f a6 93 af 29 62 94 bb 3f
       1.9803236773395536 0.1077329017421805
0002b0 17 61 2d 5b 42 db f0 3f ea 4a 3e 56 29 b1 f6 3f
       1.053530079041655 1.4182523125534154
0002c0 dd 8a f1 9e 77 de bf bf 43 a9 ba af ae fd ec bf
       -0.12448833113152653 -0.9059670860490673
0002d0 18 07 c9 de 93 07 ef 3f ca 11 15 f4 fc 5e 75 bf
       0.9696750022196481 -0.005217540835762377
0002e0 9d 55 4a 78 e1 16 fd bf 56 10 68 1c 87 c9 d4 3f
       -1.8180861185877355 0.32480027937004274
0002f0 89 d1 64 24 c0 da c4 3f ee 04 15 c4 d1 22 df 3f
       0.16292573716203787 0.48650020741122446
000300 54 26 b1 80 2b 28 f0 bf 9e dc 1d 87 dd 00 cc 3f
       -1.0098071124106314 0.21877640817158278
000310 74 27 3e 11 d4 2b dc bf 2d 70 ba 77 82 85 d7 bf
       -0.44017507251611865 -0.36752378170217775
000320 a6 e3 7c cb a6 7b d3 3f ad a3 dd 4e f6 78 ed bf
       0.30442209121570796 -0.9210158863398782
000330 2e 77 b0 07 19 17 fc bf 1d e0 d2 75 81 4b c8 3f
       -1.755639104877854 0.18980425122367786
000340 64 01 f6 92 4b 27 f3 3f bd 89 af 59 84 b0 d3 bf
       1.1970935574209642 -0.3076487422787542
000350 49 43 9a c7 13 48 fb bf 77 56 8e cf c5 a3 e9 3f
       -1.7050969883896008 0.8012417844608554
000360 62 08 d1 58 35 6e cb 3f 8d ed fe 73 0d 98 ea 3f
       0.21430079304451782 0.8310611024420936
000370 5e 9b ab bb fc 69 b9 bf c4 1b d2 1f c9 2f ff 3f
       -0.09927348691745183 1.9491664164540774
000380 3b 09 43 08 97 19 f5 bf e4 7b 15 a0 fb c3 cf 3f
       -1.3187475512246027 0.2481684238109373
000390 f2 2e 9f 46 b0 f5 c4 bf 67 b0 00 97 bd cb f3 3f
       -0.16374782036142893 1.2372413538496632
0003a0 07 a0 3b 85 94 19 ef bf d0 e0 3b 56 70 3e b7 3f
       -0.9718725778775487 0.09079649071998408
0003b0 79 25 c3 25 93 0c ba bf bb 11 42 01 bc c3 aa bf
       -0.1017543761437504 -0.05227458491666278
0003c0 1c 69 c5 7f 37 34 f2 3f ba f9 72 b5 3e af ea bf
       1.1377482405719723 -0.8338922065666374
0003d0 eb 00 63 dc f7 36 e7 3f 9c 2a 8f 0f 14 34 e6 3f
       0.7254599861553549 0.6938572219745143
0003e0 28 90 a9 c1 bf 1b fb 3f c8 f6 3c fb c3 0f e6 bf
       1.6942746701179292 -0.6894245059008535
0003f0 df f7 a6 70 1a 90 e0 3f 7c 9b 14 c9 84 90 f0 bf
       0.5175907325972239 -1.0352828840929922
000400 da b1 12 09 78 c9 f4 bf 31 dc db 9a 9c 8a ea 3f
       -1.2991867403426256 0.8294203781687256
000410 ce 29 05 aa f9 f9 d3 3f de ba bc d3 04 c8 f4 3f
       0.31213227847606795 1.2988327284799008
000420 3a 38 32 75 e2 41 d6 bf 01 42 be e7 b0 8c 06 c0
       -0.34777127690256615 -2.8186967949807245
000430 9e 89 37 5e 6a 51 f5 3f e8 13 70 48 59 82 f9 3f
       1.332376831088005 1.5943234281160077
000440 86 94 26 46 86 a3 d8 bf d5 19 70 ea 54 15 bf 3f
       -0.38498074389128367 0.12141924594479943
000450 5a 78 c1 5a 54 46 f0 bf f3 28 80 01 50 6c d8 bf
       -1.0171702904840658 -0.3816108717588939
000460 a0 b7 cc 9b f4 de d7 3f f8 f5 c4 64 5a df ef bf
       0.372983123920557 -0.9960147827293317
000470 73 75 84 da 1b d8 9f 3f 8f a0 e4 b5 c3 65 d0 bf
       0.031097827160114954 -0.25621121180530165
000480 5a 3d ff 08 e7 82 9c 3f 34 e1 70 27 f9 d2 e5 3f
       0.027843103336463094 0.6820035715418613
000490 15 ce c1 13 b1 c7 03 40 5a fd aa 0f 37 ff ac 3f
       2.4725057166595072 0.05663463655718699
0004a0 74 f9 28 6e 8a b5 99 bf a0 43 40 4f ff a7 cd bf
       -0.025106585477482082 -0.23168937081984797
0004b0 b3 72 ed d9 a7 78 d2 bf 90 93 1b 26 e5 16 f3 bf
       -0.2886142376135396 -1.193089627130778
0004c0 ea 28 2d d6 e9 24 f1 bf 21 5c 1e ec ac 29 e4 bf
       -1.0715120664850084 -0.6300873386088633
0004d0 65 7f d3 0e 52 61 d5 3f ec 69 1b bd 77 0a e7 3f
       0.3340649742876763 0.7200277989862207
0004e0 fe da ff c6 b5 ab f1 bf b9 1f a7 a4 71 56 dc bf
       -1.1044214032569353 -0.442776118081834
0004f0 e3 67 e4 8d 37 43 ca bf c5 bb 08 c1 2d b2 e2 bf
       -0.20517630031900955 -0.5842503328511773
000500 aa 09 92 c2 fa a8 c7 3f e0 13 62 1f a6 76 09 40
       0.18484434605131855 3.1829340411954803
000510 93 b6 7c 2d e4 32 fa bf ac 35 f6 82 01 74 df 3f
       -1.6374246384470197 0.4914554385112193
000520 cb a4 5f 6b bc 2d e0 3f d8 3a 33 6f d2 91 cf 3f
       0.5055830094471728 0.24663763456052012
000530 04 40 79 05 25 42 c0 3f 63 98 a7 81 b5 8a f8 bf
       0.1270185734488224 -1.53386450430255
000540 7a c4 57 f4 ae 7f f6 3f 60 77 e2 59 31 b5 00 40
       1.4061727089540725 2.088473036025718
000550 79 30 d4 7c a9 96 f2 bf 0f f0 04 61 fd e4 a7 3f
       -1.161782729733231 0.04666892823522072
000560 c0 25 0f 35 3d ca 84 bf 8d 29 b5 81 58 72 e3 bf
       -0.010151365453469618 -0.6077082188942754
000570 6f 88 4d 06 b0 c3 fc bf 42 d6 4a a4 ff 61 e9 bf
       -1.7977752920346821 -0.7932127198061567
000580 f3 e6 a6 36 48 e9 f2 bf b5 a0 0e 83 51 26 a3 bf
       -1.1819536337702032 -0.03740172123736
000590 b1 50 67 13 36 04 e8 bf 1a ba 4f 81 67 4f e4 3f
       -0.7505140665985178 0.6346929097761091
0005a0 9d ee b0 60 b2 e6 f8 3f 4e 8b ec c7 3c 1f ee 3f
       1.5563224579808896 0.9413131623044622
0005b0 c4 06 7b 32 63 4c c8 bf f3 34 35 19 0d be 62 3f
       -0.18983116116401366 0.0022878890828567033
0005c0 8b 80 0e 90 ff c3 f6 bf 53 c5 63 2a 04 09 e6 bf
       -1.4228511454785202 -0.6886006191181572
0005d0 40 f3 60 21 79 56 cf bf 39 7f 89 22 27 8d e7 3f
       -0.2448264515859595 0.7359805750420271
0005e0 8f 46 a1 25 8f 7c f3 bf 89 69 9c 69 92 02 f2 bf
       -1.2179099531098563 -1.1256279111317744
0005f0 a2 8e 5d 7c 35 ee ec bf 44 09 0e c7 38 47 01 c0
       -0.9040782383931012 -2.1597762633474833
000600 f2 36 65 18 bc c9 d1 3f b4 2c a2 4f 9c 93 ec 3f
       0.27793791181907956 0.8930188708631221
000610 e5 b3 73 59 3d 9b e1 3f 87 a5 60 57 fb 6f f3 bf
       0.5502001521214167 -1.214839307135067
000620 4e b6 ca 6c 6b 02 eb 3f b9 23 e0 40 d6 78 e4 3f
       0.8440453648415287 0.6397506014919748
000630 bd 02 27 d3 4c ff d7 bf af 11 63 09 20 ab d4 3f
       -0.37495728130674505 0.3229446498555956

arr_2 f8 [100]
000000 85 83 e2 75 f1 b7 00 40 8d 6b 36 17 c6 ae f6 3f
       2.0898160180808554 1.4176693827382423
000010 d3 4f 8c 54 6c 08 b8 bf 51 0c 14 82 27 e1 f1 3f
       -0.09387852729952266 1.117469318502817
000020 a0 b7 c3 dd aa 86 ec 3f 77 e7 a6 d5 3c 7f d5 3f
       0.8914388972605032 0.3358909689373983
000030 14 04 14 c7 e6 cd f2 bf 15 61 90 36 48 7c f6 bf
       -1.175268914841813 -1.4053423053174516
000040 d5 af a3 0d 68 2b fb bf 86 35 b8 20 6a b2 e1 bf
       -1.6980972798146372 -0.5530291213087117
000050 6f 86 a6 e9 9e f0 c2 3f 0f 1a 70 d1 c5 32 a1 bf
       0.14796816261973642 -0.03359049016585313
000060 34 02 ad 77 87 5e e1 3f 98 ca 01 48 6e e4 e1 3f
       0.5427892053049335 0.5591346174608871
000070 35 0e 69 a3 cc a2 b3 bf d8 17 a0 a2 c9 76 e0 bf
       -0.07670287122260151 -0.5145004440571439
000080 95 27 8e c2 fd e1 d4 3f 59 57 bb 82 f8 f2 fe bf
       0.32629341125049766 -1.9343190294943808
000090 74 06 9d 34 61 40 d9 bf f5 ad 1e 52 be 64 d4 bf
       -0.3945544256022011 -0.31864889163509186
0000a0 57 cd e5 d7 fd 30 d6 bf c6 d4 82 98 95 16 e0 bf
       -0.34674020847088144 -0.5027568796855568
0000b0 99 27 76 f4 e3 68 c7 bf 21 42 d7 b6 bf 87 e1 bf
       -0.18288850247000424 -0.5478209086523443
0000c0 62 ae 6e 41 28 c2 d8 3f f8 2f 03 1c 6d 02 c2 bf
       0.3868504179942872 -0.1406990420131249
0000d0 ed ec 11 2e 54 0f d8 3f 64 d6 fc 66 3d 2b e1 bf
       0.3759355974104455 -0.5365283023335903
0000e0 3c ac c0 1e c9 1c b3 3f 64 5c b7 d1 09 c8 d1 3f
       0.07465798378750405 0.2778343723306931
0000f0 3f 49 57 18 6f 01 b4 bf c5 4c ef 5f 43 09 ff 3f
       -0.07814688057195428 1.9397615191890492
000100 71 f5 3a 38 f7 22 e1 3f d3 a3 52 a0 d1 cd da 3f
       0.5355182741401859 0.4188121858265365
000110 60 f3 66 67 51 c3 e5 bf 5d 65 3c 48 1d 65 d7 3f
       -0.6800925273488296 0.3655465321949885
000120 9f e5 cb 09 73 e5 c7 3f 4b d7 19 e6 73 dc f2 3f
       0.18668973902076133 1.1788214672391912
000130 61 d8 60 82 71 d8 f5 bf 81 ae 07 8e 29 ea d3 bf
       -1.3653426258947763 -0.31116713399999446
000140 d8 5a e5 8c 0b cb f7 bf 24 4e 7d 23 7b 80 d3 bf
       -1.4870715621706747 -0.3047168585373774
000150 0b 86 fb b8 b2 a2 d6 3f 6d 69 ee c1 8d 21 ad bf
       0.35368030609797135 -0.05689661972356217
000160 c2 5d 82 f9 64 ec e3 3f 36 8c 8a 10 aa 93 da bf
       0.6226067422130017 -0.41526271453239205
000170 e2 b7 a4 c1 b8 db dd 3f 15 d4 0f c0 fd a7 d8 bf
       0.46653574858180324 -0.38525336986578057
000180 1c 32 af 98 9d b0 c7 3f 46 36 92 70 a1 87 f2 3f
       0.18507738070765434 1.1581129453001195
000190 c3 d5 e3 f2 dd 7a d9 3f 66 75 35 8c e7 f1 00 40
       0.39812420577740343 2.118117423421313
0001a0 cb 25 3b fc 82 28 df bf 72 97 f4 51 20 b1 d2 3f
       -0.4868476355737498 0.2920609283777288
0001b0 2f 36 90 2f b5 c3 e8 3f 6e 2f 25 45 c5 ae c8 3f
       0.7738901070567347 0.19283357502205994
0001c0 68 cd ff ed 1d 9a d8 3f db 3c 02 48 77 33 f4 bf
       0.3844065498553477 -1.262564927372117
0001d0 64 14 a7 cf b3 30 98 bf e4 5c 3e 7b b9 c1 f4 bf
       -0.023623284863579022 -1.2972960294917408
0001e0 04 0a f0 91 c2 56 df 3f 0b f4 c9 44 9a 7e e5 bf
       0.48967041255687627 -0.671704420426637
0001f0 a7 db df 59 ad 15 ed 3f 29 f8 3d dc 68 c0 e0 3f
       0.9088961367950689 0.5234875012972725
000200 ac c3 ce 60 59 67 ec bf d2 03 36 a2 c2 3f e3 bf
       -0.887615861012923 -0.6015332382377159
000210 b2 89 03 56 e5 0b fb bf 57 88 ea bb a2 ea e8 bf
       -1.6904042587199055 -0.7786420507657209
000220 ea 15 1d 2b 1a 44 db bf 2e e5 d1 01 90 cb ee bf
       -0.42603162966074015 -0.9623489413781152
000230 fc b2 c9 d9 e7 2f 01 40 74 ea 05 d0 32 65 f1 3f
       2.1483914389303873 1.087206661787289
000240 14 73 b8 1f 78 5e eb 3f 82 c9 47 a9 cd d5 fe bf
       0.8552818889180309 -1.927198086978564
000250 83 29 25 ec 17 26 f1 bf 3d 5b 15 24 04 81 93 3f
       -1.0718001579685683 0.019046845152242076
000260 36 c5 9e 31 7a 20 ff 3f c8 cc c5 2b d7 f5 c7 3f
       1.945429033116239 0.18718995702110974
000270 69 e9 39 15 f5 a4 fb 3f 62 5b 68 14 e0 fb e5 3f
       1.7277727917813428 0.6869964979731373
000280 77 34 fb 95 81 fc e0 bf 25 18 e3 10 9b 1e e8 bf
       -0.5308235101052919 -0.7537360505891725
000290 c4 09 81 87 cb 5f b3 bf 9b 5a 03 6d 03 2e ba bf
       -0.07568046625332331 -0.10226460849239986
0002a0 29 5e 57 30 18 1a f3 3f b0 4e ef e6 6c 25 f2 bf
       1.193870724518897 -1.1341370602503211
0002b0 a8 37 72 cd 35 be b4 3f a2 eb 3e 41 7e 69 f3 bf
       0.08102737680221017 -1.2132551716483495
0002c0 a3 e5 20 5e 5a 9f e4 bf dd d0 8b 2f 2a 46 d0 3f
       -0.6444522703597396 0.25428251879863045
0002d0 84 91 a1 ed b0 ac fe bf 2f 39 5d fa 58 00 c2 bf
       -1.9171609194246182 -0.14063560700237462
0002e0 e6 41 e3 d0 5d fe f5 3f 31 f7 a0 92 a8 d5 e6 3f
       1.3746011886288385 0.7135813583224487
0002f0 6c a2 05 79 cf c5 e9 3f 4a 6a 0c 3b e6 d7 f2 bf
       0.8053967822753072 -1.1777097994405659
000300 55 17 1c 2f dd 78 f7 3f dc c3 ed d7 af 8b ef bf
       1.4670078125213497 -0.9858016221388612
000310 53 3d 2d ed 75 1d e3 3f ee 29 43 2f 1c f6 dd bf
       0.5973462707860712 -0.4681463681742163

arr_3 f8 [10]
000000 c2 87 12 c7 29 fa db 3f 99 be dc 36 a9 d1 d7 3f
       0.43714374962484837 0.3721716914906011
000010 8d 57 55 00 b4 aa e3 3f 4c e4 a5 89 b0 e1 e8 bf
       0.6145877844344213 -0.7775500000417508
000020 34 2a ba 64 45 f2 f1 bf ed d0 0f 92 c5 f2 e7 bf
       -1.121648210015917 -0.7483852246064352
000030 93 33 59 75 e0 0e e2 bf c9 77 ae 64 f8 22 cc 3f
       -0.564316014476946 0.2198172084435426
000040 cc ef 47 49 99 d7 d7 bf bf 3c cd 03 cb 01 0a 40
       -0.3725341048846047 3.250875501347394
