notebooks/models/simTwoLayers_architecture/experiments/xavier/biases_md_800_800.pkl.npz (npz, 13628 bytes, 3 tensors)

arr_0 f8 [800]
000000 84 ca a4 65 cf e8 e2 bf 55 02 fa 6d 59 b9 fd bf
       -0.590919207117921 -1.857751302333914
000010 45 e1 63 8e 3a ae ec bf a0 24 dc b4 4a 16 f1 3f
       -0.8962681561525093 1.067942339405171
000020 9c 25 0a bb d9 1d e5 3f c5 f6 6b 56 10 e4 e5 3f
       0.6598938611143015 0.6840898216175552
000030 c7 05 85 9e 36 db 9e 3f c4 9d bb a6 41 28 eb 3f
       0.030133107590932597 0.848664117479466
000040 b1 67 f6 24 8c 8e fe 3f 01 2a d1 d9 df 76 c9 bf
       1.909801620850413 -0.1989402593192864
000050 2e 05 90 57 36 c5 e0 3f 90 07 97 34 a4 49 05 40
       0.5240737638670561 2.6609577282515104
000060 d8 a6 da ff 26 4a f6 3f 45 e7 e1 33 f7 67 cc 3f
       1.393103599004851 0.22192277940103558
000070 3d 71 99 f5 9a 53 b9 3f fc d8 f7 ac 51 d5 c7 bf
       0.0989319657905456 -0.18619748063765218
000080 40 4a 24 06 3a 19 ea bf 7f ab f0 1a 8b 4e 02 40
       -0.8155794258075915 2.2883512596794726
000090 e9 81 fd 7d f0 83 f4 3f b7 ac 72 b4 43 5e 03 c0
       1.282211773061244 -2.421027574300378
0000a0 6e d6 e9 05 c9 03 cf 3f c3 a0 a8 46 9a bd e9 bf
       0.2423030165552293 -0.8043948535969537
0000b0 40 14 ea 85 d2 ce e1 bf 6e 75 00 d7 77 0b d0 bf
       -0.5564968696131771 -0.2506999587656854
0000c0 07 48 aa 58 ba 8a f5 3f 0a 57 c7 1d 54 ee c8 bf
       1.3463691199763177 -0.19477321104084694
0000d0 83 25 30 9a d1 88 ef bf 65 a9 71 51 d5 b1 df bf
       -0.9854515086637295 -0.495229081664226
0000e0 04 b4 2f c3 f1 f9 c3 bf a6 eb cf 9d 1b 88 e3 3f
       -0.15606519728262935 0.6103647310513807
0000f0 e7 87 73 75 f7 a8 c3 3f 82 d0 97 b4 68 a4 b3 3f
       0.15359395251203908 0.07672743233689697
000100 b9 57 18 ef 1a 5e 73 3f be 65 ce a6 7a ac dc 3f
       0.0047284175975814075 0.44802728929206725
000110 4b 3f 51 51 08 03 ed bf 90 9e 44 cf fd 2b e4 bf
       -0.9066201771001742 -0.630370049305343
000120 bb df c2 d1 a5 bb e3 3f 7a 84 2d 52 9e 29 be 3f
       0.6166562172793343 0.1178225470189477
000130 d9 4e 73 c2 98 28 e3 bf da 61 0c a5 9e d7 e7 bf
       -0.5987056539401819 -0.7450707648850383
000140 d6 e6 43 81 d7 63 e2 3f c5 0b 06 21 0a 06 d1 bf
       0.5746877217017878 -0.2659936258789311
000150 b0 d2 e5 f3 51 16 00 c0 d6 88 ca 03 07 ab f7 bf
       -2.0108984999190724 -1.4792547367183508
000160 51 c3 21 e4 56 a1 cd bf 0a 31 13 b3 82 fe b7 3f
       -0.23148618830921433 0.09372727271983564
000170 37 55 ed 8d aa f7 eb bf d4 4c 59 2c 1d d4 bf bf
       -0.8739826938641845 -0.12433035214171478
000180 c9 38 e3 3f 95 19 e4 bf b9 b2 d2 ce 32 26 dd 3f
       -0.628122925548973 0.4554564494854208
000190 39 08 9d e8 f8 3e ef bf d3 ff 9f bf e0 42 bb bf
       -0.976437048266468 -0.10648922613472615
0001a0 ae 9c ac a4 35 ac f5 bf d2 47 70 58 08 2c f5 3f
       -1.354543345698214 1.3232501463539745
0001b0 33 c3 ad b0 14 49 af bf 79 a7 cf 88 5a 60 da bf
       -0.06110443741534368 -0.41213096008743083
0001c0 bb c4 71 d2 1c 98 e7 bf 2e fa d4 51 fb 5b 00 40
       -0.7373184309236857 2.0449129479523185
0001d0 e5 df 0d b5 b7 81 f0 bf d6 a9 da 9f a3 b7 db 3f
       -1.0316693375043482 0.4330834446979258
0001e0 43 5e f2 15 dd a7 0c 40 f3 df 35 43 e2 0e a8 bf
       3.5819646563138874 -0.046988554672623105
0001f0 e0 53 fb fb 99 07 c8 bf b3 a4 7b 9c 96 c1 ea bf
       -0.1877319794063217 -0.8361313873584976
000200 4d 4f 54 1c 80 3d be bf c9 fc 25 69 04 0f d9 bf
       -0.11812592212328106 -0.39154157894513425
000210 f0 4f 9a 39 22 a7 f7 bf b7 2e 32 f6 31 79 dd 3f
       -1.4783041238888437 0.46052216570454213
000220 e5 36 39 d3 e7 5f e9 bf d8 ea ac 10 b0 2b ea 3f
       -0.7929572225054612 0.8178329778378055
000230 c7 b1 36 20 9b 4a d0 bf f0 90 09 7b 9c 12 e3 3f
       -0.25455358644356035 0.596021881396636
000240 11 ef 81 77 47 94 f5 bf 59 2a 3e 71 a0 22 fc bf
       -1.3487009685767968 -1.7584537910030547
000250 06 93 d0 38 1b 3c f6 bf a5 20 73 7b 8d f0 fa bf
       -1.3896743983579554 -1.6837286779646459
000260 7d 00 d5 8b 05 07 e9 3f 88 01 69 68 ca 85 bf 3f
       0.7821071368307596 0.12313523339344645
000270 93 24 ca 12 c2 09 f9 3f 2f 75 85 0b 6a 99 c1 bf
       1.564882348439174 -0.13749433100284977
000280 41 5f 3d 50 f6 ab e8 3f 27 71 7f 7e 93 81 e4 bf
       0.7709914748365706 -0.6408174009953073
000290 9f aa 19 25 f0 56 f1 3f 48 e1 bb d4 12 35 f3 bf
       1.083725113795175 -1.2004574117582525
0002a0 90 42 40 be e7 68 c8 bf 27 1f 35 b5 e1 93 e2 3f
       -0.1907014540634191 0.5805519618233789
0002b0 25 cd ae 60 64 9e ec bf 53 bc fd 2e 9b 8e b7 3f
       -0.8943349731766018 0.09201974770779602
0002c0 18 cc ab da 0b ec af 3f fc 19 d4 48 b9 aa bd 3f
       0.06234776539158576 0.11588628795661998
0002d0 46 0f ad 40 fa 52 fa bf cb 46 0a 2c fb 63 d0 bf
       -1.6452581907660302 -0.2561023645476836
0002e0 15 36 bc 2f 19 56 e0 bf 42 13 54 6f 5e 99 f3 bf
       -0.5105100567176942 -1.2249435757414209
0002f0 88 ea bc 5a 01 6f f4 bf 8f e3 bb ff 79 a8 f5 bf
       -1.2771009010745349 -1.3536319722754546
000300 05 5c 3f 11 e3 b0 c9 bf 34 d1 56 83 9e 4b c7 bf
       -0.20071066229022008 -0.18199521458667223
000310 85 4e b0 05 3a 0d c1 3f e5 20 a8 1f 58 eb e8 3f
       0.13321614530342543 0.7787285440727173
000320 7e 48 c0 56 2e 91 d6 bf df 2b b5 b6 a6 5e e3 3f
       -0.3526111457041522 0.6053041046628741
000330 5b 40 05 87 92 d6 c4 3f 64 43 af bc 1d cc e1 bf
       0.16279822914885042 -0.5561665234800839
000340 0b 6b af 9c 74 b9 f1 3f 48 a9 80 16 07 06 02 40
       1.1077772255436595 2.252943206597738
000350 66 9e 09 6d 1a 3a e1 3f b3 cc d3 47 0d c6 f4 3f
       0.5383426789894201 1.2983525090938144
000360 bb 61 63 5a 3d 70 e3 3f 14 d6 e3 e0 a8 d7 b8 bf
       0.6074511304278113 -0.0970407055900398
000370 e3 eb bb fa 30 97 df bf 40 14 66 39 54 46 c6 bf
       -0.4936029861998447 -0.17402127077744645
000380 36 90 be bb 29 60 fe bf d1 7b dc b9 8d 72 d7 bf
       -1.8984773000493198 -0.3663667979289445
000390 54 6f a7 b9 3b 87 ef 3f 0b 5f db 28 06 1b f0 3f
       0.9852579713874356 1.0065976711247824
0003a0 b0 dd e6 8e c3 cd db 3f 7c 04 d8 4a 95 78 f1 bf
       0.4344338317418659 -1.0919392512880952
0003b0 a8 60 4d 5b ac 23 d6 3f 4d d4 1a 09 2a 11 e4 bf
       0.3459273234962077 -0.6270952394321597
0003c0 a3 d7 0a 7b 28 44 ef 3f 73 a3 bf 12 8d 21 d3 bf
       0.9770700839205698 -0.29892279463688637
0003d0 c7 40 6f 13 0f b8 e9 bf a6 6a b6 ce 54 f7 de bf
       -0.8037181262571033 -0.4838459032704726
0003e0 60 61 93 4c 35 ac b8 3f 96 46 0b f4 fb a7 e7 bf
       0.09637768859409368 -0.7392558828816671
0003f0 bd 2b 32 b4 49 b3 ef 3f 37 4f 7a 3c c0 86 c5 3f
       0.9906357306912167 0.16817477181450055
000400 6d 4e cc 91 80 28 e2 bf 7f 5f 2f 6c 3b 73 a6 3f
       -0.567444119226321 0.04384790130251214
000410 2e 42 f6 8d ac c3 ec 3f f7 4d ab 6a 49 74 c6 3f
       0.8988859913534435 0.17542379101233482
000420 58 63 fc d8 9b a3 c4 3f bf cf 06 c0 8d e4 b1 3f
       0.16124294371618464 0.06989370287084194
000430 b7 81 7f 16 7c 0d f9 3f 47 32 23 91 b0 98 f3 3f
       1.5657921675520876 1.2247777623589557
000440 58 f9 7b 6d 06 14 bc 3f f2 6d 23 23 c4 43 e0 bf
       0.1096805589004125 -0.5082722364708714
000450 ab 7e f7 c1 c2 f0 d6 bf c3 b4 a0 19 d3 2e 00 40
       -0.35844487134998343 2.0228635790032015
000460 85 d9 fe f5 a1 92 07 c0 4b 9e cc 9a 4b 90 ee bf
       -2.946597978439231 -0.9551141761230125
000470 90 0b 6b 4c 8b 6d de 3f c0 9a 20 6d a6 18 da bf
       0.47543604338368883 -0.40775452286690594
000480 30 1d ce 50 09 bc d6 bf 3b 7b a8 c9 f9 d8 ed bf
       -0.3552268303978563 -0.9327362955699309
000490 0d 4e 87 36 10 80 c0 3f 00 6e b6 22 a9 8a e7 bf
       0.12890818274046048 -0.7356763532620221
0004a0 3f e2 84 cb 8d 71 00 40 7b 33 2a 17 58 28 f2 bf
       2.0554462337425146 -1.1348496346356274
0004b0 de 9e 5c e4 95 02 df 3f 4d 5e be 9f f2 81 89 3f
       0.48453280735928483 0.012454886913288688
0004c0 3f d0 6d 2b 52 d9 ec bf 97 fa 56 88 c6 68 c6 bf
       -0.9015284393522122 -0.17507249505247977
0004d0 2f e3 af 60 00 78 a7 bf ba 4e 1c da e0 5e cb 3f
       -0.04583741359960524 0.2138329567902611
0004e0 61 a3 6a 3a 9b 48 d5 3f 18 9b 85 33 b2 16 e2 bf
       0.3325565405344176 -0.5652705198561732
0004f0 45 71 ca 8f 08 f8 f5 bf 56 c5 a9 6b 50 ca ec bf
       -1.3730550400569694 -0.8996965506359327
000500 8c 6b fd de cf a6 00 c0 11 d1 f4 c7 0c a8 fb 3f
       -2.0814511700713805 1.7285278139871176
000510 b7 34 ca 41 3f 29 f1 3f 32 73 6e ac ae 59 e0 3f
       1.0725700921932864 0.5109475486566224
000520 d2 45 f5 b8 45 ea fd bf 9a e5 79 57 a9 a4 ed 3f
       -1.869695398800435 0.9263502796667809
000530 94 5e b7 bf 69 f3 c2 3f ec 42 da 35 ea fa df bf
       0.1480533777346308 -0.4996896291641366
000540 21 43 f5 f0 a8 68 d0 bf 17 79 3f 9a d2 81 f3 3f
       -0.25638793498096574 1.219194986849805
000550 93 41 6c 6c 00 95 f0 3f e1 53 e5 9e b3 3a b8 3f
       1.0363773570316865 0.09464571599285378
000560 fe ff 29 6c 36 70 e8 bf 62 44 f5 bf 94 50 ee 3f
       -0.7636978256778091 0.9473365544491907
000570 15 66 55 9c 8e 9c ef bf 07 ff fa 3e 90 ab c7 bf
       -0.9878609708204659 -0.18492320132462955
000580 3f 44 c1 30 21 ec d6 3f bc cf 16 4f b0 2d d5 3f
       0.3581622100946937 0.3309136173586429
000590 66 73 63 61 1f 64 f9 3f 80 47 5a fc 3e fb f1 3f
       1.5869439892041668 1.123839364769509
0005a0 6f f9 2e 68 c6 ef eb 3f c1 b8 ca c6 92 e8 f6 3f
       0.8730194125017031 1.4317806020076633
0005b0 91 01 b3 92 83 f5 95 bf f9 bc 14 18 00 2c ed bf
       -0.02144437392121429 -0.9116211386043737
0005c0 d8 8f 63 74 0f d3 e0 3f ae 33 28 77 d9 d8 e5 3f
       0.5257642052861184 0.68272088311061
0005d0 22 b5 18 e7 89 16 e6 bf 43 af 62 e6 f2 c4 f2 bf
       -0.6902513040164744 -1.1730832099373891
0005e0 07 fc 41 73 d9 e4 f4 3f ce 05 a9 dd 77 39 f0 bf
       1.305871439195245 -1.014030328617412
0005f0 28 ba db 76 9c b8 d1 3f 38 60 4d 2e df af de bf
       0.27689277274376645 -0.4794843628092198
000600 ed d6 9e 3a 1a 2f e4 3f 5b ae bb 76 f5 30 e2 3f
       0.6307498116427418 0.5684764212614469
000610 34 74 3d 33 c0 41 e9 bf d8 23 02 9f 78 48 e1 bf
       -0.7892762184889137 -0.5400965791351338
000620 09 b7 5d 60 6c 52 f1 3f 4e ad 26 86 72 6b 0b 40
       1.082622887067773 3.4274645309975886
000630 2a 3e 6f 65 b5 a2 dc bf c0 69 b6 9d 6a 2a e2 bf
       -0.44743094354359647 -0.5676777916262878
000640 45 ea 5e a2 ce 27 b9 3f 9a 9f 6c 9d ef fb ef bf
       0.0982636591351503 -0.9995039057439385
000650 5e 09 73 7a ea 98 e7 bf e4 95 4b 9d 15 61 e1 bf
       -0.7374164954747291 -0.5431011268780677
000660 51 9a 8d d3 26 e5 fd bf a5 eb 8f 64 39 54 d9 bf
       -1.8684452308458683 -0.39576563663984593
000670 78 b5 c3 21 ad aa c1 3f a3 64 20 f6 8f 23 fc bf
       0.1380211272111571 -1.7586822141950413
000680 74 04 e4 ef 79 b6 fc bf 64 29 9e c7 c6 fa e3 bf
       -1.7945498820047563 -0.6243623636994866
000690 d8 61 ba 39 e2 bc f1 bf 35 b0 70 86 e5 8d f6 bf
       -1.1086141829492728 -1.4096427203721877
0006a0 b2 ff bf de e1 2e c7 3f 46 52 f1 85 a7 28 dc bf
       0.1811182344099485 -0.43998134689653445
0006b0 e0 6a 53 c5 cf 7f e7 bf 17 11 ba 8a 3d 4b f2 3f
       -0.7343520025272845 1.1433692378059896
0006c0 8d 0d 53 8b b7 ce f4 bf 34 1f 9c 88 61 5f df bf
       -1.300468010173833 -0.4901965936737611
0006d0 cf a1 40 a4 e5 2a ed 3f b5 af 7d 3d af 03 e4 3f
       0.9114864547782932 0.6254497719760282
0006e0 8e cd 1d 4d a8 fc de 3f 5e 40 f8 d4 92 10 c3 3f
       0.4841709855165498 0.14894328497803405
0006f0 2c 3e 01 11 a0 18 ea bf d0 2b eb ad 70 87 b3 3f
       -0.815506013119323 0.0762854027372406
000700 f8 62 f8 d3 ec 00 cc 3f 48 77 e2 b3 99 09 db 3f
       0.2187782320986782 0.4224609619794717
000710 c1 a1 bc 97 3c 2f d6 bf e6 b8 78 96 9c d4 e8 3f
       -0.34663309877444354 0.7759535731218221
000720 84 1d f1 4c 59 75 e3 3f cc 69 66 26 f9 3b 03 c0
       0.6080748083849561 -2.4042838096622514
000730 65 77 80 1a 82 26 cf bf 88 42 d6 5a 34 41 e2 3f
       -0.24336267751726406 0.5704595350417359
000740 05 8e 0c 6b 21 33 fd bf 64 6c 41 d4 0e aa e7 3f
       -1.8249830419161992 0.7395090242020044
000750 6f a4 bb 0c 2d a2 f9 bf b9 d5 0f c4 53 f8 e4 3f
       -1.602093744028277 0.6553133801777938
000760 28 0a 78 14 8b be fa bf e9 bf fc bb 67 0d bc bf
       -1.6715193557325936 -0.1095795473054292
000770 dc 3b f4 c4 07 39 eb 3f 10 f9 da e7 54 79 d3 3f
       0.8507117125280916 0.30428049699902804
000780 55 44 1b 38 37 93 f4 3f 7d 0c c8 0f 1b 24 d2 3f
       1.285941332975445 0.2834537176242476
000790 71 7e 0c 5c 44 57 eb 3f ed 1b b7 00 8f 6a cd bf
       0.8544027135685167 -0.22981441054272925
0007a0 f2 6f e4 25 8d 7c e7 3f 5c 46 cc 62 2d 52 e7 3f
       0.7339540233692772 0.7287814073226389
0007b0 25 0e c8 b4 2a 1d f6 3f 71 d4 b7 2d 3f 4d b5 3f
       1.3821208059097299 0.08320994249500459
0007c0 ec c8 7e 21 95 db e3 bf 2e 0a a6 8d d8 6c a6 3f
       -0.6205545095638434 0.04379917840107726
0007d0 4e 53 f3 ae d8 57 b9 3f d3 e9 4d 0a 9c 4a f4 bf
       0.09899667998554415 -1.2682152178300512
0007e0 1b c5 20 45 6d 61 f4 3f 09 d3 2c f9 04 0d ef bf
       1.2737858486473843 -0.9703392855359151
0007f0 44 97 d5 93 54 77 d0 3f 56 f1 0d 83 62 e4 fa 3f
       0.2572833484358521 1.6807580107989302

arr_1 f8 [800]
000000 b6 d3 f9 fd 96 b4 c2 3f 67 f1 fb f4 9f 65 d8 bf
       0.14613616372267096 -0.38120268749459857
000010 fa 3a 78 80 8a d3 be 3f 24 ea 6a 8f b0 4b f7 3f
       0.12041535984483778 1.4559789278270125
000020 45 40 e4 ea cc 86 ef bf 1e 37 4c d5 4f 1b f7 3f
       -0.9852051341749833 1.4441679317419083
000030 99 39 7d c2 9d 83 e1 3f 7f ba 80 48 f5 c6 f5 bf
       0.5473164366356286 -1.3610737640516672
000040 f2 f5 98 14 9c 46 f0 bf 10 71 8b c9 a9 44 cf bf
       -1.0172386936750368 -0.24428293553399572
000050 0e 9a f1 49 71 47 f6 3f 9b 99 ca 25 8a 9d f0 bf
       1.3924420250347143 -1.0384618259646234
000060 31 a9 ca 2b 1e 0f f7 bf 41 97 8c a5 e1 44 d0 bf
       -1.4411908827410793 -0.25420418898498914
000070 11 c0 6c 16 d3 11 f7 3f 13 f7 79 35 66 8b e2 bf
       1.4418516994446728 -0.5795165104352428
000080 2b 3f c6 7b 58 e8 fa 3f 45 09 0f d6 41 a2 ea 3f
       1.6817250094354204 0.832306783755748
000090 02 79 9b 24 16 1d b0 bf f8 5a 94 50 5b 22 d3 bf
       -0.06294382470830232 -0.2989719664487178
0000a0 b0 24 6d dd 41 56 fc bf 5e 29 02 0d 16 1c e8 3f
       -1.7710589074579666 0.753428483397595
0000b0 c8 ef 3d 9d 47 0c 91 bf 5f e3 c9 3b 97 89 d5 3f
       -0.01664840600231779 0.3365228732941911
0000c0 7b 58 36 2e 67 d8 ed 3f 6d e1 38 3b 66 97 d6 bf
       0.9326663878043883 -0.35299068244378057
0000d0 53 39 cf 58 cd f1 d2 bf 36 19 41 9f 57 a8 cf 3f
       -0.2960084311752286 0.24732489849174905
0000e0 67 11 59 b4 99 5b e3 bf 60 d9 b4 bb ba 2b d0 bf
       -0.6049316904468868 -0.2526690323897096
0000f0 95 4d b9 15 60 c4 f4 bf 93 c9 95 41 61 b5 d5 bf
       -1.2979431961619856 -0.3391955509643136
000100 74 10 35 ea 07 3c f3 3f 94 4d 51 bd ce 83 d6 bf
       1.2021559857103314 -0.35179489601179026
000110 8d db be 9b 31 54 01 40 c6 54 7d 26 05 3f fb 3f
       2.166110245477688 1.7028857711314216
000120 5a 6f 2b 6a 22 2b e2 bf 72 57 9b 67 4c 6e f4 bf
       -0.5677654336572957 -1.2769283339634652
000130 12 ee 67 0d 76 70 ec bf 7c 60 2c b9 92 18 d1 3f
       -0.8887281667552449 0.2671248253186673
000140 3a 61 d9 a8 55 83 f2 3f 06 c4 b6 1f 18 bc f2 bf
       1.157064113203957 -1.1709214438271842
000150 76 9f da 99 04 f3 e2 3f fd 49 60 b0 67 77 db bf
       0.5921652798615316 -0.429162904970468
000160 be 15 2e d8 16 b7 ca bf f9 a2 bf 73 0e 47 e2 bf
       -0.20871244006791118 -0.5711738835062469
000170 87 45 b5 52 ab 77 ea 3f 9e c3 c1 0d 08 43 d3 3f
       0.8271080603973794 0.3009662756294861
000180 6f 97 0c 1e bd 07 e5 3f c4 ab ab 1b c4 d7 e9 bf
       0.6571946703813704 -0.8075886288109975
000190 c6 1e af 5d 42 f6 da bf 55 10 91 b8 ce 1f fc 3f
       -0.42128047131380375 1.7577655038485507
0001a0 be e7 71 a0 a2 0c c6 bf 94 09 91 83 89 e7 e0 bf
       -0.17226059755540563 -0.5282638139399745
0001b0 03 49 00 cb f5 53 b6 3f 2a c1 23 52 d2 d1 fd bf
       0.08721862989503752 -1.863725968225547
0001c0 e6 c2 06 36 94 5b f6 bf c4 70 de 51 e3 f8 cf bf
       -1.3973581419378944 -0.2497829580069092
0001d0 50 ed fb b9 59 a9 e0 bf 32 89 d9 7f 3e 1d d3 3f
       -0.5206726677419429 0.29865992055251234
0001e0 07 c8 e1 7b 8a 23 c0 3f ef 1b 4f 41 10 c6 ca bf
       0.12608462380336524 -0.20916941822926513
0001f0 91 7f ab 8f 87 f7 f2 3f 19 7b 20 ae c4 41 d0 3f
       1.1854320156198563 0.25401417736604653
000200 c4 39 42 9e 23 06 e2 3f 8d 8c a4 5b fc 15 d2 3f
       0.5632494059553257 0.28259190511216375
000210 e8 9a b4 0f 60 db ce 3f c5 43 fa 33 91 9a 01 40
       0.24106980101460995 2.2004722653150304
000220 a1 68 9d 8c fb 95 e5 bf 46 c0 58 d5 99 41 df 3f
       -0.674558424604829 0.48837896189343544
000230 ef 9e 38 8b 6f 76 e8 3f 5b cc aa 14 c8 f7 e8 3f
       0.7644574851192071 0.7802467731147645
000240 e8 47 24 67 06 b1 c7 bf 5f 12 a2 31 4b 15 f4 3f
       -0.18508987461296944 1.2551986635964096
000250 0b 16 78 94 20 a9 f0 bf 41 4c a9 ee 1a c1 f3 bf
       -1.041290836293572 -1.2346448252399258
000260 32 38 c5 5b c9 7b e1 3f 17 d5 ab 2e 45 4a fb 3f
       0.5463606636419682 1.705632383641676
000270 3e b6 03 4a db ca 03 c0 7b 28 9d 62 ed c9 ee bf
       -2.47405107330158 -0.9621493269016946
000280 5a 30 a9 ce 2f e7 e7 bf 02 9b 2f 98 a4 fd d4 bf
       -0.7469710384698474 -0.3279811369124418
000290 f1 b1 5c df 35 fc e2 bf 37 b2 b1 b5 a9 7f f2 bf
       -0.5932874071636985 -1.156167707197836
0002a0 a9 9c 87 2a 8d fc d6 bf 5f 9f 94 e1 dc 30 f0 bf
       -0.35916451600355487 -1.0119293987026692
0002b0 b5 ba c8 6c 43 b3 da bf 76 b1 79 e5 0b d0 d2 3f
       -0.4171913683266369 0.293948148819957
0002c0 72 4f 5c 8b 25 4f f4 3f e4 4d 1d be 01 3a c0 bf
       1.2693229144833507 -0.12677022726948828
0002d0 a3 b5 fe d3 7e e5 ec bf 22 e9 de 69 06 c2 e0 3f
       -0.9030145779158157 0.5236846988475785
0002e0 37 c2 cc e2 ed af db 3f e6 f4 ba 2c b8 f7 f9 bf
       0.43261286877080657 -1.622978377082569
0002f0 18 fe 28 9c 4f 78 01 40 52 52 50 0d 24 bd e9 3f
       2.1837455940256056 0.8043384799989985
000300 4a e2 93 8c df d6 c9 3f 0b 9d 4b 80 30 44 d0 3f
       0.20186991085189937 0.25416195420116655
000310 5f c1 08 75 eb 0e d8 3f ad 8a 02 db d1 db f0 bf
       0.3759106295501819 -1.053666930682691
000320 71 22 9f fb d1 d7 db bf d0 af 7e bf ae e2 e2 bf
       -0.4350476224176765 -0.5901712169775184
000330 18 42 b2 af 4e 20 8e 3f 68 47 72 20 03 13 07 40
       0.014710058914972499 2.884283307540432
000340 6a f9 c0 75 7f eb d6 bf 04 65 74 11 1b e7 f9 3f
       -0.35812365054507345 1.6189222986052423
000350 52 cf 9c eb a2 c5 d8 3f 99 eb 60 e7 a6 33 c1 3f
       0.3870627690223404 0.1343887929704948
000360 4a a3 41 ff 51 1a d2 bf e7 f4 ce 36 c0 39 fc 3f
       -0.28285646369345285 1.7640993252710417
000370 ff cb 5a c5 f9 58 e4 3f 9e 8a bf 2e d7 4e ea bf
       0.6358612875541211 -0.8221240914393382
000380 02 73 66 05 ca 9a ab bf 88 2f 62 c6 ca 05 cf 3f
       -0.05391532245559995 0.24236426054664784
000390 c3 8f fc 6e 4c 2f dc 3f 97 0c 89 9d 63 9c e9 3f
       0.44038687552005856 0.8003404690611146
0003a0 6f a6 ad 0c b8 65 d2 3f d4 88 56 f9 3e 19 ec bf
       0.2874584316074111 -0.878081786144572
0003b0 cb 6e ee 59 c5 59 ec bf ef ac 7e 01 2e 42 cb 3f
       -0.8859583622429111 0.21295714447965206
0003c0 95 33 cf 25 12 de f1 bf 1f a5 03 75 25 8e d6 3f
       -1.116716525738615 0.35242592265292844
0003d0 7c 05 12 07 45 48 f7 bf e1 c1 7a 23 09 c5 f6 bf
       -1.4551439548671103 -1.4231044183653625
0003e0 09 97 65 49 a7 25 d1 3f 5b 67 f0 8e 58 61 c4 bf
       0.2679231850400901 -0.1592207620568001
0003f0 2a cf 10 c3 99 f9 ed bf 55 a4 87 77 ad 2e e3 bf
       -0.9367188272358125 -0.5994479498450668
000400 0d 0f 97 bf 0d 47 e1 bf 8b 7f d0 a7 f6 c3 f5 bf
       -0.5399235479348775 -1.3603426509143641
000410 88 38 7b 67 c6 65 ef bf 6b b2 84 15 6e 80 d0 bf
       -0.9811737080688241 -0.2578387460842239
000420 49 09 67 8b 1a 2f e8 bf 65 60 86 3f 39 b9 e0 bf
       -0.7557499621109766 -0.52261030585488
000430 38 ed ac 0d 78 dd c4 3f a8 c0 ea 41 02 16 f8 3f
       0.16300869624851955 1.5053732466586016
000440 de 16 f2 9a 85 a8 d8 bf 7a 67 68 07 5a 12 d6 bf
       -0.38528576022541283 -0.34487009738369745
000450 c8 f5 4d 69 75 a3 e8 3f 4b d3 f2 e9 d6 cc a4 3f
       0.7699534470299847 0.04062530141656014
000460 24 53 c6 6d 0c df f2 3f a3 8e 35 03 d1 b1 eb bf
       1.1794552124094446 -0.8654561102561796
000470 44 e7 db fa d8 82 09 c0 bf d1 dd e0 27 ff e8 bf
       -3.1888904188498675 -0.7811469451831313
000480 71 c9 eb 0f b9 08 ed 3f 49 b4 0f c3 3b 0c b4 bf
       0.9073148070295202 -0.07831166755905018
000490 92 b0 a9 96 d0 c7 ef bf e1 de 34 5e 0e 4a e2 bf
       -0.9931414549478339 -0.5715400543185433
0004a0 6d 7f 4e 5a 41 5b e1 bf 93 62 68 ac 38 81 ea 3f
       -0.542389561061993 0.8282740943278263
0004b0 6f 07 ad ad 42 39 d6 bf 6b 9c 2d 30 04 8b 04 40
       -0.3472449012807521 2.567879082099855
0004c0 46 df c2 5e 1d be ba bf 01 1f ec af 6c ad e3 3f
       -0.10446342051988919 0.6149199901564942
0004d0 e5 0a 78 7e b9 41 ea bf 6f 84 69 92 ca f2 e6 bf
       -0.8205230207534809 -0.7171376094448884
0004e0 d3 18 ef 5c 74 05 ee 3f 7b aa bb f2 db e5 f5 3f
       0.9381658377758647 1.368617962051444
0004f0 73 8d df 8c bc a6 a6 bf 05 67 8c 1a 87 22 f7 bf
       -0.044240848728601366 -1.4459296261833867
000500 0e 82 48 6c ee b8 de 3f 7a 10 cc 9e b2 34 f8 3f
       0.4800373132184469 1.5128656580937148
000510 61 c1 87 81 c4 2e fb bf 09 2a 4d fb 50 3b bc 3f
       -1.698917871453965 0.11028009543694152
000520 50 8f c2 6d ed 10 d6 3f dd 22 57 ce 3d e5 eb bf
       0.3447831699252122 -0.8717335729680503
000530 4f 59 18 c6 1e 47 92 3f ee 4e 4a 35 a5 0e d3 bf
       0.01784942707134834 -0.2977688808834803
000540 dc 17 41 7f 74 77 e7 bf 49 fe 6f d0 23 0a dd bf
       -0.7333319173274009 -0.45374389033529333
000550 cf 19 77 78 8f 01 fb 3f bb 10 9d 1c 92 1c d6 bf
       1.6878809648202269 -0.34549382013598134
000560 1e 31 59 dd 42 3b d4 3f cf e9 7b 68 b2 5a 9b bf
       0.3161170159917378 -0.026713168742370116
000570 d7 2f 2f 93 e1 ea cf bf 73 c5 aa ab 22 bf c4 bf
       -0.24935550390944058 -0.16208299047643102
000580 68 90 ae 7b 15 b6 ca bf de bf 3c dc 6f 18 f3 3f
       -0.20868176020769913 1.193466053297008
000590 13 78 f0 07 de 70 e9 3f bd 7e 25 df 9b 90 e8 3f
       0.7950277476372797 0.7676524504022023
0005a0 94 30 0c 82 ec ac f3 bf 9f f9 53 89 ff 54 e0 3f
       -1.229717739103795 0.5103757555187264
0005b0 64 fe 29 e4 86 0c e4 bf cf e4 18 14 88 f6 f3 bf
       -0.6265291649178377 -1.2476883683250894
0005c0 e3 7f d6 32 99 04 f5 3f 26 37 39 76 e3 b6 d1 3f
       1.3136226640563045 0.27678762955916836
0005d0 2c ff 6a c9 f4 38 00 40 07 7e d2 ef f9 11 00 40
       2.027810643747122 2.008777497874465
0005e0 85 c0 12 d9 71 cf f4 bf 9b 76 0e 7f da 9a db bf
       -1.3006456832336266 -0.4313265076433283
0005f0 c9 17 6a 30 47 c8 fc 3f 60 e0 ea 0e 02 eb eb 3f
       1.7988960162342542 0.8724375048977997
000600 6a 6c 7e 6d f7 8f df bf b2 9e 5f a6 b2 aa e4 bf
       -0.4931620187068747 -0.6458371400339813
000610 ed e5 1b f4 48 96 f1 bf b7 a3 c3 5e 4f 57 eb 3f
       -1.0991906676775856 0.8544079638351069
000620 56 1e fc 57 da 45 f9 3f c0 49 11 9a 23 3c f0 bf
       1.5795539318950396 -1.014682390047355
000630 c7 38 8f b1 ff 60 03 40 4e 56 c6 4a 6d eb dc 3f
       2.4223626968224354 0.45186931898328886
000640 b7 02 a5 5c 8c 8c e4 3f b9 3e 03 02 e7 b0 b2 3f
       0.6421567735161123 0.07301181601655572
000650 2b f8 9e 9d 54 7a f1 3f 3c 96 fe aa 7b 02 a3 bf
       1.0923658520764643 -0.037128319381093594
000660 d9 5d 52 26 e8 8a ef bf 44 0b 38 41 e0 1b f2 3f
       -0.9857064007255146 1.131805662881292
000670 f7 6f 13 97 96 98 e0 bf 44 25 5a ee 32 6e d9 bf
       -0.5186264944745734 -0.3973510100991755
000680 a0 fa 00 e1 4a 1f 05 c0 fa 78 15 8a f3 a3 f7 3f
       -2.640279538957955 1.4775271791364148
000690 d4 3e 7c 90 6c 23 de 3f 5f 8b 86 43 ea c4 c4 3f
       0.4709121142377459 0.162259371730296
0006a0 c7 c3 e4 49 f7 d4 fd 3f da a9 26 19 5c 51 f3 bf
       1.8644936453313095 -1.2073632223569946
0006b0 b1 b9 79 30 d5 a4 e3 3f 88 ad b5 63 16 20 f3 3f
       0.613871187857333 1.1953338522824613
0006c0 c7 d9 9f d4 6d 46 e2 3f 57 f9 8d 54 4a 3d f0 3f
       0.5710972931690826 1.0149634650147925
0006d0 66 73 87 83 e0 cf df bf ec 63 fc 9f 1b a6 f1 3f
       -0.4970628056014931 1.103053688950463
0006e0 be e1 ce a0 9e 27 f7 3f 32 7c 9e a9 22 be c8 bf
       1.4471727639739664 -0.19330247194463507
0006f0 44 86 3a 76 d5 7a f4 bf ee 99 51 e9 94 4d e2 bf
       -1.279988729315293 -0.5719704205519613
000700 f7 48 5c b2 82 a3 f6 bf 6b 9f a0 71 0b a3 df bf
       -1.4149195639807297 -0.4943264588969131
000710 9d 43 8d 1b 7c 7e f5 3f 7a 37 de 02 ce af e4 3f
       1.3433800770037359 0.6464605384842195
000720 83 31 76 d0 bb 94 cf 3f ef 62 da 40 10 fc 9a 3f
       0.2467264907721863 0.026352170904462232
000730 45 70 44 3d be e7 c7 bf d1 2b 69 b0 d8 00 d3 bf
       -0.18675973884171718 -0.2969266627084695
000740 a6 31 b1 78 df 49 d5 bf b9 49 69 38 58 36 d4 3f
       -0.3326338461527264 0.31581693180956055
000750 6e 6c 2f 92 64 d5 dc 3f 59 67 6d e8 8c e6 a4 3f
       0.45052446628478193 0.040821460125427485
000760 2d b1 08 01 3f ea c3 3f 71 10 07 83 53 31 00 c0
       0.1555861239479638 -2.0240850674181776
000770 19 29 fd 08 57 d0 af 3f c4 1c 3e 54 35 62 f2 bf
       0.06213638291099439 -1.1489766398170085
000780 6c 48 36 7e 99 e1 ea 3f ef 3e 09 64 92 41 ed bf
       0.840039011485954 -0.9142543748693849
000790 7c 98 a0 c3 d3 35 df bf 96 65 cd 09 e2 4a e9 3f
       -0.487660351793586 0.7903909865810188
0007a0 dd 2c ca c0 19 db f3 3f fe 60 81 13 da ea ef 3f
       1.2409913569306845 0.9974184399571013
0007b0 ce e1 64 32 be d5 05 c0 b5 ee 15 cc 9a 81 f5 bf
       -2.7293666779553183 -1.3441417667481066
0007c0 3e bd 20 d9 66 fc b8 bf 4a f8 ca 54 77 a8 fe bf
       -0.09760134507154292 -1.916129428121638
0007d0 3d 7a 42 b6 ed 78 ea bf 83 4b 32 0d a4 d5 f5 3f
       -0.8272617873915987 1.3646584048735526
0007e0 24 21 66 91 3c 4c 90 bf 16 29 1e b6 2f 52 c3 bf
       -0.015915819525191513 -0.1509456290480748
0007f0 59 3a f2 6d 1a 22 ea bf 67 d9 cd ae 01 2e f2 3f
       -0.8166629931818746 1.1362320736203289

arr_2 f8 [10]
000000 ed 93 5b 8d f0 96 e0 bf 45 f0 3d c5 ac 47 f4 bf
       -0.5184252510922512 -1.2674987511409352
000010 84 5a ed 64 00 93 ea 3f d4 33 3d 20 4d 24 f3 bf
       0.8304445239289895 -1.1963626155222657
000020 88 9c c8 0b 42 95 e2 bf 46 25 f3 cf e8 0b ef 3f
       -0.5807199697636785 0.9702037869948661
000030 71 20 86 b0 c7 c6 da bf 8c 4d 47 d5 25 aa af bf
       -0.4183825706354645 -0.06184499958512921
000040 f4 07 e5 c3 07 b2 e8 bf e1 5f 2d 24 85 bc d1 bf
       -0.7717322183673319 -0.27713135273870476
