notebooks/models/simTwoLayers_architecture/experiments/xavier/biases_md_200_200.pkl.npz (npz, 4028 bytes, 3 tensors)

arr_0 f8 [200]
00000000: c043 9cf6 c59b f23f 7e15 fd79 c3f9 fb3f
00000010: 2daa 2635 2601 f13f e943 96c3 86e7 d6bf
00000020: e26c 906e b3e1 b9bf e0b3 d5c2 da64 f13f
00000030: 3885 2b62 bf28 fb3f 47ee fb71 688e b4bf
00000040: 6f2b 75d1 ab7a f0bf a3f7 076b 2315 d7bf
00000050: 2002 5a51 478e e83f e0f8 688c 0554 ee3f
00000060: 0196 4c61 52a1 dbbf 3f03 89ce 0d3e ed3f
00000070: ba10 ca65 85f7 e6bf b04c 49e7 4b7a be3f
00000080: 728b e634 f86c d4bf 9e57 a394 5e15 fbbf
00000090: 7788 cf90 3243 e6bf c1ce 7e76 105d f53f
000000a0: f355 9500 837b ebbf b531 8285 33ef bbbf
000000b0: 6328 6d4e 4a3d 673f fd57 2cdc 272b d53f
000000c0: e280 48d6 e0b8 d33f 555c d861 dc46 d0bf
000000d0: a00c 5f8f 2cc8 be3f db6d da61 0361 e3bf
000000e0: 7edd 4228 d9d5 f1bf e59b 95e5 a259 a33f
000000f0: c224 6e41 760a ec3f df27 69ba fd3d f13f
00000100: 31d9 41f4 363f ea3f 2c73 04d4 8751 fabf
00000110: e979 abed 6fb6 f4bf 0768 b8ef 2f0f eb3f
00000120: 8a98 584b a8fc dc3f 4d61 c40f 0f9c f9bf
00000130: da4e 7a00 071f b9bf 325a 9602 3b02 dd3f
00000140: 6c53 06ff 620a f8bf 08fa 6423 a08f e73f
00000150: 779e a24e eba8 e7bf 1c92 7469 2928 e63f
00000160: 3f36 ad37 ad9c f03f 1477 e9ea 02c5 e7bf
00000170: 41b8 9a99 4103 c8bf 17ec 5aee 3030 fabf
00000180: 4043 3d94 fcd1 f43f a823 86a7 a3fc e6bf
00000190: 50ac 16a4 b969 d6bf 7e2b 19ca 3deb af3f
000001a0: d844 1d4d d75c b2bf 8700 be50 11d0 c7bf
000001b0: d9fd 03da 9650 d3bf 82e6 0a78 8841 eebf
000001c0: fcf3 a35e 0441 e43f e19b 5499 42f7 ebbf
000001d0: 8b8d 7381 d16a 7dbf 18d5 ef6c b649 ba3f
000001e0: 34a5 da82 73e7 f23f da0c 77b9 cab0 d43f
000001f0: b550 bf8f 9ebf d73f ec8d bed2 5e91 fc3f
00000200: f726 f1b0 1e6c e53f 012c 3a5d 40bb f03f
00000210: b712 d518 c50c d73f 037f 45aa bec5 b4bf
00000220: de2c b5ec 8afc dd3f 5502 649e 273a f6bf
00000230: 6c0d ec23 1e9c d8bf f888 bf7a 88c5 e2bf
00000240: ef20 2984 070d d93f 1da0 b7c7 2b45 e2bf
00000250: 0704 467a 161e c0bf 8ad7 6ab1 cfbb 03c0
00000260: 86eb c9d7 e71b df3f 0a1f a71b 0965 cf3f
00000270: 209d b60b c6e5 eebf 1024 3ce3 39bb e5bf
00000280: 39e4 0942 34dd fe3f 380b af2f d738 f13f
00000290: f7f0 fd42 fe13 e2bf 96ba 2b56 1fe8 02c0
000002a0: a978 c04a fc99 c0bf ee30 32a1 5121 b8bf
000002b0: 9a1b c82f 1b68 d6bf d8ee 84db 45d9 d1bf
000002c0: 52f1 7d53 56de e63f ab1a cc52 8b26 f13f
000002d0: ee9a d4d2 d4ab f8bf bfbe 5864 8656 e03f
000002e0: 692e 10b6 4697 debf f738 d621 66da c8bf
000002f0: d471 0df6 63d0 f23f 4323 731a b9bc e93f
00000300: 99a4 408f f0f9 efbf 162b 97cf a3ae e43f
00000310: e4de 30ca 219c ee3f 7b85 c34b c8f7 ecbf
00000320: f557 cdab cb76 b4bf 2603 8334 6857 0040
00000330: d096 aa9a 80a1 b1bf 60e5 7429 a9d8 d73f
00000340: 4982 1098 8681 f8bf 4936 545c f311 fbbf
00000350: 4e4f 7bb4 21a6 f6bf 731f fd08 91d0 7abf
00000360: c9b2 1e63 9eb2 c63f 2aa5 2b7f 530e f2bf
00000370: 7cb1 9160 67e7 953f 70db eb45 b1fb db3f
00000380: 1a3f 6174 927e c7bf 3fe9 d62e f28e fdbf
00000390: 3b6e 0f1c 5b73 de3f e64c c17a 2654 e9bf
000003a0: c421 6fc9 0ee3 debf 982f c787 74b2 c1bf
000003b0: 9d37 76d8 e969 f73f 1f0b d446 23ca f6bf
000003c0: b79e b243 0a04 f03f b740 5007 691d da3f
000003d0: 25e0 f03f ebd6 c43f 60dd b922 614a f33f
000003e0: 12a1 8f84 7006 f6bf 58cd 1b49 cf29 ee3f
000003f0: c6e5 80ab dc81 f0bf 6d47 82b7 9206 cd3f
00000400: 663c 01f2 9414 a93f 16f5 5fe2 3063 0040
00000410: af80 cd78 05fe e7bf df76 eaf3 a469 e0bf
00000420: 8b72 50c6 d27b e8bf 8fc4 056b f6bc b8bf
00000430: 8d26 2de9 d48e d3bf 9051 40ec e748 f23f
00000440: e9a4 ed59 e490 ebbf ebc9 aaf5 4d96 ddbf
00000450: a913 0d90 eb4d f63f d7ca 8342 02ae e43f
00000460: 99b2 bb99 16ee f13f 1ad0 bf49 5ba3 d63f
00000470: 1a50 478f 3c5a bf3f 3090 9eb4 c543 f3bf
00000480: 2493 e16e 43c2 f9bf 547e efc3 570b cc3f
00000490: a610 57db e697 f8bf a0b0 de8b dc65 f23f
000004a0: 2f72 3645 4a2a f03f 9c05 4da8 2342 d83f
000004b0: d916 e7dc 0a39 debf d8fe 512b ce9d f5bf
000004c0: b67f 54ec 9d08 e8bf db92 d5ac 13c0 e13f
000004d0: b029 9382 0800 ea3f 4f59 01f1 0409 f73f
000004e0: f15c caef 38aa 00c0 9670 8118 c562 e3bf
000004f0: 4053 52b9 b686 f4bf 5ee6 7979 bd64 fcbf
00000500: 1a62 02d9 7d29 b73f eaac 6b69 d784 f1bf
00000510: ce7a 8e0e c134 e0bf c656 8539 d408 f4bf
00000520: 87b8 5ece e763 e63f 22c1 7e4a 49c7 fe3f
00000530: dd39 5e81 89bb d53f 1760 c684 ac36 e73f
00000540: 3096 8b19 c768 f13f 11e9 425a 6b27 dabf
00000550: a06a b447 6122 febf 1da3 479a f21b eabf
00000560: 266a 004e 6737 f43f 7bcd ca43 0e62 e33f
00000570: 796c c49d 2af4 00c0 e567 bdba 2c73 f03f
00000580: c822 276d b3b4 d33f 0a63 6f9c 010f fd3f
00000590: 9044 4eda a291 b7bf 47ea 19c9 cc6e d2bf
000005a0: f831 f15f fb43 b63f 9fe1 caa9 d83b f93f
000005b0: abf6 0600 4db8 f5bf 6726 c187 0214 f6bf
000005c0: 8a46 9621 3aba d53f 8e86 0492 bc90 fa3f
000005d0: 1563 338f 5228 e63f 8849 f31a e638 eabf
000005e0: afe4 8b35 8c41 bdbf 2971 7a99 1459 f7bf
000005f0: ebb0 4dea 938a e13f 9940 1d4c 9c86 e33f
00000600: ed26 bb31 77fe f8bf 523a b90a 8e3e f5bf
00000610: b6ed 949b d710 e83f 198e b9c5 ced1 d2bf
00000620: 80b9 fe4a 9642 f93f 0de9 3c2e ba49 d23f
00000630: c828 3ba1 1a93 e43f dbae ed51 15c9 a2bf
1.1630305894106954 1.7484774365596816 1.0627805782520554 -0.35788125133791354 -0.10110017251320216 1.0871226893170771 1.6974481425061878 -0.08029797346892407
-1.0299490148488208 -0.360665182612019 0.7673679913423861 0.947756551969885 -0.43172130109664414 0.9138249429598558 -0.7177149761269199 0.1190535964645274
-0.31915097395010783 -1.692717152230649 -0.6957028225263134 1.3352207783436116 -0.8588271151917851 -0.10911867150770756 0.0028368426605185778 0.33075901509562283
0.3081590740785157 -0.2543250041503076 0.12024191379809901 -0.6055924330898351 -1.1147090504362889 0.037793245816651035 0.8762770917830027 1.0776345521612638
0.8202166338585696 -1.6449049264840125 -1.2945403369882291 0.845603912547859 0.452920983867792 -1.6006003013518069 -0.09812968980468942 0.4532611394182907
-1.5025358163740874 0.7362824145600948 -0.7393700157017083 0.6924025592493908 1.0382511305682696 -0.7427992427944639 -0.18759937286580633 -1.636765414309371
1.301266268787188 -0.7183397552445188 -0.35020295166277027 0.06234162418385035 -0.0717291415469562 -0.18603722040643708 -0.30179377832970783 -0.9454996437627445
0.6329366539426924 -0.87393312404026 -0.0071819480719769275 0.10268726501074743 1.1815066443908337 0.32329052078075693 0.3710705188543771 1.785490821094636
0.6694482284449056 1.0457156793297602 0.36015441346198024 -0.08114234597223562 0.4685389815901554 -1.389197939599531 -0.3845286703874169 -0.5866129300523246
0.3914202490455087 -0.5709437275627384 -0.12591820688615504 -2.466704736779268 0.48607822487945673 0.2452708611510775 -0.9655485371376109 -0.6791047514135489
1.929004915202553 1.0763770926138942 -0.5649405773579294 -2.3633410198302256 -0.12969926500313037 -0.0942584055466715 -0.35010413805178475 -0.2788862842314592
0.7146407728865063 1.0719102129238915 -1.5419510112348536 0.5105621299644197 -0.4779831674538629 -0.19416500713527515 1.175876580374383 0.8042874828907788
-0.9992602155590645 0.6463183454992272 0.9565590809861217 -0.9052468757401323 -0.07993767685306337 2.0426792242509633 -0.06887058044466277 0.3725989250993589
-1.5316224994677603 -1.6918824774360408 -1.4155594873490887 -0.006546560805709467 0.1773260101303065 -1.1284975974652505 0.02139054800902461 0.43723708942655204
-0.18355017359362408 -1.8473989324252924 0.4757907651926165 -0.7915222547111653 -0.4826085059289904 -0.13825852041042874 1.4633577781237144 -1.4243500487070333
1.0009863514368769 0.40804506029327164 0.16280880567660563 1.2056590420232496 -1.3765721491018366 0.942603724279631 -1.0317045878749567 0.22676309547801612
0.0489851518074083 2.048433083108317 -0.7497584685734376 -0.5128960384351692 -0.7651151536297943 -0.09663334000448941 -0.3055927540886863 1.1427993038715591
-0.8614370113765776 -0.4622988604634474 1.394023478221451 0.6462413119428118 1.1206270222857369 0.35372049524380744 0.12247065065395227 -1.2040459685749845
-1.609927590493677 0.21909615580715303 -1.5370853965733118 1.149868532530526 1.0103247359867387 0.3790368217051652 -0.4722315938237052 -1.3510266964148538
-0.7510518661329033 0.5546968818349244 0.8125040579118856 1.439701978136856 -2.08311641060174 -0.605806873190448 -1.2828891028522804 -1.7745947594798035
0.09047686145857661 -1.0949319952003926 -0.5064397129352416 -1.2521555182369624 0.6996954947151303 1.9236538801160994 0.33957135804749133 0.7254240601787413
1.0880805013524757 -0.40865596594416426 -1.8833935547797083 -0.8159115803983671 1.263526253408267 0.6057196926180234 -2.1192219091004145 1.028118829205135
0.30790410670719526 1.8161636458154953 -0.0920659811947806 -0.28801269186775297 0.08697482197130302 1.5771109230537161 -1.3574953080236962 -1.3798852255735257
0.3394913986204321 1.6603360847297242 0.6924221798791189 -0.8194456602453082 -0.11428142840658738 -1.4592481608625099 0.5481662346114978 0.6101819502455498
-1.5621253912562978 -1.3277721804512521 0.7520559347826097 -0.29405564602913753 1.578756611775674 0.2857499553243919 0.6429570340199229 -0.03669039368727819

arr_1 f8 [200]
00000000: dd26 3042 6df6 e3bf 8e47 df4f 4023 eabf
00000010: 8f81 ec8a 02f0 a1bf 2b0c 17db 118f efbf
00000020: d1da 97ed 60de f43f 222b d61d 9f0c fb3f
00000030: 86cd 7d35 74f7 ebbf f598 c02e 35c4 fe3f
00000040: 9675 9dde b9a9 e13f 8015 5e9a 95c9 f3bf
00000050: a282 f5a1 c724 fabf e0fb 3fef 9fea edbf
00000060: 329c 552f b1bc ad3f 93df 671b 2226 e5bf
00000070: 102f 8333 121c c93f 5a69 dac4 ea2a f93f
00000080: 3ea2 8d11 259a e73f d3ed 7eb6 3348 c33f
00000090: 447c c2ff 008d f1bf 84ed 78f3 cb00 d7bf
000000a0: eddf 719a 7e4a cfbf 1dbf fc03 706d dd3f
000000b0: ebbe 1cdc def2 fa3f 3ea9 d986 1a41 e43f
000000c0: dd8b 5b7c c6da eebf f7b2 8763 00de bcbf
000000d0: 5c1e 4daf 7f81 e2bf e0dc fef8 fa1a e73f
000000e0: 982e f7fb 654e e13f 0133 666a ed7a e23f
000000f0: ed88 b6b1 c7ea f63f 61f9 0a6e c528 8c3f
00000100: de34 9da0 6e98 d23f 846e 9803 c77b debf
00000110: eb6b 5e7d c21c ebbf 8a37 fd29 0fb4 d0bf
00000120: 95c9 fb38 c759 f1bf 8093 8e04 91a1 de3f
00000130: 2b61 ac06 4b71 e83f 8457 aa58 a5bd f23f
00000140: 9c9c e31d 438d 0140 067f b667 72b0 fd3f
00000150: e7fc 1ed2 930d c73f d110 68ad 971b dcbf
00000160: be51 a6ab 20e6 fe3f f25c 2c17 f919 e6bf
00000170: 61bb b574 eed7 d33f 36fa 8299 5538 fabf
00000180: 9c18 cf7b 70c3 e13f 4c80 eb52 22bf e23f
00000190: 9f07 b241 228c f2bf 57e4 82b6 885d c0bf
000001a0: 2c45 56c1 453a 00c0 fca8 b12a 29ef ecbf
000001b0: a8e9 a764 34ce ccbf b393 f1c7 da8b c93f
000001c0: 04b5 fdb2 780b f63f 8918 1283 8eea e23f
000001d0: 5c7d 2bb5 c6c4 c73f 1c27 605c 321b d9bf
000001e0: 2e40 8575 5a30 bfbf 9dc8 9e85 678d e13f
000001f0: c119 0310 aa3a dabf 8afe 2647 8359 dd3f
00000200: cabe 47e9 9ec3 f3bf fa5c d079 1dcb eabf
00000210: bf8f d862 ace8 ddbf 0c98 0e38 cd05 f2bf
00000220: 0075 1064 4541 bc3f ac5c 61dd 8d0b f6bf
00000230: bf37 a443 f2c5 d2bf cd82 f708 ee93 f23f
00000240: 3d40 d541 c40f ef3f 3e50 b6e1 a0e0 f13f
00000250: 3639 48c8 e3d3 f3bf 49bd ff64 d8a3 ac3f
00000260: d631 3091 8fa8 e5bf 8d81 d3a4 ea39 eebf
00000270: e3c3 8f13 f99b d03f 2003 d85f ccd6 e63f
00000280: dc7e 0358 9963 e13f 7153 8354 ee06 8fbf
00000290: d70b f294 811a a3bf 661f 3a04 1d62 e5bf
000002a0: 4061 a65b 2867 e7bf 544b e835 8939 bc3f
000002b0: a2d7 dd34 85be e13f c203 1737 75ff e1bf
000002c0: 52a6 7ce0 aae3 ef3f d55c 6384 e1b0 e83f
000002d0: d0a0 231e b118 d5bf 1ff7 6150 ebd4 d5bf
000002e0: 6fde 6b52 9be6 f7bf aaca 69ad af1b f0bf
000002f0: fef7 4dd5 07e8 e33f a203 999b 12ee b83f
00000300: 06aa 0466 2b44 f2bf 70cd 30d4 8b4d f43f
00000310: b6be 9dae 38d8 e73f 5c20 c14a 2965 d23f
00000320: 88e6 df86 6566 e3bf 4833 ad6c d35e fe3f
00000330: 993d 7668 3faf e9bf c1a4 cd11 98f3 b53f
00000340: 69d2 8b55 7c02 e1bf eff4 0cb7 ff3f e8bf
00000350: 3d47 f99b 79fd e9bf aa2a 0486 40c7 dd3f
00000360: 76ae d147 3c65 c9bf 46d5 106b c76d edbf
00000370: 0d34 7e86 f0da ea3f 9bea 094f 7d96 dabf
00000380: 91ed 5803 c4aa 70bf 3307 4045 fab1 95bf
00000390: f3d7 efbf ee5a c03f 39f6 b653 a37b fa3f
000003a0: bb97 012d 6873 e13f 974e 17d1 46b9 e3bf
000003b0: de47 61cc 30f4 d4bf bdc6 8ec0 3336 9cbf
000003c0: 75dd 94e9 f4e1 d4bf f18b 8f9d ec01 e43f
000003d0: 2596 31ae 61f2 f73f 24be 7953 ffe8 f13f
000003e0: e11f 59c2 64e7 f0bf ddcf f67a 1c90 fb3f
000003f0: 5857 6de4 a876 d63f db41 30c8 d54d bebf
00000400: dd1e 1308 830d dbbf 82fd c3f2 8b93 f7bf
00000410: 690c c31e 9118 f9bf 3287 bf1a f0ef e6bf
00000420: f7c7 2424 9787 ddbf bb72 7976 4a3d db3f
00000430: 0ed1 8fb8 bfce d93f 615a bd03 5173 d33f
00000440: 9b6e d06d d07b e83f 4ed6 4fd4 0a35 dabf
00000450: d86b 094f e7a5 f43f 7e15 e130 4584 f03f
00000460: 14e8 8aba c8cd e8bf 71c8 6907 abf6 ee3f
00000470: 53ce 7104 1a60 e83f cfa5 3cb6 d7a9 fabf
00000480: e7c0 0c9a 1d9b a53f bd91 fb10 8460 debf
00000490: 84cf eddd 0d49 d23f 4d1f 8ed4 c17e cfbf
000004a0: 89a0 a2f4 b5e0 e13f 6335 251a 67d1 d6bf
000004b0: 4892 3dbc 30ec e93f 799e 3f8f 1c2c f0bf
000004c0: 2df8 eefc 0f3f fa3f 4144 8634 9761 f93f
000004d0: de60 d9c1 7ef6 56bf fa15 43d0 148e fdbf
000004e0: 85d1 9a07 44bf a8bf 6c84 cbed 417f cbbf
000004f0: 123e 6e6b 2623 febf d145 ad19 9198 ebbf
00000500: c882 557d 02c3 f7bf af96 6f72 bb61 d83f
00000510: ca7a bb4e d919 d33f 0eef 03e9 705c ebbf
00000520: 5a00 d68f 8c23 f53f 7893 b1dc 3841 e0bf
00000530: 942a db54 28b4 d53f 7a55 6ebf 1cc5 cbbf
00000540: f0fa 2d48 ef2a e33f 9094 a31e 8961 e43f
00000550: e157 bdc3 5f59 f53f 0735 e46a c0e9 fb3f
00000560: 8f2d 618a ba0b f3bf 26a9 3b25 fc83 e63f
00000570: 4e2d 419f 908c f63f 946d 9c22 6fbc d9bf
00000580: a241 3f8b 2aa5 cfbf 44b8 2926 9e7d ecbf
00000590: 511a c3fe e1aa dd3f 6175 53ce 56b1 fdbf
000005a0: 7ddc b43b 831b df3f 14d0 ecf1 04cf e7bf
000005b0: df80 72f1 2c56 f6bf 06aa a0b5 b536 04c0
000005c0: f6d4 6365 f0a5 d7bf 7b22 0b3f a9ef b1bf
000005d0: 026b 98a1 d2b6 e5bf 8489 8e0c 2d29 efbf
000005e0: a92d 922f bdc2 bc3f 056e f321 ed64 ed3f
000005f0: fca7 1339 b17f debf 43db f3bf 16f3 0c40
00000600: 4372 8faa 02ce f8bf a2e3 a424 1798 0040
00000610: c2c7 bf21 4f45 e13f ec12 f581 8b70 06c0
00000620: 6121 dab7 bae1 c6bf 3014 7543 1721 adbf
00000630: bc13 22c5 2f46 f93f cdfa e29b 9650 d2bf
-0.6238313954101745 -0.816803127289164 -0.035034255465009705 -0.98621456900617 1.3042916565879532 1.690581432866289 -0.8739567799333805 1.9229022814047856
0.551968512339658 -1.2367149381619527 -1.6339794470333477 -0.934890715870889 0.05808023169338873 -0.6609049353855759 0.19616916194205958 1.5729777993752436
0.7375665037953423 0.1506409302800039 -1.0969247809041613 -0.359423625722876 -0.24446089307070853 0.45980453862556364 1.684294566930414 0.6329472192567562
-0.96420597351641 -0.11276247434552632 -0.5783079551556045 0.7220435012049187 0.5408201142503968 0.5775057867154773 1.4323193494715796 0.013749639912359059
0.29055371937722707 -0.47630477286450223 -0.8472607086763423 -0.26098994350911 -1.084418509094211 0.4786112350941991 0.7638297205294625 1.1713002646915536
2.1939756712996097 1.85557785523264 0.18010185012642596 -0.4391841119215885 1.9311835007730305 -0.6906705334285148 0.3100544109101318 -1.638753509192282
0.5551073473113948 0.5858317966012776 -1.1592123571613013 -0.12785443221744927 -2.0284533600285126 -0.9041944345347299 -0.22504286684836683 0.19958052409051916
1.377800654586566 0.591132408139644 0.18569263311563133 -0.3922849561791837 -0.1218315636554059 0.5485112771769028 -0.4098305851333884 0.4585884280058755
-1.2352589714536628 -0.8372943286111927 -0.46732625630306396 -1.1264164151884897 0.11037095730758395 -1.3778208396595728 -0.2933316860734258 1.1611156797663853
0.9706746373940472 1.117340928733952 -1.2392309020538739 0.05593754036805849 -0.6768262706478321 -0.9445698947202331 0.2595198336630899 0.7137205001782583
0.5434080809609116 -0.015149938539630732 -0.037311601096938034 -0.6682267267760664 -0.7313424863851097 0.11025292936419123 0.5545068771887041 -0.5624338222479468
0.9965414413938538 0.7715919099527137 -0.32963207190779276 -0.3411205563532906 -1.4938004703125463 -1.006759335895064 0.6220740476708213 0.09738270090839632
-1.1416429505430883 1.2689321793266934 0.745144215628861 0.28742439556345345 -0.6062495836515192 1.8981508488825103 -0.802642540003876 0.08574819979334604
-0.5315534277747932 -0.757812364121177 -0.8121917768823789 0.4652863796951957 -0.19840196139135785 -0.9196507540824903 0.8392260195556688 -0.41543514937044684
-0.004069104839398278 -0.021186743237201 0.12777504321974184 1.6551850576501137 0.5453377608325732 -0.6163667758759911 -0.32740421256050734 -0.02755051481989911
-0.3262913018292786 0.6252348973615637 1.496675186580782 1.1193841229213684 -1.056492575809891 1.7226834109578626 0.350992415498117 -0.1183751691571681
-0.4226996973852531 -1.4735221369772664 -1.5684977723729168 -0.716789295427793 -0.46140078096061593 0.4256158978439932 0.40324395202266394 0.3039133583564873
0.7651140351112703 -0.4094874451978726 1.2905037963271209 1.032292548117169 -0.7751201289568166 0.9676108498372412 0.7617311560447412 -1.6664654844884017
0.042199063353452186 -0.47464086206880635 0.28570887253521726 -0.2460558212153451 0.558680513194319 -0.3565309291196483 0.8100818325588728 -1.0107694240231508
1.6403961067403643 1.5863258411157093 -0.0014015424598224284 -1.8471878180729377 -0.04833424179870164 -0.21482109175761666 -1.8835815617093243 -0.8623738767147932
-1.485109796129267 0.3809651010072725 0.29845268906312283 -0.8550343085366607 1.3211789721099394 -0.507961684267328 0.33912094389658276 -0.21695288989273448
0.5989910516508115 0.6369062040727318 1.334319843871974 1.7445682692953726 -1.1903634458020382 0.7036114432533267 1.4093176098711697 -0.4021261060713297
-0.24722797202276775 -0.8903342004175632 0.46355485800851165 -1.8557956752404936 0.4860542376586137 -0.7440209126566537 -1.3960389548811276 -2.5267137708335694
-0.36950311566700067 -0.07006318844936203 -0.6785672336730786 -0.9737763638734553 0.11234648143197624 0.9185701048949687 -0.47654371808914653 3.618695735577974
-1.5502955114854025 2.0742628920383632 0.5397105845606733 -2.8049535897174476 -0.17876371361877388 -0.05689308832601403 1.5796354008209468 -0.2861687204676116

arr_2 f8 [10]
00000000: 5f1d 3bb3 b8a1 f3bf 3aa5 30ee 58f4 f63f
00000010: 82d0 e0de b861 d9bf 874f cb55 4b80 ac3f
00000020: 355b 62f3 e1ba c8bf 4f27 1ed4 d428 f9bf
00000030: e396 8759 7e68 d2bf 73da e114 91e9 fb3f
00000040: 0fac b7f4 aa4a e3bf e048 f389 8e50 f0bf
-1.2269827843864147 1.4346551231668188 -0.3965894867462866 0.055666307661936414 -0.19320320495600077 -1.5724685941554133 -0.2876277803719473 1.7445231261932832
-0.6028647212637014 -1.0196671856579584
