notebooks/models/simTwoLayers_architecture/experiments/xavier/biases_md_400_100_50.pkl.npz (npz, 5470 bytes, 4 tensors)

arr_0 f8 [400]
0.2977694085331944 1.2093821683483255 0.4219707043681786 2.4166997474768976 -0.8291171508955639 -1.0010086038828216 -1.6411288851060841 0.8950384205047921
1.0116275158452617 0.46103698065959187 -1.260502973919285 0.2187327478611715 -0.9593470292263764 0.16871950291000212 -1.1485750388031182 -0.7722355556118349
1.6683211764663424 -0.1570368456873747 -0.7963218666179182 -0.3416736460399556 -1.6573525333228623 1.02602992270331 -0.2293815137586654 -1.5435286596965372
-0.10026867295053976 0.6544600919908942 -1.7029933892866171 -0.8848997035426964 0.9226417485915371 -0.07346267158117734 -1.8266040125267877 -0.17477354462232156
0.3449444426366286 0.2279453510066846 -0.9548257180737812 0.10049706587227364 0.8228867161196762 -0.7334213421294018 -1.5934454563941904 -1.3120848332003974
-0.18183782783741437 1.4750625570864908 -0.9740540642305596 -0.3260669688617139 -1.1337310387388366 0.8329257088201251 -0.17243617464224403 1.040055732542195
1.5573345051286689 -1.0741506550920663 0.8668091799614733 0.6999694490293698 1.5240084158401932 -1.1449056366810972 -1.5028705063380738 -2.2105814487260327
0.6993290227988587 0.6812855426212342 -0.0314748576937858 1.0945159170033512 -0.083543354699666 -0.12074565242640888 0.07186745916240754 0.5703278344899391
1.6766951316723888 -0.03126121694116553 -0.4668276342547144 -0.903360376391783 -0.024665665957109395 0.4298640942541397 1.561191178994461 0.17210720986310496
-0.7333057696220363 -0.217382439496558 -0.8197623289508003 1.9822357844408023 -1.0516399568529697 -0.5484078075489056 -1.5528696125791321 0.9080766962217146
0.5410324982026519 0.9227670945826206 -0.9362571681063385 -1.925357077866402 0.42722884524219673 0.5122421859453159 -0.5539112479298017 0.007565895812690078
1.0390452702582123 -0.966002183324939 0.46931029502315774 0.28950735340942985 -1.0720955500785139 0.3760851319451008 -1.4581659782576588 -0.4593117026810706
-0.925888164441332 -0.7390977839926522 -0.8841057348528152 -1.16710917839265 -0.7973108547077759 -0.6341579609897905 0.9683338583758171 0.515045092195003
1.4226011203538074 -0.5368405488147365 -0.9019084119700408 -0.33155500742546223 0.12032003009121242 0.4547048573773223 1.0707201507960007 1.010545270173788
-0.14121868287255054 1.0241936590489429 0.4468566192882951 -1.3339413641663713 -1.6818323757851457 -0.6625416904109599 0.42354678739313717 0.1285200352028052
-0.03552922154934396 -0.35092938032692084 -2.088402858013588 -0.3725739411756405 1.8971536934645457 1.0014592627000645 1.0819321340285775 0.4616388074924415
-0.2905088621371656 0.40976098373484643 0.2534097226286143 -1.5669334398840629 -0.012214071412323592 0.3834520223698474 0.7336180359504344 -0.388416988333997
0.06553496968238127 1.2068142558981747 -0.3500307345749397 0.3381972661417353 -1.6809710202521002 -2.178617953945665 -1.0758972474236084 1.3440298437893474
1.0423198685826678 0.0902614764275452 -0.7600735889604912 0.913607935194968 0.8348890550656315 1.801341957720441 0.048533787107925795 0.27678829104683716
1.9226726280885862 -0.8290310043953298 -0.8314527212949228 1.3794965488016622 -0.3500175299840863 2.4466577691919964 -1.5010999592954786 -0.8330320730268975
0.8269233215220824 0.29894738928417747 -0.40056417353799384 0.2355772221993142 0.5683313406731997 -1.759611196027506 -0.305383485693281 -0.5981357384839933
-0.1792946418453878 -0.8191377396428781 0.5935533401146901 1.2084786687050622 0.9301510526387987 0.4495057860375938 0.7589780773386371 0.08861708366757691
-0.26354468229651606 0.4956497973926008 -0.8783006234454048 1.439252147457218 -0.6431786799038995 1.3578114888686552 -0.5814974461278196 -0.7494516371263374
0.685781472893496 1.8481709879944157 -1.2208854459402074 -1.2689168074828887 0.6081786619910049 -1.1515529685334758 1.3061447256692207 -0.21785751519656357
-1.073456996753972 -1.0852216457168509 0.7741944878024278 0.2769055935121935 1.1625398620681724 -1.7925414490249167 -1.5847954271984135 -0.17316992432537684
0.06723114378785192 0.6291039658729438 -0.7215520359889447 -0.42395252530716193 1.1260136357310235 1.1316046933301256 -0.5615667682163438 -2.6715630647661484
0.43158058261625615 -0.9567237880225646 -1.0060240093040567 2.021520067172758 1.1905880870085188 0.16920142389900228 -0.9137223609821277 -0.5531379264153474
0.9435203245502792 0.05811732300998718 -1.1716054956053963 1.2049818094692757 0.4430035926542164 -0.2958091117846732 -0.24818669038954047 -0.3351934526097572
2.2709769112293516 1.0371069333298377 2.6967253498133235 -0.9037565734474353 -0.5954503112836068 -0.41629505786531895 0.11219348695005446 -1.2775287374903883
-0.2180549264282319 -1.2330813502618463 0.2704307768498104 0.24907723042182914 -1.4664258810943407 1.222329306296022 -2.023793582345435 0.07378076178686022
-0.38518368945930354 0.41988095473204234 -1.218580842898717 -1.6143467820387212 -0.2841206219806013 0.7288214241486909 0.3971783813369302 0.3853942191237857
0.4494676600955378 -0.5201186161452501 -0.9814611200315949 -0.4508201010178857 1.3277298421477972 0.734726046782212 -1.2584864409548113 0.7622177867446779
00000000: ad8e d96b a70e d33f f9be d61d a159 f33f
00000010: 0b69 c869 9101 db3f 6051 5dad 6655 0340
00000020: cac5 f4b0 2088 eabf b80f 0b99 2104 f0bf
00000030: 3ed3 a05c 1042 fabf 1669 179d 27a4 ec3f
00000040: 3da0 8455 a02f f03f 727d 8b40 a181 dd3f
00000050: b6e7 972a 052b f4bf 8560 5047 6fff cb3f
00000060: 6a58 818a f8b2 eebf 2711 99c5 9998 c53f
00000070: c894 4a38 9060 f2bf b728 0557 27b6 e8bf
00000080: df5a c28b 71b1 fa3f 5644 3f8a c819 c4bf
00000090: 14d6 c6fe 777b e9bf 5b63 e923 fbdd d5bf
000000a0: f607 0917 8484 fabf 66a6 2b5a 9e6a f03f
000000b0: ae41 f399 5f5c cdbf 8e5d 9d1b 4bb2 f8bf
000000c0: 90c9 222f 35ab b9bf d76a 744a 56f1 e43f
000000d0: bba4 04ff 753f fbbf 5c97 de2e 1951 ecbf
000000e0: 3bff 03fd 4786 ed3f 76fe ea1b 73ce b2bf
000000f0: 06b8 0821 c539 fdbf 61ef 2dc1 fa5e c6bf
00000100: d0eb 03db 9113 d63f 6daa ec31 502d cd3f
00000110: 1f36 10aa ee8d eebf 7cef 43fb 2cba b93f
00000120: c27f c185 1655 ea3f 6e4b d408 3078 e7bf
00000130: f6c3 b2a9 c07e f9bf edc5 82aa 4cfe f4bf
00000140: 3e62 de41 7646 c7bf 8bd9 2332 db99 f73f
00000150: 13ff cc6d 732b efbf 4748 e4fd 47de d4bf
00000160: 9e7e 5d28 c323 f2bf 6b29 ecd0 53a7 ea3f
00000170: 202e 5e79 6312 c6bf aa93 d47a 11a4 f03f
00000180: 115c 0796 d7ea f83f f48e e998 b82f f1bf
00000190: d1d3 f99a e6bc eb3f 12f8 7854 2666 e63f
000001a0: 62cc 0da6 5662 f83f 6ad2 a892 8851 f2bf
000001b0: 1285 adf1 c10b f8bf 8261 9b53 45af 01c0
000001c0: 5212 4242 e760 e63f 5177 9956 17cd e53f
000001d0: 24d3 e1f8 781d a0bf 89b1 471f 2383 f13f
000001e0: 90b2 3be8 1863 b5bf 673c 4ee4 2fe9 bebf
000001f0: afc8 bfe2 e765 b23f cf3f a428 2040 e23f
00000200: 3f53 3e46 bed3 fa3f aa7a ca60 7801 a0bf
00000210: 188e 7f03 81e0 ddbf d25b 2305 54e8 ecbf
00000220: c0b8 7ad2 f441 99bf cdf4 a2b0 e482 db3f
00000230: b85b 099a a3fa f83f ba48 e2ea 9b07 c63f
00000240: 0bd5 4fa9 3d77 e7bf a063 2e12 30d3 cbbf
00000250: 74c4 2a35 7e3b eabf 7c25 b2de 3cb7 ff3f
00000260: 0f9b 5d6b 84d3 f0bf 4465 c987 8e8c e1bf
00000270: 4aac 8fce 8dd8 f8bf 1206 11dc f60e ed3f
00000280: 6f50 bb62 2350 e13f 5bd5 a1db 4e87 ed3f
00000290: 8c31 b597 d1f5 edbf e3ee 2839 43ce febf
000002a0: f246 8ea7 b757 db3f aa88 88b9 4964 e03f
000002b0: 6bd7 d714 a4b9 e1bf 0883 49b1 6afd 7e3f
000002c0: f928 edee ed9f f03f c2d8 2769 7de9 eebf
000002d0: 9b3c 330c 2e09 de3f bb14 b6d9 4987 d23f
000002e0: ba63 dca9 4d27 f1bf cfd3 8d5f c711 d83f
000002f0: 971a 4cd9 a554 f7bf 86db 6be9 5c65 ddbf
00000300: 7fed 4037 e0a0 edbf a86c 5965 b0a6 e7bf
00000310: b2c3 2c1c 984a ecbf 00ed 80ac 7aac f2bf
00000320: 0ee7 b60d 9283 e9bf cc5f dea2 054b e4bf
00000330: 19ad aa49 97fc ee3f c52b 5ed8 3f7b e03f
00000340: d1c2 7264 f9c2 f63f 786e 0a3b cc2d e1bf
00000350: 7fc1 ac07 6fdc ecbf d7e9 6d7e 3238 d5bf
00000360: 72a5 4b22 4bcd be3f fd25 f166 e219 dd3f
00000370: 6664 ed73 ab21 f13f e961 6884 312b f03f
00000380: 57ca 422c 7413 c2bf 2c2c e6e3 1863 f03f
00000390: d609 7681 4c99 dc3f e104 5ee6 d257 f5bf
000003a0: 729e b510 c9e8 fabf f3a6 91a1 8a33 e5bf
000003b0: 1d7b 0bfc 631b db3f 24d5 0932 5873 c03f
000003c0: a8aa 36d9 e230 a2bf 3f6b ed80 a075 d6bf
000003d0: 9154 c08e 0cb5 00c0 af3c 2c5f 40d8 d7bf
000003e0: 40a7 ced4 bd5a fe3f 362b d925 fa05 f03f
000003f0: c34e c211 984f f13f 7fa5 2f7f 7d8b dd3f
00000400: 77f2 847b b297 d2bf 5959 1422 8639 da3f
00000410: c069 cb69 dd37 d03f 2bf9 74cc 2812 f9bf
00000420: 94b0 22ea b003 89bf af77 ea59 7a8a d83f
00000430: 3736 0588 cc79 e73f bdbd 86ed d2db d8bf
00000440: d1b9 8757 e6c6 b03f 26de 1677 1c4f f33f
00000450: be07 664f e766 d6bf 1e39 6b25 06a5 d53f
00000460: b91a 58de 41e5 fabf 8966 f53f cf6d 01c0
00000470: 31a7 3808 e036 f1bf 93c5 fe6f 2581 f53f
00000480: 8789 3899 57ad f03f b650 5849 601b b73f
00000490: df6f e4d8 8552 e8bf 44e9 60b5 463c ed3f
000004a0: 8772 6940 69b7 ea3f 8a26 d5f1 4bd2 fc3f
000004b0: b356 c2a8 6bd9 a83f b18f 7d3c e6b6 d13f
000004c0: a9e0 a85f 44c3 fe3f 67ef 6707 6c87 eabf
000004d0: 7e38 c4bc 429b eabf a3c4 20f9 6a12 f63f
000004e0: 02bc 13ed af66 d6bf b678 f94e c192 0340
000004f0: 5837 1364 8104 f8bf 6f6d c5e0 32a8 eabf
00000500: ce95 c7e5 2776 ea3f d1ce 0c3b f421 d33f
00000510: 7fe0 52ea d7a2 d9bf 80a8 83f8 6427 ce3f
00000520: 9976 2f35 c52f e23f 3dd1 c911 5e27 fcbf
00000530: cea1 f22c 678b d3bf 2171 6b8f ed23 e3bf
00000540: f877 8977 20f3 c6bf d0ef 5559 6036 eabf
00000550: 4f2c 0793 63fe e23f 9f07 80ba ed55 f33f
00000560: 418e ed23 ccc3 ed3f 353b 99ea b3c4 dc3f
00000570: eb9c 9164 8c49 e83f 7719 38f4 9baf b63f
00000580: 46e3 df83 eadd d0bf eb7e 84ed b9b8 df3f
00000590: 3f24 b8e8 091b ecbf a16c 8042 2d07 f73f
000005a0: 937e 7574 eb94 e4bf de2e 2d8a 98b9 f53f
000005b0: bf72 3a88 a09b e2bf 5b85 ecff 81fb e7bf
000005c0: 05f8 c8fc ebf1 e53f e4a1 edbd 1b92 fd3f
000005d0: ec9b 672d bf88 f3bf 61bd d7b5 7b4d f4bf
000005e0: 810b ec18 3376 e33f 6e68 37ce c26c f2bf
000005f0: a179 0903 f8e5 f43f 0f81 7a4b c1e2 cbbf
00000600: f087 6b3e e12c f1bf 263e 545f 115d f1bf
00000610: 545b bb84 33c6 e83f c3b7 0d3d d2b8 d13f
00000620: 0111 fe65 c399 f23f 6095 44f1 3fae fcbf
00000630: 39ae 2a73 525b f9bf c16b d09c 6e2a c6bf
00000640: 626c d76b 0f36 b13f 86a9 e6a3 9e21 e43f
00000650: 54e9 9d4b f416 e7bf 4d0e d0c5 0922 dbbf
00000660: 6f09 c5df 2604 f23f e2a5 dd85 0d1b f23f
00000670: b74e 00df 5af8 e1bf 23fa c274 5c5f 05c0
00000680: 833a fb29 049f db3f bf96 9b34 7b9d eebf
00000690: 423a afa1 ac18 f0bf beb7 85b6 122c 0040
000006a0: 3557 0b18 a60c f33f c09a 0a6b 64a8 c53f
000006b0: 4059 41ad 363d edbf 8f32 044f 4eb3 e1bf
000006c0: 8ec0 2189 5131 ee3f a163 51c3 8dc1 ad3f
000006d0: 5806 7767 e5be f2bf 8820 7f01 9b47 f33f
000006e0: a076 9dbd 2b5a dc3f ae55 3e57 89ee d2bf
000006f0: 5945 43db 94c4 cfbf f2b3 323d cf73 d5bf
00000700: fa9b 5df1 f52a 0240 3fb4 9170 fd97 f03f
00000710: 67f0 7dbd e492 0540 640e d0e7 92eb ecbf
00000720: 4365 abcf ed0d e3bf 7626 c106 94a4 dabf
00000730: de51 465d b6b8 bc3f cd8a 33f9 c170 f4bf
00000740: 31d7 de4c 39e9 cbbf 17ea 8a82 b3ba f3bf
00000750: 3fb7 99e3 bc4e d13f 8785 6b3f c3e1 cf3f
00000760: 4cee 14fc 7a76 f7bf 92bd b72c a98e f33f
00000770: 033a 90b0 ba30 00c0 f0d2 f2c6 4be3 b23f
00000780: 818a 4b7d d9a6 d8bf 6864 325e 54df da3f
00000790: 7f83 3ca0 4e7f f3bf 7825 944a 5dd4 f9bf
000007a0: b6a7 e142 082f d2bf fdf7 aa4e 8152 e73f
000007b0: 1e4d a1df 5e6b d93f 4210 cd83 4caa d83f
000007c0: 2314 2e01 14c4 dc3f dd4e cccb cfa4 e0bf
000007d0: 7199 9a26 2168 efbf 3e14 908d 3cda dcbf
000007e0: 232b 9fa5 613e f53f ef5d ce32 e082 e73f
000007f0: fec3 a5ad c222 f4bf bfee 4f8e 1664 e83f

arr_1 f8 [100]
-0.4845261380993726 -1.0474450338484926 -0.11361678366823313 -0.23727725584147272 -0.5391593424045997 -0.712043342683611 0.04846219085790609 0.9278531661817339
-1.5903235408520837 -0.7121275863642083 -0.17270328765686171 -0.8403283152243514 2.0231112393959108 -0.9027124420843725 -1.5051021244594402 -1.492619242577511
-1.8835597316741262 0.6759389020036998 -0.4673484366080188 1.727979644823606 -0.45034756698058903 0.09451285499405337 0.5686006350299612 -0.5830865062310936
0.36515150840603455 -1.4044842529265333 0.28465809328654557 0.6989480881483512 0.05436212815917512 0.32829392630784476 1.544874241313378 1.678103011929964
-0.3061772982356365 -0.23986614530594225 -0.22004932673984237 0.8116842869198649 -1.2989246706176258 -2.0937447848579525 -0.8531637609867038 0.4174438417198527
1.6125852372443341 1.09401818413926 0.21388940477420326 0.05146128857099019 0.30393065189873264 -0.8355232646032156 1.9982164723367195 -0.19329195305356411
0.25905741606625365 0.19592896535935259 0.8055575238940746 -0.42372629738429923 1.954054247163182 0.9616653222726325 -1.282098950553855 -0.2575107883589547
0.6688987846388678 0.147535370239036 -2.066343478136094 -0.4005038245255199 1.2416428907120727 -0.27968829901824954 -0.10852776423220374 -1.5261383786552791
0.6934591617566338 -0.28285082249527876 -2.1797538256821407 -0.9305295286114389 0.07322987149464937 -0.7274937486636086 0.2302247955616693 1.0988124157501855
0.49514248277256 -0.6621444628862013 1.3535820567441719 1.1513179090492212 0.15044280715699018 0.01938680364403336 0.7050186237022004 0.8695953086081859
1.3429668689392145 0.54146342385745 0.1463145284806873 -0.11561047412074336 0.2595807119679666 0.8086029962930559 0.42072380163321516 -0.7210957261131188
0.012985064828582086 -1.1571075518633716 -0.6360285410562747 -0.0889639470842008 -2.3159862906232 -0.8972999587180913 -0.29592092334764203 -0.7579797312318124
-0.3894452860722434 1.7592490021927798 -0.29093927919031765 -0.7895335455459584
00000000: 406a 4ceb 7902 dfbf 4cca 4bb9 55c2 f0bf
00000010: 90bb 2152 fd15 bdbf 733d f6e2 195f cebf
00000020: 6abd de17 cb40 e1bf e223 c51e 0fc9 e6bf
00000030: f788 a749 09d0 a83f ffb2 871f f9b0 ed3f
00000040: 444c e018 f771 f9bf 2670 c0ca bfc9 e6bf
00000050: 70ee 322e 241b c6bf e352 f934 f8e3 eabf
00000060: f300 0bf2 542f 0040 c53a 0e34 05e3 ecbf
00000070: 3d18 1bf7 e514 f8bf df02 04b7 c4e1 f7bf
00000080: 82a5 7987 0f23 febf b966 c69e 4aa1 e53f
00000090: e55c c46a 09e9 ddbf c2bc eafb cda5 fb3f
000000a0: 79f2 009a 7ed2 dcbf c844 4095 fe31 b83f
000000b0: 5108 7ef5 f931 e23f db0b 6008 a5a8 e2bf
000000c0: 5f18 ac6e a45e d73f 3110 e17a c478 f6bf
000000d0: 8a46 4d94 d637 d23f 565d 8661 c85d e63f
000000e0: 0753 2b55 5ad5 ab3f 9bed 3d87 c402 d53f
000000f0: f7fa 6d0d ceb7 f83f c5ee 388b 82d9 fa3f
00000100: d7c7 acaa 6898 d3bf 76d8 c010 efb3 cebf
00000110: 555e ed8a 932a ccbf cdee 5f53 51f9 e93f
00000120: 0c53 443c 65c8 f4bf 6d15 0944 fdbf 00c0
00000130: 843f 7216 1e4d ebbf 949d 0660 66b7 da3f
00000140: 0aa1 7f2d 26cd f93f 06b8 2136 1981 f13f
00000150: 78a9 3b5f ba60 cb3f 9f47 d84e 2259 aa3f
00000160: 910c 8a8c 9973 d33f 2c93 1049 9bbc eabf
00000170: 353c f0d5 b1f8 ff3f 96f6 786c cabd c8bf
00000180: de9c 728e 6594 d03f 595d 4749 3314 c93f
00000190: 4c7f 8592 20c7 e93f 8820 6ee7 541e dbbf
000001a0: f2cf e262 ce43 ff3f d776 9b5a f6c5 ee3f
000001b0: edd5 6d30 7a83 f4bf dc9b 9787 0e7b d0bf
000001c0: 6d75 8b6c 9e67 e53f 5607 1763 70e2 c23f
000001d0: e82d e716 df87 00c0 58a4 10cb daa1 d9bf
000001e0: 44b5 8eef c4dd f33f 32dd 56c0 69e6 d1bf
000001f0: 1dd7 15be 79c8 bbbf 10eb 9713 106b f8bf
00000200: f166 9b44 d130 e63f 1fe4 1056 3a1a d2bf
00000210: df15 15c6 2270 01c0 4f26 abdc e5c6 edbf
00000220: c3e8 285f 31bf b23f a2bf 51f8 a047 e7bf
00000230: 3434 d58f 0178 cd3f 725f e153 bc94 f13f
00000240: ae93 9718 6ab0 df3f eb5b aa95 4930 e5bf
00000250: bab2 a2a8 45a8 f53f eba5 ea53 cc6b f23f
00000260: c32f 54bc b541 c33f 6719 805e 22da 933f
00000270: 73e6 7b37 838f e63f 1b45 678a b9d3 eb3f
00000280: 8049 dbd3 ca7c f53f 7a55 2e1a ab53 e13f
00000290: 098a 6039 6fba c23f 2374 6ce5 a598 bdbf
000002a0: bac9 246b f89c d03f 52d7 1064 13e0 e93f
000002b0: f975 2a86 23ed da3f 761e 1e58 3713 e7bf
000002c0: 029c 33e6 e997 8a3f 2b53 5335 8383 f2bf
000002d0: ee18 e586 585a e4bf 74ed 3f5b 57c6 b6bf
000002e0: 1eb0 01d2 2387 02c0 ebae 2c67 aeb6 ecbf
000002f0: 57bc fe4f 5ef0 d2bf f67c 95b5 5e41 e8bf
00000300: debe d0eb abec d8bf 9804 1f48 e225 fc3f
00000310: 6da1 4fc8 bf9e d2bf cadf a6da db43 e9bf

arr_2 f8 [50]
-1.3475950885335024 1.7791850669945604 0.3941180251186453 0.32346312959390605 -0.1743232834971373 -1.8872208699800797 0.1677732751236191 -0.11435221954896299
-0.033388568488410986 1.3713431141887347 -1.2276824683730947 -0.12997937065407325 -0.10136671518202259 1.1567967997270348 2.1843898663971237 0.5696734640432356
1.1404429776888603 0.33887481708419226 0.3327873013193002 -2.797575809441452 0.8218205497976881 -0.9495834913417438 -0.21924137616117242 -0.36696334737368885
0.012845771329087818 0.9229814615632086 0.00583216370124278 -0.4911380538148352 -0.9267984397342781 -0.4048405588087168 1.1885358936183499 1.1854888661763858
0.852008840242833 0.8100211562564472 0.7949489008275382 -0.005572085675313818 -1.1614215575934723 1.251479252982257 -0.9361845769172646 -1.3558634803207121
-1.6161531581885846 -1.5981201757265262 -1.6161812338883685 1.5534274171867168 0.03234699376526066 -0.21977429337584156 -0.6405679149012125 -0.8131527797264365
-1.4679337492070021 -1.9385670986757686
00000000: a006 18de bf8f f5bf 0d5f c4c2 8a77 fc3f
00000010: 1b84 29cf 3a39 d93f 2754 c4b2 9eb3 d43f
00000020: e798 c6b0 3950 c6bf 2e4a ce82 0e32 febf
00000030: 953d e63c 9879 c53f 2e14 30e3 2f46 bdbf
00000040: 409b 6f73 4e18 a1bf 0991 307a 05f1 f53f
00000050: 588f 385f 96a4 f3bf 7f94 0efd 29a3 c0bf
00000060: 8217 9c46 2bf3 b9bf 081f 6f5c 3d82 f23f
00000070: 9b1d ef64 a179 0140 0fdf 2ed8 c33a e23f
00000080: 3206 c222 413f f23f 3522 3400 20b0 d53f
00000090: 0531 ec1b 634c d53f da0d 0d6d 6f61 06c0
000000a0: 59fa 119c 5a4c ea3f 184c 04eb fc62 eebf
000000b0: 1769 45f6 1910 ccbf 5c3e f3d5 537c d7bf
000000c0: 40ab 003e e24e 8a3f ec4d 076b 1089 ed3f
000000d0: b7c0 c985 77e3 773f ea2b bd4d ce6e dfbf
000000e0: c88f 9433 55a8 edbf 2161 0b60 e8e8 d9bf
000000f0: 3c68 9336 3e04 f33f c3fe 5f2c c3f7 f23f
00000100: 0ede 170b a843 eb3f c410 e67c b1eb e93f
00000110: 1d74 61ad 3870 e93f ca8b ef5b c1d2 76bf
00000120: c7bb 6bc5 2e95 f2bf 9fe6 f21b 0f06 f43f
00000130: cd22 9c5b 39f5 edbf 5717 9de7 9db1 f5bf
00000140: 10f4 fb69 c3db f9bf d72b 1d76 e691 f9bf
00000150: fd59 7fda e0db f9bf 5a6d 18b5 d6da f83f
00000160: f500 b100 c98f a03f f17e 4665 9021 ccbf
00000170: 88c3 ab48 887f e4bf fd72 72fa 5805 eabf
00000180: ae9e 5819 a87c f7bf df9f 1eef 5e04 ffbf

arr_3 f8 [10]
-1.4894445067823747 -1.1022160741108984 -0.2613291651863583 0.4302726144763208 -0.8822371881104313 -0.050063936944218165 0.5965228640672907 0.7908206153350273
0.18245037681317253 0.8636265608106684
00000000: f764 5dc3 c3d4 f7bf bde8 7652 ada2 f1bf
00000010: 58d9 7df6 9db9 d0bf de92 e225 9689 db3f
00000020: 49fa c77b 493b ecbf 1ed3 c4f7 faa1 a9bf
00000030: 4f87 0f1e b716 e33f afba fb08 674e e93f
00000040: 1319 c7b0 885a c73f da70 542b d4a2 eb3f
