notebooks/models/simTwoLayers_architecture/experiments/xavier/biases_md_400_400.pkl.npz (npz, 7228 bytes, 3 tensors)

arr_0 f8 [400]
00000000: edc6 fe66 1725 fc3f f951 147c 4145 fb3f
00000010: f640 7ff8 01dd fa3f 4b68 cb20 d028 ca3f
00000020: 7c43 3db6 782b eb3f 6a0a 308f 04cd e1bf
00000030: 68ae e91e 06ea b43f f927 f72d e80f f4bf
00000040: b375 d905 b218 e1bf ad19 bb9f 7881 f4bf
00000050: 7b6a 56c3 6844 f53f ce66 efa6 1b5d f4bf
00000060: baf5 848f eba1 b8bf 2ae2 1cb6 9821 efbf
00000070: e5cc 5210 98c3 a7bf 6d1d fbc5 613b d8bf
00000080: fe47 6008 a137 e73f 583b 8050 c92b f6bf
00000090: 2902 62ef 87f5 ca3f dd23 22f3 311b d63f
000000a0: a53e a013 ccd5 ea3f bc91 481b d86d d23f
000000b0: 250f c4bd 7f92 f6bf 21e0 60a1 e183 e3bf
000000c0: 6cf1 68db f8f8 e43f d93a 04d8 2697 e73f
000000d0: 3652 1a51 5f6d f6bf 1f13 6aef 64bd f93f
000000e0: c1eb d0c1 5af7 dabf 9e71 9c9b 5578 e03f
000000f0: c7ff 3845 4d04 f9bf 9105 4936 2040 ec3f
00000100: 2c3b bed3 6f2a 02c0 6d21 55d4 fe21 fa3f
00000110: 0ffd 0036 6414 e63f 336c 6680 fb01 e53f
00000120: 60c0 3258 424d e53f c472 587c ad79 babf
00000130: 628f 1c66 27e3 ed3f 21d0 c230 3863 eb3f
00000140: d524 0091 f203 dc3f dfa4 d8fb f066 d2bf
00000150: fa79 14f0 0e7c f23f 003c 83d7 6af1 b3bf
00000160: f492 6dcc f906 da3f b5e2 502d 9d8c efbf
00000170: 4fd9 2ef2 0804 ddbf bbae 2af7 4eba a2bf
00000180: 88a5 4af8 9e48 f1bf 06e5 8a13 12cb d0bf
00000190: b107 ecb1 8603 f13f c649 d291 1a20 b83f
000001a0: 41db 0a21 1618 ed3f 94c7 0827 cda7 eb3f
000001b0: cf0f cea8 3021 febf b629 2f02 cc19 e83f
000001c0: bcd5 3865 3719 d83f b0a8 55ed 1b3a ff3f
000001d0: deda 1875 bd1d d7bf e86b cbd2 601a e83f
000001e0: 7479 6663 1dda f4bf 8038 9d67 3b9d d1bf
000001f0: 0ba8 327b e7fc c03f fdff 16b4 fbf6 c93f
00000200: abc3 c0cc c889 d2bf 6be1 c756 dcee dc3f
00000210: 79bd 8380 fd9e e4bf 8e71 cc1f 7de7 e23f
00000220: 81b6 2b60 eb4a dd3f f9a0 7ece 1690 e23f
00000230: fa19 418d 0ceb dc3f 0ce0 8283 18b2 91bf
00000240: 52b3 b51b 1be3 8fbf 384d 9eb6 4975 bfbf
00000250: 312d ad23 afb9 f23f 2c2a a894 1d3d b73f
00000260: 5616 48a2 848c c7bf f423 3fbc 202d c73f
00000270: ad9c cb91 3ea0 ec3f 874b 745e 05cf e8bf
00000280: 9fde a701 dd8d dfbf 26ba 1803 f39d e03f
00000290: 1529 3d87 755e c73f c16d fb2e a3a9 bb3f
000002a0: f620 0773 cf80 c23f 7046 2af9 eae7 00c0
000002b0: 91ba 5509 b009 dcbf f8da b19d 6bef fd3f
000002c0: d078 bf0c 3cdd d4bf b2f5 1d9d c311 e8bf
000002d0: 1ab0 4bd6 9d22 ed3f 0e59 e530 229f fc3f
000002e0: 8e6e d570 7e18 d83f 2d9f e630 0929 de3f
000002f0: 94b4 58f8 4606 0140 6353 4541 1951 e3bf
00000300: a677 5fb5 6dbb e2bf a2fa c623 1ffb f2bf
00000310: ce8b ce15 1c24 e63f 60d0 015a 40ed ad3f
00000320: 0ead c9e0 e8cf e43f 6185 a5ca f52b d4bf
00000330: e5ae 7d0f 5f13 ec3f c0c1 012d d02a e9bf
00000340: 6072 976c c440 cabf 27ce 6412 6c8b f4bf
00000350: 71bc b14d 1f8d f13f 94b5 616d f444 f7bf
00000360: 5466 221d 923d d93f 6c2a c427 453b d7bf
00000370: 483e a539 6bd1 f0bf db67 5fc6 b900 0040
00000380: 259c 98aa 1e45 d0bf 3d5e 0215 d2ac e3bf
00000390: ca70 ef08 4c79 efbf cbbc 891c fd6c ebbf
000003a0: a492 d932 46fe f53f a49a 0ec7 4d8f 0040
000003b0: e21e 2931 101a 0240 d162 5ee7 7d7a e83f
000003c0: 4a80 ba77 2e06 e63f 3339 826d 2632 ecbf
000003d0: 9af7 af5a f3b6 ec3f 8ed9 5451 1e27 b23f
000003e0: 01ea 3857 6e43 f43f 9bd5 039b 3229 fb3f
000003f0: 852f 1160 d63c f9bf 0112 7529 fb54 a6bf
00000400: d0a4 8132 7ff4 eb3f 0b15 c4ca 40e8 f13f
00000410: 45ca 4a83 4416 f03f 3477 1a59 7dc5 e9bf
00000420: 88e2 441b 0b21 ef3f 38fd 03b9 6b11 ab3f
00000430: 0d5a 5bfd 1a16 d83f 33c2 77ad b218 f53f
00000440: 6b94 d040 c631 f73f 7253 3be1 1c04 91bf
00000450: 7dd9 bf89 aa2b d43f 0d14 8191 8176 b13f
00000460: d652 91ec d3d6 df3f 1683 6775 e521 e63f
00000470: 6362 8a50 7bb3 d6bf 313d e520 66b8 e63f
00000480: 975e c9ea 4b15 88bf 5912 97c7 ce6d dbbf
00000490: 658c 274b c9c0 fabf 6db3 938f ab25 f53f
000004a0: 6a42 5639 e2d6 eabf f908 cee0 63a3 e73f
000004b0: fc06 b4fa 40de f8bf 0a3f 0e28 cbdb e83f
000004c0: 79b1 839b a150 c63f 7d78 4b40 088b adbf
000004d0: 1f5b ab09 e36e cdbf 1208 cace a545 d1bf
000004e0: ede6 9dd2 2b60 e5bf b533 bbc9 3d96 efbf
000004f0: 6027 d366 654f edbf d996 4c59 68cd e53f
00000500: 1d82 daa6 d65c efbf 9ccb fb71 488b d73f
00000510: ffa9 7dc8 3d68 f03f b7e8 6d4c ed9c e03f
00000520: ff1f bae0 0f2c e6bf 7107 ff03 c9d1 f03f
00000530: e32c 6db6 32c4 d0bf a8fb 4d58 e889 cbbf
00000540: 397a d319 75b6 fbbf cb9f 9f13 0787 dcbf
00000550: aa3e 0c5c d6e6 bc3f bfce ab29 d2a9 d13f
00000560: 49be 9d83 cc3e f03f 3b89 ef26 94b1 f83f
00000570: 9fb0 e90d 27da c73f a516 3923 072d f03f
00000580: 40cb 9e3b e2c8 e43f 514b 2d67 a28e a3bf
00000590: ed39 d5b6 4999 e13f 20a5 06d5 fd66 cb3f
000005a0: 5ad3 e18a 2cee f23f 6535 0fe5 64d1 efbf
000005b0: b3fd ef94 707f bdbf d4ad ebec ec9c f13f
000005c0: 9c10 3e00 9ae6 c3bf b006 b154 91ab ca3f
000005d0: dff3 1f13 eaa9 f33f c81b 6567 7f85 b33f
000005e0: 17be 9ee9 e54e e03f 8ae4 56e9 74b2 ffbf
000005f0: eec7 1c5c 7f4f d23f bc8e 94fe 0aa9 df3f
00000600: d61d 99b0 0f7f 02c0 4185 978c da52 c0bf
00000610: 7a85 9bc6 346e c9bf 7287 5b34 12fd debf
00000620: e575 840d dac7 e9bf a240 2df4 79d6 f3bf
00000630: bac2 1f1a 7cb3 f2bf 3011 82ac 1f1e dc3f
00000640: 761e cd64 f4e4 bcbf 6972 e9b9 b6b8 0140
00000650: 6731 647f 58a3 d53f b7f7 16ec d3dc e0bf
00000660: 07b1 0cae 18e7 fdbf 95f2 671a dc8d a23f
00000670: f9fa 0034 0bd8 d13f d0a8 af1c 093f c83f
00000680: cc80 f120 7098 e6bf f412 82b3 7919 d63f
00000690: 9119 178b c414 0040 d20b a129 56ec fabf
000006a0: d3fa e4de 7096 f3bf 1647 ae7d c2bf 7dbf
000006b0: 27fc a21b 5e45 d8bf e464 5953 e4ac e1bf
000006c0: 3c86 1662 8e9c ea3f f514 9dd2 2f10 c93f
000006d0: fc3a 5b6a 43a6 e2bf a86f 01ca 62d2 f33f
000006e0: 3d68 4167 8b15 d13f 3507 5003 2752 edbf
000006f0: 8e02 30eb 02a5 c1bf a67f fe03 6b7b de3f
00000700: 5dbe 4a86 a5a0 a7bf 54dc 7bbd 79bc f03f
00000710: 6abb b15a 0432 e63f 5037 0c72 9e31 a43f
00000720: 3c6f 4356 3045 ab3f 7fbc 035d 683b d7bf
00000730: 024a 4b7f 4cf5 0140 0040 524a 1f3a d93f
00000740: 7265 043b 120a c8bf 4951 b99d 25cf f93f
00000750: c511 9ba7 e9db 9b3f 710c 415a 12ff e03f
00000760: abdb 73d5 98bb f23f 5cd7 3742 638f d63f
00000770: d3ea 62ef 0dbd fd3f 28f9 f00d 3ae3 babf
00000780: 5ffc 9ce6 a396 f33f 354b 661a 063b e13f
00000790: 0612 fa62 1920 d1bf 8ba8 e4ae b103 fcbf
000007a0: 49d6 9349 211f edbf a25f 11d0 addd 0040
000007b0: 881f ffb8 1112 d33f 142c 411b 4805 e13f
000007c0: 7a54 210c c60e f23f b3ab 6c68 b9f7 f1bf
000007d0: 8677 2604 02ad debf 435a deca 6b22 f1bf
000007e0: 3740 f179 0293 f8bf 972f 993d ed1f d9bf
000007f0: c4e8 62f1 63e2 e5bf f9d7 eb16 56c9 e7bf
1.7590555213213819 1.7044081541872613 1.6789569575230963 0.20437051392838365 0.849056583343653 -0.5562765881189311 0.08169592146594484 -1.253883533051065
-0.5342645754096139 -1.2816091765867939 1.3292014723180319 -1.272731449213484 -0.09622070554629306 -0.9728511387721188 -0.04641413878689508 -0.3786243852050209
0.72554065357167 -1.38569003530184 0.21061801136603833 0.34540985816471254 0.838598287898965 0.28795435585405094 -1.4107663548210863 -0.6098487998888268
0.6553921017980833 0.7372011393616403 -1.4017022293165957 1.6087388374446119 -0.4213473217711759 0.514689258506724 -1.5635502532968404 0.8828278599032037
-2.270721105807203 1.6332996649017233 0.6899891905558507 0.656491995603011 0.66568104959698 -0.10341915403155172 0.9339787477842771 0.8558617546427777
0.4377409378071893 -0.287533040946597 1.1552876833080732 -0.07790248643435405 0.40667576755212953 -0.9859147915913896 -0.45337127352413104 -0.036577670737953004
-1.0802297305002373 -0.26239444645359844 1.0633608770444705 0.09423986492246347 0.9091902394637615 0.8642335665119725 -1.8831030458395508 0.7531490366612192
0.3765390861984448 1.9516867895968453 -0.3611901896978632 0.7532199971277551 -1.3032506831001145 -0.27522168272560776 0.13271802440186806 0.20284982961129563
-0.2896596908131481 0.4520789000958049 -0.6444079885531401 0.5907579060617978 0.45769771949458266 0.580089000043727 0.45184625429502 -0.017280943896111053
-0.015569888861784929 -0.12288342197853275 1.1703330415355817 0.09077629927939118 -0.1839757721319752 0.18106469337206443 0.8945610854688276 -0.7752711148080927
-0.4930336490792601 0.5192809162597924 0.1825701628061515 0.10805721184754359 0.14455597988695218 -2.1132411447550155 -0.4380912867699545 1.8709522399855683
-0.3260030865184378 -0.7521684712116239 0.9104756532156018 1.788850966453143 0.3764949895755557 0.47125463271594265 2.1280650522299513 -0.6036497378178008
-0.5853794615211327 -1.186308994059495 0.6919079233087986 0.05845070933074292 0.6503795996081025 -0.3151831129999519 0.877364664321672 -0.7864762190857206
-0.20510154058765107 -1.2840386122233072 1.0969536814625622 -1.454334666511703 0.39438298077729894 -0.3629925621359351 -1.0511276485230088 2.0003543374886994
-0.25421873721865246 -0.6148462686860011 -0.9835567640798442 -0.8570542867072616 1.3745786653827645 2.0699725676852996 2.2627261963533423 0.7649526137275534
0.6882545793960244 -0.8811218394128332 0.8973328372228366 0.07090939984923336 1.2664626509782695 1.6975580268166144 -1.5773528816816633 -0.04361710434980993
0.873595808644632 1.1192024155182618 1.0054364327048841 -0.8053576221752565 0.9727836163138628 0.05286728509417532 0.3763492082775038 1.3185297752462588
1.4496519595934625 -0.016617251631788794 0.31516517116633463 0.0682145099863904 0.49748705007850214 0.6916377347043603 -0.3547046934632247 0.710009636162715
-0.01175936994802322 -0.4285771321413328 -1.6720669685098752 1.3216968162989489 -0.8387309188711474 0.7386950865477778 -1.5542611878485664 0.7768302709900763
0.17433567136266584 -0.05770135674332353 -0.22994649860512426 -0.26987595743423853 -0.6679896463021727 -0.9870900096953991 -0.9159419067666299 0.6813241714596315
-0.980082822690807 0.3678761590119224 1.025449546020013 0.519156121517219 -0.692878664894124 1.05121709404963 -0.2619749814518412 -0.21514610587834437
-1.7320452698546787 -0.44574143329964205 0.11289729830991271 0.2759900481171193 1.0153317586190431 1.5433541794705679 0.18634498767221871 1.0109931350611217
0.6495219387491957 -0.038197589011039874 0.5499619074778913 0.21408055211694776 1.183147947796178 -0.9943108056847164 -0.11522582660835816 1.1008118872367634
-0.15547490131223618 0.20836083064391664 1.2289829966605266 0.07625576280871293 0.5096311152355523 -1.9810685267277983 0.28610214228967734 0.4946925626884242
-2.3120416447379553 -0.12752849449956652 -0.1986757249606333 -0.4841962348274286 -0.8056459678661524 -1.2398623979716281 -1.1688195248099604 0.4393386063241165
-0.1128685709091942 2.2151922726027817 0.33809482994617784 -0.5269565211417476 -1.8689200209437915 0.0362385542138998 0.27881126478671053 0.18942369366351963
-0.7061081546235299 0.34530489473426873 2.010140501635029 -1.6826993585716434 -1.2242287356199781 -0.007262954454647438 -0.37923386286633093 -0.5523549678720454
0.8316108623295757 0.19580648216120947 -0.582795818068774 1.238863743862547 0.26693997462792024 -0.9162783684443868 -0.13784824832693626 0.4762828387265422
-0.04614751114183655 1.0460145379745613 0.6936055919048674 0.03944106237587042 0.0532622437765142 -0.36300095637756863 2.2447748131610306 0.3941724992555464
-0.18780734903047464 1.6130729828920087 0.027206087927668116 0.5311366808677019 1.1708000505438843 0.35250169245352025 1.8586558676749305 -0.10502970543254675
1.2242774017647873 0.5384550586335083 -0.2675841776438407 -1.750901873756933 -0.9100500523624727 2.108241677789878 0.29797785821983114 0.5318947346034997
1.1286068414531472 -1.122979553135093 -0.4793095627336402 -1.0709035801461517 -1.5358910334944207 -0.39257365241496117 -0.6838855471208025 -0.7433271835022871

arr_1 f8 [400]
00000000: 059c 8c3c bd1a f4bf f287 ccff 64b3 efbf
00000010: f23b aa03 409f e9bf 7c1a 6ea2 6516 cb3f
00000020: e018 cfb8 4098 ea3f d219 f62b 68dd e33f
00000030: 134c 2c11 492f e93f d1f0 61d9 8f81 e7bf
00000040: 890c d88f dcbc ecbf 5e2d e729 3d65 0240
00000050: 75bd 7ff1 1ab5 f33f 9290 85b9 9c3a f4bf
00000060: 37b5 fdf9 9ea5 cdbf 1112 1ae2 0de1 f4bf
00000070: a492 42e9 9351 f23f 19f3 7706 f61f ed3f
00000080: e63a e0a0 1496 dc3f b55e 82d4 d8b5 bdbf
00000090: c272 966d 181f e73f 1c4d 1b70 92e9 0340
000000a0: 3927 75a6 2e2f db3f f876 2c7e 23e2 8fbf
000000b0: ca34 1325 7d80 e33f 420f 3bc4 1581 d43f
000000c0: 7cdf f38f 43ed eabf 8449 9f44 bafb cc3f
000000d0: 2db3 102d 7a7b d8bf 3cfb 5ad9 b9d7 f6bf
000000e0: 9b53 ed73 971b ddbf eeeb 75d1 4404 eb3f
000000f0: 7613 9b8e 0366 d1bf 6633 9309 a539 b6bf
00000100: 4ee8 4153 356c e53f ccfc 27b1 c3bb d83f
00000110: 1c2d 2dd1 b89c e33f 9349 7661 dea2 cb3f
00000120: a2e6 8cf4 f918 de3f 99c9 de95 e5ec cebf
00000130: 93d1 efdc 2446 f03f 1007 c595 4092 f6bf
00000140: 553f dfbc 24e5 d2bf 6aa6 f685 2922 f13f
00000150: df69 3154 cd36 973f d720 b818 888d eebf
00000160: d390 92b3 476c babf baa2 61d7 65e7 f1bf
00000170: 5ea9 19c4 6ef1 cfbf 3ec7 6424 8a2a 00c0
00000180: 5c8c f4a7 4cd0 d9bf b94c 5390 3c81 e9bf
00000190: cf49 a977 68d9 09c0 2b18 1a1f 3f81 e6bf
000001a0: 9238 7966 96bd f23f 82f7 37d4 0221 e4bf
000001b0: 3c33 62dd ca85 ddbf 702f 6050 4866 d83f
000001c0: 5afa 2362 14eb e13f b2c3 8f56 5eed c4bf
000001d0: 929c 4585 413d ed3f f3f2 b5a4 e754 efbf
000001e0: 8511 b13f 6fe6 e13f 9759 2049 ca10 f53f
000001f0: a949 a6d6 8665 9abf d857 49ac c7f6 87bf
00000200: ee89 593f a602 e13f 5fab 19b9 3a4f ea3f
00000210: 035f 1ecd e3c6 b7bf c3d8 0020 4cfb 95bf
00000220: ed2f 2fa0 46bf d73f a60f baf9 16f1 f8bf
00000230: ca20 2762 795d f0bf 46fd f1af f6cb f1bf
00000240: 2c5c 5e65 7487 d83f cb73 0c08 f710 eebf
00000250: 8f0c a500 52f1 c63f 8a7c fe45 88b0 ecbf
00000260: fd71 a8e6 dff6 f5bf c6b0 e0a7 60b1 febf
00000270: 201e 85d7 fe46 d9bf 4cc9 aa0f bdb0 e43f
00000280: 6fd5 2487 8d58 e5bf b441 56d5 c9a0 f53f
00000290: 65dc b320 bcd1 f1bf 050b 6feb 3f64 f4bf
000002a0: 5e9f 2688 4ad4 e13f 5c6d aae1 86eb e33f
000002b0: ed24 6301 dc79 f03f 5cae a6c4 1c71 e23f
000002c0: c3ba fbe2 225b e8bf 91ba 59bc 0b75 e8bf
000002d0: 2a88 ca32 a5ce d53f e755 6548 2624 f03f
000002e0: 93fa 238e c95e ecbf 51f0 a62e d4a7 0640
000002f0: 6845 6cd6 be6b 05c0 58e2 0a41 a611 dbbf
00000300: 70d4 ec01 ad6f 98bf 6bcc f06f 398a edbf
00000310: 1711 0e3f f2ea dbbf 5149 08a4 0127 f3bf
00000320: b332 36d3 8c11 c33f 8701 b032 3af9 f13f
00000330: 4d08 03a5 d363 d8bf 0638 e544 6e5d 01c0
00000340: 5817 9b9b 57d0 d6bf ba05 01c1 cd63 d73f
00000350: 8972 ac39 1b28 d9bf 1cec 162c 895b f23f
00000360: 9129 b9a6 7de3 c43f 1ec1 0a8c c290 dd3f
00000370: 07c5 6005 ff3d c33f 14ef ad95 f990 debf
00000380: 7adc 4a14 c7aa ec3f dc4a 3b8f 84ab e43f
00000390: 6f69 ab52 b735 dd3f 8335 31d8 fa63 e5bf
000003a0: f615 8a32 8dcb 9dbf a625 d2c4 6c98 f63f
000003b0: 13bb 0be8 4376 f4bf 68cb 28e2 4d48 f3bf
000003c0: 911a 5b93 0eb8 d3bf 92f0 2f42 b45e e33f
000003d0: 4dd7 4cd0 812c da3f dd22 0d39 5cf9 f13f
000003e0: 01be 47e8 fa0a f13f b4a6 840b c850 e73f
000003f0: f98a bdd0 90da debf 3fc1 9596 5317 fa3f
00000400: 83df 376c 3711 efbf 2a8f a010 f105 f63f
00000410: bc4a ce4d 6f1b eebf adb8 aad4 ee38 e93f
00000420: 10e0 5078 58d8 c8bf 199a 3eea 0cdb ee3f
00000430: 32cc 9967 8e41 03c0 6bae a253 dda9 dd3f
00000440: 5181 ee4b b0e8 86bf 37b3 c540 91ef df3f
00000450: 91db a070 7f3c f43f bd0e 2dcc 0ea2 b53f
00000460: 7d6a 86bf bf4c 0040 9760 f258 262f e4bf
00000470: 7f55 f50d 22b4 e13f 4a74 7f75 1c5a f1bf
00000480: c607 2e31 0df2 e3bf 3a4a ccb3 f27e f13f
00000490: 5504 3e80 1a5a ecbf e17b 848d 6977 ddbf
000004a0: bb9d 4a86 117c 0340 5f76 52dc f5de d73f
000004b0: eba2 c784 a40d f7bf 9281 499d e139 f53f
000004c0: 6de1 7da7 63b7 f1bf 50f5 f1ce 6c60 fb3f
000004d0: a251 740f 75af d4bf 90ed 1d32 ee8e eb3f
000004e0: 8e6d 7212 5069 aa3f fd93 96db c0a7 a93f
000004f0: b41d ac22 dd93 0040 d119 acb7 3910 f53f
00000500: aded a2b6 af24 c13f eda5 4462 b349 d0bf
00000510: 0844 dcb7 39f1 dbbf 0274 eb11 6494 eb3f
00000520: 6530 a75f ca5e abbf 963c ea34 0441 d3bf
00000530: 7ef6 06dc a258 de3f 7c7c a86d 8f07 d8bf
00000540: 7863 c6f3 8d73 ed3f 6963 510e 1998 d83f
00000550: 3890 cbab e11c e93f aaf6 96b4 3d9d e03f
00000560: f763 fce1 ca5e f03f 06e9 f0c3 1f32 dcbf
00000570: ffa9 cbba 12d1 f0bf 96ef f6a6 d28a fc3f
00000580: 610b 8966 5f0d e1bf 12b5 e8b6 7940 00c0
00000590: 39a8 b868 c941 c93f f610 0097 5fdc e83f
000005a0: c60b ea9e 80b0 f1bf 424c 4580 6425 e5bf
000005b0: 059c 312a 7e98 f4bf 1b82 324f a693 e03f
000005c0: 5f0e 9ee7 8ce6 ec3f 0314 b53e 8fcb f13f
000005d0: 7eee 7bd0 41a0 e2bf dad8 8aae 50fa e03f
000005e0: c763 a0bc 9e66 05c0 d9c4 e820 026a f43f
000005f0: 7fe5 b4d9 b78e ea3f 83d2 9480 f788 06c0
00000600: fca6 118b 4da2 d0bf dc10 74ff bb7f f93f
00000610: 12c9 f6ed 5850 9e3f b042 27f6 e36e e8bf
00000620: 1d28 6b08 e5b0 e43f 8ba6 bfb5 b149 f23f
00000630: 307c dd9c 4b49 e13f 1bcc 8ee1 dda1 e4bf
00000640: 9208 73ea c316 e33f 65f0 19f7 8986 d53f
00000650: cedb b430 aaac f2bf de41 d178 c5c0 e13f
00000660: 677f 4c22 6e50 d4bf a3ad 9504 77a5 f5bf
00000670: 43f2 2390 5b77 b03f 46f1 ee23 eca8 d3bf
00000680: 3e0b 7aa7 2cae e63f e353 bb14 be91 ec3f
00000690: 5eff c13d 1ad0 bfbf 5090 b652 4126 cdbf
000006a0: 0dfd 4ff2 8333 ffbf 72e5 98e7 ac81 f03f
000006b0: a52b c894 c6a0 d93f 2612 8436 68af da3f
000006c0: 914c 6734 bd3a e7bf f935 407f 75fb e63f
000006d0: 3a57 b1f1 74b4 f53f ad95 19c0 9c9d dc3f
000006e0: 557f 3ab9 fef6 d7bf 0a95 fbda e155 ccbf
000006f0: e320 b3cf 7587 e73f 7c19 6e1c 7031 e9bf
00000700: 8c84 6cdb f8bb e03f 15a0 b8b9 0962 d43f
00000710: ab54 6fe3 9869 e0bf 9e4b d6ee 250b f83f
00000720: a8bc b3a2 53fc e6bf 49e7 c403 e4f0 e93f
00000730: 3b71 df98 11b2 e13f 9253 e1b3 81b4 f5bf
00000740: c945 1fd7 8ba9 db3f 4370 791d f8a4 b6bf
00000750: 296b 0495 fbb1 edbf 1cf6 b42c 6941 efbf
00000760: 10fb ecfe 5843 f7bf 0cec d177 2565 00c0
00000770: 973d 6b4b 7a35 e2bf 685c a9da b75c db3f
00000780: b574 f1c9 f7b9 bd3f 0b05 5d66 e252 d1bf
00000790: 9000 652d 50c8 d03f c874 863f 36db e13f
000007a0: dea8 2f31 9343 ec3f a448 bb14 b6fa df3f
000007b0: 1927 9884 26e0 d0bf a920 1361 1c06 e93f
000007c0: c3a0 5753 af70 f4bf 7868 16d1 4540 fabf
000007d0: b291 7538 c584 d53f e0db 6d0a 4c61 f03f
000007e0: f1f4 98ab 2db6 ac3f 9159 d357 5306 ddbf
000007f0: c10b 01a4 4359 d3bf 0712 6af1 956c febf
-1.2565281262593555 -0.9906487461159925 -0.800689704092177 0.2116210024944002 0.8310855493116627 0.620777212011314 0.7870221457873207 -0.7345656629327327
-0.8980543908550241 2.2994330667185485 1.2317151483110511 -1.2643096205656872 -0.2316168518695265 -1.3049448806860975 1.1449164497109132 0.9101514936770371
0.4466601916364382 -0.11605601490225122 0.7225458279022734 2.4890488394099872 0.42475477462413697 -0.015568043983474208 0.6094346737023895 0.32037872470049333
-0.8414628802847655 0.22643211699194066 -0.38253645325567015 -1.4276674738354833 -0.4548090583896795 0.8442710963275866 -0.27185143400520617 -0.08681708797230456
0.6694590211984719 0.38646023083124414 0.6128810964086457 0.21590785750283867 0.470274437731499 -0.24160451715358702 1.017124999079077 -1.4107061243416332
-0.29523580975091096 1.070840380949813 0.022669990791067348 -0.9547768099592088 -0.10321472295851501 -1.118993607839157 -0.24955544066626606 -2.020771297765264
-0.40333858873254314 -0.7970259493689787 -3.231156287053842 -0.7032771689853282 1.1712860110160688 -0.6290296692748003 -0.4612910425137675 0.3812428269309214
0.5599462429816626 -0.16349391199721947 0.9137275317160791 -0.9791143624312028 0.5593792194345474 1.3165991646288597 -0.02577791867367699 -0.011701164193407651
0.5315734135913865 0.822171556018798 -0.09287856824664335 -0.02146643586476028 0.3710495533275651 -1.558859801764791 -1.022820838365123 -1.1122958062040467
0.38326749705578567 -0.9395709187698399 0.17923951179009065 -0.8965493552276638 -1.3727721223905285 -1.9183050687525323 -0.3949582199752246 0.6465745264052116
-0.6670596732644024 1.3517549832796307 -1.1137048032230947 -1.2744750210410427 0.5571644458004632 0.6225008399518788 1.0297508291426383 0.5763076630441435
-0.7611250336902561 -0.764287822601391 0.3407376285559872 1.0088255718195513 -0.8865707184011903 2.8319476742454204 -2.6776100875655864 -0.42295223571594454
-0.02386350940942744 -0.9231230913486689 -0.43621498258313934 -1.1970230491175082 0.1489730864817794 1.1233465175610904 -0.38109294046819714 -2.1706204779102363
-0.35646619983559935 0.3654665360264421 -0.3930728972643825 1.1473476145026842 0.16319246903215093 0.4619604461286303 0.15032947313878983 -0.47759856812602774
0.8958468815170726 0.6459372327320483 0.4564035708732694 -0.6684545729164458 -0.029096800050430326 1.4122131050411126 -1.2788733543672535 -1.2051524004316096
-0.3081089438459595 0.6053105633468638 0.4089664968663456 1.123378966194813 1.0651806901404373 0.7286110138859017 -0.48209019074253906 1.6306949503160266
-0.9708516229284075 1.376450600576343 -0.9408489722867084 0.7881998208665856 -0.19410234331894616 0.9642395567978524 -2.4070098966417612 0.46349270980383633
-0.011186005894899738 0.4989970333615931 1.2647699737114844 0.08450405583158278 2.037475105561781 -0.6307555901758118 0.5532388947128054 -1.0844997968445278
-0.6232973061125839 1.0934931777343437 -0.8859989647609249 -0.4604133493430123 2.435580300476173 0.3729834224303427 -1.440830725356302 1.3266311782864233
-1.1072727720876074 1.7110412677569293 -0.3232090617105091 0.8611975649686645 0.051584722759083865 0.05010798149604765 2.0721991261268276 1.3164612936685567
0.13393207948489075 -0.254498334851262 -0.43659823374861206 0.861864123343935 -0.05345756929054416 -0.3008432881114883 0.4741599224761116 -0.3754614420776716
0.9203557740430446 0.38428331754908257 0.7847755771040346 0.5191944625036815 1.0231427028249962 -0.4405593312727806 -1.0510432526303928 1.7838922998480249
-0.5328824045794641 -2.031482151962913 0.19732015240998793 0.7769010495399289 -1.1055914123141846 -0.6608145242011079 -1.2872296951479723 0.5180236384222242
0.9031433604981877 1.1121971559052788 -0.5820626327471954 0.5305560502081577 -2.675107453961093 1.2758809361951562 0.8299216510851436 -2.8168783231179204
-0.2599061830611473 1.5936851481101746 0.029603375934763206 -0.7635364349062765 0.6465935863900573 1.1429917430454306 0.5401971877835248 -0.6447591214586085
0.5965289668167932 0.3363366044138785 -1.1671544935795626 0.5547816619601311 -0.3174090704869656 -1.352896707447919 0.06432125348141775 -0.30718520650022574
0.7087615271596872 0.8927908329884499 -0.12426914222487315 -0.22772995508887783 -1.950077005894687 1.0316590353744144 0.40043797044261914 0.4169559986478667
-0.7259202979570479 0.718195675408139 1.3565568390963123 0.44711989173660066 -0.37445037926408037 -0.22137091820255989 0.7352856690058868 -0.7872849040293626
0.5229458127615927 0.3184837640460512 -0.5128902856910335 1.5027217225622063 -0.7183015992904034 0.810655600892667 0.5529869066045089 -1.3565690065927112
0.4322232819368677 -0.08845473022069066 -0.9279764090054857 -0.9767347214871651 -1.4539422948871028 -2.049387870878041 -0.5690280411744649 0.42753406861942844
0.11611889534238425 -0.27068386074468326 0.26222614701328784 0.5580092659689848 0.8832488976161377 0.4996772005516823 -0.2636810583941141 0.7819959541311806
-1.2775109534796207 -1.640691582439585 0.33622866166686116 1.023754158724607 0.05607741088577168 -0.45351108147351576 -0.30232325569175705 -1.9015101843116342

arr_2 f8 [10]
00000000: e6c4 0c44 ae01 dc3f 24da a266 d83b f43f
00000010: 7eca 3187 89b0 dd3f e0ec 5856 0efa ec3f
00000020: 8d48 ee73 d5fb d1bf 6b8c 77be aa45 f33f
00000030: 7622 a792 07a0 0140 a99f 74f7 6dc8 d23f
00000040: a620 7e76 cb46 f0bf 233d b806 2c01 9bbf
0.4376025833654026 1.2646106728767643 0.46389997675502304 0.9055244146797143 -0.2809957153450647 1.2045085373036055 2.2031394440894543 0.29348324933607245
-1.0172838810558829 -0.026371658239495176
