notebooks/models/simTwoLayers_architecture/experiments/xavier/weights_md_100.pkl.npz (npz, 635706 bytes, 2 tensors)

arr_0 f8 [784, 100]
0	0x3fa1b7c6e9c6a900	0.03460523227416168
1	0xbfa906f2d122f050	-0.048881137875895875
2	0x3fb2de28d365d8d5	0.07370238457756113
3	0xbf9ca1cb90c86041	-0.027960949622951373
4	0x3fc230ff73414c48	0.1421202957886598
5	0x3f920c293dacebf4	0.017624515904781604
6	0x3fae815cd233791f	0.05958070817881577
7	0xbfb88ec692b03f50	-0.0959285839201105
8	0x3fb149ab08ca4113	0.06753033604241336
9	0xbfab37c8c0aae0a5	-0.05315997459314418
10	0x3f5ae77f07c73e64	0.0016421070605367122
11	0xbfb5ae18f5cb2a4c	-0.084687767036635
12	0x3fb5ca4b80c1b607	0.08511802571748471
13	0x3fa4e2902345134e	0.04079103880443445
14	0xbfb1289c8bd28d1b	-0.06702593244203962
15	0x3fb6e7e4b23859ff	0.0894759116275523
16	0xbfb134fa9ca8eadf	-0.0672146446676538
17	0x3fa3c9a834b07560	0.03864789622478315
18	0x3fb2c9635b88b3e0	0.07338543877331416
19	0x3fc2ae61c2138431	0.14594671226862624
20	0xbfa9a245133bd31e	-0.05006614551340348
21	0x3f7a831dc83e1295	0.006472698532779338
22	0x3f745017857935eb	0.004959194069284116
23	0xbfaaf587e2261619	-0.052654501300860974
24	0xbfb199c2d3edab74	-0.0687524573710741
25	0x3faeccdecb2a93f2	0.06015678625161759
26	0xbfb6f8d9e10e5371	-0.08973466629534045
27	0x3fbc95a9b1fc3517	0.11165867419568475
28	0x3f904c6cf78a010d	0.01591654072626718
29	0x3f938e2e465cc21b	0.01909706406076071
30	0xbf862359df1ce894	-0.010809614297262272
31	0xbfb024de0b7a2e4b	-0.06306255130965004
32	0xbfae90c8f9141837	-0.059698372273530635
33	0x3f7e46be702ead2c	0.0073916853897729
34	0x3f910059b25dec59	0.016602899085665566
35	0xbf8a3657fb3cd228	-0.01279896483865979
36	0x3fb82dfbdef296f4	0.09445165818268803
37	0x3f81ef05815a8766	0.008756678590831245
38	0xbfa67d0ce24bbe7b	-0.04392280828858205
39	0x3fb65c764be03bcb	0.08734835960807101
40	0xbfa7592c00f0cbf9	-0.045602202524968
41	0xbfa9a993ade4325e	-0.05012189386079478
42	0x3fb133723f3ab739	0.06719125789342408
43	0x3f94e6e01ed16905	0.020411970025045374
44	0xbfb637e52816f839	-0.08679039219620756
45	0xbfa55abeb05187f6	-0.041707953475238854
46	0xbf713a105b1374b7	-0.0042057646653265645
47	0x3fac809c7adfee6e	0.05566872596679394
48	0x3fc0d8fec4f2039b	0.13162216774437926
49	0xbf91abc01d84727c	-0.017256738473508268
50	0xbfbb7c01ef17b73e	-0.107360955116488
51	0x3fb9543dc66d9746	0.0989416703647211
52	0x3fb78e65c84a89a1	0.09201656474991761
53	0x3fa3b57a9ca6b5dd	0.03849394953008887
54	0x3f96af5bea7a18c5	0.022153316675507257
55	0x3f83efa25944041a	0.009734409665272326
56	0x3fa4ad00d7b1cdf0	0.04038241036405654
57	0xbfafc689a01293aa	-0.06206159667025386
58	0x3fb60c71df92a9ca	0.08612739284823259
59	0x3fac9346f6e3c410	0.055811135900405984
60	0x3f8999e4a2f93faa	0.01250055906635324
61	0x3fb96435094b5d18	0.09918529011644173
62	0xbf88d7315877549a	-0.012129197609207321
63	0x3fbf4ce3173556d3	0.1222669536267305
64	0x3fbc657f5777cb0b	0.1109237278504162
65	0xbf9ed2bc7df37f11	-0.03010077017540797
66	0x3fc1326571e2db68	0.13435047207687068
67	0x3fb2184079e959eb	0.07068255401950523
68	0xbf8b536912843845	-0.013342686536386714
69	0xbf53309d5e18818e	-0.0011712586205093497
70	0xbf82470c6f69c677	-0.008924576902447285
71	0xbfbe1814945aaa59	-0.11755493757179049
72	0xbfa0b4db24a2f074	-0.03262982198927569
73	0x3fc0239d0a45b1a1	0.12608683587621974
74	0x3fa6b7310c600270	0.044366390953659685
75	0x3fbd8df5afe6045f	0.11544738335034442
76	0xbfb317129fb5ccd2	-0.07457081221746201
77	0x3fb71bb92b97ace9	0.09026677431363662
78	0xbfbdd423704487c3	-0.11651822558317719
79	0x3fa3641868b10e25	0.03787304189657118
80	0xbfa71986fccfc336	-0.04511663280562177
81	0x3fb24cb202c9c2d5	0.07148277824468192
82	0xbf8a1219397b59ac	-0.012729832712847187
83	0xbfb0aa46ce7abddd	-0.06509821454050475
84	0xbf8236624ba778af	-0.008892791684896954
85	0xbfa6540717689a77	-0.043609830482002225
86	0x3f74a55ecf5a77f9	0.005040521956884086
87	0x3f959c026ce51d14	0.021102941414281665
88	0xbf89fc35ca3aca27	-0.01268808387189775
89	0x3fbeca34b89d8b78	0.12027291781627791
90	0x3fb57dc51235d480	0.08395034498774301
91	0x3fba4c7ff1c6d8ac	0.10272979405167132
92	0xbf93f630b1b85c81	-0.019493828627755953
93	0x3f4079bbf2e1a0e4	0.0005027930944949935
94	0x3f827be03326b205	0.009025336800584158
95	0x3fbdb3ba437a9c58	0.11602367541728265
96	0x3f9223aec7d9df6d	0.017714243839207656
97	0x3fad7a0a57c80248	0.0575717193751229
98	0x3f8ed8013a3b2306	0.01506043395001334
99	0x3f90965079c7fabe	0.016198403771336294
100	0xbfb84b7e403d8e44	-0.094901934322075
101	0x3fb9838856cfe78a	0.0996632778114003
102	0xbf9f0d6c899ebe7b	-0.030324645900405827
103	0x3fa7afdaabb7ea0e	0.04626353593990383
104	0xbfa510947323cc6a	-0.04114211946025466
105	0xbfc2b6dc62134f2f	-0.14620547093238076
106	0x3faf3613c3c659fd	0.06095945134000045
107	0x3fa7996f25482e25	0.04609248476125697
108	0xbfc59fc7641f1059	-0.16893856419312916
109	0x3fb9333817b89725	0.09843779162528372
110	0x3f90454f90ccffc9	0.015889399731577023
111	0x3f9bdf35a35fd733	0.027218664261418012
112	0x3fc1ca4df54d51ea	0.13898634412420502
113	0xbfadb55c44194f89	-0.05802429515156777
114	0xbf9d966f3f629198	-0.028894174808230838
115	0x3fb6b6176f3428a5	0.0887159964078444
116	0x3f9ceabd61845aee	0.028239211155859083
117	0xbf89c31ad55810b9	-0.012579164157621713
118	0x3f500f4ec36f67d3	0.000980212132836379
119	0xbfa05bae5defd416	-0.031949471442125496
120	0x3fa8ebd76bbf39ce	0.048674327757555966
121	0x3fa0f90c0f12d21a	0.0331500786209384
122	0x3f9122205ad20286	0.01673174433062965
123	0xbfa3bc8ce844c66f	-0.03854790053663925
124	0x3fc2e727b5561c5b	0.14767929415049505
125	0xbfb0ab0d27c4e10e	-0.0651100370495252
126	0x3fbc1fd673df4272	0.10986080483349683
127	0xbfb060f90411f7d7	-0.06397968625421356
128	0x3f902e5d5e6c9d99	0.015801867378426235
129	0xbfa54f687bd7d7d8	-0.04162146102673575
130	0x3fa1fa01ed6ff37b	0.035110531076475625
131	0xbfba854e78a58936	-0.10359659619783632
132	0x3fb4d77a1d51a624	0.08141291824144808
133	0x3fb67ebc08f95894	0.0878713151845168
134	0xbfb770e4c2e2fa54	-0.0915663696095888
135	0x3fa63b4d7af8ad60	0.043421193371922184
136	0x3fa32d31b9f48c2d	0.03745417971574514
137	0x3fb61a37861b33b2	0.08633753799513391
138	0xbfb3e6381defd658	-0.07773161631470182
139	0x3fa92a0da1153692	0.049148965753016985
140	0xbf96d2e39f762bec	-0.022288853271259443
141	0x3fb0581157b7f560	0.06384380714003646
142	0x3f9be4f81f4be4d9	0.027240635786232346
143	0x3f9192020fc64770	0.01715853902130199
144	0x3fa1c55bfd508562	0.034708857223686676
145	0x3faac2e093dfef95	0.052268045474163895
146	0xbf9be117af9c2197	-0.02722584733331387
147	0x3f4eaa9353f7637b	0.0009358615279167892
148	0x3f9c3afcdf27886f	0.027568770523324234
149	0xbfa6506ee3f9bd85	-0.043582406357809446
150	0xbf7bd03803387477	-0.006790369795934051
151	0x3fbb1e0197632de5	0.10592660852414999
152	0xbf6c54657a9eb498	-0.0034582120906266438
153	0xbfaffe571ae3090a	-0.0624873371430273
154	0x3fbdfc8e22bb7cb5	0.11713493679006855
155	0x3fc45ba1f682fde1	0.1590464070959419
156	0x3f9e078bc5917d18	0.02932566064225481
157	0x3f8f1d6821d899c4	0.01519280770578469
158	0x3faaea525b8e408d	0.052568982769231366
159	0x3fa52332a78d858a	0.04128416343042847
160	0x3fb7ad030e29848e	0.09248370261913605
161	0x3f25d12642dd9789	0.00016645042472445925
162	0x3fa10098d4093504	0.03320767963723806
163	0x3fb08c201de735a1	0.06463814477975528
164	0xbfb2043c13f7f2d8	-0.0703771160842267
165	0xbf8c85b3d3c5aec5	-0.013926892185473059
166	0x3fa46c9bdaad6c8c	0.03989111942674936
167	0xbf84a9b4bc58a5a1	-0.01008931350505088
168	0x3f930f14bd9194e4	0.01861221701655759
169	0xbf855159afeb5ee0	-0.010409069710859808
170	0xbf72283ab4ab0f21	-0.004432896918561886
171	0x3f9e8d7157c70b7e	0.029836436254992098
172	0xbfb5095eece87a0d	-0.08217423709763967
173	0x3fabbcdf6aac6133	0.054175359508180775
174	0x3fa02cbf38c3abae	0.03159139221118977
175	0xbfb356a42d51b1b5	-0.07554079157279754
176	0xbfa84bf48e8c5692	-0.047454492951300456
177	0x3f977523f8224edb	0.02290779306402056
178	0x3fa88154aee5e139	0.04786171565041503
179	0x3fac08452a2cd9cc	0.054750596426334036
180	0xbfac4d5c5da76f89	-0.05527771609533178
181	0xbfb8e85cf06a55c3	-0.09729557866588494
182	0x3f9ef2613934970d	0.030221480480711316
183	0xbf8f2d49e5cb62e5	-0.015223100018759659
184	0x3f9e9a9457369570	0.029886548827240345
185	0x3f991e3faf5323cf	0.024529452396368442
186	0x3fb0a84d5016ac8a	0.06506808476722106
187	0x3fbbf9c99cc33bbb	0.10928020550930644
188	0xbf9427e690adff5c	-0.019683458881899582
189	0xbfb6d9ebcb8f9083	-0.08926271171327653
190	0xbf944a5617a9ffbc	-0.01981482047494841
191	0x3fa85bdd38942d25	0.047575867802232254
192	0xbface53a6ce42230	-0.05643637255895262
193	0xbfbef4c77898f3fc	-0.12092253393434754
194	0xbfb41d41b1e47c7d	-0.07857142060355389
195	0x3fbac4582258e2d2	0.10455847586207348
196	0x3fb2a0381c4ddf0b	0.07275725070018894
197	0xbfbead3d160ef710	-0.11983091152702863
198	0x3fb1e41c6fb8d4fd	0.06988694884860887
199	0x3f9d9f5fe8c4288a	0.02892827852432637
200	0xbfa5d6a2e2788793	-0.04265316977058755
201	0x3fb6b7094fbc581c	0.08873041340515936
202	0x3fa9b0c95d763ebd	0.05017689958469649
203	0xbfa24e5223eb6ee5	-0.03575379074547217
204	0xbf8c356e01c456ea	-0.013773784092829772
205	0xbf6dd8557cbeb419	-0.0036431951211484234
206	0x3f96de463c5d3c71	0.02233228438791141
207	0xbfa41f9570c7b5ce	-0.039303464905838234
208	0xbfa520498feb3244	-0.04126195794888024
209	0xbfac12eff40b0c27	-0.05483198026697549
210	0xbfab220a2a95720e	-0.05299407739468985
211	0xbfbaf31c7bf2b2a2	-0.10527208353114273
212	0x3f63fbfe4cec837e	0.0024394957357717897
213	0x3fafd0c08826dad5	0.06213952695855133
214	0x3fb7b007fde1c16c	0.09252977321898975
215	0x3f8faafa1feb87b7	0.015462831591722776
216	0xbf6e3430fef9e7c9	-0.0036869961693896986
217	0xbfc0eff4af87bc07	-0.13232286997615025
218	0xbf83a496ffca0708	-0.009591273957315419
219	0xbfa551717a28f1b9	-0.0416369878407496
220	0x3fbfc88a01a94d46	0.12415373364028878
221	0xbfb21f0345bbbcb1	-0.07078571751093211
222	0x3fb7730c458c7339	0.09159924219097783
223	0x3f88d07a1fe149cf	0.012116388414288885
224	0x3fbf45a93400d0b1	0.12215669173821443
225	0xbf8cbd6a865fa0c6	-0.014033157563929765
226	0x3f1218d3d4bb424b	6.903450883589364e-05
227	0xbf8f069655084ff0	-0.015149282903656996
228	0xbfa15090b85f80ef	-0.033817789560773075
229	0xbfb8d44ab46803ba	-0.09698931602907992
230	0x3fb2fe3621982dcd	0.07419145889451002
231	0xbf9c76e573622608	-0.027797303359454545
232	0x3fa24606e23d014d	0.03569051276872646
233	0xbfa6768a218c64eb	-0.04387313518072652
234	0x3fb02c441b78ca17	0.06317544623087944
235	0x3fc2dfdbc51d2c51	0.1474566185446258
236	0x3fa543b1a2fb1207	0.041532088418112116
237	0xbfb039cb116efa77	-0.0633818547785071
238	0x3fbd974ffb7bea23	0.11559009446856598
239	0xbfaa0eb624119498	-0.05089348974505831
240	0xbfa955be9008c718	-0.049482302744207896
241	0x3f82cfb142982a43	0.00918520435790982
242	0xbfa856a17531b739	-0.04753593974679266
243	0xbf33883f6f6c6c5e	-0.0002980379935466122
244	0x3f96d2f7377ec51e	0.02228914524284164
245	0x3fba05acbdf8b461	0.10164909017540104
246	0x3fbfb3a26b4b48de	0.12383475417599096
247	0x3fb140ab946d01e5	0.0673930394523335
248	0x3fbb2d89ff3c5d7f	0.10616362077086271
249	0x3fb3ca35ffec2561	0.07730424402338577
250	0x3fba202c761f6fdf	0.10205343135697785
251	0x3f97c37c9b7f7594	0.02320666026195324
252	0x3f6ec4a87aff50e8	0.0037558832773162305
253	0x3fa401e75614f8cf	0.039077023752257405
254	0xbfb03bb728dd5980	-0.06341118571922344
255	0x3f97d385ee05daae	0.02326783433224005

arr_1 f8 [100, 10]
0	0xbf82cc226d939e94	-0.009178418129933953
1	0x3fafbd85860dbe0b	0.06199280988118624
2	0x3f8b9ad16ee778e1	0.013478885838534573
3	0x3f80e593d890e427	0.008250384375161414
4	0x3faf88a26e543856	0.06158931347646106
5	0xbf2b802d3ded7cc3	-0.0002098136164603079
6	0x3fc66c1a9c21da6b	0.17517407058376774
7	0xbf2f2803a801c837	-0.00023770374901094387
8	0xbfbdd19db8e5e9ad	-0.11647973789323514
9	0x3f96213a7d1bde46	0.02161113155940899
10	0x3fdc858775fa717a	0.44564997216527724
11	0xbfd10ca0b2488af8	-0.26639573488698387
12	0x3fdb2feb8714f3da	0.42479980651461136
13	0x3fce69ab08958e78	0.2375997344889702
14	0xbfe69ed217a5eaa9	-0.7068872892262635
15	0x3fd78450e1d60bbe	0.36745092443760174
16	0x3fca1bc77f82430e	0.20397275663392417
17	0xbfe4c3373487f868	-0.6488300348280633
18	0xbf9f448db6d6e607	-0.03053494862044739
19	0xbfd1f49c34cb18a8	-0.2805548205909738
20	0x3f7f4b51efa91d32	0.007640190184765404
21	0xbfd19329f2458b52	-0.2746071687635566
22	0x3fa6fd2f6b80a0a5	0.04490040004049093
23	0x3f99462873fc8bcc	0.02468169410634484
24	0x3fa847aaf1fe9c8e	0.04742178157840114
25	0x3fd0ac1ebc273dce	0.26050537466377655
26	0xbf911f77b4690026	-0.016721601854669775
27	0xbfdd157351f67948	-0.4544342327516415
28	0x3fe39a7d918312b4	0.612608703807004
29	0xbfbd0d92be457468	-0.1134883608369407
30	0xbfa52dae99474e39	-0.04136415120197196
31	0xbf99fa454153ec2a	-0.025368768799108356
32	0xbf90184557ac4269	-0.01571758601773113
33	0x3f6102cf2a626a8a	0.0020765348627496726
34	0xbfbc8e89963a2056	-0.11154994886067135
35	0x3fb97c53988d7d9c	0.0995533225482092
36	0x3f6aceb531eb9845	0.0032723940815797847
37	0x3fa727e57202a592	0.04522625939109583
38	0xbf9c9aec5ec21856	-0.02793473556860023
39	0x3f748282b762eaf1	0.005007277117494922
40	0xbfe2f2ed29548a95	-0.5921541030150644
41	0xbfa52161eefd1944	-0.04127031366674541
42	0xbfee4d3a0c2edb81	-0.9469270933103503
43	0x3fde420cf1465df1	0.4727814060401832
44	0x3fe595dce796ec82	0.6745438121064498
45	0x3fe614821ed8fca1	0.6900034525387079
46	0xbfe31880fc8eff97	-0.5967411930832779
47	0xbfc653c7bfd9c57d	-0.17443177097042542
48	0xbfd25a0260378cd5	-0.28674373050871554
49	0x3fe2216e163382b6	0.5665808137528845
50	0xbf88427bb603ba15	-0.011845556728499887
51	0xbf6772d7e9f7b45c	-0.002862378794580551
52	0xbfd1bde67f0a7be0	-0.2772155991205505
53	0x3fb364ccb0d8a41a	0.07575682942901132
54	0x3fd8f3a82df9e858	0.38987164010871345
55	0x3fa96b105300ca9e	0.049644956714833585
56	0x3fd49903b992f29a	0.3218392669912561
57	0x3fc8274abf33f5e7	0.18869909607012333
58	0xbfc074156c5598a7	-0.12854259290469836
59	0xbfc972c4397917d1	-0.19881489568996227
60	0xbfb766b8a4ff70cc	-0.09141115215556112
61	0x3fd23241863de893	0.2843173800425884
62	0x3fd6f8dbbd702880	0.358939108846819
63	0xbfa413313e3faaaa	-0.039208926056592944
64	0x3fe29eee0f0456c4	0.5819006245898994
65	0xbfe8a10d028b0ca8	-0.7696595239325648
66	0xbfdddfb7215d577d	-0.46677950151694586
67	0x3fd47f498265b005	0.32026899084189636
68	0xbfd79bae11d79b76	-0.3688769506683721
69	0x3fcb1f19eab713a3	0.2118866344518696
70	0x3fb420295b54fe99	0.07861574630532643
71	0x3fc1283a7e4be0c9	0.13404017607513755
72	0xbfb43677878e726c	-0.07895609912379492
73	0x3fb5d2a787cb48b3	0.08524558129582509
74	0xbfc2759eb8bc3bd8	-0.1442144777324461
75	0xbfd3fb5ed1623e32	-0.3122174305690094
76	0xbfcc633a29bcf8cf	-0.22177817380901962
77	0x3fb1515aeeb0712a	0.06764763190625858
78	0x3fd56824a19ac869	0.3344813898248789
79	0x3fc45fbb9299684c	0.1591715303246154
80	0xbfd733b5f18af35a	-0.3625311716858072
81	0x3f95825942cacfad	0.02100505323569706
82	0x3fc4578963fb5635	0.15892140752718978
83	0x3fb719efd5002ad8	0.09023951482974313
84	0x3fc0f89652500d71	0.13258627909827284
85	0xbfddb118810c2433	-0.46393406488693073
86	0x3fd2992b1728f8d5	0.29059865247462585
87	0x3fb53c5315d92e9f	0.08295172961623586
88	0xbfc3c0fb699fd081	-0.15432684571681324
89	0x3fd587f30011f143	0.33642268187374585
90	0x3f8de7d35b56c9bc	0.014602328515000866
91	0x3fc730529241e75b	0.1811621870181693
92	0xbfc2dcaf2e2f91bd	-0.14735975032011864
93	0xbfa3a559b162a46b	-0.038370898154718024
94	0x3f92f8129ce6790b	0.018524447275575045
95	0xbfab4034e2b091a0	-0.05322423236092111
96	0xbfc02a3602f5265a	-0.12628817696013322
97	0x3f6c798e246096a7	0.003475930806433453
98	0xbf99e3956f73f6f6	-0.025282225539732438
99	0x3fb89ac67bff8fd3	0.09611168410589181
100	0xbfdc2fa661adbdcb	-0.44040832079823805
101	0x3fc6fe3b747a349c	0.17963355243083334
102	0x3fc67008b4720900	0.17529400645077686
103	0xbfc87228c68beb48	-0.19098386473327822
104	0x3f7b6833c990b7a0	0.006691171926872658
105	0x3fbc68bfa2230ba0	0.11097333630008999
106	0x3fc1b83369049164	0.13843386295151128
107	0x3fc14a9971b33215	0.1350890927482317
108	0x3fd1292dd56f56a7	0.268138369019065
109	0xbfdb76062e8b9faa	-0.42907862229776106
110	0x3f9f119bcb3f01de	0.030340608863982037
111	0xbfc70270f6300e60	-0.17976200123677
112	0x3fc4025537185d14	0.15632119360154972
113	0x3f72013a28d2d916	0.004395701585215647
114	0xbfd119d43126b3cb	-0.2672014694206239
115	0x3fb1a4e2ed6c3ede	0.06892221733528056
116	0xbfbb84c6c8d9a9d6	-0.10749475864000799
117	0xbfd7231d8f065d27	-0.36151827780982376
118	0x3fe16c13a608437e	0.5444429629152265
119	0xbf97c168d738210a	-0.023198736320439152
120	0xbfae2a45a5d92317	-0.05891626023782786
121	0x3fb19d9caccb0eae	0.06881121843894775
122	0xbfd856a9a596060d	-0.3802894703913758
123	0x3fd390f7f8dfff2b	0.305723183671932
124	0xbfbd14fd27de29fe	-0.11360151503883029
125	0x3fc27205276bb907	0.14410461830943452
126	0xbfc1760c4f733459	-0.13641504172702204
127	0x3fc05185a4939b5d	0.12748785530058174
128	0xbfbc1a5df9a545bb	-0.10977732987273374
129	0xbfc7341ac8e863e2	-0.18127760705900103
130	0xbfdba2d9cb2eed7e	-0.4318146213733697
131	0x3fd27a3cee1277d1	0.28871081589920516
132	0x3fe0940661c9cd6d	0.5180694494178347
133	0xbfbc235f60298a35	-0.10991474244796325
134	0xbfcc16aa0a576099	-0.21944165711352495
135	0xbfc34db8b6cd8c41	-0.15080937314914603
136	0xbf674dff500e580c	-0.0028448092056789828
137	0xbf60d894d08d7a9e	-0.002056399015074219
138	0xbfe135694ff545bb	-0.5377699433976696
139	0x3fb992bb593cbb5b	0.09989520004886059
140	0xbfe2fa72635a67be	-0.5930721226206896
141	0xbfded4a625c56c66	-0.4817290657862884
142	0x3fc14358ac62643b	0.13486774842457003
143	0x3fd7b9ba84a45372	0.3707109732943571
144	0x3fe018b98a483b53	0.5030181599448532
145	0x3faa33a55c68969d	0.051175277262058595
146	0xbfd24a4e39fc6675	-0.28578525221528334
147	0x3fb4381ab7e3e095	0.07898108472352512
148	0xbfb286af4cb23ac2	-0.07236762640443842
149	0x3fa32714acd125b7	0.03740753755171105
150	0xbfbc0cf980b36d0c	-0.10957297699080842
151	0xbfcbbf7faed1f4f1	-0.21678157840862114
152	0x3fcf71d596fad61f	0.24566144821226119
153	0xbfc51c9dd2db4f6d	-0.16493580623375284
154	0xbfe60b2916f0b111	-0.688862366490442
155	0x3ff4a849d527e754	1.2910860372926054
156	0xbfde3597c98a6b8b	-0.4720210521861012
157	0xbfbecf4ecba2248c	-0.12035076591031862
158	0xbfc1d1c1d03eea63	-0.13921377819299882
159	0x3f722adb68de2ed2	0.004435402935893245
160	0xbfb4c6f252d080b2	-0.08116068384015554
161	0x3faf3d12233fdfc7	0.061012808611792084
162	0xbfb701b4f6461d56	-0.08986979496522926
163	0xbf95855a01f8933f	-0.021016508455562685
164	0xbfbd627f5402c46f	-0.1147842006783024
165	0x3fc2935da53d5243	0.1451222473939585
166	0x3f9c6b049876e3b5	0.027751991086663447
167	0x3fb9ec68c36dd4dc	0.1012635686036733
168	0xbfaa80e35a8a71ce	-0.05176458816751826
169	0xbfb830135db20be5	-0.09448357617843291
170	0xbf9434bdd6ed5d85	-0.019732443087688196
171	0xbfc1e8752eccd494	-0.13990654740488095
172	0xbf766d7cc9de2f78	-0.005475509124050031
173	0xbfbd330053ebf82a	-0.11405946778174383
174	0xbfb18376cf014bf8	-0.06841223291239362
175	0xbf9531d948f7bc1f	-0.02069797046527466
176	0x3f9cb8a30642a091	0.028048083550544837
177	0x3fa9b8c9afeb469d	0.05023794434022231
178	0xbf96188ca0814ff1	-0.02157802323957009
179	0xbf51f16837562e42	-0.0010951535926747723
180	0xbfc626a6abb08d56	-0.17305453666004195
181	0x3fe94ff81f8828e8	0.7910118690354269
182	0x3fd19632877b7ace	0.2747923205442192
183	0x3fc2dc97c9e1ce58	0.1473569617988797
184	0xbfd49254633a5744	-0.3214312523863223
185	0x3fc6becc8d03c6c3	0.17769772420392912
186	0x3fcff76d9833fbad	0.24973840648450843
187	0xbfe297d305a9c4c3	-0.5810332403763357
188	0xbf6778401a756aa9	-0.0028649570482860054
189	0xbfde0737607082eb	-0.46919044893188183
190	0xbfcc0ff264a8bc12	-0.21923665919300156
191	0x3f89c709fbe0a030	0.012586668013753494
192	0x3fc676c68c3f0160	0.17549974296526738
193	0x3fe197cf25bd62f7	0.5497813927750873
194	0xbfd698a247851b5a	-0.3530660341679571
195	0x3fd418102911a794	0.31396869669571825
196	0xbfcf6a08a8f465e7	-0.24542339563122015
197	0x3fd65bcac81d45ea	0.34935254614273836
198	0xbfcc0cd8435d5146	-0.21914199151309272
199	0xbfcbc43f60fc3184	-0.21692650065996244
200	0x3fd3ec6abbfc0381	0.31130474431852667
201	0xbfddeee02cfa2476	-0.4677048148374249
202	0x3f91e0c3f43acf23	0.01745897462997371
203	0xbfe55f4e675b73e7	-0.6678840655036965
204	0x3fe96a5ad5bb3301	0.7942327665747088
205	0xbfc5a74d760335fb	-0.16916816961604283
206	0x3fd2953c537383bd	0.29035862111600946
207	0xbfc07cf617e6a39d	-0.1288135163024692
208	0xbfbed8c83c385f6f	-0.12049533338756445
209	0x3fd254e576738d21	0.2864316612960512
210	0xbfcab0fa5ceedc4d	-0.20852593934771094
211	0x3fb4df9cead1a20d	0.08153706295855319
212	0x3fb8368b43b8ab2b	0.09458227542260704
213	0xbf8fdedf65adfa73	-0.01556181458522341
214	0x3f95749f08b1c7dc	0.02095268717352626
215	0xbfa0800a582b6147	-0.03222687078749913
216	0xbf994a32d04479e3	-0.02469710727847908
217	0xbfc188681fea65e4	-0.13697530325298068
218	0x3fd23759b206fbb0	0.2846283186481129
219	0x3fc7f4281f7490fb	0.18713857208161486
220	0xbf84c19391d85688	-0.010134842766130761
221	0x3fe58074cebd7b36	0.6719306981939102
222	0x3fa050a6c84302cf	0.031865322061553784
223	0xbfdc9100b6c4c30b	-0.44635026787277415
224	0x3fc747760c4ad566	0.18186832046709894
225	0xbfe2843fb57b8521	-0.5786436600284653
226	0x3fd901aefd6bfb99	0.3907277560064642
227	0x3fd88a00a8ab0b66	0.3834230086469489
228	0xbf9cb877ac0cab46	-0.02804743754965535
229	0xbfe13ccf7b475a05	-0.5386731536662529
230	0x3fd3b8606fb1a482	0.3081284609566596
231	0xbfc5e715da60a6d2	-0.1711146656319245
232	0x3fe108de2ecede2a	0.5323325075359595
233	0xbfce0c1d72c93d29	-0.23474472145833516
234	0xbfde4b852224c6e5	-0.47335937818853174
235	0x3fdbca147aef17bb	0.4342089844252503
236	0xbfe353876b26bd77	-0.6039464085387597
237	0x3fedfa9f688ad13f	0.9368435899582791
238	0xbfd8821a6ccaa4b1	-0.3829408705156068
239	0x3faa44ccb732ea75	0.05130614982904983
240	0x3fdac039c717b6fd	0.41798252527847507
241	0xbfd73c1180c1933f	-0.3630412824043567
242	0xbfb394492568bc9d	-0.07648141063030996
243	0xbfafeeb31ab59b60	-0.06236800862352854
244	0x3fd23ed1867cd59e	0.2850841344219023
245	0xbf8f01a3b61c7e33	-0.01513984584340653
246	0xbfb188e95103dafe	-0.0684953520575213
247	0x3fc00093abecd797	0.12501760382445745
248	0x3fcb2cc0d3250966	0.21230325994299476
249	0xbfc81eceb3b4f2b7	-0.18844016813991057
250	0xbfd8ea0a3dd47fe4	-0.389284668332037
251	0x3fce0a1a46b202e4	0.23468330814286908
252	0xbfa31f6adfd645c0	-0.03734907133469845
253	0x3fd5d43679b09d01	0.34107744106081844
254	0x3fbe007fcc412688	0.11719511734659183
255	0xbfb45325099882f7	-0.07939368709822846
