notebooks/models/simTwoLayers_architecture/experiments/xavier/weights_md_100_100.pkl.npz (npz, 715948 bytes, 3 tensors)

arr_0 f8 [784, 100]
00000000: 2fc9 82bb 9bd9 b03f 92fd 7b4c 13d6 aa3f
00000010: 98a5 2306 4ad0 b5bf 1b39 85b3 1d24 ba3f
00000020: 7d97 2d3a 0e67 a03f 7b77 884c c628 a7bf
00000030: 8b84 61e3 00e0 70bf 7572 e935 7c38 a13f
00000040: 62d0 bafd b927 c13f 879c f06f 4a18 a5bf
00000050: 329b 3408 5837 a13f 964a f566 7f66 bdbf
00000060: e791 4545 92b3 ba3f fc83 33ba c068 b13f
00000070: 70d3 5ba0 7b23 a73f 4081 a385 4ed2 93bf
00000080: e826 a05d f678 a1bf fec9 339b 9de9 993f
00000090: f843 5a99 4bd3 a23f 8081 7f6c 5a28 9dbf
000000a0: e190 1eaa c089 a3bf 8bb1 7873 4ce1 c1bf
000000b0: 965f 63bf 96e9 93bf 4bb3 99b8 88a2 a0bf
000000c0: f578 169e 8ca4 b3bf 30d2 ca50 9898 91bf
000000d0: 83be bc97 da98 9d3f ce55 261d 8155 b03f
000000e0: 6b91 e825 fa89 a7bf 6431 5f66 48a4 a43f
000000f0: 2ad3 fc8b f455 98bf 978b a315 a645 c53f
00000100: 845a 8ae5 41f4 b43f a09a d6de 498e 8ebf
00000110: 673d 1d9c b500 9cbf 8837 c028 a8b7 b63f
00000120: 6339 7abf 56fe 69bf de1b 29b4 e721 c0bf
00000130: 4b9d 25c1 e4d3 a2bf 79e1 df3f 9e58 b23f
00000140: 5f87 d4ec e62e b1bf 8dc9 9956 3012 c1bf
00000150: 8f7e 7509 76e7 ac3f 5239 b1d0 6e04 91bf
00000160: a25b 4c14 36f8 c53f a748 6d24 4ff2 7e3f
00000170: ef9f a84a f473 9c3f 7e3f a3c5 57c3 b33f
00000180: b2ef 4b27 010c 92bf a3b3 342f 3788 a63f
00000190: c3e8 41c9 f76c 66bf 0c69 6a8f 8b9a b63f
000001a0: b05c 126e df5d a0bf 9190 51d5 0178 af3f
000001b0: 577c 2648 0578 a1bf 4ffe 2633 3f86 973f
000001c0: af77 66ee eb4e bb3f 0f8e 1b7c 33a5 b13f
000001d0: 7870 73e4 fe4c b13f afc2 bf7e e342 a93f
000001e0: 9681 2117 8f7a 8f3f ec14 094b 9f7a b2bf
000001f0: 5176 712a f94f c03f bc76 d5c8 5846 b23f
00000200: bee4 bbfd f8bb b0bf 06f4 5b33 03bb 91bf
00000210: 15a0 e79e 0dc2 c83f 3b51 4b8b a475 96bf
00000220: a017 3700 1ee9 c2bf ec56 8f98 eb85 c43f
00000230: b80c fdc7 d880 a3bf 22cd 6bfb 92f5 c3bf
00000240: b88c 462b 325a 80bf c5c0 6154 c4a3 aa3f
00000250: 0f12 0050 24e5 bebf 4c88 0848 9b55 b1bf
00000260: 2f3a 13c8 470e 9dbf 06f2 a611 6b6f a0bf
00000270: 149e e7a7 a0f0 c2bf 9bcc 9ccb 4c19 683f
00000280: 9a02 d456 2bf2 b33f 40de 9920 fda4 803f
00000290: 51e1 6893 0d99 8fbf 85c8 e614 f91d 9d3f
000002a0: 2c9c 8f2e 7773 96bf ac12 95e9 bd2d 72bf
000002b0: c8b2 e5f0 d8a9 af3f 7687 3dc9 2543 96bf
000002c0: 586e 350b eb11 a83f adda 2ac0 de22 98bf
000002d0: f28a 349a 186a bdbf 8ab3 0515 d896 b2bf
000002e0: ae3d 65c5 9433 5ebf 36a3 f8dc 1e77 b53f
000002f0: 26e3 498e 5857 a83f 0a6e 88d5 9153 83bf
00000300: c85a 454c 040c 8e3f a63e 8b8a ea5b a13f
00000310: 64b4 6b1a d789 9b3f 06d8 893f 605d a43f
00000320: 0357 a67d 3e59 9ebf c655 a522 633f c1bf
00000330: 831b d63d 8432 a2bf 68a3 3c18 5e7b 923f
00000340: 3465 9f2e 377a c13f 8d54 205c 9814 b0bf
00000350: 6939 aee1 dec3 b23f 181f dc4a 4747 84bf
00000360: 1d2e 5768 a338 b53f ccb6 cda5 7c12 bf3f
00000370: 332d 863b e10b acbf 7bac e08d 8fca 9abf
00000380: c417 6833 c741 acbf f804 170c b27d 9cbf
00000390: 9023 5038 e440 a43f a373 141f 4121 b43f
000003a0: f0e7 2669 2f4e bc3f 2252 1d8a 9520 c03f
000003b0: 0bf6 d267 b8b4 b23f 0713 9c3c 8528 a5bf
000003c0: 59ea 2bd8 bf93 b93f 967b 45dc 4063 bd3f
000003d0: 08f4 610f df8c a1bf 486a ecdf 3219 b6bf
000003e0: 4d3a 35dd 7952 c7bf 1506 d85b 69ee a1bf
000003f0: 03ab 07ac be91 853f 10a9 b951 7b9d 9e3f
00000400: 451d f042 de31 9f3f 7b35 639c 5001 c3bf
00000410: f797 5311 d616 b2bf 06d2 2e15 49f5 a5bf
00000420: fc09 61ce 2d4c 8ebf fcf1 be36 64c4 b43f
00000430: 530d 3b14 019f a6bf 5653 9513 4a3d a2bf
00000440: f2cc de3a 2f48 bb3f a529 9283 5e08 96bf
00000450: efbf a5a9 9bf9 b2bf d92b 9ba1 8874 ae3f
00000460: 86bb c4c9 ca7f b3bf e8c3 a8bf 9f00 ae3f
00000470: 4615 ceda 4655 85bf 64ba d579 b024 aabf
00000480: c636 1491 a56e a23f 53c8 adf4 66dd a1bf
00000490: 7510 4058 6761 abbf 48ea b8ec 2fcd a0bf
000004a0: 4402 a3a9 5a6d 9dbf 81fe 67ad c445 b2bf
000004b0: 5f82 17fc 922f b0bf 9a54 c4d9 df95 bb3f
000004c0: 3739 6777 1c39 a8bf 3ee0 692f 2ad2 b2bf
000004d0: 9ed5 b601 3f7b a43f 7098 7bae 08d8 b7bf
000004e0: a50a 89cc 0c75 aebf e643 96ab 1c58 a53f
000004f0: e697 300b 33b3 b33f bf55 8c3d 3422 a93f
00000500: 6125 55a9 ad76 b0bf 74d4 7faf a1ed 883f
00000510: ec9b 2123 5745 9abf f441 6c47 43c3 b1bf
00000520: b9f3 e71f 0d63 bf3f 9b2f b027 978a 593f
00000530: 2c97 716e a4cc 853f 8932 1843 353e bdbf
00000540: 79fe 7ccf 6c8c b13f 4466 f4d9 fe7c 9abf
00000550: 940a 2b44 ae71 a23f b325 2079 1951 b9bf
00000560: 198f c324 6ae1 74bf 34c4 5aa5 9e62 c3bf
00000570: 0343 da56 34b7 a1bf 4309 4c35 7660 9e3f
00000580: da55 a73d c03f a1bf ed11 f28d 7fa1 b9bf
00000590: 66e9 2af1 8278 a0bf 42d8 f6ee 1033 8e3f
000005a0: 85d6 365a b4f0 a43f 60ed 3c1e 0d9a 9d3f
000005b0: ddb2 932e 5aa7 753f 1512 b99b bb78 7e3f
000005c0: eb0b f7b2 5b63 a9bf 0aa1 9e5d b637 c9bf
000005d0: 5def 926a 1f01 aabf 5a0a 1d14 cf7c b13f
000005e0: 2fab 0a67 7511 b6bf 660e 4b72 7950 b1bf
000005f0: 156b 09fa fe84 a6bf 9b4a 6994 53e7 b7bf
00000600: 82f8 b082 2082 b13f 9ace a31f 1ed3 a4bf
00000610: 318d f95c a94f b03f eecb 7132 b4ed b33f
00000620: 73c9 f238 4990 883f 2e37 8e0b dd49 bf3f
00000630: 6cec 2147 d11f 6c3f 581e d54d 3d5a a73f
00000640: 8d6f 6bc9 09ca 95bf 2fa7 777c e043 973f
00000650: 5c17 edff 1418 c5bf 0600 68ff b862 b43f
00000660: cb3e 6924 1465 c03f 0d6f 1dc1 ebc0 8abf
00000670: d4dd 5f72 97f0 8bbf 25b0 19ec de59 c43f
00000680: 3b0f a339 66ac b4bf e15e c985 9f09 b43f
00000690: 1b5c 933b c7be a7bf 337c 72f8 df9c a43f
000006a0: 9109 8627 af89 753f aec7 93f5 d9cb adbf
000006b0: 5091 e61b e35e 973f d559 e17e 0fd8 9e3f
000006c0: 59c9 74e7 f4a8 b33f 42ab c566 6ff2 8ebf
000006d0: 126d 613a b977 543f 7e73 6767 d9a0 9ebf
000006e0: b536 58ec 5db6 6abf 6bf9 9e27 58c3 b13f
000006f0: 2a00 1960 059d a93f 7eaf 1f22 7b58 a5bf
00000700: baf0 9f45 078b 84bf 60eb 6ee1 6b70 a3bf
00000710: 604d 6dc3 293f bd3f d0e9 0aca 8cf2 70bf
00000720: 249a 471d 8c7b 93bf 7564 eb8c d7ec b7bf
00000730: 8ae9 ab9b 5a7c 863f d75c cba6 886c bbbf
00000740: 45b4 b936 9d62 a9bf 6ef7 d82d c6e9 aebf
00000750: 9345 2702 b6d4 be3f 3c07 7ed5 f7fd 943f
00000760: d3e8 02c6 e1c0 b33f 7330 0769 ef23 b5bf
00000770: be3e fcdd 6d3f bc3f ea79 559b 043b a93f
00000780: 92e8 39a5 ff11 c2bf 1c34 de51 b5ff a8bf
00000790: 8937 4661 5add 433f bb54 ac0c 8368 a5bf
000007a0: 763e 2f06 678a 693f 4786 c7b5 e474 a9bf
000007b0: cb5c b58e bd2d b13f 8c38 183a f41f 963f
000007c0: ea48 39c5 179c acbf f03b 4df8 c710 b13f
000007d0: 765c 411d 64ce b4bf 1fb5 ea13 7c18 94bf
000007e0: a404 f939 800b aa3f c090 84e4 56a4 9f3f
000007f0: 7e4c befe 3a54 803f 5aa2 f0af 1548 8fbf
0.06582043960478211 0.05241451557776168 -0.08520949029811786 0.10211358673879938 0.03203625164205357 -0.0452329605507051 -0.004119876355702999 0.03363407285789758
0.13402485741756026 -0.041200948872124825 0.033625365258833986 -0.11484524024607831 0.1043025416489126 0.06800465150764973 0.045192588162456526 -0.019356943995149978
-0.03412599461451099 0.025305235479160963 0.036768305272865065 -0.0284742478105513 -0.038160343901184175 -0.13968806875471915 -0.019445758277327828 -0.032490036520221276
-0.07672957286419886 -0.017183666163605504 0.028903403769787516 0.06380469285644283 -0.04597455704450478 0.040315878387988474 -0.02376539329926001 0.16618801170906458
0.08185207227720964 -0.014919831383690962 -0.027346456197219562 0.08873988146680578 -0.0031730360313481517 -0.12603470131781952 -0.03677286966086032 0.07166470584332342
-0.06712191850649905 -0.13336757877875663 0.05645340791192865 -0.016618472564283344 0.17163730612875577 0.007555302762584904 0.02778608041458591 0.07719944548739296
-0.017623918555713387 0.04400799227946741 -0.002737506825778531 0.08829567195281046 -0.031966192423334205 0.061462456979627274 -0.03411880975476638 0.02297304868420574
0.10667299814528407 0.06892701892825691 0.06758111073890116 0.04933844492177763 0.015370481389425799 -0.07218356687470234 0.1274405915491337 0.07138590720338817
-0.0653682345836328 -0.017314958581653904 0.19342203387282156 -0.021933146478503956 -0.1477391720820238 0.1603369231149182 -0.03809239808335846 -0.15593182827397195
-0.007984535165468251 0.05203069238712169 -0.12068392708904006 -0.06771250256181921 -0.028374787890067473 -0.032100053696442685 -0.14796837042307287 0.002941751471462318
0.07791396016910782 0.008127191121487631 -0.015428644238554641 0.028434650326467654 -0.02192484113393449 -0.004438154073174754 0.06184270802154895 -0.021740522773491
0.04701170455765852 -0.023570518950431097 -0.11490014805580609 -0.07261419785727533 -0.001843352588895768 0.0838488854866569 0.04754139649316462 -0.009436740235336156
0.01467135770569196 0.03390438977441805 0.02689300631293569 0.039774902111204866 -0.02963731424241357 -0.134746925274767 -0.03554166083181711 0.018048734883595513
0.13654222275253292 -0.06281425713707929 0.0733012486436785 -0.009901577922860436 0.0828954820382752 0.12137583778322919 -0.054778135791901404 -0.026163332972072056
-0.055189347291203755 -0.02782324026862157 0.03955758273520538 0.07863242157732357 0.11056801144778183 0.125994388998735 0.07307007345931298 -0.04132477154602126
0.09991072681069947 0.11479573610038893 -0.03427788794304126 -0.08632200209505314 -0.18220446873825083 -0.035022060834318726 0.010531892418801819 0.02989762007056479
0.030463669620101958 -0.14847762714490984 -0.07066095278750582 -0.042887004695703765 -0.014793737278641743 0.08112169586724599 -0.044181855887951337 -0.035623850718059444
0.10657019793761771 -0.021516300945714346 -0.07412121669562997 0.05948283169490027 -0.07616870332706868 0.05859851088133167 -0.010416558792494823 -0.05106116759531146
0.03600041767104538 -0.03489228951265546 -0.05347750618241857 -0.0328154541461641 -0.028737465480619187 -0.07137707932997196 -0.06322592405877846 0.10775565210890861
-0.047310723853672014 -0.07351936013753943 0.040002793273212975 -0.09314016589959961 -0.05948677059906985 0.0416878661591296 0.07695311568440352 0.049089081299978236
-0.06431088813873977 0.012171996277155574 -0.02565513755726194 -0.06938572400782289 0.12260515240627869 0.001558921444259709 0.010644230480646742 -0.11423046958970863
0.06854896608001039 -0.025867445042513162 0.03602356512194152 -0.09889373023192753 -0.005097784636948232 -0.15144713472321458 -0.034600864030954546 0.029664847376815528
-0.03368950607879713 -0.10012051787823113 -0.03216942972126695 0.014745838444337637 0.04089892960784617 0.02890797135408485 0.005286552689750504 0.00743935856332147
-0.04958616790420208 -0.19701270648261754 -0.05078981567336769 0.0683106826882435 -0.08620389714876063 -0.06763419189797445 -0.04398342897612487 -0.09337351201365111
0.06839183035569543 -0.040673199999131174 0.06371553916828955 0.07784582358890166 0.011993953752924757 0.12222081691853923 0.0034331405122976413 0.04561034751037302
-0.0212785271822749 0.022719867321860206 -0.16479742523568575 0.07963138804916534 0.12808467653166242 -0.01306327994432579 -0.013642485788280569 0.1589926388581954
-0.08075560481216552 0.0782718373897029 -0.04637739755860811 0.04025936038782909 0.005258259007293723 -0.05819588778275829 0.022822903230591607 0.030121080512197047
0.0767968239859206 -0.015110845874649951 0.0012492474429766681 -0.029910466133390205 -0.0032607874334250283 0.06938696830090911 0.05002610014025806 -0.04169068137693353
-0.010030800640372529 -0.03796708227988321 0.11424504300275862 -0.004137563665319324 -0.019025983130541615 -0.09345767202775497 0.010979373813360355 -0.10712484428528356
-0.04958049099955323 -0.06037730512296845 0.12043321182797788 0.02050006142190529 0.07716189464818805 -0.08257957758104499 0.11034285230220583 0.04927839656987827
-0.14117427413640776 -0.04882589935650847 0.0006062213238224738 -0.041812987610833706 0.0031177532377809026 -0.04971995085703589 0.06710419401257466 0.0216062698801172
-0.05587839396015844 0.06666230976155396 -0.08127427782288685 -0.019624651637674902 0.05086899478602305 0.030900342652913748 0.007973156832838276 -0.015274209434282305

arr_1 f8 [100, 100]
00000000: 74d0 8860 f001 a03f 6c0e 5189 d819 d13f
00000010: 5bf7 304d 265b 883f e946 8ec6 0a9c d3bf
00000020: d430 2654 f1e8 a23f c31d f7e3 3a3b c23f
00000030: 24b5 b20c 05b2 b2bf bcd2 e5dc 6df7 9f3f
00000040: d52a 637f bd2a bcbf 91f4 51ec d3c3 963f
00000050: 2b68 6358 0bfd bb3f 551b a34e 6b51 c03f
00000060: 2119 a875 a1bc a4bf 8e25 7481 3754 c13f
00000070: d194 15c8 6ad1 b03f 6958 ac4d db4a b9bf
00000080: 4423 1091 2dd7 b33f b66a 051a eeba d0bf
00000090: f563 7618 ff23 c9bf eaab d3df cd45 aabf
000000a0: 111e 1dcc 5d2b 913f fd3f c49f bb2f b7bf
000000b0: d660 34e0 35dd 9d3f ef86 8597 1c46 b4bf
000000c0: a40e 44ba 2696 a53f 5532 3d3a dd46 c33f
000000d0: 95e3 eb71 438a 7fbf 1ad1 bf47 0945 a93f
000000e0: 472a 20c1 fa6c ac3f d714 99eb 6807 c3bf
000000f0: 0e2f 69a6 9634 35bf 51e6 3b2f 7b8b 71bf
00000100: 431a 8fb3 5a01 cbbf b299 4fb0 2816 be3f
00000110: 2e48 1f78 c9f6 a33f bdd2 9243 49a9 c63f
00000120: 8925 9660 a39f 863f b82a 4c27 b884 6cbf
00000130: 2f1c 35f2 9b42 d93f e7f7 b5a9 8183 aa3f
00000140: dc6a f39f 89d5 94bf 70b3 2176 c26b 93bf
00000150: e647 5dcb 33c9 d1bf 9a4f 1fd6 341f 923f
00000160: 658a 6635 3126 c13f 2ded 80e8 5b92 a73f
00000170: 8cc8 1870 0b49 5fbf 88ed f1d2 3edf b63f
00000180: dfa9 033e cb98 a9bf da74 064a 928d 90bf
00000190: cdf1 60e5 f28e b5bf cd76 6fbe 982b a23f
000001a0: b502 d2bb 1777 adbf 0b8e e695 0514 b5bf
000001b0: f125 4a6c 5f66 623f 12fc 0558 60fc a6bf
000001c0: 1105 991e 7c06 b6bf 1356 1753 e59a cabf
000001d0: f805 4125 dc57 873f 8439 a74c 50a1 98bf
000001e0: fa6b 95fe 396a ad3f 77d2 27b8 cec7 c93f
000001f0: c707 66f1 ee2c ad3f f2d3 1886 a796 95bf
00000200: 19c9 c6ef 3ebc b3bf 95c6 8ab2 5613 983f
00000210: 12ef d1c9 b175 93bf 89c2 6dbd accd bb3f
00000220: 7162 bf6a d987 d53f df74 da77 ab37 cfbf
00000230: a216 c5b0 cf09 903f 0ec9 4ad2 c8f7 953f
00000240: 135d 9ff7 0508 d23f c2be 6a7e 4c59 cebf
00000250: 5c20 8a9e 0f23 cb3f e66d a2ff 02c2 9ebf
00000260: 1f34 7c01 095e 78bf c661 2189 fe5c c63f
00000270: 74a9 8cff 8ccb c8bf 1763 1179 a409 a6bf
00000280: b991 793e edef 99bf f721 cbcf a5d0 bfbf
00000290: f410 d06c 0884 cb3f b5ec 296d d621 b23f
000002a0: 7e42 f5db c197 513f 8a38 9ff3 35e0 b93f
000002b0: 5829 cdb9 d431 b9bf 6046 0695 fce7 cc3f
000002c0: de84 d4fe 06a7 9b3f 6198 0275 4c86 cb3f
000002d0: 7e4b bd09 6a28 8e3f 14bf 24d4 362d c9bf
000002e0: 157a db4a 9dd8 89bf b635 7404 5019 a2bf
000002f0: 8921 9fd1 9b96 a5bf e2ab ec9d 0301 b03f
00000300: 82a5 279e d253 a03f 0f5d d2f8 0900 cebf
00000310: 982b 3310 2aa1 b73f 2078 debd dfb0 c2bf
00000320: 03f2 6887 6630 b0bf 96e7 a3b2 e9b7 a0bf
00000330: d082 f99a 7da5 a93f e5bc 6e22 68d4 a73f
00000340: 9715 c7d8 378b b8bf a143 814a c8ce c83f
00000350: 2245 2c3b e2c3 c5bf e588 4cf1 9456 d13f
00000360: bf41 5c09 df64 8f3f 0a30 377a dc56 a83f
00000370: 3f5c f196 bc8f bd3f b168 1449 c646 c0bf
00000380: 5da3 c01a 4406 7abf 6289 3ce3 31f6 95bf
00000390: 8a8c c28b 2a1b b7bf d732 34e8 2f08 cd3f
000003a0: a3d0 2880 28f9 8bbf 88b0 2ac3 e559 d23f
000003b0: 6b5d e5b8 10f8 babf da47 32c9 a9a9 90bf
000003c0: 7329 9a1c 844f b6bf 1cc3 d747 9422 903f
000003d0: 0a0b 7de7 8edc c1bf 6286 4fc2 f50a c83f
000003e0: e637 117c 9e59 afbf 8fe6 def0 80bb a6bf
000003f0: 5910 dbe8 214d b73f 410d 7acc 8692 8c3f
00000400: 5a2a 2214 46dc a43f 370a dbb1 bf6b ba3f
00000410: 02a5 dfdd 7a9e b2bf b4f5 6edd ca1a c3bf
00000420: e70b 3580 4c95 cc3f 1614 468a da9a bfbf
00000430: 7df1 1c97 affd aa3f 98a7 2d61 138c c63f
00000440: 5049 3fe3 d128 bcbf 9e68 2728 6134 99bf
00000450: d56a 3ab1 0e69 c3bf 995d 8bd7 b21f b0bf
00000460: 8d5c eae6 5e39 8abf 292e bbc0 635e 703f
00000470: 143c 4529 10c1 843f 46e5 a41f b764 ae3f
00000480: 3b45 c834 731e acbf cee4 d6af 82d1 b73f
00000490: c522 80eb a520 b5bf 0eff 1c22 c8c1 943f
000004a0: 021f ac97 6948 b93f a714 3903 bf2a a63f
000004b0: 4534 4f18 3563 9abf d7c8 36a9 51ad 9bbf
000004c0: 2e93 60b5 22da 87bf 7392 f7ce 510e bc3f
000004d0: d514 513b 3a2e b23f 259c 9a5e 95c1 b0bf
000004e0: 4c01 e197 30ac c0bf d355 65b6 a3e3 c2bf
000004f0: c04a d9ad 84e5 cbbf 9c22 8d76 638f c23f
00000500: 8794 1fe4 4597 97bf 8301 3d91 00b1 d13f
00000510: 7aaf cc8e a29d b3bf b570 2ce2 4ea7 d4bf
00000520: d844 7f9f f11a b03f 59fc 04f9 f2e7 913f
00000530: 983e bbef 80d2 adbf 880c 239c a95e a43f
00000540: c94a 11c9 fd76 923f 19b8 d913 9fa9 b63f
00000550: 0abe 1dff 7e95 a0bf c963 a981 6be9 93bf
00000560: 69fc 0aa5 8154 6d3f 8e6c 83cd 3b96 adbf
00000570: ac51 4831 a795 b53f 0239 77e7 1a28 b6bf
00000580: 3c8f 06ec 58a6 aebf 98ad ed15 74b2 c9bf
00000590: 0181 0d9d 41e4 c1bf f9e4 e2c4 fe8b c1bf
000005a0: d467 f49e 7baf abbf 64b0 089e 4647 803f
000005b0: c149 a730 7e9b c23f 346a d760 9a05 c8bf
000005c0: 6f56 b187 649c c33f ae30 0a08 2213 893f
000005d0: d486 7cfd 509e a13f cf10 cc60 bb8e a6bf
000005e0: be70 d25e a9c7 c03f c4e6 c883 5f0e c53f
000005f0: e1c0 8cb1 a8f5 b43f b427 8051 3504 bbbf
00000600: 5947 7ece 1722 b53f bafd 3d72 3fad abbf
00000610: 9f5a 3425 0eb2 b0bf f3f9 e75e 7176 cd3f
00000620: a22a 61a3 360d 84bf a6f2 3870 04ca 953f
00000630: 5451 49bf 921a b1bf e453 c896 36c9 b83f
00000640: 91e9 5639 a12b b3bf 2807 8180 1094 b4bf
00000650: 70b5 bbd0 a772 71bf 45ad 5b96 9557 97bf
00000660: c86c d362 850d 8d3f 885c 508f 341c b23f
00000670: e437 ab9b 8b22 af3f 1ce8 7cf1 aae3 9c3f
00000680: 75f0 1b35 bfbb ac3f d8b9 514b 6113 a23f
00000690: 0362 99f5 280f 96bf 40fa 80ae 7364 b8bf
000006a0: d7e4 b14a 15f7 c1bf cbb9 c5be a326 b23f
000006b0: 8f4f 868b f122 be3f 1e57 163b 760e 91bf
000006c0: 37f5 1e94 3e67 b13f 6225 c5cc 0535 c1bf
000006d0: 0712 d98f ecd8 c63f 78d9 92b2 8ce8 b5bf
000006e0: f01c 5aee 6a18 b33f 0e4f 3aa2 5119 af3f
000006f0: 59e7 b9e1 0b15 a93f 74a1 9139 e7e7 b63f
00000700: f57f c270 3f52 a6bf f63e 9df1 73fa a5bf
00000710: 94a0 c624 43d3 a7bf 0caa fc99 edd2 aabf
00000720: 103e 0dbd c9f8 803f c4bc c634 208e a1bf
00000730: b47c cc68 1043 a9bf c0b0 b30c fc61 c7bf
00000740: bdda 62e9 825c b3bf c9ac 6ae3 bb67 b63f
00000750: 780e 32b6 c8d8 c33f e488 cdba 5e7c a1bf
00000760: 6cd7 8097 0b0f 793f 9ebf ba21 d4b5 99bf
00000770: 0eb6 e4bf ac40 833f 3e54 9457 9dae 9d3f
00000780: 86eb fe36 2c13 9bbf 331d 9774 8fa0 b1bf
00000790: 55f0 94d4 13d1 b1bf 7028 3809 8b38 69bf
000007a0: 839f 3443 72e6 a43f 69df 0a63 8ad8 71bf
000007b0: 71a7 f75b 2a0f a4bf 6324 555e ab53 c43f
000007c0: 9182 45cf 8355 b33f 4584 3b2f 99e2 b9bf
000007d0: 07a9 cf85 1603 8a3f d1cd 8496 29d6 bf3f
000007e0: e15d 49ff 0dcf 7d3f d910 1d57 6fcc aebf
000007f0: c77b 0fae 077b a0bf 8d91 f5de 8efc 80bf
0.03126479318999112 0.2672025052054099 0.011892604094210382 -0.3063990534802615 0.036933461687199604 0.14243255740278302 -0.0730288654328502 0.031217304809120647
-0.11002716407817144 0.02223139886745124 0.10932989986341173 0.12748471584037682 -0.040501638042814266 0.13538259335500097 0.06569545159216551 -0.09879847189253756
0.07750210563257293 -0.26140930691841946 -0.19641102499443233 -0.05131381375561957 0.01676699217139627 -0.09057209635307113 0.029164163407671882 -0.07919481944329808
0.04216118835213692 0.15060010284141137 -0.007700217682889217 0.04935482979627377 0.05551894767275605 -0.14866363052184425 -0.00032356908778717684 -0.0042834102530320975
-0.21097883002785708 0.11752561859575542 0.03899221030555143 0.1770412044476383 0.011046673188291905 -0.0034812542675174106 0.3946905007655372 0.051784564940120785
-0.02034583128702648 -0.018965757808860173 -0.2779054151516206 0.017697167939175175 0.1339780340905065 0.046038505679883414 -0.0019095050523785543 0.08934395456338085
-0.04999385005961065 -0.01616505219282236 -0.08421247577729858 0.035488866087445815 -0.0575492302678006 -0.0823367587059282 0.002246080754336737 -0.04489422869209404
-0.08603645083441715 -0.20785204465089233 0.011398048293020033 -0.02405286281446585 0.0574510691901295 0.20141014091463535 0.05698343941459388 -0.0210825133892349
-0.0770911536590443 0.023511271140427132 -0.019003656333082715 0.10860709786153157 0.33641658234186084 -0.24388640739645148 0.01566242710511879 0.02145303519746116
0.28173970395933273 -0.23710018322662135 0.21200747719945212 -0.030036970951739315 -0.005949053934966946 0.17471296020336363 -0.19371187665940293 -0.0430423162258135
-0.025329310358203936 -0.12427746127207927 0.2149668246567057 0.07082882084971483 0.001073779407153946 0.10107743451883003 -0.09841661010901726 0.2258296706827876
0.02700434618339364 0.21503596986184717 0.014725521490310586 -0.19669232710429496 -0.012620190474476304 -0.035349369567579655 -0.042164677942824254 0.06251547437265928
0.03188951664544516 -0.2343761887502542 0.09230292220597247 -0.1460227658362223 -0.06323853307635123 -0.032653143936797566 0.05009071842937873 0.046542410090632015
-0.09587430040763532 0.19381049764572558 -0.17004039658835618 0.2709095341143793 0.015329115365177224 0.047537698668378495 0.11547449765326777 -0.1271598679384787
-0.006353632004938739 -0.021446971411145717 -0.0902582732401688 0.22681235158997623 -0.013658825312724615 0.2867369085240701 -0.10534767641126101 -0.01627221384530473
-0.08715081880851532 0.015756909260690496 -0.1395434027018257 0.1878344725401347 -0.06123061432354841 -0.04439928951565008 0.09102069792703683 0.013951352229247706
0.04074305530328522 0.10320661632707916 -0.07273071209751339 -0.1492551404207184 0.22330623874776664 -0.12345662952255085 0.05271671981469959 0.17614977116619168
-0.10999786184337279 -0.024613874507715232 -0.15164359716148704 -0.0629836822730482 -0.01280473844717125 0.003996266994089428 0.010133863696550484 0.05936214696198276
-0.05491981524768127 0.09304062645869068 -0.08252942084812805 0.020270468790157863 0.09876117661417186 0.0432948771890918 -0.025769071205832956 -0.02702834697056108
-0.01164652935046603 0.10959349921137988 0.07101787517702303 -0.06545384940783146 -0.13025481620753465 -0.14757200628325381 -0.21794184197150024 0.14500087059629585
-0.02303799824575894 0.2764283579199615 -0.07662406908337785 -0.3227116783834945 0.06291113037083862 0.017486378144209478 -0.058246640457238985 0.03978471785514964
0.018032040974797412 0.08852571711187841 -0.032390564577209416 -0.019445113934441403 0.00358033486585856 -0.05778681644161408 0.0843147750204653 -0.08654945517557525
-0.05986287957355649 -0.20075846739505887 -0.1397783295497064 -0.13708481420125176 -0.054073203233386075 0.007948447892964512 0.14537026763589547 -0.18767099121653674
0.15321022630330414 0.012243524427752863 0.03441098303143311 -0.04405770832639321 0.13109318857175895 0.16450113234332353 0.0818734582396732 -0.10553296317826161
0.08255146781291724 -0.05405615109975366 -0.06521690758050135 0.2301770890625928 -0.009790827618549717 0.02127844748450749 -0.0668117253310972 0.0968202703591739
-0.07488448762788937 -0.08038428437523903 -0.00425973465801853 -0.022795045187121294 0.01418594558565757 0.07074287890314868 0.06081043505911035 0.0282122335331466
0.05611989520363717 0.035304108089679154 -0.021542205801184277 -0.09528277407023555 -0.14035287997447796 0.07090209395912621 0.11772069603313028 -0.016656730038071214
0.06798163524850485 -0.1344306230405819 0.17849499725174686 -0.08557967529018196 0.07459133452549671 0.060740042737192565 0.04898869638868914 0.08947606235017763
-0.04359625102483725 -0.04292642902748682 -0.04653367828297053 -0.05239050392841102 0.008287025529766928 -0.03428745884172593 -0.0493397834709354 -0.18267775173388223
-0.07563036153701837 0.0875203542915869 0.15505322357431672 -0.03415199308689568 0.006117863922602367 -0.025107683714565725 0.009400701147195736 0.02898641440431881
-0.026440325600315194 -0.06885620685999498 -0.06959651889786873 -0.003078719668114842 0.04082066603069647 -0.0043568998086625866 -0.03917820332192335 0.15880338769992183
0.07552360353794031 -0.10111386683594599 0.01270120235308926 0.12436160969519185 0.007277540852178772 -0.060153464683510634 -0.032188644406907545 -0.008294216326881787

arr_2 f8 [100, 10]
00000000: eebe 2836 a92f 9e3f 76f0 5461 c3a4 a73f
00000010: 7114 b332 8324 7dbf 5975 f956 d33a b53f
00000020: c34f 0cb4 75ae a93f 8bb8 167e 0ad2 6ebf
00000030: cbdd 791d 2c5d cb3f a69f 8cea d92d a5bf
00000040: bd3c d9c9 c31b 803f 89e0 dc07 59c3 a43f
00000050: 0be1 587c 8006 b8bf 873a 0e6f 9054 d53f
00000060: 4ade ac60 8abd e1bf ed89 77fb 417f cbbf
00000070: a1d6 d498 bd8a babf 3243 1c5b ca81 ca3f
00000080: 9131 72e4 b1fb b33f 27bc 78d4 9e94 d03f
00000090: 70a3 c33e 6346 a63f 4708 72e0 70d3 aa3f
000000a0: ae7a 712d 2c65 b7bf 3f5c 0bbc 6513 a33f
000000b0: a449 affe e426 c93f 5682 fb51 b8ff b83f
000000c0: 9f78 d704 3287 d7bf 3509 0a5a ee2b cd3f
000000d0: b89c 891f 4c0f c5bf a669 de44 0356 91bf
000000e0: c807 f42c b1da b0bf 4714 728c b76e d73f
000000f0: 4a21 ed2c 7763 e03f d774 031d 8965 ddbf
00000100: 7a8a dba1 c10f e73f d89b f4f9 41c0 96bf
00000110: e955 3be8 6379 e4bf 851e e77f 2437 b03f
00000120: 0278 9c56 73c1 cd3f 576a d4c3 7325 babf
00000130: f767 ea7f e8a0 d03f 1e09 bf0d 8367 ddbf
00000140: a7d7 58d1 0a32 bdbf 91b0 12b9 7964 b23f
00000150: 8674 a710 3b2b e13f 3df5 b8f3 317d c1bf
00000160: bee4 5748 e6c1 c5bf e48c 5dfe 175f e1bf
00000170: 8b2d ec2e 4628 d73f 9ce5 bf16 1d58 cb3f
00000180: 51ee 40ea 8d8c cebf 2d05 1735 838b b63f
00000190: a38a 9f13 3db7 a5bf 8e89 b9d0 918c da3f
000001a0: 56e0 b665 9cc3 df3f 2c51 52b2 bdae ddbf
000001b0: 07cf 0519 1d62 d43f aff6 8e81 9384 d4bf
000001c0: 8360 39f0 331a d1bf 3e21 5d54 f32c b7bf
000001d0: 383f 1131 6927 c9bf 40b4 b799 db08 d23f
000001e0: 030e c55b 9722 d8bf 2bd9 8abd 5b3e c73f
000001f0: d438 5e53 9715 b9bf 227b 07d9 d000 b73f
00000200: 6e5a 0139 9a7b e23f 7b96 9b74 0123 d43f
00000210: 3a37 3563 3c00 b53f 0732 f524 8fd7 e0bf
00000220: 739f 5c0d cece d4bf 6b7b 2e4b dfa3 a8bf
00000230: 6f49 8e99 4631 be3f bcba a139 fc4d d5bf
00000240: fa33 aef5 2d35 db3f 2e40 b8ad db8b e5bf
00000250: 5c02 7358 a45f ed3f dcad 3f37 9dfa d5bf
00000260: 71a5 035e 143a 583f 3d75 4d02 1709 da3f
00000270: 2abd 0811 8b62 dcbf dcc1 6573 7b73 c8bf
00000280: 2886 7552 e44e c13f 8605 6809 09a6 a43f
00000290: a002 9e87 9d6c bdbf 8b51 d34f ef03 a2bf
000002a0: 80f4 fd0c d5e8 9c3f 3c87 07d0 0307 8a3f
000002b0: 4fa4 1988 0a47 b33f 7ac0 5640 ad27 85bf
000002c0: 4aaf a369 fd01 b6bf 0bbe 69f3 41ff 723f
000002d0: 26ee 22e7 d434 b3bf df65 ca63 ef9d b33f
000002e0: 97c8 5011 b871 aabf d7fc 334d 3038 b53f
000002f0: 91a0 b2d9 0826 b23f e4c4 65cb 50ad c03f
00000300: 45b9 c8e6 5362 93bf 5ff3 5864 2a3c 973f
00000310: 44ab 050e 4111 923f ff2a 0042 90fc 9dbf
00000320: 30de 527e b267 9dbf d478 3628 7f5a 9c3f
00000330: 42f6 631f 5493 843f ae6f 50a4 9515 87bf
00000340: 4e73 1b0e f50d 9dbf 776a 6fea d223 723f
00000350: fafb 724f b89c ba3f e95e 1dfa d952 bcbf
00000360: 1a97 2ba7 d0b1 b63f 8052 86d1 19fd b33f
00000370: d6b0 b145 dacf adbf 7bdc 8515 70cb b3bf
00000380: ed63 d117 ce43 94bf e7ab 8eb3 9af9 763f
00000390: 62a1 7fa6 6b92 ad3f 4c71 25d7 e66e 92bf
000003a0: 9feb 39e2 958d b33f 57c3 a0fc 909e a2bf
000003b0: 5c3c f165 22e6 55bf 75e2 6029 85f9 933f
000003c0: 618a 9346 2b7a c4bf 38ec 4dc4 948b 9e3f
000003d0: 0353 64e9 52cc 9bbf f5f7 6f8e f618 bb3f
000003e0: c3ec 1de1 4a93 88bf db77 f8b3 e95b b03f
000003f0: 3a67 6f26 474e c1bf 3efa 9ed0 a043 b63f
00000400: c26d b2a6 5467 863f 6622 8405 1f42 b63f
00000410: 6112 01f0 1a32 abbf f9ef 6465 a225 b6bf
00000420: b3f8 dc96 a61b 9dbf 8cad e1a2 fbf6 c83f
00000430: 3a89 652a 505d 9cbf fefd 8de0 84c2 b23f
00000440: 948e 484d 7a52 d7bf e590 d1d4 de7b be3f
00000450: 6d38 38ea 1557 dabf d8c0 01a8 a17c e33f
00000460: 495c 2059 2e8b 923f 9018 df43 a728 b33f
00000470: e118 9ba8 edca a13f c2f6 2081 9cb9 c83f
00000480: 8d30 e9fc 1cf3 c13f c730 6452 a224 c4bf
00000490: 6db7 42a5 9643 c93f 94f9 e50f c3cb ac3f
000004a0: 6449 8bc0 9957 cfbf afd6 5ae5 a892 a03f
000004b0: 39e7 06bb 4a30 d23f 3870 f2d6 9d52 c8bf
000004c0: e449 30d1 efef 9e3f de0e 2bd5 f5ee d63f
000004d0: 4f79 f1f5 4e55 e0bf afe0 837c 6eb1 e3bf
000004e0: 7529 1444 3faa c6bf 3a94 002d 8600 d93f
000004f0: 03a4 68a7 64ea 39bf 478e 0a73 0d79 d23f
00000500: 658e 8db7 d8af a3bf 8bce b8a8 2756 bb3f
00000510: a8bf 3861 60d6 af3f 239f d460 9502 c83f
00000520: 6ab0 9cb1 6b9f a73f 3a98 a6c9 e22a ba3f
00000530: 63f4 89ea 9e60 6f3f c782 2a7e e6fc c3bf
00000540: ebe4 7537 5923 483f 4a69 79ed 04e0 9dbf
00000550: ef23 6cbe f6e2 e53f 18dc 260c 05f2 523f
00000560: 94a0 e8ad a223 cd3f 5057 43a8 ee4a c4bf
00000570: 3cb7 bd51 f2af d23f 066d 81ed 5386 abbf
00000580: 8c65 47c8 63f2 de3f 302d 98f1 cd9a b5bf
00000590: 9655 92fb 96ce a13f a10d 4aee 585d ebbf
000005a0: fb12 7bfe 024e c23f 7120 675b 40a2 b63f
000005b0: d028 5882 97ed e73f 5a25 7555 c72b bbbf
000005c0: e750 821e e877 d6bf fbea a075 28f9 d4bf
000005d0: b6ac 4b2f 649a a5bf 752c 66b9 d89a c8bf
000005e0: 2554 b44f 8d9e d63f 68ba 461b 7a66 b1bf
000005f0: 0ef4 1a56 dbf1 bebf 0a9c 2f28 06ba 86bf
00000600: bc35 dbf0 fd3c b23f e5ce 79db 35b2 9f3f
00000610: 5a0f 9c70 b5cc 89bf a07c 5d03 cbb5 9fbf
00000620: 9eeb b9b5 1487 953f 27ad 65ee 380e 8f3f
00000630: 7785 feb5 951d b73f c439 614c c824 babf
00000640: f266 d103 b734 95bf 204d 020c ada1 d93f
00000650: 1c0a 4e3c 3537 c43f cdaf 0c3b a6fd cd3f
00000660: 65ce 9472 2f52 d1bf f695 274e 8efb c5bf
00000670: 0135 f9e7 cebd 8dbf ffb2 37a9 20a3 db3f
00000680: 43dc d1ab 5207 cfbf 8642 dc7a 5af6 a03f
00000690: 3413 0a26 f33f c03f 1be0 d2d0 2ff4 bb3f
000006a0: 1da3 5f41 7aac ccbf 99c6 d3c2 9e67 af3f
000006b0: 46d2 f234 86fe b3bf a697 4164 3889 af3f
000006c0: 1141 9853 3624 b9bf 532c 63ec 0517 c5bf
000006d0: e89c 20b8 8668 d1bf af94 4a3a 5a3a b13f
000006e0: b617 9188 2574 e0bf 929a 658c ea5f abbf
000006f0: 4db7 2f3e 278b d9bf 4ecd 3dc7 a972 e03f
00000700: c092 95ce 636a e4bf 616d d308 2b8e e63f
00000710: f5bc 447d 3c68 7d3f 68a9 fb33 dcb9 d73f
00000720: c343 f07a f880 d63f 4f9d 5502 4fc9 c9bf
00000730: dc8f 4a3d c327 b0bf eb37 440d 2bfb bdbf
00000740: 6924 2e2d 63e3 c13f a1a4 3d4e 9f14 b13f
00000750: 1605 5f80 c84a ad3f 47dd 03c5 5cfc d8bf
00000760: f594 4b49 2b34 a9bf 84b3 5b80 679a d23f
00000770: 03ab 70b6 e129 cd3f 1033 4b4a 2cf4 c9bf
00000780: 8081 af3a b055 a13f 960c 9afb 4cf1 a13f
00000790: ba70 c921 1b21 ae3f 8c37 c7c4 95bd b4bf
000007a0: 7054 52c2 26f6 90bf c3ee 4952 a09f acbf
000007b0: 033f d619 4689 71bf 88cf 97c2 734d a7bf
000007c0: 759f 160d 073f bdbf 03f2 abae ff59 b63f
000007d0: 9f92 074b 29c6 c63f 4d0e a7e9 21bc 9fbf
000007e0: 7fba dcdc 70b4 b9bf 4d78 e7ca e402 a9bf
000007f0: 6f9b 375c 22b9 cb3f 607e e8e5 3a6d a63f
0.02947868722020435 0.04617891848690274 -0.007114899151194996 0.08292885659598905 0.05015914748051344 -0.003762264722090574 0.21378089370021622 -0.04136544216299791
0.007865457150869276 0.04055288525563678 -0.09384921108074111 0.33328638882895983 -0.5543872726620489 -0.21482109812411868 -0.10367951375232078 0.20708589028120056
0.07805930926605799 0.25907107114011513 0.04350576535381989 0.05239441623508916 -0.09138752088027033 0.037257365421901494 0.19649946628358095 0.09765197755360452
-0.36762667153187495 0.22790316959805926 -0.16452933826369587 -0.016929675177019064 -0.06583697650424292 0.3661326285876538 0.5121417882410608 -0.4593222411475159
0.7206733857422727 -0.02221777999980276 -0.6398181472565599 0.06334140894534286 0.2324661419779091 -0.10213397532462785 0.259821057241083 -0.4594428667297893
-0.11404483424197896 0.07184563415893509 0.5365271878505531 -0.13663315201294238 -0.16997984440221175 -0.542858120734675 0.36183313925058574 0.21362651453800374
-0.23866437853017655 0.08806629224911396 -0.04241362442532661 0.4148296869590461 0.49631414349597003 -0.46379034437383626 0.31848838275549024 -0.32059180881683863
-0.2672242971361884 -0.0905296402899056 -0.19651522537105293 0.2817906380794888 -0.37711128198517957 0.18159052615164603 -0.0979857042823114 0.08985619829716687
0.5775881875404829 0.31463657748677293 0.08203484937731967 -0.5263133737403799 -0.32512236885894835 -0.048125245978772956 0.11793938874169439 -0.3328848421869386
0.4251208209250873 -0.6733225243533576 0.9179250457310206 -0.3434212722338239 0.0014786909960612072 0.4068048021780049 -0.4435146013592709 -0.19102423796313317
0.13522008920976814 0.04032924880813042 -0.11493858872382612 -0.035186270231551374 0.02823193446919392 0.012708692346624077 0.0753027517581739 -0.01032958366963065
-0.08596786336027865 0.004637963886679151 -0.07502489703158996 0.07662864862722739 -0.051648857225147164 0.08288862118569128 0.07089286150824338 0.1302891724731473
-0.018929778061811637 0.022690451025698773 0.01764394424518946 -0.029283765819893223 -0.02871588607805914 0.0276889675420698 0.01004663201137668 -0.011271637989970742
-0.02837355517009437 0.004428695573518319 0.10395385684658712 -0.11063921314541471 0.08865074235253836 0.0780807625327018 -0.05822641468771088 -0.07732296491109196
-0.01978990574238886 0.005609134962393881 0.057757724833040994 -0.018001181489453885 0.07637917302228779 -0.036366015280129 -0.0013366065902749224 0.01950653138212251
-0.15997830339536548 0.02982933471819768 -0.027146621222601485 0.10584965684390098 -0.011999688143751524 0.06390247958958588 -0.13520135285107832 0.08696942418371464
0.010939275109470684 0.08694642910644176 -0.05311664752710921 -0.08651175475546315 -0.02842579170032229 0.19503732159806153 -0.027699711406407014 0.07328062517444064
-0.36440904185494927 0.11907761283652325 -0.41156528351792226 0.6089638024696127 0.018109058561176537 0.0748390713407352 0.034751345474022484 0.19316440873256197
0.14023172711529633 -0.1573679830838783 0.19737513608327664 0.05624208039351966 -0.24486085797850443 0.03236892509214095 0.2841975046572887 -0.19002125735721775
0.0302121612003904 0.35833497826773264 -0.510413627965855 -0.6154091293274372 -0.1770705301681336 0.3906569900012219 -0.00039544064876168033 0.28863846048827607
-0.038450977712980706 0.10678336972415019 0.06218243777072924 0.18757884243063314 0.04613815825573016 0.10221688674082055 0.0038302520591160668 -0.15615540657474566
0.0007366357448709537 -0.029174878114966142 0.683955547255321 0.001156334809463427 0.22765000812183145 -0.15853675094575204 0.29198892576720303 -0.053759215109233024
0.48354429777608554 -0.08439337871839281 0.03477927990858658 -0.8551449445807756 0.14300572801416664 0.0884132598067724 0.7477529092587023 -0.10613675915114609
-0.35106852511786574 -0.3277074001995712 -0.04219353749598424 -0.19222554257098393 0.35342724593766867 -0.06796992460179185 -0.12087794162921758 -0.011097000218752501
0.0712431633976029 0.030953256149998238 -0.012597482203552769 -0.0309669228366799 0.021023105231943277 0.015163845801643717 0.09029517834871635 -0.1021237551187602
-0.02070890389254649 0.40049291775467744 0.15793481297085143 0.2343032635047834 -0.2706411951978452 -0.17173937622207774 -0.014522186712520925 0.4318315174594289
-0.24241097821843213 0.03312952756653424 0.1269515929926911 0.1091947445701184 -0.22401359741277185 0.06133743408453291 -0.07810248177231313 0.0615937826521951
-0.09820880452048565 -0.16476511041978145 -0.27200477582159843 0.06729663775566296 -0.5141780536002816 -0.05346615756825658 -0.39911824295892445 0.5139969722207895
-0.6379870447968514 0.7048545048122997 0.007179485594220871 0.37071900440664374 0.35162174230304916 -0.20145595182405393 -0.06310672994965166 -0.11711377214325551
0.13975181299273068 0.06672092113662355 0.057211175604161266 -0.390402977368883 -0.049226143548176816 0.29067409071904415 0.22784062774857014 -0.20276406886696252
0.033856875575795975 0.03504410334883194 0.0588463286155458 -0.08101783804087698 -0.01656399308247497 -0.055905351681727854 -0.004281305152644912 -0.04551278829958877
-0.11424297399082468 0.08731077207989561 0.17792240298799286 -0.030991105924625995 -0.10040955917495785 -0.04885020233972224 0.216587348010957 0.04380210930343931
