models/two_layer_100_100_augmentation_remove_pixels/run_1/biases.npz (npz, 2428 bytes, 3 tensors)

arr_0 f8 [100]
0	0xbfe8e07f28bd7ea0	-0.7774043842036527
1	0xbfb6fc06be1c46e7	-0.0897831167351587
2	0x3fc9a8a011ff7ce5	0.20045853499229974
3	0x3fe9f7df229082a3	0.8115077662551652
4	0xbfff863f68227fab	-1.9702753131641468
5	0xbfe475d690b3102b	-0.6393845392381129
6	0xbfe8cc4e8b83814f	-0.7749397969128412
7	0xbfe75f919d8ac425	-0.7304161145203848
8	0x4002a261408a43db	2.329287056178584
9	0xbf9367e3b01b755d	-0.018950994132742028
10	0xbfdd2d6fa9ae9f1a	-0.45589820452231467
11	0xbfe2c3819e109910	-0.5863655173496074
12	0xbfe1bbc02727a452	-0.5541687741034684
13	0xbff589c67f88ac56	-1.346136568240373
14	0x3fe47dfdc1162a0c	0.6403797885153053
15	0xbfe231f25fc2d172	-0.5685970182735629
16	0x3fd3e12a06757040	0.3106179297517464
17	0x3fef642e0d191f1e	0.9809789901564476
18	0x3fb0b21cfb8e3726	0.06521779195301444
19	0x3fecf63708b6ff98	0.9050555391513511
20	0xbff39c2a52c9e991	-1.2256263002333052
21	0x3fe89664ee2f757f	0.7683586742456753
22	0xbff190308f6d99f1	-1.0977025606786095
23	0xbfaa65041bb951e2	-0.0515519412844332
24	0xbff7f4351cdbb56c	-1.49712096474408
25	0xbff2fbcfa9049953	-1.1864773370994797
26	0x3fe4097372d87804	0.6261536830022583
27	0x3ff610be7f55541b	1.3790879224736787
28	0x3fd6e032efd11823	0.357434019275731
29	0x3ff234c48fc852f8	1.1378827682976276
30	0xbfd6f2af195af4fc	-0.35856225467780667
31	0xbfc334749c2a931f	-0.15003831506069162
32	0xbff78f9ca735cb56	-1.472561505474649
33	0xbff4c1a4ff29e93b	-1.2972764937718029
34	0xbfd9b790e6b90d91	-0.40182898074655166
35	0x3fef411ea9538350	0.9766991908219129
36	0x3fe8bd3455556205	0.7730962435408065
37	0x3fb8d970a42570ea	0.09706787116505536
38	0x3ff7b23daf97f410	1.4810158595203156
39	0x3fd2e0409cdab0cd	0.294937279870976
40	0x3fd91fd703c96328	0.3925683533648674
41	0x3fe4292d8dc0b298	0.630026604519645
42	0x3fe870aa91dd6a13	0.7637532090114426
43	0xbfe9bd7b8fdcd1a0	-0.8043802079978839
44	0x3fc72b758a48b75b	0.18101376773978015
45	0x3ff5727322ce0c94	1.3404418334546664
46	0x3fd8a88d0c00bce1	0.38528753444820835
47	0x3fe1c76a230f8023	0.555592602231631
48	0xbff1259ca0a0e633	-1.0716825747061989
49	0xbfd76cabd73a14e1	-0.3660077668976794
50	0xbfefb58427df9069	-0.9909077433371866
51	0x3fe8f35e07fb260f	0.7797079234962342
52	0x3fe1e32f868fe08e	0.5589826229252297
53	0xbff17d36fb249049	-1.0930700121180215
54	0x3fdfd13a25f8f3e5	0.49714521129845785
55	0x3fe2c76a634527d4	0.5868427218313124
56	0xbfc7f457f0e6cf8d	-0.18714427244924217
57	0x3fcbece9ab531a26	0.21816750398120738
58	0x3ff67d960378e5ed	1.4056606422076314
59	0x3ff53217903a0269	1.3247295030452284
60	0x3fdf9241e1919cc3	0.49330184009745554
61	0x3fc48607046ce5d4	0.1603401919945059
62	0x3ff905cc1e2d6133	1.5639153651046172
63	0x3fe9074a36099cdd	0.782139878789987
64	0x3fee46f309d40b6f	0.9461608116110777
65	0xbfe2580d856cdd2b	-0.5732486349069509
66	0x3fed707c77d01dbb	0.9199812259766341
67	0xbfe3c99d30f6db23	-0.6183610874494189
68	0xbfe7c9488b42b432	-0.743320724480901
69	0xbfc156c7f54a0e54	-0.13546084858909302
70	0xbfee3d3612d0dcde	-0.9449720733163323
71	0xbfc36c528824f064	-0.15174323699636993
72	0x3fd6fdd9f043e47f	0.35924385512732465
73	0xbfeccd6eab8b6299	-0.9000771856763833
74	0xbfd58d0e2411706b	-0.3367343284824133
75	0xbfd68095fc1eef24	-0.3515982591741127
76	0x3ff45cadca715afd	1.272626677314917
77	0xbfcd0aeebc978454	-0.22689613541209275
78	0x3ff384b99a56f954	1.2199035672088785
79	0x3fc7796d0f30eb48	0.1833931278395886
80	0xbff424d64e39119a	-1.258993440206814
81	0x3fc7562c98f12432	0.18231732814663953
82	0x3f91e2b9c9f6f6d5	0.01746645255274511
83	0x3fc0fc2a78fca15c	0.13269549281654747
84	0x3fffe3723b1a8be6	1.9930288609255
85	0x3ffb3de5fd252d80	1.7026119125829098
86	0x3fe9f5ce04e38ddf	0.811255464123345
87	0xbff4623031a6ac87	-1.273971742581837
88	0x3ff99fc9655a5476	1.6015104254813912
89	0x3fe2ec9df1c49448	0.591383907511621
90	0xbfb39589a8855f91	-0.07650051464349718
91	0xbfb9e99ffbb32455	-0.10122108359350197
92	0xbfe9b219d8ec4992	-0.8029908406045243
93	0x3ff17886fb67cbd9	1.091925603916698
94	0x3feb712e38ceb465	0.8575659856338801
95	0x3fe1e014f14b841c	0.5586037361900966
96	0xbfe72e631ab16df4	-0.7244124909734055
97	0x3feac708dccd2f55	0.836796218159615
98	0x3fe2a961475f7d32	0.5831762689594255
99	0x3ffa36a5025d86b0	1.6383409588237718

arr_1 f8 [100]
0	0x3fe6f48170a6aac1	0.717346878072327
1	0xbff555e9467ae225	-1.333474421799232
2	0xbfd905b9db2bf79c	-0.39097448733797946
3	0xbfc92c0066fffc20	-0.19665532140058506
4	0x3fd546cfbd818f25	0.3324469900746741
5	0x3ffa5e765415e190	1.648062065562133
6	0x3ffd7b42e59aba6b	1.8425930947229527
7	0x3ff445e8f5aa9060	1.2670678707445617
8	0xbfce02a43668bafa	-0.2344556108159493
9	0xbffb8dacd05b79c1	-1.7220886362989491
10	0xbfc8bef5aa6940a1	-0.1933276254735619
11	0x3fd3bb37b2978861	0.30830185356729173
12	0x3fbebad1e83e23e7	0.1200381462096086
13	0xbfd2e4ef9ce59c96	-0.2952231437870493
14	0x3ff70504a844ad20	1.438725144670407
15	0xbfcba0fd4424efe8	-0.21585050418241214
16	0x3fe3b42a03d90899	0.6157426905777071
17	0x3ff7de911456a316	1.49183757729242
18	0xbfee245121d63a83	-0.9419332180858223
19	0x3ff0651418b10880	1.0246773685944675
20	0x3fe0577e51ac3949	0.5106803507967835
21	0xbfe64928ac1db52d	-0.6964305268899459
22	0xbf9ea710b2112bff	-0.029934178226806548
23	0xbf6b82fe5ff158b8	-0.003358361078009766
24	0x3ff7662994dd3e91	1.4624419989594666
25	0xbfd6d9671cbc38ab	-0.35701921278167487
26	0x3fecfeba4095deff	0.906094671386171
27	0xbfbbd8cda0696725	-0.10877690473844533
28	0x3ff3dccfdb86d721	1.2414091658842568
29	0x3fe49e68b1537c4f	0.6443370307350821
30	0x3fe32b87c671f482	0.5990637660867295
31	0xbff97b7f302a2951	-1.592650592940647
32	0x3ff23cfe8c40ede0	1.1398911932618532
33	0x3ff1b54f4ab4d39f	1.1067650716988522
34	0x3fdd74753c3501cb	0.4602330291709477
35	0xbfde84e1ad905882	-0.47686044644923
36	0xbfef4671d20afd46	-0.9773491957093163
37	0x3feb7003b8c4a236	0.8574236496688801
38	0x3fdc8142405d47b0	0.44538933072646625
39	0xbfa56bdef5cfb26f	-0.04183861494661733
40	0x3feb19e46acb5c81	0.8469106756046046
41	0xbfc42f63e3d25cb3	-0.1576962339792992
42	0x3feb0be61dd7362e	0.8452025015664668
43	0x3ff474381f869589	1.2783738357041747
44	0x3fea9a61800d2264	0.8313453198434897
45	0xc002f1aab189e61c	-2.368001353283729
46	0x3fb3539b30be8518	0.07549447956127542
47	0x3ff010788ca3e006	1.004021214843307
48	0xbf9f869c9e52f2f6	-0.03078694073041085
49	0x3fdf50315e22118e	0.48926958267863874
50	0x3fe0cf6ddde0a787	0.525320943216898
51	0xbfc02c31761d9244	-0.12634866969450986
52	0x3fe8a725b4774f03	0.770403721306565
53	0xbfe7303b6b93b57f	-0.7246377087700892
54	0x3feee7ce330ae39c	0.9657965657162211
55	0xbfe61c445fb3cb9b	-0.6909505719362302
56	0xbfeb6872bfca2812	-0.856500029172141
57	0xbfa45a02dd5b8d9a	-0.03974923088187694
58	0x3fef88ca83618bd7	0.985448128322214
59	0x3fff89fe2eade729	1.9711896727953422
60	0x3fe1d3c09de5e8fb	0.5570986827799794
61	0x3fdb8fa7f0016f96	0.4306430667691016
62	0x3fd78498b624d4d3	0.36746804988372367
63	0xbfd2fdafd02aeb9b	-0.29673381165383156
64	0x3fc3debe6264129f	0.15523509792560206
65	0xbfe9a6a1c50dcb87	-0.8015908096989371
66	0x3fdb7f5e2ef8ab4c	0.429648919935677
67	0x3fe75d815e1faca4	0.7301642263750137
68	0x3fdb1d7f233fc929	0.42367533151913733
69	0x3fea6a081dd027f5	0.8254433233535098
70	0x3fe62a4ec2d92bc5	0.6926645093566256
71	0xbfcb1ca6c2ecaaba	-0.21181187169834975
72	0x3fedf3525626362f	0.9359523470499819
73	0x3ffa0cbf160c8330	1.6281119214329003
74	0x40009f00c25fa0d6	2.0776381669457846
75	0xbff0f502d6c130ea	-1.0598171604970568
76	0xbff5bb602b54fbbb	-1.358246011033528
77	0x3ff5e0b755a6139e	1.3673623414663107
78	0x3fe4843d5b4c0020	0.6411425383703353
79	0xbfb49db41b11871d	-0.08053136502124088
80	0x3fe45266c2ee6519	0.635058766102847
81	0xbfb45677150a17bb	-0.07944435371072604
82	0x3ff7170375347a24	1.4431185320205566
83	0x3fdcc8f3260675c3	0.4497650023784809
84	0x3ff4639d950991bf	1.2743202039501822
85	0x3ff33b8d19c5f023	1.2020388609662482
86	0xbffc6d106c032602	-1.776626989291231
87	0xbfc1a3ab374cd0a1	-0.13780727577398458
88	0xbff28c69038a6452	-1.1592798364929604
89	0x3fd54bdece08b9f0	0.3327557575275071
90	0x3fe42e74b0c9ef14	0.6306708767801603
91	0xbfd13f1d15ad1290	-0.26947714916995213
92	0x3ffe3e7421b9572f	1.890247470602343
93	0x3fe9848806db7b6c	0.7974281438763291
94	0xbfe4f96b719f4b60	-0.6554467410263491
95	0xbfe440776a3f00dc	-0.6328694415206217
96	0x3fc3ec72e2edbf8a	0.15565334396842118
97	0xbffb52ba3d66e97c	-1.7076971434131272
98	0xbfddafb5c6edd6ef	-0.4638494913736925
99	0x3fa51bcd06862fd3	0.041227728887946256

arr_2 f8 [10]
0	0x3ff188d8dc69cd05	1.0959099397558145
1	0xbff57b04fbbeaf71	-1.3425340493949671
2	0xbfb861c5d9e41cf3	-0.09524189538580057
3	0xbfe5df7914678326	-0.6835294149896967
4	0x3fe5097cd9207ae3	0.6574081650504379
5	0x3ff2e1b61394654e	1.1801052822905436
6	0xbfdf0a8d1783e023	-0.48501899048233293
7	0xbff99d3339724465	-1.6008789295194898
8	0x3fa5ac4ac32f1876	0.04233010895363602
9	0xc002394360ca6846	-2.277960544754964
