models/two_layer_100_100_augmentation_remove_pixels/run_1/weights.npz (npz, 715948 bytes, 3 tensors)

arr_0 f8 [784, 100]
000000 a2 85 9a 51 a1 60 c1 bf fa 88 8f 7a 36 31 74 bf
       -0.13576141819525583 -0.004929745490672705
000010 fd bc 40 df 63 6b a2 bf 25 eb c4 0d ca e5 9a 3f
       -0.03597557163481644 0.026267201509862965
000020 42 29 81 59 d1 ae 96 bf cc 28 73 7f c7 77 b8 3f
       -0.022151251876757934 0.09557768689697638
000030 43 95 e4 ed 97 4b b2 bf 7a 8f af d0 80 48 b3 bf
       -0.0714659648698062 -0.07532506079547643
000040 9a d7 04 73 b5 39 9f 3f c1 6e e2 53 43 9c ab 3f
       0.030493579049298704 0.05392656706791633
000050 40 0c bb 77 eb 3c ae 3f d2 67 5a 86 2f 00 b0 3f
       0.05905853115611892 0.06250283269983406
000060 f0 54 8b 35 43 7b a1 3f 62 af 9c 9a 7f 0e c2 3f
       0.034143543516316543 0.1410674576703697
000070 ca 72 73 f1 a4 78 a0 bf 3d 3d b9 76 59 e6 b7 bf
       -0.032170443033213994 -0.09335860394025004
000080 c2 7b c3 92 57 04 b8 3f 2e 80 8e cf 77 1c b7 3f
       0.09381625493141058 0.09027813737202514
000090 08 73 b4 63 e4 d5 b5 bf 51 06 d3 41 e9 73 ba bf
       -0.08529498514367273 -0.10333116395033783
0000a0 28 72 d7 de 1e 9f ad bf 0b b3 40 d4 6d b2 61 bf
       -0.05785461874231529 -0.002160276899323304
0000b0 06 ba 0b e3 4f cb 84 bf 47 46 4b fd 6d c6 96 3f
       -0.010153411976230774 0.022241324028817535
0000c0 2d 40 aa 7e 30 fd a7 bf d7 c5 e8 cd a5 d5 b2 bf
       -0.04685355707363246 -0.07357250477868803
0000d0 e0 96 68 9a 28 0d ab bf e1 05 8b f0 6e 94 c7 bf
       -0.05283476719732305 -0.18421732659594084
0000e0 50 db ab 4d f1 95 b2 3f 35 93 8a 68 40 9f 73 bf
       0.07260044237396568 -0.004790546031163957
0000f0 11 eb d6 4f 6b 6c b9 bf 0c ba 56 09 ea ca ad 3f
       -0.0993105955048288 0.058188737525927875
000100 7c 45 86 4d 8e fa 9d bf 22 18 15 62 a2 37 ad 3f
       -0.029276107293815454 0.05706508109373966
000110 0b d9 9f 9b b8 a2 94 bf 1e 75 8e 2f 9b 79 bc bf
       -0.020151981829223547 -0.11123056326910727
000120 78 ee 31 60 b2 f7 a0 3f e0 22 45 b9 17 27 bd bf
       0.03313977646118088 -0.11387775681681545
000130 e7 2d cd 3a 36 95 85 3f 9c 37 8d db 94 af 9e 3f
       0.01053850523898965 0.029966665172927884
000140 a8 7d f7 2a d3 c5 9d 3f 62 26 f6 5a 9b c6 ac 3f
       0.029074954507334688 0.05620275006647259
000150 29 00 7a 19 c9 9d a1 3f 4a 5a 2a f9 4a 38 b6 bf
       0.034406933174068684 -0.0867964609445632
000160 9a 28 1b 28 1a f9 c0 bf 5c 94 f5 0f 50 46 93 3f
       -0.13260199507050602 0.01882290933044249
000170 22 10 5e 36 2c 7b b5 bf 8b 9f 9f 3c 38 32 a1 3f
       -0.08391071631746219 0.033586270714123755
000180 1e 18 c8 56 be 43 a1 3f 1f 2c e8 14 4a b9 97 bf
       0.0337199669775574 -0.023167760397012068
000190 71 de 65 3b 8b a3 96 bf da b4 c6 0a 8e 9f a7 bf
       -0.022108245373117123 -0.04613918191476225
0001a0 0b e0 ca d5 a5 0f b0 bf 0c 19 c7 7b bf f1 c8 3f
       -0.06273876637976643 0.1948775629409244
0001b0 1d 21 d6 60 2f 3f b7 bf 9b da 84 3f 26 77 94 bf
       -0.09080787767573324 -0.019985768916024865
0001c0 c3 0d 19 7c e6 33 93 3f f7 f4 65 60 fd 26 a1 3f
       0.018752671551067978 0.03350059320198711
0001d0 d3 ce 99 7e ac de 97 3f 7f 79 83 85 1e 95 c0 3f
       0.023310370661831236 0.12955075759141363
0001e0 cf 88 08 ba 41 e3 ac bf 5c b5 21 95 59 88 ae bf
       -0.05642133136667981 -0.05963401742415428
0001f0 0b f6 b8 1a 0c 5c af 3f 65 d7 90 7f f1 d4 96 bf
       0.06124914003565259 -0.02229668942546627
000200 51 36 8b 92 a8 ea b2 3f 9a 1a 8a ca fd 64 c1 bf
       0.07389310434083397 -0.13589451207754594
000210 ec 9d ca dc 16 20 ad bf 3d 18 44 97 12 79 a0 3f
       -0.05688544697960282 0.0321737107897637
000220 3e 2b c5 92 59 86 a2 bf b4 45 17 67 ed a7 66 bf
       -0.03618125836017903 -0.002765620877405362
000230 5a fa 29 f2 3b 29 be 3f 4b 95 3f a4 89 84 9c bf
       0.11781668340879872 -0.027849341058659587
000240 c2 5d 1b 9a 13 37 b5 3f 30 b2 04 32 3d 0d b1 bf
       0.0828716517674968 -0.06660826178694701
000250 37 a8 24 c7 1a 3d c5 3f 4c 1c c4 15 a2 9d 92 bf
       0.16592726444042835 -0.01817944772576778
000260 6e e4 ef c5 1e a6 b0 bf ff 6e 27 f2 59 65 98 3f
       -0.06503479320953584 0.023824124722394476
000270 76 8c 33 81 af 6b 5b 3f 18 a3 98 21 60 bf bf bf
       0.0016736234581962417 -0.1240139085790698
000280 85 59 8e 24 ca 3b b8 3f 38 ea 11 19 ca 86 c7 bf
       0.09466231720430159 -0.18380094741935848
000290 39 ab 16 b4 16 94 a6 3f 08 ac 67 4e 73 98 c0 3f
       0.04409857700678405 0.12965241745345701
0002a0 de 4b 3a 8d 9b a8 ab bf e2 d3 fa 5b c4 53 b4 bf
       -0.054020749082290584 -0.07940318341827848
0002b0 73 c4 c8 7c 15 f6 b4 bf e4 2f 83 56 ae 23 8b 3f
       -0.08187994286051196 0.013251649871015965
0002c0 90 14 a2 41 4c f5 b7 3f 6e 5c 0b 7c 5c fc a4 bf
       0.09358669855471846 -0.040987863676200983
0002d0 dc ad c2 f9 c9 12 ae 3f 34 38 82 34 8d 55 ac 3f
       0.058737098444307384 0.05534020677542664
0002e0 5a 9a 28 3a eb 3c 86 3f 26 ef da 26 bb 26 bf 3f
       0.010858380997047213 0.12168473909963193
0002f0 17 a5 15 36 88 13 c3 bf d1 0a b5 60 3f 43 c4 bf
       -0.14903357163283523 -0.15830223295241422
000300 0b d6 22 2c a1 2a a9 bf 49 5b 9e 1c c1 43 bc 3f
       -0.049153362882332706 0.11040884922691165
000310 9e 6b af 26 ec 15 5a 3f be b7 97 c9 9f ed af 3f
       0.0015921407855248103 0.06235980354163882
000320 79 02 64 88 0f d5 80 bf 72 8d 55 36 9f 05 95 3f
       -0.00821888098698874 0.020529258433624027
000330 bc 8c a8 b4 c8 9d 7a 3f 52 61 27 4b 1e 08 b2 3f
       0.006498130804661158 0.07043637594995758
000340 5d 40 b1 f7 21 8b d1 3f 34 07 ef 8d 02 ce 95 bf
       0.2741169852133732 -0.021293678200670033
000350 da 39 88 11 6e 24 b2 3f bd 07 f1 25 c7 74 aa 3f
       0.07086837699919304 0.051672194844754916
000360 d6 e9 19 7e bf 40 b3 bf df 8f 8d 56 d8 d0 c3 3f
       -0.07520672634738132 0.15481094576091345
000370 a4 0f db 18 15 18 b2 bf bb 53 31 c9 c9 87 85 bf
       -0.07067996842221064 -0.01051290173760743
000380 62 55 b9 56 76 f3 aa bf 23 38 71 2c c6 26 aa bf
       -0.052638719641133105 -0.051077073025780594
000390 cb 3b 65 17 c3 d9 b7 3f 97 e9 3e c3 93 ff a6 bf
       0.0931665355794699 -0.04491864927645677
0003a0 ca f3 b8 41 0f 1c 62 3f 33 67 4c 9c df 4e 6d bf
       0.0022106454833008314 -0.0035776488679290174
0003b0 32 32 b0 3d 6f 05 a6 bf 61 72 2a c7 27 f1 a0 3f
       -0.043010212211900614 0.03308986955855598
0003c0 bc fb 1e b0 23 02 98 bf 28 1d 82 52 fc b9 c1 3f
       -0.02344566118676615 0.13848833111499315
0003d0 e4 67 d7 0a 77 33 bc bf c6 96 fe 7a 7a 72 91 bf
       -0.11016029371913266 -0.017038263089168358
0003e0 f6 fa 96 88 eb 6a b6 bf 5d 21 9a 60 c1 8f aa bf
       -0.08756897053443055 -0.05187801651215083
0003f0 b6 bc 49 c0 74 9c be 3f 4c 62 6b b6 64 a5 b0 3f
       0.11957483000309108 0.06502370313263234
000400 0d a8 19 fe c0 50 c0 3f 54 1d 0b f6 7f f9 a4 bf
       0.12746441275822953 -0.040966032776447975
000410 3a 39 1d 68 d1 ba b1 3f ab f7 27 f5 81 ef c3 3f
       0.06925686637734865 0.15574669332994281
000420 e2 64 8f ff e7 ec c2 3f be 7e d5 b5 13 e5 c7 3f
       0.1478548047878468 0.18667837504016477
000430 e4 09 74 e3 bd fb b0 3f 81 a1 07 a6 2f 60 a3 bf
       0.06634127429064268 -0.037843216912565765
000440 4d 54 69 b1 a5 c5 ac 3f 6a d2 a7 8d b7 bf a4 3f
       0.0561954287592604 0.040525184671342654
000450 a4 84 04 d0 a8 e4 92 3f b7 63 c9 1b e6 5e bc bf
       0.01845039147986384 -0.11082304170976341
000460 c0 f0 b2 59 59 16 bd 3f 30 f9 27 62 cb 4e 9c bf
       0.11362226905743267 -0.027644327035880767
000470 33 f5 6f 65 90 02 87 3f 82 5e 21 39 ec 44 ad 3f
       0.011235359283086587 0.05716646382705638
000480 b7 55 d9 23 03 82 c2 bf 5d 29 1b 9e 9f 01 97 3f
       -0.14459265947759345 0.0224671306848817
000490 52 9a d6 10 9e 4a b2 3f 9c 94 fd 4b fc 1c a8 3f
       0.07145107184496993 0.0470961420785809
0004a0 49 e6 18 e9 13 af a4 3f e7 c4 bf 3d 6c 5b b0 bf
       0.04039823742318711 -0.06389500148340553
0004b0 fe 24 7a 23 e5 85 81 3f b2 1f 50 5d aa 4f a6 3f
       0.008556165833641046 0.04357654942583568
0004c0 66 6b b9 a0 63 8c 95 3f 37 65 b5 d3 0e 07 c4 3f
       0.021043354687530956 0.1564653905614166
0004d0 0e b4 15 3f 92 6e b2 3f 83 fd 52 58 6e 69 b1 bf
       0.07199968376308183 -0.06801499992706365
0004e0 c6 e9 af 8c 28 27 b0 3f 40 23 8e bc 8d 6b 90 3f
       0.06309750971551073 0.01603528464650883
0004f0 6d 4e b9 17 e1 fb 5d bf 0b d8 a0 60 e0 d4 61 bf
       -0.0018300722284906549 -0.0021767027256158803
000500 a9 26 74 7d 3a 3d a6 3f 04 d0 6c a2 a1 9e 98 3f
       0.04343588620583933 0.02404263070930314
000510 bf cc 7b ab 1a df 9c 3f c3 a8 12 63 01 26 8c bf
       0.028194824902084244 -0.013744364582027995
000520 54 f0 44 60 21 1f a8 3f ae 0d 7f 63 f9 dd be 3f
       0.04711250591432817 0.12057455710514972
000530 c4 ad bc e7 46 e2 90 3f 05 36 b6 66 df 02 b1 bf
       0.016488178152185076 -0.06645008332835552
000540 ba 7b e8 a2 1d c1 90 3f 1b b0 58 d1 f7 8f ae bf
       0.0163616781884419 -0.059692138962731366
000550 5b 20 d5 0b 21 3b b7 bf 50 38 94 be a9 29 b0 bf
       -0.09074598826293949 -0.06313572790915711
000560 ea 44 7e dc 2d 6b b3 bf 72 4d af ae be 03 ba bf
       -0.07585417397628516 -0.10161964192166353
000570 53 da 05 4e a5 d5 c1 bf 69 f1 ec 3b f5 56 b0 bf
       -0.13933245000562752 -0.06382687294985136
000580 14 53 e5 55 ec 7a 9f 3f 77 b6 e9 df 5f 39 a1 3f
       0.030742352240241536 0.033640857775805104
000590 a9 68 2b 85 c8 1c a0 3f 65 bf 95 4f f0 6f aa bf
       0.03146959901433039 -0.05163527461524956
0005a0 6a 9c 07 f8 be 29 b7 bf 61 47 2f 1d 57 ac 85 3f
       -0.09048074298299161 0.010582619264741746
0005b0 67 cb 78 d9 de a0 a7 3f 44 9f b6 b1 49 aa 8c 3f
       0.0461492195576259 0.013996673332101424
0005c0 ee 19 43 19 e3 d5 80 bf 83 19 45 38 b6 28 68 bf
       -0.008220457275808859 -0.0029491003971628417
0005d0 02 c0 50 76 a6 aa ba 3f 91 17 9b 9d 48 38 b4 3f
       0.10416641605911539 0.07898382041739029
0005e0 d6 d9 65 87 d7 44 c1 bf 60 06 4c 2a f5 51 af 3f
       -0.13491338835929295 0.061172162450031875
0005f0 23 d9 43 a1 fa 04 a1 3f 54 24 ab 94 ed 3e c2 3f
       0.03324111193244252 0.14254541167454937
000600 5c 74 de cb 42 33 a1 bf 05 db 8b 4e 81 56 99 3f
       -0.033594214807842276 0.024744053286634777
000610 f7 cc 08 cf 35 11 87 3f a3 fc 75 9d 90 c7 ac 3f
       0.011263294583022871 0.05621005937700232
000620 40 80 d2 87 d5 b1 b9 bf 0a c4 f1 fa 98 2e c0 bf
       -0.10036978307698607 -0.12642204526085293
000630 e4 f0 13 33 42 95 93 bf 1e 37 d9 7b af f6 a4 bf
       -0.01912406384234168 -0.040944560878968014
000640 73 b8 cf 98 38 b2 92 3f 18 41 28 f4 ff 61 c3 bf
       0.01825798447310274 -0.15142821714153665
000650 12 c2 48 fc 1e 28 b7 bf 07 0e ad 60 d3 2e a2 3f
       -0.09045594844133856 0.03551350169302841
000660 d5 ba 23 df 57 b6 b1 bf 55 e3 b9 1b 0a 35 a8 bf
       -0.06918858716720007 -0.0472796591611259
000670 e3 43 93 f9 ba 9f 9a bf ec eb 92 8d b7 49 83 bf
       -0.025999948008408224 -0.009417947776787693
000680 8b 81 8d 05 b0 b1 bc bf eb b2 31 6f 7c 06 b7 3f
       -0.11208629737439517 0.08994271959972948
000690 b8 e1 e8 2f f0 69 c1 bf 7a c4 27 bc cf 03 b0 3f
       -0.13604547824230706 0.06255815833698533
0006a0 d3 38 9d ca 0c 22 b1 bf bc 9d 92 78 3f 11 90 3f
       -0.06692581125864487 0.0156907956449268
0006b0 61 17 47 52 bb bd 57 3f da 9b 11 7c cf 08 c1 bf
       0.001449044161846179 -0.13308137472196685
0006c0 7a 08 4a 16 68 17 b0 bf 02 50 24 92 0b 87 a0 3f
       -0.06285715622110102 0.03228031310041503
0006d0 50 0a f4 9e 88 74 5d 3f 30 c1 52 11 3a fb bb bf
       0.0017978033245646015 -0.10930216715747032
0006e0 2e 1a 07 7a dd ca b0 bf 46 eb c9 89 1d 06 99 bf
       -0.06559547642891836 -0.02443739083762899
0006f0 c3 70 18 b5 77 d0 a5 bf 77 55 f1 2b 2d 6d b7 3f
       -0.04260610662115163 0.09150965044803692
000700 2e 91 b1 72 38 58 a0 bf a5 01 20 5a 53 65 c0 bf
       -0.03192306900089857 -0.12809221172939292
000710 7f 23 a4 0d 2e c7 bb bf 90 9c e0 20 9e 03 b7 3f
       -0.10850799401317877 0.08989895155592564
000720 fe d9 78 6e de 28 c0 bf 11 b5 5e 9b e2 1d a1 3f
       -0.12624721902984953 0.03343113085370864
000730 e7 42 0b c1 a6 cc ad bf b5 ad 85 e5 0e 32 94 bf
       -0.05820199114316953 -0.019722206839487295
000740 f1 4d b1 2b 37 65 b2 bf ac 78 13 20 01 51 b2 bf
       -0.07185692612375029 -0.07154852898699698
000750 9c 34 fd 3e c9 fe a9 bf 23 9d 99 57 9e 89 bc 3f
       -0.05077198881063191 0.11147489203141396
000760 f6 97 1b 5f 6d 21 87 bf ff cd 5b 67 57 56 b1 bf
       -0.0112942261361688 -0.06772371552852262
000770 3c 3a b0 f8 23 74 83 3f 42 d5 d3 44 16 4d ba bf
       0.00949886419951184 -0.10273875408514235
000780 b5 ba 99 5f 26 b8 73 bf 67 fc 25 b9 8b a4 93 bf
       -0.004814290901420539 -0.019182379890022718
000790 a8 8b 4b 7a bf 5e b0 bf 2a 5f c2 0e 01 b9 a3 3f
       -0.06394573913307389 0.038520844508808175
0007a0 9a 62 5f 3d 00 81 96 3f 9c 32 1d 90 1f 77 a2 3f
       0.021976474519621016 0.036065088598296685
0007b0 a5 10 82 73 a5 0f a1 bf 8a 12 ad c7 b5 00 97 bf
       -0.03332249674807145 -0.02246364623285272
0007c0 8e 44 fa f2 a8 0a 9d bf 62 21 4c b6 a2 d9 86 3f
       -0.028360977010895065 0.011157294452929182
0007d0 00 d1 04 8f a4 f4 ae bf 02 cd 1d 39 40 c4 a1 3f
       -0.06046022649607785 0.034700400325983
0007e0 79 13 6c d3 c9 7d a3 bf 46 67 58 dc b9 1a 78 3f
       -0.038069064195986387 0.00588486291737828
0007f0 d3 be f8 68 b3 cb 9b 3f e2 2f 42 3f 12 5e b9 3f
       0.027144244462930466 0.09909166378400827

arr_1 f8 [100, 100]
000000 b2 90 d2 3f 2d 82 99 bf c4 56 29 87 72 47 ba bf
       -0.024910647411744598 -0.10265270042267632
000010 dc 41 da 84 8c 9f a2 bf 9d 29 22 37 ed 62 ab bf
       -0.03637351152167742 -0.053489125232846414
000020 ed 36 53 88 ed 0d a4 3f 05 70 ac bd 01 12 d2 bf
       0.0391687611496375 -0.28234904787836995
000030 a7 21 fc e7 f8 fb a5 bf f3 61 ed 21 8f 54 c9 bf
       -0.04293802100989135 -0.1978930392895247
000040 5b c8 01 4b b7 d9 b1 3f 1f 78 4b b1 b4 c7 bd 3f
       0.06972833234047597 0.11632851913915986
000050 b3 a0 1f 02 c1 79 9d bf 69 f0 dc 6f b0 8c 76 3f
       -0.028784766916857673 0.005505265433210929
000060 b1 fa e7 03 0b dd c5 bf 5a fc 08 59 d3 04 aa 3f
       -0.17080819788676174 0.05081806623319869
000070 2e a7 59 4e b4 a5 b4 bf da 57 27 86 f8 24 ac bf
       -0.08065344727370125 -0.054969564796621476
000080 fe 7c 45 82 95 4b b9 bf 6d 9e ca 4d 42 24 8f bf
       -0.0988095706029419 -0.015205877303130689
000090 69 8e 3d b1 a9 64 92 3f ad 5b 81 99 50 f8 bb bf
       0.017962123339556522 -0.10925773379982102
0000a0 46 52 b1 5f 2c 47 79 bf f4 77 2b df c4 df b2 3f
       -0.006171391806749476 0.07372694443208144
0000b0 98 ff e9 02 8a 70 a6 bf d2 74 82 84 33 aa b3 3f
       -0.043827355247230304 0.07681581482980285
0000c0 70 c5 58 ad f7 9f c1 3f e2 f8 1a a7 89 2e 96 3f
       0.1376943203372707 0.021661902260114448
0000d0 36 2d 44 90 3a ec 9e bf c8 a7 94 69 bd 7c b7 3f
       -0.03019801621944148 0.09174712970403143
0000e0 4b 5b 8b 4d 6f e5 be bf 8b 95 c9 12 37 21 a0 3f
       -0.12068839686558623 0.031503411334408225
0000f0 4b aa 74 69 f5 06 af 3f fc d7 09 14 70 fe 47 3f
       0.06059996521283447 0.0007322356469348086
000100 9f 8b ca 93 d0 2d b1 bf d0 f4 4f d5 0b 2c c2 bf
       -0.06710532768424436 -0.14196918407097892
000110 a5 d9 84 8f 51 b9 b6 bf da 56 b8 2c ca 72 99 bf
       -0.08876523736839788 -0.024851950625893383
000120 d2 e5 ae 17 61 4f b0 3f 07 c7 74 ba 5e 9e c6 bf
       0.06371123150065408 -0.17670806984238416
000130 1a 04 16 0a 27 cd 89 3f e5 d2 d6 4b b1 eb a5 3f
       0.012598328585911079 0.042813816554746066
000140 25 56 9d 24 de 94 b2 3f 00 54 13 fe 8b 7e 85 bf
       0.07258404153739002 -0.010495275203007637
000150 a9 f1 63 fd ec dc ab 3f de a7 25 f0 2f b4 ba 3f
       0.05441990464348418 0.10431193936315661
000160 60 08 5d ea 2d cd 65 bf 4f b3 10 f8 55 01 a1 bf
       -0.0026613137041815865 -0.03321331647052849
000170 34 85 46 46 1c 8c b7 3f 42 84 2d af d0 51 b7 bf
       0.09198166576108663 -0.09109215046693556
000180 68 f7 3e 9a 51 9b 85 3f a7 49 6f 2c aa e3 94 3f
       0.010550153274262633 0.020399722063140804
000190 d4 04 d0 fc cb 40 bb 3f c3 d2 0c 36 2f 1c a6 bf
       0.10645747110540366 -0.04318378004828596
0001a0 79 bc 09 99 67 aa a9 bf fa c4 79 9c 3c a0 87 bf
       -0.05012820952549019 -0.01153609612012695
0001b0 4d 32 5a d2 eb fe 91 3f 8c 9a 7e 40 01 19 9c 3f
       0.017574009622466403 0.027439136086878466
0001c0 1c de 8a 5a dc cc c3 3f 7b a9 06 08 5b cb 8b bf
       0.15468935414331575 -0.013571463758883287
0001d0 9d 4d de cc 66 f4 c0 3f 1f c2 64 81 51 e7 b8 bf
       0.1324585438093039 -0.09727963837645646
0001e0 47 29 37 0e 52 38 a2 3f bb ed ab 1d a0 ff 9b 3f
       0.035585941539084724 0.027342321215639603
0001f0 41 39 f1 74 65 ee b4 3f 61 62 e2 ed 40 a2 ca bf
       0.08176263909374361 -0.20807658782429697
000200 a9 88 cc 44 3e 2a c6 3f 6a d0 d1 ab ec f2 a7 3f
       0.17316416129421455 0.04677524182707844
000210 00 b3 b7 32 0e 91 6c 3f e2 62 64 36 93 61 b2 3f
       0.003487136583990469 0.07180137708600001
000220 8c 9c 3e 59 36 28 c8 3f bb 88 ab 05 46 ed c2 bf
       0.18872718198438 -0.1478660133062187
000230 a2 23 d7 4c 05 2b a7 3f 75 5b 0e c9 a6 55 b0 3f
       0.045250096921854124 0.06380693825336244
000240 f7 23 4f 1a a8 bf a9 3f 5c c8 ae bc 57 5a a5 3f
       0.05029034920841718 0.04170488527542268
000250 25 cc f9 e9 d3 98 bb 3f 92 e9 38 d3 ac 9c b8 bf
       0.10780071699427703 -0.09614067227167869
000260 6e 46 f0 b5 af fe bb 3f e9 e6 21 ca 08 56 8c 3f
       0.10935495559558614 0.013835972469894613
000270 5b 76 d5 b0 f3 db b0 bf 54 9c c2 3c df 12 85 3f
       -0.06585619990570406 0.010289901773218237
000280 bc ca 31 9c ec a5 b7 3f d1 5a 1c 6e bd 9a ab bf
       0.0923755532583454 -0.053914947215323424
000290 9b fd 84 47 53 9e b5 3f b2 5b b6 4f f8 68 c4 3f
       0.08444710250932135 0.1594534291477579
0002a0 1a 59 49 76 74 14 bf bf 85 1c df 12 4b 4d 50 3f
       -0.12140586746076956 0.0009949906484381388
0002b0 7f a9 3a 87 fc 68 aa bf 01 67 0a 34 5b 5c c4 3f
       -0.05158223295923658 0.15906848946615784
0002c0 52 0d e9 ce 9e c6 ae 3f c8 e8 70 fe 7b c3 c2 3f
       0.06010910297166085 0.14659070896033755
0002d0 fa b4 45 f9 40 ad a5 3f 18 ee 7d 97 14 1a b8 bf
       0.042337446621653244 -0.09414795588048042
0002e0 a3 42 fa 36 04 26 c5 3f 94 c7 53 85 49 52 6b 3f
       0.16522267040683855 0.0033351360276520723
0002f0 16 5f 66 ed 28 cd aa 3f 75 2f 16 7b 9e 8c bc bf
       0.05234649560878617 -0.11152067666097117
000300 26 5a 8b 5b 5c 00 d0 bf 20 a7 2d f6 98 87 80 3f
       -0.2500220197665918 0.008071131718412838
000310 ab 38 64 10 0e 3b 94 3f 5b 4b fa 9e 3c c0 c2 bf
       0.019756526709038862 -0.14649160158713923
000320 87 4b 6a cf d0 b8 d1 3f f4 0d 24 38 46 e5 77 3f
       0.27690525298492513 0.005833887380734638
000330 e8 4a 9d c7 96 0a 9e 3f 9d 32 47 45 3a 86 b7 bf
       0.029337268765924046 -0.09189190093384032
000340 77 e1 fb c1 55 6e c3 3f f6 da 7c 32 c9 0d b4 bf
       0.15180465671415863 -0.07833535654649978
000350 82 8e 1f e2 3e fc d7 bf cb 28 81 8a 1d 65 cd bf
       -0.37477085192060866 -0.2296482969562191
000360 e9 92 bf 30 70 e3 ca 3f 68 06 d5 d0 fa 5a c1 bf
       0.2100658643750173 -0.13558898159867572
000370 41 54 46 59 85 04 95 3f 42 88 b9 a6 fa 5a c3 3f
       0.020525058339974093 0.1512139619908926
000380 c6 1f ce a2 6f a4 ba 3f 29 ed 1c d8 ab 88 87 3f
       0.10407159542785313 0.011491148503060504
000390 c7 c6 d2 56 0a e5 a5 3f ad 0e 1a 23 ff 09 a2 3f
       0.04276306447844785 0.03523251822937588
0003a0 ed f8 0b bd 8b fa b6 bf 0b af 3c 3e 4b ec b3 bf
       -0.08976052632712923 -0.07782430905779962
0003b0 c0 21 00 32 48 bd 60 3f 58 2a ff e9 34 61 d0 3f
       0.002043381697152763 0.2559330258488095
0003c0 a5 d8 a1 b8 dd 92 c4 3f a4 3f db 08 b6 21 6b 3f
       0.16073199763531423 0.003311973129576944
0003d0 1b 74 78 59 65 42 a3 bf b3 b3 91 a1 d9 ad ad 3f
       -0.03761593548936323 0.05796699616698877
0003e0 16 84 d7 1d 9e 43 a3 bf 45 a2 a1 db 5f d8 bd 3f
       -0.03762525667458065 0.11658286201566977
0003f0 0a 33 b2 32 d2 de a4 bf 0b 28 7e dd 28 b9 c7 3f
       -0.0407624899754407 0.1853381234653287
000400 5d 6c 2c 1e 65 90 b5 bf 37 5f a5 96 ce ae d5 3f
       -0.08423454271944437 0.3387943717148007
000410 02 e8 39 25 3c 05 ac 3f f1 06 9b f6 74 83 a9 3f
       0.05472743944569915 0.04983106146165806
000420 61 19 10 a1 0c 9f c0 3f 22 ec f4 b9 a4 2a ad 3f
       0.12985380043410102 0.05696596879939643
000430 7f 9b 46 1f 8f 64 b3 3f 0b f4 35 96 b1 23 9f 3f
       0.0757531596524199 0.03040959815324488
000440 d2 db 8c 3f 77 35 a5 3f 84 6e 0b 73 01 e4 99 bf
       0.04142353678474077 -0.025283835074203967
000450 e7 18 af f8 14 8f c7 3f 11 56 ff 93 1f 3d b9 bf
       0.18405401366016536 -0.09858891833513207
000460 e5 27 36 b8 c0 d0 c6 bf b6 2c 61 78 cc 36 ab 3f
       -0.1782456302137795 0.053152455992483125
000470 53 f9 8b ce 12 16 99 bf a5 8d a6 98 39 9a cf bf
       -0.024498266083349773 -0.24689407304422875
000480 98 06 ca 2d 6b 62 d1 3f 33 11 7c 3c dd e6 ac 3f
       0.27163199874494515 0.056448854096773714
000490 b4 a6 aa e9 94 7f c2 bf 04 51 7b 69 f5 67 b3 3f
       -0.14451848420622115 0.07580503297078073
0004a0 ed 02 4d 44 05 af c5 bf a1 8a af e5 c0 2d 9c 3f
       -0.16940370402337326 0.027518285769370213
0004b0 90 99 43 e0 d1 8e c7 bf 87 1d d5 71 1f c7 a9 3f
       -0.1840460152663579 0.05034731163555777
0004c0 ca 9b 19 13 41 5c c9 3f 45 12 eb d1 61 04 84 bf
       0.19812787468546694 -0.009773983210274237
0004d0 b4 73 1f 00 50 bb c6 bf 1d e1 49 91 8b 39 b7 bf
       -0.17759132390974985 -0.09072181984982249
0004e0 26 a0 a5 81 4f 7c ba bf d6 f0 7a f0 81 f0 b3 bf
       -0.10345932879647587 -0.07788860436534448
0004f0 50 55 be a9 77 16 b6 3f 75 1e 9c a5 33 89 9a 3f
       0.08628032583358913 0.025914008124372907
000500 c7 34 69 a3 82 bc ce 3f 3b 4e 2c 21 67 23 c5 bf
       0.24012787798930033 -0.1651429092386126
000510 78 d8 6d f9 da dd d9 3f 7b c1 69 de e8 0e cb 3f
       0.4041659770804311 0.2113925062181002
000520 f1 ea ad 45 c6 e9 a4 3f 4e b1 50 d7 7d 2a b2 3f
       0.04084605789735985 0.0709608698531998
000530 6c b3 ca d1 2a 47 b4 3f 04 35 f9 aa 16 c4 d0 3f
       0.07921092626447795 0.26196829506518804
000540 00 3a 2c 70 3b ed b5 3f 97 9e c3 7f d2 49 c1 bf
       0.08565112579911016 -0.13506537664874393
000550 13 8e a7 cf 74 f5 89 bf 49 79 44 7f e6 33 c2 3f
       -0.012675201975930006 0.14220887388450823
000560 39 37 8e a1 30 a0 ca 3f 4f a6 f4 7f 13 a6 ac 3f
       0.20801360977605457 0.055954560632312515
000570 6a 08 d5 a0 80 af bb 3f f3 8b 5e c4 18 02 b5 3f
       0.108146704927124 0.08206324381039547
000580 37 c2 a1 d1 ac e9 a8 bf ea cf 83 d0 a4 38 b0 bf
       -0.048657799329593514 -0.06336431589789951
000590 28 f8 8c f2 d7 1a bc bf 16 be 75 ef 7f 97 95 3f
       -0.10978459998747836 0.021085738172983502
0005a0 b7 31 1d 15 10 fe 62 3f c4 a9 41 4a 46 fa b0 bf
       0.0023184122191308404 -0.06631888687994719
0005b0 d1 b0 e7 52 b6 42 89 3f e0 9f 8f 34 de 0f b9 bf
       0.012334274678288544 -0.09789837630489684
0005c0 6c e3 6d 96 cb 1c c8 bf c3 f3 d9 a9 12 19 c0 3f
       -0.18837876172235768 0.1257651643135472
0005d0 9e 13 38 1c b1 08 a9 bf 27 6d 97 48 05 77 b1 3f
       -0.04889443845244233 0.06822236082318921
0005e0 9d 1e b2 f4 be 6b a7 bf 40 55 71 c4 c4 fa e0 bf
       -0.045743911142435346 -0.5306114041110632
0005f0 00 95 fb 2c 7b 42 b8 bf 04 92 74 b6 9a de ad 3f
       -0.09476442192279322 0.058338961384183846
000600 2d 16 df 2c 4b 5b c3 3f 57 16 9c b8 d9 de a1 bf
       0.15122356120098016 -0.034903339181295116
000610 0d 60 4f 1d 42 72 a7 3f fd 4c 7a af 7b 04 c7 bf
       0.04579359634198008 -0.17982431476830377
000620 bb cb b0 f5 33 5c 8a bf de e0 ec 79 58 7b a7 3f
       -0.012871175704367013 0.04586292732568763
000630 8a fc 28 02 54 3b bf bf 27 05 24 a2 9e f6 a3 bf
       -0.12199902584778691 -0.03899093369728695
000640 a3 6a 46 e7 3a be bc bf 87 93 58 2b 43 41 a5 bf
       -0.11227768083919414 -0.04151353744626989
000650 74 21 26 cb a7 83 a3 3f 8b 0d eb 41 c3 58 bc 3f
       0.03811382632108265 0.11072941169100241
000660 15 d2 83 79 3a 1d c5 bf a2 b4 c2 6b db 53 a9 3f
       -0.16495448048921504 0.049467903999677945
000670 85 9a c2 ca f8 42 c0 bf d1 fb 26 e6 ca 04 b4 bf
       -0.1270438184776205 -0.0781981288809981
000680 6a f5 21 7c 21 83 c4 bf 96 54 73 69 a5 86 7d 3f
       -0.16025179444470022 0.007208486690804558
000690 8c 4c d5 db 40 1d b0 bf 07 e2 01 72 dd 21 ad bf
       -0.0629463707639834 -0.05689899460498187
0006a0 2c 90 a1 05 8b 8d a1 bf 2c f3 4a 27 d2 71 b6 bf
       -0.03428301280726517 -0.08767426928802696
0006b0 bb 96 62 51 a6 af c1 bf 49 ad c3 c9 10 f1 b3 bf
       -0.13817290281183667 -0.07789711881530538
0006c0 f8 3b 96 84 ec b8 7c bf 59 b8 bf 4d cf 7c c3 3f
       -0.007012294672121826 0.15224639221509298
0006d0 e2 cb b9 c3 25 f1 6d bf 41 1b ae 4f 26 dc d2 bf
       -0.0036550271595898612 -0.29468686848888487
0006e0 68 21 91 00 6f d6 d4 bf 96 1c 3f 03 46 2c b1 bf
       -0.32558798842776193 -0.06708180979977593
0006f0 cc 1a e2 b8 7f 5b a7 bf 51 27 18 b1 24 ba 9f bf
       -0.045619956320526706 -0.0309835179414571
000700 94 3c d0 aa 6c 15 c9 3f eb 94 5b 27 6d 67 c1 bf
       0.19596632328509556 -0.1359688226868124
000710 b4 2b 4d f8 3e cc ce 3f 3a 13 51 33 b4 74 c8 3f
       0.24060809253782411 0.19106152063081955
000720 46 a8 0f 5b ec 10 b2 3f 46 d3 a3 c6 7d 5c a7 bf
       0.07057072852299581 -0.0456275277119063
000730 3f 5d 52 f0 f1 b3 ab 3f b8 2c 8d b3 f0 a8 a8 3f
       0.054107246957921344 0.04816391174116447
000740 ee ad 83 e3 33 d4 af 3f 19 e1 ed ae bb 05 b4 bf
       0.06216585304522569 -0.07821248074276745
000750 7d 46 1a d6 61 58 a0 bf 46 8a 5f 81 91 a1 9b bf
       -0.03192430246884912 -0.0269835219586503
000760 2d 9c 07 2f b1 3a ac bf b3 8d 1d 44 e9 21 c0 3f
       -0.0551352853688559 0.1260348875613154
000770 3d 6e ab b4 cf b7 b0 bf 4c 8d 0a d8 7d 1e a9 3f
       -0.0653047386253371 0.049060757276743944
000780 f1 80 58 03 63 49 98 bf 70 ba a9 ce 5a 40 bd bf
       -0.023717448310095205 -0.11426322503550934
000790 05 ad ea d8 00 4a ca 3f 0a 70 fc 25 a6 ba ca bf
       0.20538340179096096 -0.20882107596196448
0007a0 d3 3d ee 8f 2e 55 a5 3f f1 83 4b 7e fe 9d af bf
       0.0416655111977168 -0.0617522744339637
0007b0 2b 4d af 9a e7 70 ba bf 63 3f 85 52 07 13 b6 bf
       -0.10328528906329797 -0.0862278534380017
0007c0 42 30 74 e1 a6 83 b7 3f 63 0e a6 2a 57 80 b1 bf
       0.09185259823078787 -0.06836457053400972
0007d0 16 b4 e2 77 b3 0d 97 bf 49 2e 88 c0 69 d8 c3 3f
       -0.02251320285056487 0.15504190350508143
0007e0 62 9f 46 c9 72 3f 35 3f ac 66 a2 09 57 1c bc bf
       0.00032421638868606305 -0.10980743394102416
0007f0 a0 a5 04 2d d5 93 a1 3f 58 be 26 60 7e e7 81 bf
       0.03433099913156501 -0.008742320355707253

arr_2 f8 [100, 10]
000000 80 c2 36 6d d5 56 c5 3f 45 82 47 3e 3c d6 ae bf
       0.16671245415411207 -0.06022823581929918
000010 b7 97 23 4b ec 2c d8 bf f5 e1 35 4d 77 91 b3 bf
       -0.3777418836383463 -0.07643838534375631
000020 b2 53 90 3a e6 6b e2 3f df df 4a 63 53 f2 d1 bf
       0.575671305067422 -0.28041538902789215
000030 1f f7 3c 88 6c 3a b6 3f ce c6 5b f1 a2 a4 b1 3f
       0.08682897878767591 0.06891840355435905
000040 76 8d 27 f2 8f c2 cb bf f0 db f8 a2 09 eb b3 3f
       -0.21687506984663302 0.07780513981639081
000050 a9 47 12 da 63 b5 b9 3f 9e bf 41 0e 31 0f ba 3f
       0.10042404245385107 0.10179430578295842
000060 51 3d bc 00 33 db c3 bf b2 d2 36 99 1d 6d b2 3f
       -0.15512692962554778 0.07197747221546072
000070 c5 7c a0 31 63 14 94 bf dd 84 99 7a df bf cb 3f
       -0.01960902204893668 0.2167929981833713
000080 63 c9 f7 c2 17 d0 9e 3f dd 01 47 a8 96 e9 81 3f
       0.03009068610658384 0.00874631596605096
000090 86 f5 88 c4 d6 75 be 3f 64 1d 06 45 97 e1 97 bf
       0.11898557947366414 -0.023321498477824845
0000a0 62 6a eb 3f 9e 3d a3 3f bf 69 20 99 1d 8d b6 bf
       0.03757948427456338 -0.08809075344507898
0000b0 b5 e7 16 ab 3d 21 b3 bf 9d 77 45 11 dc 7f d7 3f
       -0.07472596575726594 0.36717893301635646
0000c0 4a b9 17 a8 2b 29 ca bf b5 21 86 c7 9f 27 dc bf
       -0.20438142497682527 -0.43991846546898766
0000d0 08 33 65 89 fb 3b a3 bf 5e 90 de 92 f9 ec ab bf
       -0.037567005655182284 -0.05454234998549688
0000e0 73 13 99 59 50 ea ce 3f 27 a9 6d d3 42 d1 d3 3f
       0.2415256917467122 0.30964728019047744
0000f0 0e 1c f9 30 00 33 c3 bf a9 4b 1e 49 1b 5a 89 bf
       -0.1499939192892445 -0.01237889592065307
000100 17 b5 ea de b7 ee d4 bf f2 74 78 68 b8 a1 e1 3f
       -0.32707020539494763 0.5509912529411436
000110 5c b2 82 11 80 d9 ca bf cf 46 f3 ff 8c a8 ce 3f
       -0.20976258139616533 0.23951876161168292
000120 01 1a 17 8d 45 73 e0 bf 33 5f 1a ae dd 9c ac 3f
       -0.5140712505024682 0.05588429212838122
000130 0b 31 2b 3f 61 c0 c0 3f f6 56 27 15 75 e3 e1 3f
       0.13087096771631254 0.5590157902867918
000140 91 7b bc 52 e8 c6 bd bf f1 cb 86 0a fe 8d c8 3f
       -0.11631633777549967 0.19183326257697744
000150 6d 72 6d 46 7a 60 d2 3f f0 e8 8c 1d ad 02 eb bf
       0.2871385276573964 -0.844076688495333
000160 aa 1e 09 22 d8 f6 d0 3f 5f 8c 59 44 c2 42 c5 3f
       0.26506617854873105 0.16609981858627784
000170 20 59 45 01 4b 69 d2 3f 45 cf 80 5c c8 6b d9 3f
       0.28767657398329227 0.39720353158485394
000180 97 53 60 59 67 5a d6 bf 23 f4 10 c2 bd 19 d6 bf
       -0.34926780441429045 -0.3453211207559567
000190 b8 5c d5 a1 3c e5 cc 3f 31 af 5d 18 96 b0 b5 3f
       0.22574575330756885 0.08472574324485717
0001a0 5d 4b f5 8a 54 14 b5 bf 2c 84 28 9e de 87 d1 3f
       -0.0823414649251339 0.27391782231467476
0001b0 07 53 cd 12 1f 95 ed bf 0a 28 1d c9 b6 82 a0 3f
       -0.9244532935359481 0.032247268724475545
0001c0 f5 a6 00 27 3e d6 e1 3f f1 1a 65 bd 88 a7 be 3f
       0.5574026834267146 0.11974386810207328
0001d0 61 d7 7b ae 4e e6 b0 bf 01 5b 63 91 b8 fb af bf
       -0.0660142112718325 -0.062467353580066394
0001e0 c7 e8 2f ec 5c 4d e0 bf b0 f3 3b 1b d4 f5 df 3f
       -0.5094437230138958 0.4993791833838328
0001f0 c2 44 fd 71 75 6c d9 3f ae 1a 81 e0 54 ed db 3f
       0.39724479800959156 0.43636056827782965
000200 ca f6 5b 50 98 e4 c7 3f b2 89 a9 e4 7e 58 ea bf
       0.18666366504469628 -0.823302694898578
000210 ff 40 7b 7d 1b 7a e4 bf 83 46 3d 5d 7c 5d d8 3f
       -0.6399056864557052 0.38070592027097677
000220 13 ad b1 d9 59 69 c8 3f 8c a4 b6 b1 28 0d c9 3f
       0.19071505670158526 0.19571407964148013
000230 52 f3 6c 75 f0 9e c7 3f a2 05 fb 6d c4 32 ba 3f
       0.18453794225379255 0.10233714757034432
000240 1b 45 2d 81 22 17 e6 bf 56 7a a7 9d 3a 20 c0 3f
       -0.6903240702614853 0.12598355005225653
000250 fa 05 8f 59 e2 44 cb bf a8 e4 37 9b 04 18 75 bf
       -0.213039678315951 -0.005149858468478964
000260 a5 bf 80 4e f7 0e b5 3f c4 9b 30 a0 3a 8e 7b 3f
       0.0822596136720209 0.006727437025836506
000270 de d2 05 02 e1 82 b3 bf bc a7 bc 2a 9f 4c c9 3f
       -0.07621580409415737 0.19765081011547447
000280 96 2f 2b 5a d2 a1 d6 3f ca 9f 4e 61 78 6b 91 3f
       0.35362681203400237 0.017011528910785313
000290 0c 3d f8 36 92 bf d4 bf c7 44 f2 a4 ad 89 d5 bf
       -0.32419257515080413 -0.33652821643870506
0002a0 4a 73 62 d7 93 86 c1 3f 64 68 aa 2b 48 ff a2 3f
       0.13691947953057088 0.03710389645603199
0002b0 f3 1b 0e aa 29 fe c4 3f 9f de 76 0c 39 cb c2 bf
       0.16400643161270487 -0.1468268690930374
0002c0 9b c1 85 fb 66 9e dc 3f 09 c9 f9 e3 90 c5 e1 bf
       0.44716810763113707 -0.5553669407511573
0002d0 bc 07 43 c3 c7 d8 99 3f e1 a9 40 8e b8 70 ba 3f
       0.02524101380618736 0.10328248475040126
0002e0 76 7a 30 22 23 7a b4 bf 20 23 03 98 49 01 c5 bf
       -0.07998866638852484 -0.16410179064248442
0002f0 a7 04 0e 6c ff f8 91 3f 73 03 ef 05 20 01 a8 bf
       0.017551413507594173 -0.04688358375961501
000300 71 f7 82 c9 fd 48 a7 bf a0 48 c2 69 2d c0 a3 bf
       -0.045478754852850474 -0.03857557216646623
000310 79 3a e9 24 fa 29 9a bf 04 39 24 2b 84 88 bc bf
       -0.02555075502669488 -0.1114580731702724
000320 90 0b ae 95 2d df bc 3f 38 a6 56 d1 2f 53 87 3f
       0.11278042702001145 0.011389134956362942
000330 d0 92 3a a1 63 73 b0 3f 2e 42 2d 2e d5 da 76 bf
       0.06426069914102617 -0.005579788909770884
000340 40 50 0c 27 c2 df 34 3f 5d 07 dc 27 27 80 a6 bf
       0.0003185128216938206 -0.04394647943082817
000350 8e 68 50 6b f9 94 a9 bf 02 c1 12 cd 5f e8 be 3f
       -0.049964708661904486 0.12073324925109222
000360 ea 8d c5 e2 ca 93 c4 bf e4 07 76 6d aa 1e b8 bf
       -0.16076026985966446 -0.09421792194737538
000370 12 bb 85 23 a0 6c c1 3f 15 2d 8b 10 d1 bd b7 bf
       0.13612748846522799 -0.09274012235544078
000380 29 6c bd 02 33 95 5f 3f 12 03 02 4e 6d 2e be 3f
       0.0019276617194552515 0.11789591936577562
000390 cf f4 ac af 2c 0e b0 3f c4 81 84 f3 99 dc b0 3f
       0.06271628655391058 0.06586610980276136
0003a0 1a 6a f0 5f cf b3 98 3f 8b 4c 24 9d b2 a6 a3 bf
       0.024123420935305707 -0.03838117759928491
0003b0 90 7c 32 0a eb bd a5 bf 1f 90 a6 3c b5 d8 a6 bf
       -0.04246458529927921 -0.04462210049976555
0003c0 7f 03 0e d9 e3 81 84 bf 88 5c 47 1c 14 1a e2 3f
       -0.010013370572552692 0.5656834175414511
0003d0 b0 9d 0f 62 f6 ce d9 bf 0d ed 32 ee 59 d7 9f bf
       -0.40325698448438185 -0.031094937480458152
0003e0 9e fb 22 aa e6 de d6 3f 56 aa 16 2e e5 ea e3 bf
       0.357354799412798 -0.6224237346808177
0003f0 1b ee 72 8d 3b 47 dd 3f 65 7b a8 e1 ec 4c a1 3f
       0.4574726945245133 0.033790018602522655
000400 f0 2c 5f bd d1 ed b8 3f eb 72 1a e8 1f 14 c0 bf
       0.09737883447012385 -0.125614155132005
000410 ac c7 61 e3 bb 71 c4 bf b5 91 49 aa 46 e0 c2 bf
       -0.15972088434824394 -0.14746936144650893
000420 a8 00 fd 15 09 b5 af 3f 90 18 71 71 87 19 cd bf
       0.06192806619083174 -0.22734158553266015
000430 f5 ac 73 55 07 02 e7 3f 0c bd 73 3d 87 59 9f 3f
       0.718997637651596 0.03061496079038499
000440 2a 24 c9 ed d4 83 ac bf 54 e8 b2 de 8d bc e2 3f
       -0.05569329645783967 0.5855168675982534
000450 41 bb ef b3 e5 27 d2 bf 4e 75 24 5c cf 57 da bf
       -0.2836851365272431 -0.4116094970539351
000460 ea d8 64 63 cf b0 96 bf c3 f3 cd e9 4a ea ca bf
       -0.022158852044605583 -0.21027504364238156
000470 44 32 27 3d f4 21 d2 bf 0d 77 bc 5c a5 bc c5 3f
       -0.2833223912428233 0.16981951740393023
000480 78 51 e6 fd 40 b8 da bf 22 7d d8 ae 25 4f c9 bf
       -0.41749596400156674 -0.1977278808344432
000490 11 eb 87 20 c2 31 df 3f 76 5b 05 20 1b 49 8f bf
       0.4874120061573857 -0.015276157297803055
0004a0 6d dc a7 2b bf 0c c1 3f 28 fd 42 cb 69 25 dd 3f
       0.133201500240577 0.4554085240342425
0004b0 b4 1e bf 1f ff 5d 76 3f 5c 44 35 1c a3 8b ae 3f
       0.005460735872425172 0.059659096902244996
0004c0 48 f1 34 40 db 09 9d 3f 51 03 84 34 1a ec a0 3f
       0.028357911867020108 0.033051318083386357
0004d0 07 93 14 4d a6 77 ab 3f d8 b3 2f 0d 15 82 2e 3f
       0.05364722910807101 0.000232758588566111
0004e0 50 0b d9 d4 83 1a b9 3f 67 1f 8d f4 bd 23 b9 bf
       0.09806083628158757 -0.09820162983407742
0004f0 60 d2 9b 5f ac 6f ab 3f 54 9a 7f 82 67 c3 b9 3f
       0.05358637492273455 0.10063788352963715
000500 b0 b4 3c bd e5 24 d0 bf 92 2e 62 92 9d af d0 3f
       -0.2522520397204273 0.26071872039094857
000510 67 9b b3 99 83 8b d3 3f 81 4f 64 06 4a 39 c3 3f
       0.3053902626983728 0.15018582641698333
000520 19 d0 3c 27 1d a7 de bf 25 af 78 60 fe d4 d9 bf
       -0.47894982177536033 -0.40362510129010537
000530 bf 4e 92 b8 bb f9 d0 3f e2 c9 77 6b aa 28 d0 3f
       0.2652425100761597 0.25248203749575115
000540 eb bb 47 81 ba 68 d1 3f 16 f3 c0 52 48 1e db bf
       0.272017122507292 -0.4237232978955928
000550 ff e8 9d 7f 7f 3f cf bf db 01 8a 8f a3 e7 c6 3f
       -0.2441253064278683 0.17894405850166958
000560 cf 8d 76 c0 86 bb c8 3f ef 58 8c 75 60 56 a2 bf
       0.19322285077679033 -0.03581525263705198
000570 f2 45 26 b2 cd b8 da bf 6b 20 8e c8 2c 17 d4 3f
       -0.4175295104733713 0.31391448579279907
000580 ee fc 82 e2 ac 3e bb bf b7 d6 77 ec 73 23 df bf
       -0.10642509965963473 -0.48653886883344505
000590 b0 ff 85 59 c9 11 e3 3f 26 2a a2 da d2 b0 ca bf
       0.5959212063316865 -0.20852122950994206
0005a0 e9 b4 67 95 2c 5a ac 3f 9b 30 9c ee e6 a6 b5 3f
       0.05537547420304085 0.08457797360842038
0005b0 9e 3c 52 69 ba 94 96 bf e4 db a0 c9 40 05 9f 3f
       -0.022051727941797432 0.030293476396959465
0005c0 c4 f3 00 f4 cf 58 b8 3f b8 78 23 85 3c 6a b7 bf
       0.09510516841051159 -0.09146478891804832
0005d0 01 49 36 e4 ea 52 94 3f 2b 5a 2e f9 42 9f 4f 3f
       0.019847555331190318 0.0009650303858162503
0005e0 01 9b 7c 6f 03 67 b0 3f 25 d6 fb 4e 64 f6 8d 3f
       0.0640718600449013 0.014630111370460839
0005f0 a2 58 0d 87 ba f2 bc 3f 3c 5f 48 be fa e0 9c 3f
       0.11307874486132843 0.028201978553709525
000600 ed 73 16 e2 22 2f d7 bf e9 7b c4 1d d9 a9 e0 bf
       -0.36225196913602425 -0.5207334119221488
000610 ea df 2b 10 74 7c de 3f c9 c2 36 38 be 41 d3 bf
       0.4763460309909521 -0.3008876370395624
000620 23 3b 8f 71 ab 4d eb 3f 68 b5 20 6e 48 2d ce 3f
       0.8532311647375973 0.2357569253667109
000630 ad 71 30 7a b6 70 97 3f 2f 03 aa 49 df 5c ae bf
       0.022890902717436813 -0.059302308790398654
000640 f9 20 33 a1 de 53 b9 bf 35 0f 70 22 12 d0 db 3f
       -0.09893599925556264 0.4345746361070611
000650 8c b9 c1 d0 57 9d d5 bf 83 7a c7 72 07 bf e4 bf
       -0.33772845636749405 -0.648318981340552
000660 10 4a 38 e8 ff 10 ea 3f 9a e5 46 fd 32 99 cd bf
       0.814575151018575 -0.2312377678588689
000670 d9 06 29 5a ac 7d c9 3f 0c db 66 05 bc 92 bf 3f
       0.1991477432475708 0.12333274013404266
000680 48 b9 3b 1d 8e 75 dd bf 07 ee 7e c2 c8 0a d8 3f
       -0.46029999594511084 0.3756582164166677
000690 a6 40 4d 31 62 34 c3 3f be bc 97 d4 a7 46 aa 3f
       0.1500361195308006 0.051320309354076596
0006a0 c3 98 ee bd 4f 04 b0 3f 28 2e c3 78 22 8f b1 bf
       0.06256578814518136 -0.06859031151105255
0006b0 4f df 75 7a 6e ce c1 bf 67 5f f9 c6 d0 04 ba bf
       -0.1391122911406861 -0.10163597924963384
0006c0 d0 a6 0a 05 e4 14 aa bf 40 ef b4 5d 8b 87 9d 3f
       -0.050940633407049796 0.028837373346717543
0006d0 23 78 ec 03 6e 8a a6 bf 90 db 48 bb 89 b0 bc bf
       -0.04402488515755489 -0.11206875631692825
0006e0 32 94 c9 74 53 be b0 3f 6f 16 57 5f 58 bd a5 3f
       0.06540414429908095 0.04246021426983481
0006f0 e4 90 47 fb d1 d2 ca 3f 7e 86 0f e0 40 54 c7 bf
       0.20955872315892698 -0.18225871029340007
000700 e9 0b 61 05 7e 7d b6 bf 9d d7 da 1c 68 4c c3 bf
       -0.08785236007047072 -0.15076924714020104
000710 8e 42 1e 60 32 a2 79 bf 38 43 14 d8 75 79 af 3f
       -0.006258198527476678 0.061473543764924476
000720 ca 91 4b d4 c5 15 ba 3f a0 87 19 b5 ce 88 8f 3f
       0.10189472611415976 0.01539765825436118
000730 9b d4 5b 31 25 f4 b3 bf ff fd 65 2e b0 c5 b5 3f
       -0.07794411139532757 0.08504773266576392
000740 86 d0 00 e9 13 ba 83 3f 09 fc 09 46 fd d8 d6 bf
       0.009632258938019566 -0.35699397887941636
000750 ee b3 82 b4 2c 97 cc 3f e4 9b 2a d9 f4 f3 e0 3f
       0.22336348356239405 0.5297798387081198
000760 3b 95 0f b7 7c fc da bf cc 06 fa cb 11 e5 c5 bf
       -0.4216605937675301 -0.17105314693258433
000770 32 eb 06 cf 58 76 d2 3f 5e 4a 6b 70 9d a0 ca 3f
       0.2884733220814041 0.20802658070768393
000780 58 f1 04 93 3e ed da bf 87 c1 5d f0 52 27 bb bf
       -0.4207302509055544 -0.10606878631893411
000790 ac 00 a7 af 75 74 bf 3f 29 bd b9 cb e4 b5 ce 3f
       0.12287078417193936 0.239925956225741
0007a0 10 6a 95 af 30 73 b7 bf 83 04 14 62 97 37 e9 3f
       -0.09160141264639088 0.7880360522832607
0007b0 c1 80 42 c4 fd 19 d3 bf 5c c6 7c 29 36 af da bf
       -0.2984613815879236 -0.41694406558517527
0007c0 56 d3 4f 43 c8 8c c1 3f dc 02 5c 4d 14 b0 c6 bf
       0.1371088341399182 -0.17724851395907748
0007d0 05 55 04 a5 df 22 bd bf 24 10 b6 8e 87 0d 93 3f
       -0.11381337908490614 0.01860629852809849
0007e0 1d 18 79 9e 6b e1 d2 3f d1 d2 1b 57 dc 8e b0 3f
       0.29500856853371876 0.06467988135029691
0007f0 7b 49 06 06 01 b8 c0 3f ab 17 ea fd 42 7e a7 bf
       0.13061535638969332 -0.04588517522374443
