models/two_layer_100_100_augmentation/run_2/biases.npz (npz, 2428 bytes, 3 tensors)

arr_0 f8 [100]
-2.110220050050517 0.2763423192369499 1.068263918673136 0.30112647211466065 -2.0082241202239306 0.42257349414614725 0.041501328291020385 -3.391725279170177
0.006084054792345458 1.5915342342902965 -0.42531470457618625 0.7574748721216413 0.7857664044685376 -0.02278773155993194 -0.31330878787127603 -0.27703505291713065
-0.06409388831815883 0.3765810643158949 -0.23974626021066417 -0.023615424011318237 3.04879780269931 -1.062176950831017 -0.5628491970406801 -0.2847794729543578
0.5801537889019027 0.2467213246192915 0.17292117134518342 -0.8722143759621358 -0.4008084830572627 -1.7683745617372308 1.4658361684760057 0.1972939362142719
-0.23592833406118635 0.11560618033846505 -2.016676115319777 1.1276682590812424 0.820352918605625 0.4019161675652403 1.1442790812348405 0.44303517987600705
0.37052278532140087 0.37203010527932157 0.7352707258896949 0.22253597619053472 -0.3940614734595481 -0.7279960216644492 -0.7548171747849539 -2.054576608525163
-0.6132799642541749 -1.3124383828843826 0.20253801460654586 1.4552422379229584 0.28413225299353995 0.5903740244364086 -0.6454821162812525 -0.015395758449943668
-0.10407054173678934 0.1977223453769795 0.42728933904543137 -0.41938955612732387 -1.3237943694875203 1.12300924849789 1.2697483960803895 -1.3254752304682977
0.09091287464631333 -0.15321834458993341 0.40439991641720985 -0.5748533828723686 0.02660460895852242 -2.4341286115647773 1.090401108352445 -0.36806325922627886
-0.7041728223832369 -1.9006187090117255 -1.4866684657451048 -0.0066413730053449345 1.1975377660880002 -1.2831801337661553 0.970886539070004 0.48910402037458134
2.102224031243883 -0.09534293430821326 -0.4795333853900758 0.4588094775581954 0.5672098932069916 -0.04073491298535504 -0.4636635809298875 0.7754864957438798
-0.14750580020631102 -0.15325795700004569 -0.10642074564713161 -1.0459335358341957 -1.0866359143093955 -3.0172831462299188 -0.38314469644165217 0.9030518584303568
-0.8548417581117675 0.7277576503312156 0.02368242260759834 -1.866122257650833
00000000: c5a4 b20c bbe1 00c0 49e7 e7b1 97af d13f
00000010: b12a 23e8 9b17 f13f 074f 6cf7 a745 d33f
00000020: 8433 bbce d710 00c0 d5e7 60b2 710b db3f
00000030: 8140 807f a93f a53f 466b f8dc 4022 0bc0
00000040: af5c c305 98eb 783f 0fdc eb99 ec76 f93f
00000050: 6468 aa2a 5b38 dbbf 44bc 69f1 3b3d e83f
00000060: b19c 2f96 ff24 e93f 1822 33c7 aa55 97bf
00000070: d237 5d4d 400d d4bf 2dfb 073b f1ba d1bf
00000080: 2531 3302 7568 b0bf a4e5 e176 e719 d83f
00000090: c9b7 7865 01b0 cebf 4538 3d47 a42e 98bf
000000a0: 7cae 351a f063 0840 c225 2642 adfe f0bf
000000b0: 9cd3 bb51 dc02 e2bf 304f baae d339 d2bf
000000c0: 3d7e bfad 9e90 e23f a39a 3b7a 9094 cf3f
000000d0: 6e56 dbeb 4722 c63f 3178 7b1f 2ee9 ebbf
000000e0: 182e ac9f d8a6 d9bf f9d5 db1f 434b fcbf
000000f0: cf5f 4ea0 1074 f73f eba4 de7d ed40 c93f
00000100: 260c 7f4f e632 cebf 59e9 c4db 5d98 bd3f
00000110: d461 4f16 2722 00c0 ebdb 57df ed0a f23f
00000120: 9fdb 92c3 5440 ea3f 8849 db96 feb8 d93f
00000130: b968 f694 f74e f23f 18e0 223a b05a dc3f
00000140: 2d35 5833 a5b6 d73f fc55 d35b 57cf d73f
00000150: a0e0 2c79 5687 e73f eefc f511 0f7c cc3f
00000160: 46d4 479d 4d38 d9bf 6257 1550 be4b e7bf
00000170: c222 0559 7627 e8bf f7ef 65dc c56f 00c0
00000180: 7a70 b84d fd9f e3bf 8a0e c863 bfff f4bf
00000190: 0048 7702 c4ec c93f fa30 ba15 ac48 f73f
000001a0: b825 960b 392f d23f cc97 eb10 58e4 e23f
000001b0: 5096 721c caa7 e4bf 3c26 51b8 cf87 8fbf
000001c0: 228c 3cf5 5da4 babf cb90 8a3f f74e c93f
000001d0: 194b 4862 b558 db3f b673 f64a 47d7 dabf
000001e0: d53e 3901 432e f5bf ae76 b68b d8f7 f13f
000001f0: 0705 b5b1 e350 f43f 784f e883 2535 f5bf
00000200: d529 64ef 1046 b73f 639c 94a1 a89c c3bf
00000210: 5817 e12f b0e1 d93f 39d1 edeb 3265 e2bf
00000220: d550 9915 3d3e 9b3f c96d e76b 1879 03c0
00000230: 9f55 be6e 4872 f13f 3f1b 4f33 598e d7bf
00000240: d0c6 5b71 9588 e6bf 08f0 d529 ef68 febf
00000250: 61ea 85df 64c9 f7bf eb63 bcfd fb33 7bbf
00000260: 6e2a 515c 1d29 f33f d070 56e4 e787 f4bf
00000270: 59d5 ada5 8011 ef3f e075 f6f2 7a4d df3f
00000280: 4b76 38d5 5ad1 0040 ef29 c200 6568 b8bf
00000290: 67cb e5cb acb0 debf 5344 4d6d 225d dd3f
000002a0: 7455 a95c 9526 e23f d1ae 27de 34db a4bf
000002b0: dd2a 1c03 aaac ddbf 1ab5 360e c9d0 e83f
000002c0: 099f ed55 78e1 c2bf 4a5f 95ec f49d c3bf
000002d0: 049d 2bd6 633e bbbf 0529 a3cd 24bc f0bf
000002e0: f8e2 2957 dc62 f1bf caa2 9e58 6523 08c0
000002f0: 5a93 3655 7185 d8bf ea9c d102 cde5 ec3f
00000300: c00b 4b1a dd5a ebbf 95c3 7269 ca49 e73f
00000310: a0d6 5b7a 3440 983f 102b 2f03 a3db fdbf

arr_1 f8 [100]
0.49353605135397793 0.19087836606140238 0.2643667924615789 0.23424641230890308 -0.7927450918326069 0.3218206475118514 -0.5772921256551015 0.7685059877387761
-1.3081349992418605 0.7279567491567035 1.13310038827013 -0.6283635250373433 -0.6296383523596023 0.45183134280875903 1.509217896423076 -0.2204853340153848
-1.3930209002136025 -2.6113491267278772 -0.4296851676584925 0.7805117115150473 -1.628449283457707 0.1528285032093926 -0.4401460337814669 -1.8278276532730562
1.3692514377022729 2.9314902968586627 1.480426934340208 0.21956942295040477 -1.112702819034098 0.08860752036243799 1.2442299463976578 -0.7272381411989769
-0.43056826701004486 -2.241143657667589 -0.519272208809476 -0.36500516599150007 -0.352708056359899 0.7110269273245452 -0.042437417327205254 -0.12261284410622622
-0.06914048958045475 0.44846054196740254 -1.2564685843762218 0.3476997450269521 0.46063141546096276 0.5106614395174741 0.21528469362303335 0.8966555961887999
0.8463829436800361 -1.140675890159836 1.312754550197409 1.2126923691351836 0.8144342958632249 0.2141185941269095 0.05860466137571724 0.24291854148324044
-0.09767937255530383 1.5562063653309832 2.1753028673023107 -0.3457703404766593 -0.4528966224189039 -0.6495117176146971 0.6480395594317279 0.6096763629052133
-0.841049924978837 -0.2579258437034184 2.299272727353836 -1.6137100798496364 0.8562711143513526 -0.1943304819693188 0.6234895316113799 0.8956812480225588
1.0001389151546336 -0.020366873762714018 -1.4216771853272978 0.32324073518703106 -0.30347859672505023 0.8560230266232032 0.3345282707183529 0.7469170523056878
0.9291365910399949 -0.1882918315501507 -1.022519520355921 -1.6650214461105795 -0.12847546314413327 -0.3663139668119766 -1.2672774967335543 0.906179626017152
-1.0417539728141727 -0.10827525518088334 -2.1335994605959545 0.7847155843050266 0.5099842680701618 -0.44140752051530185 0.9189137940741413 1.1430807464078003
0.2675035304992488 -1.3687508368790646 0.5657884463463754 2.0340149529002414
00000000: 8496 fd3b 1896 df3f a7b2 dfc9 b36e c83f
00000010: 7056 f1b1 62eb d03f 9c39 0954 c9fb cd3f
00000020: bc89 6ff4 2a5e e9bf a76b 0fa1 b598 d43f
00000030: d9a9 fd55 2d79 e2bf 76c8 83de 9997 e83f
00000040: cbf2 07f7 1eee f4bf fff9 d0f3 6b4b e73f
00000050: 2248 6bdf 2d21 f23f fd1b c1d2 8d1b e4bf
00000060: 5c23 7654 ff25 e4bf f8f7 2a02 ceea dc3f
00000070: e9cc 3aaa c125 f83f d3fe 6b09 dd38 ccbf
00000080: 8dfd 9048 d049 f6bf 09e0 cd02 0be4 04c0
00000090: 20d9 aa37 f67f dbbf 8644 63b2 f3f9 e83f
000000a0: e853 fad5 200e fabf 192a 9767 e28f c33f
000000b0: 808d 2345 5a2b dcbf e883 9835 c83e fdbf
000000c0: 78ea 0e32 74e8 f53f f164 4c2f b173 0740
000000d0: 5ebd 3127 d4af f73f ae04 63d1 d91a cc3f
000000e0: 00b2 9e78 a1cd f1bf 36e6 2282 fbae b63f
000000f0: 58b5 07a9 5de8 f33f 594f 1bec 8845 e7bf
00000100: f939 6034 6e8e dbbf 988f dab9 dced 01c0
00000110: 45de 51c0 e09d e0bf a77d b3a0 3e5c d7bf
00000120: d47e c6cf c492 d6bf b5e5 ed8a bbc0 e63f
00000130: fa16 186f 5bba a5bf 527b 812b 8e63 bfbf
00000140: dbd5 93ed 30b3 b1bf b3f8 52d8 93b3 dc3f
00000150: 7f8e 65cd 7e1a f4bf 98f8 6d6e b640 d63f
00000160: c08f 3a30 fc7a dd3f 63c9 c1a8 5657 e03f
00000170: 035c 38e7 728e cb3f 3a00 ad13 67b1 ec3f
00000180: 54ef dfae 9115 eb3f aa27 b95c 3540 f2bf
00000190: 765e 4cea 0a01 f53f c1b5 181d 3067 f33f
000001a0: 9825 2f83 d80f ea3f 21cb 9ef3 3c68 cb3f
000001b0: c8f3 0020 6e01 ae3f d09a a16b f417 cf3f
000001c0: a36b 9eee 8301 b9bf 12c7 4ea5 38e6 f83f
000001d0: e9aa 8f30 0567 0140 d189 11ec 1921 d6bf
000001e0: ef83 701d 42fc dcbf e1c3 30cc ccc8 e4bf
000001f0: acc0 4875 bdbc e43f cc4e fa00 7882 e33f
00000200: a4cb 4288 e1e9 eabf 00f6 df65 db81 d0bf
00000210: 3c8e 8419 e964 0240 34e0 22a9 c1d1 f9bf
00000220: cec0 14ae 9266 eb3f 484a 563c d2df c8bf
00000230: 5f6a 7551 a0f3 e33f 21b7 7cb8 6ba9 ec3f
00000240: b4bc c0a9 9100 f03f 3233 eec2 0ddb 94bf
00000250: 8233 8793 30bf f6bf 3940 97e8 f9af d43f
00000260: 8515 fe7d 316c d3bf ec06 ff66 8a64 eb3f
00000270: 1aa8 9443 e968 d53f ea48 0f97 bee6 e73f
00000280: 1c14 01a9 7cbb ed3f b750 4e5d f219 c8bf
00000290: 6034 b76d 3d5c f0bf e2ef 2287 eda3 fabf
000002a0: d470 454c e271 c0bf 48a1 e122 b071 d7bf
000002b0: 7ad6 b6c4 c446 f4bf 1a72 416a 6cff ec3f
000002c0: 6a70 bb36 06ab f0bf 79cb f757 edb7 bbbf
000002d0: d42e 1098 9c11 01c0 460d 68db 631c e93f
000002e0: 38bf 1a87 ca51 e03f 4096 3454 0540 dcbf
000002f0: ef88 ace6 bd67 ed3f ee23 6809 0f4a f23f
00000300: 94c3 c320 c71e d13f 9a4a 0c47 67e6 f5bf
00000310: 0865 305f f01a e23f 8c40 b2a1 a945 0040

arr_2 f8 [10]
0.6456394288082915 -0.6982568523853799 -0.14888897619178193 -1.125320734550436 -0.8247356278469444 -0.17905750174471974 -1.6739102367306442 0.13591167005012073
1.1324059990674507 0.98329467876496
00000000: e3ab f704 14a9 e43f d97f 26c1 1e58 e6bf
00000010: 9e43 bd41 cb0e c3bf 247a 8650 5001 f2bf
00000020: 5e5b aef8 3b64 eabf 9e6b 0c31 5beb c6bf
00000030: ec29 b319 56c8 fabf 0c48 01b9 8d65 c13f
00000040: 5d9f bcc0 551e f23f e30a f466 2677 ef3f
