models/two_layer_100_100_augmentation/run_2/weights.npz (npz, 715948 bytes, 3 tensors)

arr_0 f8 [784, 100]
000000 2f 55 c1 bf 28 b3 93 3f 18 b5 ba ce ef 32 9c bf
       0.01923812551861664 -0.027538058274037075
000010 ce de 76 35 03 4a a9 3f f5 b3 31 4d f9 7c b6 bf
       0.04939279582634769 -0.08784444937346321
000020 72 ec 34 fe 72 d2 b1 3f ce b7 17 fe 35 d6 ad 3f
       0.06961744981974663 0.058274924533051484
000030 ec 1e 03 94 87 de 9c bf 99 95 20 cd 78 46 93 bf
       -0.02819263306517332 -0.018823516387916326
000040 74 3a f8 15 3b 79 9a 3f a2 6d 09 98 f7 3c 9a bf
       0.02585308381645253 -0.025623196272460576
000050 58 49 60 da 79 66 9e 3f 4b 49 e2 25 fd 03 9a bf
       0.0296877898727613 -0.02540584129071392
000060 48 21 16 0f 24 cf b0 3f e9 45 d4 f1 12 43 a9 bf
       0.06566071861573619 -0.04933985902801991
000070 03 8f 20 c0 64 ab 7d bf e2 38 07 de 80 26 b7 3f
       -0.007243531757953783 0.09043126507387769
000080 81 46 e4 92 10 c0 98 bf a7 9d 06 8f 8a a1 77 bf
       -0.024170168843801413 -0.005769292111302538
000090 25 1c 34 f8 9b 89 bb 3f 19 a8 df c8 e8 91 be 3f
       0.10756850061089603 0.11941389946119364
0000a0 e1 84 44 79 82 c7 c2 3f d7 13 cb aa 90 9e a3 3f
       0.1467135517241678 0.038319130753314994
0000b0 88 a3 58 93 e4 e9 b2 3f 6b 57 e8 c2 38 09 a6 3f
       0.07388142201729242 0.043039106171064066
0000c0 76 5c 08 2e 30 7f ac 3f 67 36 ac b7 de 42 a2 bf
       0.055657868975850386 -0.035666427536949645
0000d0 61 dc 6a 84 8c 8c cb bf 91 2b f6 45 ea ca c2 bf
       -0.2152267118997058 -0.14681747833341466
0000e0 b7 42 6f 57 02 24 92 3f 76 9b 46 62 18 0c 9b 3f
       0.01771548899324912 0.026413327215461156
0000f0 48 e1 7a 5d d5 e5 ae 3f 73 f5 52 da 2b c4 b8 bf
       0.060347240124829116 -0.09674333648850623
000100 50 89 bd 57 52 df 71 3f 68 61 ac 2f 8a 3a 8a bf
       0.004363366748153588 -0.012806968288302925
000110 1b c3 87 62 e3 71 b7 bf 77 af d8 6b ad 0d a7 bf
       -0.09158154635930453 -0.04502622548565587
000120 61 f5 1e 95 be 66 93 bf f0 94 5c b1 e6 6c 95 bf
       -0.018946626521701208 -0.020923237395568728
000130 11 a0 b1 a3 84 15 7b bf 61 c8 41 68 db 63 bd 3f
       -0.0066123181560229375 0.1148049478086093
000140 b7 7d 1e 67 ef ee 7d bf ce 3b 3a 96 1d e5 aa 3f
       -0.007307944457266505 0.05252926310378535
000150 92 27 dc 9a 7e e3 a4 bf 36 4d c0 5c dd 58 65 3f
       -0.04079814567928887 0.002605850551853496
000160 21 12 60 61 f2 04 a5 bf df d0 56 32 b1 e8 ca bf
       -0.04105336607611699 -0.21022620161023206
000170 3a a0 41 18 88 24 a8 3f 74 61 6b 4a 5c 76 85 bf
       0.04715371414278065 -0.010479661007978015
000180 f6 05 23 82 df 36 77 3f 62 14 7b e0 45 ae 88 bf
       0.0056675654215623174 -0.012051149285421118
000190 1e 5f e0 34 68 c8 ae 3f f3 84 00 17 70 1f b4 bf
       0.060122734503407424 -0.07860470353672948
0001a0 8c ea 14 94 81 25 b4 bf d0 ac 91 e2 44 58 a3 3f
       -0.07869729867244696 0.03778281465278044
0001b0 88 4e 1c d5 0d 1d b4 3f 2c f5 70 8a b1 a1 4a 3f
       0.07856832936186653 0.0008127324007386797
0001c0 2b ca 54 6b 51 7c 93 bf 4e c9 40 ee 0b 00 ae bf
       -0.01902892320249287 -0.05859410556185428
0001d0 5f e3 a3 7f a6 f0 95 bf de 8b e5 9e 21 d6 ac 3f
       -0.02142582086614497 0.05632119240433274
0001e0 af 5f a8 57 f5 b7 b3 bf 7a 09 45 85 1a f7 99 3f
       -0.07702573194580851 0.025356687912116517
0001f0 9a 15 39 86 13 fd 65 3f 0b 11 76 3f ce 67 a8 3f
       0.002684152730383982 0.04766697430298635
000200 bc f7 8a 1d 41 77 a7 bf 6a e5 e5 ed e5 48 a6 3f
       -0.04583171353941348 0.04352491883305272
000210 1b c2 22 df cd 6d aa 3f 97 5b 41 2b 42 b7 89 3f
       0.051618989456418705 0.012556569047019113
000220 13 c8 36 2b 56 75 cb bf 96 2f 71 8c c8 60 a4 bf
       -0.21451832876260876 -0.039800898689093575
000230 7a 7f bd fa 20 64 a9 3f 15 87 cc 53 16 6a c5 bf
       0.049592047317445556 -0.16730002490754062
000240 a0 78 4b 9a 63 0a aa bf c6 e7 47 a4 81 0b bf 3f
       -0.05086051233750877 0.12126932392848663
000250 f7 ad bc 2c c7 4d 90 3f c8 2a 54 ba e1 e7 ac 3f
       0.015921699624568544 0.056456617350780613
000260 31 b0 2e 6e c9 24 86 3f b6 18 b8 e5 fd f4 a7 3f
       0.010812352824210421 0.04679101399601519
000270 fe 97 d6 6e 09 f2 99 bf 0d 7b a3 56 3f 51 be 3f
       -0.025337359800367658 0.1184272371788035
000280 d9 f1 23 94 80 b8 8a 3f 01 bf 50 b6 d4 1f b0 bf
       0.013047222634207255 -0.06298570109424519
000290 b8 40 f9 91 1e e6 a6 3f f6 9e fd ee 36 89 80 3f
       0.04472442180542785 0.008074216049592558
0002a0 72 a3 62 89 4e 9d a6 bf c8 55 b7 e6 f4 94 b0 3f
       -0.04416890551630716 0.06477289803236552
0002b0 63 4a a9 d6 87 a1 6a bf ea 64 9f 6c 83 71 b8 bf
       -0.0032508519264323062 -0.09548207666320577
0002c0 8d d4 d3 de a7 af b1 3f cb ef 89 fb 11 ad 9e 3f
       0.0690865439426764 0.029957085588179482
0002d0 33 bf ad 5a 20 c8 b5 3f 9b 81 d4 b3 ab 59 c6 bf
       0.0850849362739126 -0.17461153298155527
0002e0 74 5c 8d ca 86 39 a8 bf 3a 80 24 97 13 b6 a3 bf
       -0.047313892579659816 -0.03849850864412514
0002f0 3f 12 58 33 50 ca a3 3f 43 ca 78 8c 44 15 bd bf
       0.03865290285833511 -0.11360577039230528
000300 9e ea ea c1 cd 0f b0 3f 12 a6 80 b1 01 fb b3 bf
       0.06274114593808597 -0.07804880698736152
000310 09 a2 63 dd 66 30 b1 bf 8d bf 00 2a 0a dd af 3f
       -0.06714480309495498 0.062233274104413906
000320 d4 92 37 57 0d 28 96 bf 05 f5 5c ac 02 63 b2 3f
       -0.02163716168242298 0.07182327945789176
000330 9d 3a a4 50 bb 69 7f bf ca ed 97 33 3c 86 c2 bf
       -0.007669192980997022 -0.1447215320512057
000340 ef 72 00 30 b7 ef a9 3f 3f 77 16 26 c6 c7 a4 3f
       0.05065700970610531 0.04058665480555001
000350 db 5e 1a 58 a1 77 a8 3f 06 07 80 01 bf f7 96 bf
       0.04778770637966342 -0.02242945143371513
000360 8d 64 38 30 68 76 9b bf a0 2f 50 df d8 ea af bf
       -0.026818874304897867 -0.0623386166190294
000370 70 7d 6d 9f 25 36 ac 3f 5d 68 11 12 da 90 be bf
       0.0551006085504423 -0.1193977636443448
000380 54 4a 21 42 d4 3e b2 3f 0e 3f dc d4 b8 10 af 3f
       0.07127119650366726 0.06067445372002399
000390 45 3b 64 00 5d 48 a9 3f 07 33 a8 04 6b 48 94 3f
       0.049380213067812075 0.019807502898447484
0003a0 af 0b 10 a6 f1 60 a8 bf e5 ff 8e 75 6c df b3 bf
       -0.04761462356693557 -0.07762792463381592
0003b0 31 80 f9 82 e9 28 c6 bf 11 31 ef 72 e1 31 aa 3f
       -0.1731235398792719 0.051161809234686946
0003c0 92 ce f0 1b 2a 31 b7 3f 27 50 ea 3e 99 6f c5 bf
       0.09059394056458306 -0.16746821949038912
0003d0 c8 72 d8 79 33 9e 77 3f 47 c7 05 71 25 1f bf bf
       0.005766106679882817 -0.12156900414791237
0003e0 d3 79 51 4f 5f 8f aa 3f 84 39 90 55 c6 eb 9b 3f
       0.051875093872456944 0.027266596767782328
0003f0 76 23 23 5f 6a 9b a9 bf 4e 54 49 e3 fd 98 b6 3f
       -0.05001385127395157 0.0882719688318769
000400 7e ef 6f 0b 56 cf af bf 76 df e8 71 aa 3a 8b 3f
       -0.06212872399916501 0.013295489884612027
000410 3e df 07 25 14 58 ab bf cb bf 96 00 d0 7c 88 bf
       -0.05340636207614445 -0.011956810968371109
000420 0d db 45 9a 61 d4 a6 bf e9 ae 76 32 81 fa bb 3f
       -0.04458909042562285 0.10929114801427499
000430 b8 af 04 57 3b 3e c6 bf 3a 8a 79 c7 29 b4 99 bf
       -0.17377416371289 -0.025101330566380954
000440 68 49 db 38 a3 8b ba 3f 0b 78 64 aa cb f3 bc bf
       0.10369320047474206 -0.11309502515766227
000450 10 48 e6 b5 f0 6d a8 bf 91 97 26 96 61 24 c1 bf
       -0.04771377773717245 -0.13392276603297806
000460 f7 74 ff 6c 1a 69 bf 3f 86 97 80 53 27 ed 81 bf
       0.12269749795037287 -0.008753115878856976
000470 b1 fc 1a 6b 8e 70 79 bf b9 9f 14 5e cc 56 68 3f
       -0.006210857698248849 0.0029710761597420946
000480 17 58 39 b0 5c 43 c0 3f c0 c1 7a e1 a9 19 a3 bf
       0.12705572704970855 -0.03730517270503553
000490 81 45 dc 65 2c c0 b6 bf 32 89 dc 68 de 57 b8 bf
       -0.08886983382060089 -0.09509077129454083
0004a0 d2 d2 a2 f4 48 ba b4 bf aa 1f 85 2f 69 5e b5 bf
       -0.080967483258813 -0.08347184572369196
0004b0 f9 22 01 ff da 97 a5 3f d1 af fd ca b5 1d c3 3f
       0.042174190166923205 0.1493441811720673
0004c0 33 6f 7b e0 13 09 a7 bf e6 e4 15 63 de 5e c1 3f
       -0.04499113192807016 0.13570766294632292
0004d0 ae 3e 14 03 61 a1 7f bf 74 3c 31 96 b3 37 bb 3f
       -0.007722262337906889 0.10631868759922886
0004e0 8b b6 ec 79 4e 2f b4 bf 27 0a b7 77 87 65 a1 bf
       -0.07884684063602714 -0.033977731097838686
0004f0 76 70 1c 95 1d 56 a1 bf 9a 8f 4c b5 d4 64 bb bf
       -0.03386013455585239 -0.10700730730292066
000500 ef a9 c5 af f9 92 7d 3f 9d 0b 2c 2d a9 72 a2 bf
       0.007220244730300681 -0.036031042827765015
000510 ca 21 13 9d b2 02 ac 3f 60 d6 ad 31 15 5a 7c 3f
       0.05470808188835326 0.006921847142498189
000520 1b a1 34 32 11 cf bd 3f 7f c0 92 5e 09 bf 7f 3f
       0.11644084430429695 0.007750546073268193
000530 11 ce cd a8 e1 00 90 bf d1 93 54 8d aa b3 b1 bf
       -0.015628362586950276 -0.06914773893784278
000540 cc c4 6e 1e df 79 9e bf ee ae d1 fb 4d b4 b0 3f
       -0.029761778099502575 0.06525123022009513
000550 8e da 50 3c 11 5d a4 3f e8 89 a6 31 e3 f6 99 3f
       0.03977254735257417 0.025355863480976654
000560 7e 4c db 3d dd 7c b4 3f 98 78 99 52 dd 5b 96 3f
       0.08003027687236572 0.02183481041571919
000570 33 ce 32 96 91 bd b2 bf 33 b9 d2 ca 4c ba ac bf
       -0.07320508877710878 -0.0561088559710349
000580 29 6f 59 37 ae c9 9a 3f 2d 8d ec 00 e0 ac a4 bf
       0.026159975174194692 -0.040381431687161
000590 3b 2e 11 fb c7 98 9b bf 64 42 a9 30 da df 84 bf
       -0.02695000142948188 -0.010192589387913738
0005a0 e8 40 33 dd ea dc bc bf d7 b1 7c 7b be 10 a7 3f
       -0.11274593258281451 0.045049622129542825
0005b0 22 38 5b df 75 ae 80 bf a9 22 12 0f d4 9b 99 bf
       -0.008145256880563837 -0.025008500499583395
0005c0 6d 69 56 9f 28 d7 b2 bf 67 31 b2 45 02 50 b6 3f
       -0.07359556093289195 0.08715833856166953
0005d0 72 d3 2f 5e 2c 43 a6 3f 6b 8f e6 f8 c7 58 a0 bf
       0.04348124170056779 -0.03192734635675162
0005e0 63 24 f5 d3 89 33 b1 3f 3e 67 96 dc 21 64 82 bf
       0.06719266342874301 -0.008980049652382523
0005f0 f8 c6 f1 36 5f 24 9d 3f c7 7b 08 99 7e 67 a9 bf
       0.02845906041006338 -0.04961772554474169
000600 2c 94 ec bb ec 44 b0 bf f4 b3 f6 c1 4a 25 a9 3f
       -0.06355170810691452 0.04911264054985756
000610 06 95 a4 b7 be d8 87 3f 25 d3 fa 5f 23 d4 a7 bf
       0.01164387700971271 -0.04654036089542605
000620 36 de 67 f2 db c9 b1 bf 20 99 3e 67 42 77 79 bf
       -0.06948637645825148 -0.006217250240217603
000630 8a 0f 3e 76 7c 24 b9 3f 22 f4 41 cd 43 b8 b4 3f
       0.09821298491266198 0.08093665848896639
000640 ed 5d e9 76 92 ff bc 3f 85 10 69 5a 86 78 b8 bf
       0.11327472117533662 -0.09558906276021346
000650 3c cc ce 89 39 e5 97 3f 89 33 83 a7 eb 90 b5 3f
       0.023335360561486093 0.0842425617185666
000660 57 95 33 6e 9e 7c 90 bf 6c b5 8e 13 55 19 9a 3f
       -0.016100383258977526 0.025487260168735856
000670 56 83 f5 a8 cd 7f 79 bf 43 22 85 06 a0 37 a2 3f
       -0.006225398406372337 0.03558063582983497
000680 f0 8d 50 1c 86 6d b1 bf ba 3e 0a 5b ce 1f a2 3f
       -0.06807745162273426 0.0353989111073338
000690 f5 92 a5 bc a2 eb a0 bf ef 86 35 fa ee 11 c0 3f
       -0.03304775765244542 0.1255472871517251
0006a0 89 48 dc 83 79 c5 b0 3f f7 8e dd 37 82 05 b8 bf
       0.06551322430849117 -0.09383405555632494
0006b0 dc 55 d2 60 e7 80 90 bf f0 4a 4a 09 19 d2 b0 3f
       -0.016116729053995957 0.06570583798228902
0006c0 52 0a e6 94 8e e2 b2 bf 0d 97 78 9c 13 8e 91 3f
       -0.07376948485583881 0.017143541741595537
0006d0 ae 94 2c 41 7b 7e c0 bf f1 c9 85 08 8f 9d a9 bf
       -0.1288599079354404 -0.05003020266567038
0006e0 6f 82 01 c4 ea 62 b8 3f e3 8b 4e 75 9e 50 b8 bf
       0.09525935445118149 -0.09498014797149738
0006f0 3f 61 06 02 44 da b0 bf 74 8f 30 71 20 18 bf 3f
       -0.06583046960293347 0.12146189464016094
000700 29 f7 fe 82 9e 32 b4 bf 96 e8 61 87 d6 1b ba bf
       -0.07889738748687293 -0.10198727421985362
000710 5d f7 fe 90 0f 22 95 bf ae 71 26 5e ed eb 8f 3f
       -0.020637744164324946 0.015586714206443055
000720 59 30 05 43 37 52 91 bf 72 b7 60 32 f2 47 a7 bf
       -0.016915191140740003 -0.045470780038484274
000730 a2 ee cc f0 bd e8 af 3f 50 a1 a4 1e 02 0a b7 bf
       0.06232255520305087 -0.08999646423456409
000740 a1 80 2c 38 37 10 93 bf 9d 5a 5c 79 31 ec 99 bf
       -0.01861654548986336 -0.025315068275711828
000750 ca da 07 45 53 e0 a9 bf 25 76 51 a2 a5 ed 8d 3f
       -0.050539591003987264 0.01461343194585669
000760 7d 6c be 45 c4 a9 7b bf 5d 65 37 d5 1e b3 6e bf
       -0.006753699006277644 -0.0037475206570262557
000770 1b 61 40 7c a9 46 af bf f2 3f 08 1e 33 28 b8 3f
       -0.06108598367444725 0.09436339839180599
000780 60 66 8d dc 44 1a b2 bf 58 c5 e7 a3 e2 be b3 3f
       -0.07071333298281379 0.07713142873378354
000790 cb 34 d4 0b 19 92 a6 3f 8a 93 24 8d 7c 09 a0 3f
       0.04408338803669095 0.03132237646995069
0007a0 70 ac 15 f3 e1 7a a4 bf 6d 43 57 bb 46 1d b6 bf
       -0.04000001995412894 -0.08638422082664272
0007b0 b8 e8 e1 5f e1 fa 30 bf 63 b4 2e 40 86 26 c0 bf
       -0.00025909426029325664 -0.12617567190082743
0007c0 da e0 25 c3 f9 ce a7 bf 11 3e ff 5f de 8e b0 3f
       -0.04650097376992486 0.06468000262906794
0007d0 cd 42 46 30 15 ce ad 3f f1 e7 d5 2b 1c cf 93 bf
       0.058212911742094066 -0.01934474961806382
0007e0 af 27 29 04 f0 49 81 3f b2 1e 8d f4 ce 15 91 bf
       0.00844180596063268 -0.01668475501654027
0007f0 b5 1b d7 27 25 61 98 3f 0c 0f 42 e5 51 0b 9c 3f
       0.023808079296738522 0.027386932008552953

arr_1 f8 [100, 100]
000000 ef f4 7e 15 bc b3 7d bf b4 7b 5d 69 d3 89 b4 bf
       -0.007251486495019706 -0.08022805521385018
000010 63 e4 f8 9a 4d bb 92 bf de 16 4e 8e 3b 37 be 3f
       -0.0182926297986551 0.11803028320545247
000020 31 a1 2c fe 23 74 a4 bf b4 15 b4 58 64 c3 9d bf
       -0.03994858243669553 -0.029065673746136958
000030 18 95 0f 7b e4 07 a4 bf 8b cd b6 fb 71 6c 98 bf
       -0.03912271501739378 -0.023851185787589862
000040 a8 83 1f 0d 17 58 a6 3f c7 5e fc da 9b 0e c0 bf
       0.04364082369989514 -0.12544582550684977
000050 a0 41 e4 0f 5a 7a 78 3f 01 ae 4b 6b 87 d7 a8 3f
       0.005976058773982024 0.04851935562859567
000060 39 95 1e db 40 14 b1 3f 18 ce 67 3c ce d7 8d 3f
       0.06671529149624157 0.01457177278368875
000070 68 53 d9 03 1f 51 c1 3f 61 98 5a 56 82 e7 bb bf
       0.13528812110839827 -0.10900129898308954
000080 2f cc 6d c4 1d 1f 92 3f f1 5d 1f 7b c2 a7 a5 bf
       0.017696824182575618 -0.04229552987061059
000090 80 18 9d 69 51 38 90 3f 9f 25 d7 8a a4 bb a0 3f
       0.015839836188455525 0.03268160052136725
0000a0 e5 f8 13 62 72 33 b6 bf 27 16 d7 3d 37 c1 a2 bf
       -0.08672251600725962 -0.036630369471407236
0000b0 19 38 c1 48 5c 1e 99 bf 8e 14 c1 41 2a 40 9d bf
       -0.024529878559683114 -0.028565082801169477
0000c0 cf 68 da 35 20 9f c7 bf 92 17 11 99 37 8b 96 bf
       -0.18454363469647325 -0.022015446393445944
0000d0 3f e0 48 37 37 98 86 bf 84 f1 e0 72 cf 90 b2 3f
       -0.011032515883116044 0.07252213053374673
0000e0 61 90 f5 41 1d f7 9b 3f 83 f2 fd 8c 2c ca 96 3f
       0.02730985369761674 0.02225560770556224
0000f0 88 97 9d 65 07 db 8d bf 27 75 61 3b 2a e3 6c bf
       -0.014577920712053119 -0.0035262894480597886
000100 1d 4c f3 05 7d 1e 82 bf f9 9c e2 9e 70 0f b9 bf
       -0.008847214454737845 -0.09789184454949752
000110 11 96 d3 06 88 aa 9e 3f ab a0 77 e9 64 1d c5 3f
       0.02994740049043371 0.16495953941126137
000120 ba a7 d2 08 c4 7f ad bf 23 15 1b e1 41 2c 79 3f
       -0.0576154003877742 0.006145722714511667
000130 79 3d d4 24 e1 c0 74 bf 93 ab d9 15 73 36 a2 3f
       -0.005066756695000557 0.035571667115468796
000140 87 ff a1 0d 96 08 b5 bf c8 f4 ad 4e 3b c4 ba 3f
       -0.08216226418335114 0.10455675764929417
000150 2e ec 8b 83 72 57 ac 3f 16 ff 11 48 d7 22 ae bf
       0.05535467010300753 -0.058859565303462855
000160 78 9f c6 d1 24 c2 b1 3f 92 ee c9 9a 4e 2e b5 3f
       0.06936864968758794 0.08273783949874261
000170 90 d6 ab 80 54 5d 4e bf 6a ce 41 f8 f9 53 b2 3f
       -0.0009266531572779835 0.07159387885058668
000180 22 60 58 73 5d be 73 bf 44 e1 3a fa a2 f7 82 bf
       -0.004820218125608762 -0.009261391889012878
000190 2c d3 72 9c b6 26 a1 3f ec 1a 13 78 fa c4 b2 bf
       0.03349848422786858 -0.07331815177449713
0001a0 41 08 07 d1 ce bd a3 bf 15 44 d1 bc 1b aa a1 3f
       -0.03855749417881827 0.034500948714260606
0001b0 3d 86 f2 12 36 26 a3 bf fd c9 06 a9 94 b0 80 3f
       -0.03740090352335954 0.008149300964622514
0001c0 0e d8 3a b5 23 10 7c bf e8 53 93 16 b5 64 9a bf
       -0.006851329311464495 -0.02577479315080558
0001d0 bb e0 af d9 83 95 6c bf 07 fb 8c 30 29 ef a9 3f
       -0.0034892630769683664 0.050652777840232636
0001e0 ef 61 12 8b dc 13 b5 3f f9 44 c3 df 39 63 af bf
       0.08233431239421639 -0.06130390984038487
0001f0 9c 2d 03 85 a0 2f a8 3f ca 3d 1c 92 2e a0 aa bf
       0.047238365399233845 -0.052003341041309506
000200 fb b1 bc 08 8f 6b 95 bf e2 4b e3 4d cb 43 af 3f
       -0.020918116482038212 0.061064103372380676
000210 82 9d 1e 1a d0 05 6f 3f fc b2 ef df 93 7f 95 3f
       0.003786951493527092 0.020994482558239533
000220 e4 b0 14 81 41 00 b3 3f 0e b2 d2 d5 fe 3a a4 3f
       0.07422265435588177 0.039512599564975756
000230 51 74 b9 53 d7 96 99 bf 57 e1 e3 4e da 65 b3 bf
       -0.024989475712903723 -0.0757728998759196
000240 bf 89 2b 26 21 93 90 3f 5d 1a 39 4d d6 e7 ab bf
       0.016186254458156798 -0.05450315182365693
000250 8a 18 ab 1c 4a a6 ae 3f ff 14 2b 2a e0 c3 c1 3f
       0.05986243820147859 0.13879015025137417
000260 ec 67 12 fb 95 a1 b8 bf 80 b3 74 af ee ac b3 3f
       -0.0962156045883657 0.07685748847570828
000270 1f 3b c1 57 c8 54 72 3f f0 71 d7 07 3c eb a9 3f
       0.00447538622763835 0.05062282176706734
000280 25 f8 31 b3 13 ff a5 bf 86 7a 11 f3 16 59 82 bf
       -0.04296170771066014 -0.008958987515311333
000290 90 27 0a f2 59 97 99 bf a4 d3 bd 5b c8 f2 c8 bf
       -0.024991422079018444 -0.1949091384846301
0002a0 dc 10 7e c7 6d 85 63 bf b4 69 14 e0 f3 45 9c 3f
       -0.002382959759360854 0.02761059813665563
0002b0 a2 88 0c d6 c2 42 bd 3f a8 6a 7e 38 50 cc 96 3f
       0.11429994321636852 0.022263768623455832
0002c0 20 e8 6d be 7e 1d 8c 3f e3 f6 3a 8a 70 53 8d 3f
       0.013728132425729511 0.014319304674582372
0002d0 f0 fa ff e2 c5 27 a9 bf 25 43 db e5 c5 11 a4 3f
       -0.04913156887049819 0.03919809752335927
0002e0 e9 8d a9 98 23 07 b7 3f c0 a2 e2 4c 2c 29 88 3f
       0.08995268323047124 0.011797281357148193
0002f0 33 2a 29 6e 89 fb 98 3f 75 05 22 65 39 02 91 bf
       0.024397036884957934 -0.016610047147428603
000300 10 ba d4 13 38 92 95 3f 8d 60 89 16 b8 e8 58 3f
       0.02106559392012214 0.0015203283056930722
000310 20 30 c4 91 77 a5 a1 bf 74 a6 c8 c8 7a 40 47 3f
       -0.03446553854345802 0.0007095908673068877
000320 5f 0b f5 44 77 43 b0 bf 0d 95 1e 84 5c 2b b8 3f
       -0.06352944787526614 0.09441164231846617
000330 35 71 50 d9 12 b5 c3 3f 44 e3 e7 9e 38 55 b5 3f
       0.1539634286026598 0.0833316219285623
000340 6c f4 c7 a2 7d 11 cf 3f 30 d6 a4 d6 3a 8b b3 bf
       0.242721275790163 -0.07634322872476029
000350 b3 8c 85 16 47 1d aa bf 89 83 a1 6c 71 2a c8 3f
       -0.051004621028164186 0.18879525951618017
000360 5a 90 a8 7d 67 16 ad 3f 3a ee be 26 a7 5d b3 bf
       0.056811555947462636 -0.0756477803797048
000370 90 86 4c 66 de e5 af 3f 13 b8 a7 c8 ef 44 93 bf
       0.062300634372388974 -0.018817659971254907
000380 0b 9d 5a d9 44 d8 ae 3f c3 cc 7e fc 5a 1b 90 bf
       0.060243751080003426 -0.01572935262784082
000390 5f 5a 07 eb 68 3c 67 bf f5 b8 09 b5 84 50 aa bf
       -0.002836422842146732 -0.0513955565446497
0003a0 80 5e 0c 9c 96 09 a1 bf 69 3a 10 e0 c7 fd b9 3f
       -0.03327627806555444 0.10152863712594641
0003b0 ad c4 32 a3 4c fb c1 bf 22 b0 1c f6 f7 fa c0 3f
       -0.14048154801051763 0.13265895383062892
0003c0 e2 3c 92 2e a9 36 a7 3f 32 00 ea fa 8e 3f a4 bf
       0.04533890431877709 -0.039547412995489487
0003d0 77 70 9b 0e 69 ad b4 bf cd 88 20 fa 08 18 c7 bf
       -0.08077103239651416 -0.18042099202381792
0003e0 36 74 4d 72 e5 ae c1 bf cd fe 57 89 77 3c a0 bf
       -0.1381499107473318 -0.03171132613715386
0003f0 a4 60 bd c5 09 12 bb bf 6d 72 f6 7a 4b ca bd 3f
       -0.10574399068480261 0.1163680243684639
000400 8d 40 3e 8a fd e3 6d bf a3 f4 b9 9e ca 12 ce 3f
       -0.003648753352486328 0.23494847059547394
000410 e3 81 2d 22 5e 18 cc bf 51 f0 1f f9 6d 27 52 3f
       -0.21949364346347897 0.0011080335575561937
000420 68 98 ba 8f f3 d7 a6 bf a1 1c ec cb 17 94 7a 3f
       -0.044616328520803716 0.006488888697965185
000430 93 36 fb 86 6b 21 9a 3f 6c f5 de 30 d4 8a 80 bf
       0.025518112290959193 -0.008077295056746002
000440 0e a7 62 20 75 bf a9 bf 95 f1 2a 43 00 46 c0 3f
       -0.0502888299973404 0.12713626174617035
000450 26 f5 9b 19 c7 7a b3 bf d5 d6 92 34 b7 ca b9 3f
       -0.07609218955254402 0.10074944528136183
000460 38 66 a4 8b 21 0a 65 3f d7 75 97 33 90 14 b1 bf
       0.002568307417402573 -0.06672002086221283
000470 92 56 bf aa 37 6a a7 3f 4c 60 7f 2b fe 66 a4 3f
       0.04573224982565906 0.039848273095856784
000480 be 93 a2 24 e8 28 c9 3f 94 8c 97 44 17 21 67 3f
       0.19656087673970818 0.0028233961536315386
000490 6b 4c 60 91 45 5a d2 bf dd d3 b2 b3 e2 fa 71 3f
       -0.28675975033656326 0.004389653734667012
0004a0 5a e2 e6 95 c3 27 bc 3f 96 d9 c5 83 fa e6 aa 3f
       0.10998175058092255 0.05254347666316332
0004b0 a8 27 cc 78 75 f6 d1 3f b4 19 26 5b 94 64 c1 3f
       0.28066765591267506 0.1358819432318349
0004c0 0b f8 74 75 51 7a 91 bf bd a7 be eb 6e 9c bd 3f
       -0.01706816939735493 0.11566823249327647
0004d0 f7 cb 4a e5 b6 d6 d3 bf b9 66 60 db 49 d3 c5 bf
       -0.309980129163875 -0.170510513417687
0004e0 dd e5 7c 7f eb ac 91 bf 2d 17 79 ad 0e 32 ab bf
       -0.017261199623339486 -0.0531162821539922
0004f0 cf 95 0f f2 77 53 bb bf a4 e4 d0 c1 5f 17 c2 bf
       -0.10674237880410618 -0.14133831943198516
000500 89 bb 4e b3 00 20 a9 bf 19 7d 9d 79 45 f7 c0 bf
       -0.04907228649914603 -0.13254612386933998
000510 d7 14 73 90 6f 87 c2 bf 90 df 17 88 e0 59 d2 bf
       -0.14475817254257237 -0.2867356614146894
000520 7c 5b 66 9e a4 a6 b3 3f 8d a1 08 ee 71 a0 a4 bf
       0.07676152102645334 -0.040286598498201355
000530 94 1f 53 fb cb a8 9c bf e9 ff 01 6c 34 0c ba 3f
       -0.027987658705370302 0.1017487300578065
000540 6d 08 ea 23 60 4c b9 3f 11 ff bd 13 9e 47 d1 bf
       0.09882164837657266 -0.26999618461557967
000550 ee fc 9a a5 b7 a6 a2 bf 89 2f e5 9c 4c f0 b1 3f
       -0.036428202596192935 0.0700729258580265
000560 37 ae 37 bc 55 9c c0 bf 2a 08 4c 27 1e 12 cd bf
       -0.12977096262271612 -0.22711541098402793
000570 9e 33 62 03 9e 6b b7 bf a2 83 ae 96 ed 91 c7 bf
       -0.0914858587513678 -0.1841408715963811
000580 1e 49 c1 3f 05 b8 b3 bf 65 d6 f2 7d 18 b3 b3 bf
       -0.07702668005484667 -0.07695153307835197
000590 03 50 c2 63 d8 c6 bb 3f b1 65 f2 93 b6 a6 c9 bf
       0.10850288806460644 -0.20040018295257547
0005a0 cc 6b 01 f2 b8 80 c3 bf 52 8a 87 90 5b d0 72 3f
       -0.1523657972018938 0.004593236612410028
0005b0 3f ae d0 b5 0a 17 9f bf 5f c7 cf a0 14 57 a3 3f
       -0.030361335131756425 0.03777374709160485
0005c0 67 2d 07 7c b5 9b 74 bf b8 a2 2f 66 81 fc cc bf
       -0.005031308101432464 -0.22645585526995204
0005d0 17 95 a7 ce 92 c7 91 3f 4a db aa d9 6a 08 c0 bf
       0.017362874854275647 -0.12525687816897807
0005e0 6f d9 ea cb f6 01 b9 bf d6 7f b6 04 47 3f b7 bf
       -0.09768621900989215 -0.09080928673802133
0005f0 55 0b b6 34 64 02 a6 3f 20 25 58 ca 1d bd af bf
       0.04298699515768215 -0.061989718389734216
000600 5b 6c c3 50 21 02 9f bf 5b 3f 94 56 58 a1 a8 3f
       -0.030281563333897626 0.048105965203034194
000610 ef db b4 dd cf 41 92 bf 34 73 38 18 91 24 c5 bf
       -0.017829177767648415 -0.16517842943803773
000620 d0 ef b4 4e 0c 8d be 3f 58 f2 5a f5 b9 f8 9b bf
       0.11933972283890104 -0.02731600341825166
000630 3b 2e d6 24 3c b8 a0 bf 2e a5 ba 39 1a 17 a2 bf
       -0.0326556010214429 -0.0353325076551506
000640 b9 cf 13 cb 8a 3b c3 3f 4e 09 71 a7 e2 a5 c4 bf
       0.1502545825566111 -0.16131241966111037
000650 75 13 bf 90 dd 84 b2 bf 0a 3c 2e 1e 21 b4 a8 3f
       -0.07233986648414066 0.04824927800574848
000660 b6 dd 5b 1d b3 24 a6 3f 11 35 8a c0 61 4b be bf
       0.04324874623665258 -0.11833773565941309
000670 dd 8b b0 8f 53 ab c3 bf 35 5a 74 1e 33 70 c3 bf
       -0.15366596714110772 -0.15186156260524944
000680 a1 90 c1 b7 bb fe ad 3f f2 c1 23 45 40 84 8c 3f
       0.058584085637251045 0.013924123868918923
000690 72 07 54 a2 04 bc 79 3f 3f f9 1c 3f 7b ba 94 bf
       0.006282823659832336 -0.02024262020790357
0006a0 b3 2b 96 2c 9f f4 ad 3f d1 69 ee 2a 0a a3 d0 bf
       0.05850694102544853 -0.25995115463743185
0006b0 c0 25 b6 73 f2 b8 cf 3f 81 f5 99 93 95 e4 91 bf
       0.24783163690544363 -0.01747354234111276
0006c0 f7 4e 5d 76 3f ff bf 3f 99 78 c8 d2 a9 00 bc bf
       0.12498852386243785 -0.1093851222617296
0006d0 43 33 83 85 7e 60 81 3f 84 26 c8 ce d0 e9 84 bf
       0.008484829377630404 -0.010211592970353019
0006e0 be 63 95 f8 b5 bb 59 bf f9 78 b5 75 4e 8f b6 3f
       -0.001570632654269696 0.08812418340446361
0006f0 5c 04 a2 52 0a 8e c3 bf 93 43 8e fc 9c ee a8 bf
       -0.15277222666557833 -0.04869547446208524
000700 16 ba 31 e7 cd bd c5 3f bc ae 69 22 03 1c c3 bf
       0.16985486782819298 -0.14929236584008787
000710 bf e6 8d c4 53 a5 c7 bf 83 15 7d e7 aa f5 ce bf
       -0.18473288628938708 -0.24187218001513253
000720 c2 a8 c3 00 40 36 bc bf 3e 76 76 4f 86 4e c6 bf
       -0.11020278948459164 -0.1742713821412724
000730 e4 8a 50 fe 9c 6e b8 bf 79 37 54 0d 56 9a bf 3f
       -0.09543782433369646 0.12344873261846868
000740 37 04 ef 15 4a 93 a0 3f eb fe 3a 6e 89 e7 98 3f
       0.0323737289213643 0.02432074294369972
000750 b8 a2 ec 2e fd 35 d3 3f 5f 9e 68 07 cf ad ba bf
       0.3001702268834765 -0.10421461039424561
000760 70 70 8c c1 48 84 93 bf 81 8c b5 84 8d d2 c1 3f
       -0.019059311688679192 0.139238061713602
000770 76 0a 4a 94 ab bb 76 bf f1 eb 79 42 c8 2c b0 bf
       -0.005550070029701195 -0.06318332312541465
000780 cb 26 84 00 a5 21 b6 bf 60 74 4a 14 a1 2b bb 3f
       -0.08645087492564156 0.10613447900182527
000790 a3 9d be d6 60 9d a9 bf da 93 86 33 75 37 c9 3f
       -0.050028825963916355 0.19700493827727322
0007a0 60 76 04 55 7c ea c2 3f f8 dd c2 65 38 63 ad 3f
       0.14778093482248078 0.05739761583521025
0007b0 6c 65 1d 70 ea 16 a3 3f 7b 75 e7 c3 e2 e0 a1 3f
       0.0372842084750101 0.0349188675061027
0007c0 5c bc 28 21 6d 4e a5 bf a4 de 80 1b cf e7 9b bf
       -0.04161397008680787 -0.02725146870963492
0007d0 b7 35 12 8b e8 c5 b5 3f e0 b5 e8 92 f9 07 ab 3f
       0.0850510921029216 0.05279521864245473
0007e0 b8 ac bd b3 d3 73 c8 3f 63 8a c0 ec 9f 3a d0 3f
       0.19103475834285688 0.2535781681091633
0007f0 dc 76 3b c2 24 de 82 3f 9d ad bb 0f ea 1e 9a bf
       0.00921276777028928 -0.0255085537054761

arr_2 f8 [100, 10]
000000 3d 36 93 b3 c6 e4 c1 3f 08 72 94 43 68 48 d1 bf
       0.1397941948729783 -0.2700443897208804
000010 b1 74 ab 78 81 e5 bf bf 13 06 2f bc c8 79 d4 bf
       -0.12459572979010393 -0.31993311288178566
000020 97 5b 35 fa 6c 7f ca 3f d8 be d2 f1 c7 73 83 3f
       0.20701372353752553 0.009498178546294353
000030 fb 4a ab bc e1 79 af 3f ed 49 24 7e 2d 43 d8 3f
       0.061476759224793974 0.37910020178347176
000040 46 b6 39 41 16 21 d0 bf 3e 5c fc 03 87 69 ba bf
       -0.25201946611091264 -0.10317272040661948
000050 01 5a 8f a8 a1 be c5 3f 36 0f 9a a2 ed 48 a6 3f
       0.16988011103121894 0.04352514848599613
000060 f5 10 b1 f4 52 e3 a1 3f aa 78 5a d9 d4 80 61 3f
       0.03493746983488847 0.0021366269309757895
000070 70 17 1b 2a 05 32 b8 bf 70 86 fc 02 98 bf 88 bf
       -0.09451324727987553 -0.012084186164034366
000080 67 6a 71 2c c7 ff bb 3f 69 f7 26 61 f9 bf ad bf
       0.10937161288294704 -0.05810527144374939
000090 f3 cf 49 74 20 bb b6 3f 82 e6 bf b4 65 14 a0 bf
       0.08879282797880687 -0.031405618967210294
0000a0 11 5c a9 bd 05 28 bf bf 1b 05 a6 12 2a 37 d6 bf
       -0.12170444374474722 -0.34711696454185564
0000b0 ca cf ba 57 4d 2d ce 3f e4 1b 2d 1f a6 ca af 3f
       0.23575751098326087 0.06209296351021701
0000c0 a9 25 1b 38 2f c4 d0 3f ed 5c 20 0e 34 72 e8 bf
       0.26197414855104256 -0.7639408374697304
0000d0 11 55 95 e5 5e 84 c9 bf 51 b9 1c 4f e4 00 c4 3f
       -0.19935213289378642 0.15627721655750773
0000e0 8b 52 d9 33 56 b8 d8 3f 8e 1c eb 36 85 22 c5 3f
       0.38625102103586845 0.16511597806513517
0000f0 0e fe f6 12 2d 2c dd 3f 62 b4 7e 33 95 14 9c bf
       0.45582129337341903 -0.027422267215730385
000100 ea 5e d2 3b 01 f7 cd bf dd c9 2e 98 99 2b c1 bf
       -0.23410048886284268 -0.13414306574629978
000110 97 ab b7 09 0b 7d 99 bf 10 46 01 ed 42 76 e2 bf
       -0.02489106413660699 -0.576936209583609
000120 c1 23 30 ff 9e 8d c1 3f f4 3d 70 76 f5 ef ac bf
       0.13713443241456783 -0.056518240650003465
000130 0c f8 89 a4 75 82 b0 3f ce 47 6a 29 d1 52 c3 3f
       0.0644906546312713 0.15096487543320197
000140 e1 9d 76 a3 38 02 aa 3f 4a 4b 6c 70 2a 27 d8 bf
       0.050798196748754305 -0.37739048937617226
000150 23 2c 38 29 da 72 d2 bf 2b e2 2d 66 3e 68 9a 3f
       -0.28826002145132373 0.025788283335233125
000160 53 5b 9c 06 1c 12 db 3f eb 51 05 0a fc c5 e1 bf
       0.4229803146894728 -0.5554180331915267
000170 dc 00 52 a4 35 b4 cb bf c4 ed 30 09 20 ea ca bf
       -0.21643705867246055 -0.21026993225846813
000180 68 69 c4 86 d4 30 e1 3f 30 20 08 14 1d a6 d7 3f
       0.5372107155010726 0.3695137687323067
000190 79 05 f8 5d 3d aa c5 bf 81 8e 4c 15 d0 97 a2 3f
       -0.16925780380556057 0.036314489936811085
0001a0 6d 23 2b c4 cd 45 97 bf 05 9a 84 51 16 21 e1 3f
       -0.022727217767882935 0.5352889625690415
0001b0 4a f9 91 ee 29 1b cd bf c7 d5 ca 6b ae 43 a7 3f
       -0.22739147328315773 0.045438242586367354
0001c0 0e a3 c5 56 2a e0 d8 bf dc 82 98 79 1a 1b d0 bf
       -0.38868196939306265 -0.25165426134667057
0001d0 32 34 21 cb d8 f2 a9 3f 45 f9 27 df b8 22 c3 3f
       0.05068089942560795 0.14949713608070617
0001e0 35 56 0d f2 50 3e c1 bf 18 0e a1 7c 56 29 a6 bf
       -0.134714239301205 -0.04328413268424586
0001f0 2f ed d6 6f 96 7b a1 bf 53 24 4a 88 83 06 a8 bf
       -0.03414602389553988 -0.046924696337619885
000200 4e 9f 44 58 d5 fd c2 bf 45 ce 19 a0 77 e0 95 bf
       -0.1483713799473158 -0.02136408724477536
000210 7d 78 10 99 db fc 9a bf b6 ac d4 5d bb cf c0 3f
       -0.026355200974756066 0.13133947450237365
000220 6a e8 f2 dd 75 14 bc bf 8b b2 5a dd ed 53 7a 3f
       -0.10968720120118439 0.006427697333191272
000230 5a 6d c6 99 75 2e 81 bf 7e c0 e7 77 db d7 d6 bf
       -0.00838939548048383 -0.3569248839330682
000240 c6 2a 2c 31 0e 1e e5 3f 06 63 de f7 7c d7 bc bf
       0.659918876686185 -0.11266308833581826
000250 be b6 7a 9a a4 02 a2 3f 4e 12 db eb e6 b7 d8 bf
       0.035176414353697436 -0.3862244895247259
000260 b6 e7 9b 75 ab 4b e3 bf b4 63 1c 91 67 40 a6 bf
       -0.6029870316553942 -0.04346011778233763
000270 9e 93 b0 bb 19 b3 e3 3f df 07 0a 42 8a 7d bd 3f
       0.6156128564658621 0.1151968394497369
000280 e4 b7 b7 e7 3e b6 b3 3f b6 90 60 91 00 bc b3 bf
       0.0769995990483206 -0.07708743619201894
000290 dc a1 7e 39 97 b6 c6 3f 4f f2 2b 1a 73 78 73 3f
       0.1774472265945083 0.004753541582200939
0002a0 b7 8f 84 40 26 27 87 3f 86 1e 5e 31 b5 18 97 3f
       0.011305140346458005 0.022555190218126707
0002b0 f6 de 23 82 09 f5 9f 3f b5 01 50 43 be c2 ae bf
       0.031208180015680896 -0.060079522816525545
0002c0 e2 d2 bf eb 80 4c 90 bf 9e ca 7c 0d a8 be 92 bf
       -0.0159168380632363 -0.018305421660623204
0002d0 36 82 b3 ce 1a 27 d4 3f 61 e5 b2 44 26 b7 d3 bf
       0.3148867624823056 -0.30805355748051083
0002e0 13 55 98 e1 ad 7f c3 3f 75 4b ab ef 94 75 c7 bf
       0.1523339606798478 -0.18327581122010952
0002f0 b8 95 74 3e b0 9f af bf 71 92 71 c9 85 23 d5 bf
       -0.061765201209975584 -0.33029312774878067
000300 ca e1 e1 c6 4c 01 d8 3f 5d 3f 04 bb b6 e4 d4 bf
       0.3750793401918854 -0.3264595819791703
000310 01 2c 03 3b e0 28 dd 3f 0b 09 20 0c 37 15 ce bf
       0.4556198669712899 -0.23502243129775766
000320 fa 5f 5b 00 2f 8b d7 3f 6a 89 18 fb a1 4a e6 bf
       0.36787009272438775 -0.6966104416099317
000330 47 40 b3 54 16 c8 ce 3f 3a 44 f9 94 ad 78 d0 3f
       0.24048117767097407 0.2573656039067519
000340 c8 f2 bb 2e b1 c2 8a 3f 69 39 46 3f 71 bf a4 bf
       0.013066658247674737 -0.04052308938399813
000350 51 d4 36 d2 ac 43 c1 bf 4c ca 91 3d 28 c4 da bf
       -0.1348777796207821 -0.41822248470922285
000360 d9 8f 4a 78 ca 90 c8 3f be 99 6c 2e 94 dd dc 3f
       0.19191866754147105 0.451024098716882
000370 ce cf ac 7c cf 45 b8 3f 75 b2 6f 67 12 af ae 3f
       0.09481522363495218 0.059929442526343836
000380 48 f8 5a 9a 8a 5e 87 3f f1 05 f9 08 d5 72 a0 3f
       0.011410792193938715 0.0321260999157963
000390 3c 4c 79 d1 0d e0 45 3f 17 11 43 68 c9 f7 9d bf
       0.000667578456111768 -0.02926554392685529
0003a0 ff 9f f3 ba 52 33 97 bf 22 19 eb 15 1c 39 b5 bf
       -0.02265671983778361 -0.08290267500988027
0003b0 36 33 59 f0 67 6b 84 bf 72 5d ec 4f be ea b0 bf
       -0.009970485708572601 -0.0660819001317259
0003c0 d2 85 5e 53 39 e6 a4 bf 9c 2a 85 99 cd 2d a1 bf
       -0.040818969180019274 -0.033552575102097054
0003d0 ce 6a f0 97 7f 57 a6 3f 72 73 d4 22 c3 c1 b5 bf
       0.04363630990720467 -0.0849878273042586
0003e0 53 9a a5 35 88 02 96 3f 72 3a 79 21 a6 5f ad 3f
       0.021494034075113366 0.05737036856281898
0003f0 30 8c 96 b2 5a 1b 91 bf 33 ba 74 14 d6 13 8b bf
       -0.016705910825873527 -0.01322142839361815
000400 b2 2c bb d3 46 08 c3 3f 73 84 ef f3 a5 38 93 bf
       0.14869008387026877 -0.018770783437393534
000410 70 c7 60 b1 ea 53 d4 bf ba bb 82 d2 e8 b7 ca 3f
       -0.3176218731124356 0.20873747137872362
000420 26 6f ac 16 ca 44 e6 3f 2a 5e 6a de 2a a1 b6 3f
       0.695897144588774 0.08839672021928693
000430 36 24 a1 e1 32 de dd bf 54 1e ae 94 d9 81 a0 bf
       -0.46668693575026354 -0.03224067630713692
000440 7c 0d 80 43 1e cb c4 3f 12 79 18 35 ae bd e4 3f
       0.16244867607029423 0.6481543576262843
000450 26 5f a1 8f 87 1e c5 bf 39 bc a4 85 5c e1 ec bf
       -0.1649941874809368 -0.9025099382614662
000460 95 fe 8e e9 aa 99 a9 3f ef 0f 69 d2 54 7e ba bf
       0.050000515947883496 -0.10349016320202485
000470 55 71 ec bc dd 97 be 3f d1 7e d6 42 7f 1a dd bf
       0.11950479376213725 -0.45474225546966546
000480 72 84 8f cc 2c 6b dc 3f 70 7d b6 d8 69 d0 c4 bf
       0.4440414426481488 -0.16261027414018825
000490 85 f4 d4 8e 99 4a d8 3f e5 de c3 37 63 71 d6 bf
       0.3795532126276345 -0.35067062803089605
0004a0 de 20 c9 d6 d5 d8 e9 bf fb c1 37 cf d0 67 ea 3f
       -0.8077191538841608 0.8251728102896431
0004b0 91 48 63 3e 2d 4a 90 bf fe b1 1d cb 40 c4 b9 bf
       -0.015907961781359396 -0.10065083464514399
0004c0 9d cc 2c ae 72 a2 c0 3f 70 e0 d4 bd c4 37 ca bf
       0.12995751862181218 -0.20482692021483073
0004d0 1e ec b9 90 9b 8e ba bf 5e d5 27 01 84 26 c5 3f
       -0.10373852046352325 0.16523790413308864
0004e0 3e 71 e2 fd 6c 1f c0 3f ce 04 92 89 cd 06 8f 3f
       0.1259590377493484 0.015149694214644429
0004f0 08 87 cf a8 27 ff be bf d8 33 3e e5 2e 6d c1 3f
       -0.121080855096377 0.13614450639252484
000500 4d 5e 2e 51 8a 39 c3 3f fb 0b b0 5c b5 00 b1 bf
       0.15019349063799084 -0.06641706002123719
000510 77 30 10 b3 84 ab 9f 3f ec 62 7b af 29 4c b6 3f
       0.03092772810855179 0.08709965261676772
000520 15 31 3e 06 f5 3d ad 3f ce 80 bd 56 28 06 bd bf
       0.05711332036216469 -0.11337520711595347
000530 27 1f 82 48 13 05 b6 3f c4 81 08 c5 a7 0f 91 3f
       0.08601494331571456 0.016661282921747192
000540 48 6b a9 8d 6a 8c ad 3f 39 bf a7 e5 58 0c 9b 3f
       0.057711915772151345 0.02641428853706815
000550 a4 1a 5e de ac 35 a2 3f bc 63 48 25 16 c8 b0 bf
       0.03556575979660195 -0.06555307779525682
000560 3f 71 ec 2a 8d d2 95 bf a9 90 aa 0d da 5d 93 3f
       -0.02131100248799211 0.018912703594324985
000570 26 82 17 1b 3f 4b 94 bf 6c 6d 1b 32 4b 41 ad bf
       -0.01981829264502912 -0.05713877665194897
000580 a6 1f 80 04 07 e5 b2 3f 1e e2 1f e6 ff 75 89 bf
       0.07380718097567626 -0.012432097635596991
000590 60 f5 13 f2 83 ab 77 bf 2e db f3 2b b2 fa a4 bf
       -0.005778804218832562 -0.040975158562949296
0005a0 f9 ef 15 38 ba 9b b6 bf 1a 67 ce 40 b7 70 a3 3f
       -0.08831371182708371 0.037969328556938645
0005b0 69 80 3c 02 7c cf b7 3f 2e c3 2b b3 ec 51 bf bf
       0.09300971083257682 -0.1223438203267164
0005c0 d6 ab c3 d1 f9 7f 65 bf ee 1a ae 13 f3 4e b1 bf
       -0.0026245002064704077 -0.0676109240576854
0005d0 5c b8 6f 92 47 7d c2 bf a5 16 8e 2b 19 ce b4 3f
       -0.14444822931494883 0.08126981080394076
0005e0 4b f9 dc f4 52 3b bb bf 32 1a 61 9c f0 2b 94 3f
       -0.10637396314721063 0.019698867363582014
0005f0 73 a2 5c 1e cd 06 c7 3f 92 82 84 a0 72 9e cb bf
       0.17989505751144783 -0.21577294194959912
000600 cd 1a 28 e0 b8 3e d6 3f 6e 98 a8 1c 9f 21 d7 3f
       0.3475782574682114 0.36142709540070583
000610 d4 77 e1 73 2f 7b c2 bf b9 d5 9b 8b b1 ef b6 3f
       -0.14438431890715597 0.08959493311325319
000620 5f 1f de e7 73 e3 e0 bf de 24 ba d7 0f 9d c0 3f
       -0.527765229097877 0.12979314836073902
000630 3b 87 7a 02 95 c9 d0 bf a7 48 b5 e3 2b 1b ac 3f
       -0.26230359308293644 0.0548948016609228
000640 7d 32 14 f3 b0 72 40 3f e7 48 99 c8 4c 21 a5 bf
       0.0005019535075532902 -0.041269683348802925
000650 23 7a 87 5c 8d e9 88 bf c1 20 9a fb f2 23 b2 bf
       -0.012164215456263843 -0.07086104052189325
000660 54 d9 d3 5c 59 88 b6 bf 6a 03 8d 4c 95 e4 c0 3f
       -0.08801802173897971 0.13197580564340267
000670 9d a1 10 e8 89 65 a5 bf eb a9 c4 6c ad 4b 9e 3f
       -0.04179030378174107 0.029585561526951947
000680 a7 b3 1c e0 5f 8c ba bf 63 d8 9c 54 42 e1 b2 3f
       -0.10370444509017195 0.07374968114604168
000690 05 2d 83 11 7b 08 da bf 36 c0 11 4e da 61 a4 bf
       -0.40676762304492825 -0.03980905726427901
0006a0 d4 ff b9 4f 41 64 be bf 05 3a aa 40 c3 29 d1 3f
       -0.11871727177094665 0.2681739932531005
0006b0 80 18 fd 64 35 5d d8 bf f8 9a 14 aa 33 1e c7 3f
       -0.38068899976895665 0.18060918621741684
0006c0 23 81 d8 2a a5 53 c8 bf c5 89 d7 43 6f de d8 3f
       -0.19005264846874423 0.38857633233251604
0006d0 3c 72 11 d1 c9 98 d0 bf 1f 1f 0c 21 ad ed d1 3f
       -0.2593254605942865 0.28013160922317754
0006e0 d9 9f 6c e4 51 d2 c0 bf 99 fc f0 1f 25 3b d8 3f
       -0.13141845372706376 0.3786099254538811
0006f0 99 37 76 b7 af 23 db bf 02 96 ba c0 d9 9a d5 3f
       -0.4240531245821955 0.33757633038689516
000700 b9 9f 29 44 32 e0 b5 3f 5d 3c 9f 57 7f 9a b9 bf
       0.08545221485257927 -0.10001369370660158
000710 e4 da 04 67 4f ee d3 bf fc 2d eb 1f e2 97 97 3f
       -0.31142029819913675 0.02304032630745033
000720 0f 6b 94 23 e1 a1 c0 3f 9e 9d 2f e1 a3 35 ca bf
       0.1299401687363901 -0.20476196761522386
000730 f3 fc 2e da 23 54 b1 3f 6e c2 4a 2a a8 fd a8 3f
       0.06769012524363287 0.04881024853000758
000740 53 3e cb 7e 4d 8f b2 3f 78 99 1b 4c 10 2b 82 bf
       0.07249912591509515 -0.008871199915529301
000750 b4 a3 c6 cc 3e 37 93 3f a0 42 14 db a0 03 a1 bf
       0.018765431641131605 -0.03323080705934456
000760 27 86 87 99 0c 65 b9 bf c9 2f 88 c9 79 2f a3 bf
       -0.09919813869739667 -0.03747158608538787
000770 22 0f b8 78 5c 17 b1 3f e5 32 28 b2 e7 1e 90 3f
       0.06676271388283486 0.015742893456308322
000780 35 0a 39 46 c4 38 91 3f 93 c2 15 74 bd 9c d7 3f
       0.016818110261974623 0.36894165359903147
000790 bc cb 11 5d 1b 0b c5 3f 13 72 05 44 b0 71 d4 3f
       0.16440145534906303 0.31943899767591794
0007a0 cb 55 f2 78 7d 47 c3 bf 3f a9 5c c4 51 2a d0 bf
       -0.15061920552822836 -0.25258297134373103
0007b0 be 5c a1 af 0d 60 da 3f 26 dd 0d 71 07 f6 c8 bf
       0.4121126380100114 -0.19500821132872054
0007c0 79 37 94 d2 5d d5 df bf 3b a3 a5 99 2e f1 c0 bf
       -0.4973978573260563 -0.13236029150291437
0007d0 1b 19 26 ad 15 eb be bf 39 b8 ba 40 e0 da 7c 3f
       -0.12077460744157913 0.007044673907939774
0007e0 0b a1 b5 a5 24 51 e4 3f dd dd e5 70 24 3e b3 bf
       0.6349051701081704 -0.0751669669751815
0007f0 a6 21 52 d1 3a 2c d9 bf 60 79 7f e7 2d a8 e5 3f
       -0.3933245700977984 0.6767797013706449
