notebooks/models/simTwoLayers/experiments/xavier/biases_xavier_2.pkl.npz (npz, 2428 bytes, 3 tensors)

arr_0 f8 [100]
00000000: 2f4c 2e53 e4f9 e03f aa52 8404 4de3 e33f
00000010: fe72 0629 0f1a dc3f d6d7 865f 88a3 f9bf
00000020: 1dcf 6b30 609e f03f 3a25 7122 9d2f f1bf
00000030: cbcf 3042 5f14 f43f bc8c 5db3 2582 eb3f
00000040: 6df8 ea93 a78b fabf 3ef8 843a 2c6c 9cbf
00000050: 9b17 4695 5581 c43f f136 6ddc 991f b1bf
00000060: b767 b2a7 1fa3 a5bf 75d5 f08d 4a4e cb3f
00000070: 045f 2eeb 1090 f33f f566 13e3 28b4 d3bf
00000080: 7e02 39cf 1c26 f63f 1bfc 0f58 e33d fc3f
00000090: 7787 432e 7789 e9bf 114c 5b34 1eb3 f43f
000000a0: 5444 3949 ee9e f2bf 796c bd55 d7e0 05c0
000000b0: 437d e7af 5b68 d8bf 6523 18d9 ef70 fbbf
000000c0: 16d7 8ad1 e3bb d73f d384 60c7 9ef4 ecbf
000000d0: 2633 1b43 d0f3 e93f 721d fa7d c905 e1bf
000000e0: 779a 78dc d6bc e4bf 45c4 6cc8 5a21 f1bf
000000f0: acbf 0b1f 459c e43f 7258 a869 7d4a f0bf
00000100: 2535 43a1 7fc8 d6bf 3425 ef93 645d 02c0
00000110: ae27 08f3 8fb9 e13f 61d7 2605 aac8 dcbf
00000120: d391 f5ee 4091 dc3f bf5c 11a4 993e f4bf
00000130: 95f1 7d9b 279d d13f 9c02 67b8 1e03 c0bf
00000140: d3f5 bf72 fcae ee3f 8deb adda d347 e83f
00000150: f894 1d35 e140 f0bf ceec cae4 c7fa e3bf
00000160: c60d 1c65 8786 f8bf 6d68 ef8a bba8 f7bf
00000170: ee68 240b 6b73 f23f 8797 b28e 72b9 f0bf
00000180: 8aa3 59cf 5a5f e73f b5a1 53fc 93c0 c2bf
00000190: 9bfb b2fe a8c7 f0bf 48f3 d6c5 e84c ebbf
000001a0: 94bf 8a4a 2490 eebf 2cbe 3193 a824 d13f
000001b0: 791b 9f35 c332 eabf 3a44 3694 a437 e8bf
000001c0: 43ad 8dbb ff18 f33f c533 6c3c b069 05c0
000001d0: 10a7 8ff5 954f f73f da1d 31b9 dbc9 0340
000001e0: 4dc9 3330 a7de ff3f 0cbd ecd2 c258 f53f
000001f0: 00b8 a9d6 8800 0240 3bc8 a6e6 2578 dfbf
00000200: 9fe1 ce59 54df e63f 0617 da32 147b d6bf
00000210: 824f f79a 6ed4 d43f 6168 21e6 41e9 edbf
00000220: 9588 9d7c cebb e8bf 95f3 26b3 130b 0040
00000230: 883e 9cdc 05c7 f23f dd7a ffe3 a831 f13f
00000240: ed94 2291 ccff f33f bdd2 8647 3e23 edbf
00000250: b2a3 94a8 a9ba d6bf 43f3 8fab f77e e73f
00000260: d163 32a8 f78c d83f 2806 5e26 daf9 cf3f
00000270: 9e8b 59b6 dda7 d33f ba1e d856 2138 dabf
00000280: 642a dea7 269d f8bf 0212 88fa eed2 0040
00000290: 994d 59da 70fe ed3f bd1d 6bd4 3b3d cebf
000002a0: 8cbc dcbc 1918 e2bf 755b 6545 5593 c13f
000002b0: bd6e c3a4 099b f03f 59f8 7b5a 423a f33f
000002c0: 2cba eaca f7c1 c93f afa0 fe3d 398d 0340
000002d0: 270a fed7 2f68 d13f f6eb ad4b e485 fc3f
000002e0: 8268 302e dbb5 01c0 7ae5 8096 dd15 f6bf
000002f0: 67c1 5765 7b60 f93f 27bd cde9 eb6c f43f
00000300: f4cd ecbc 2a53 e63f 367a 620f 003a e2bf
00000310: 7337 1372 4bb5 dfbf d3a7 5ea9 258c ebbf
0.530504381620977 0.6214966858120381 0.4390905285488741 -1.602424977446835 1.0386659518671373 -1.0741244645490284 1.2549736581395219 0.8596371176939992
-1.6590953615227833 -0.02775639636205817 0.1601969698787656 -0.06688844329365985 -0.04226015970307578 0.21332675867749243 1.2226723849070718 -0.3078710763489732
1.384304818595552 1.7651093902529797 -0.7980304626073423 1.2937299771481359 -1.1638014660168396 -2.7347857187683613 -0.381369516164302 -1.7150724869008738
0.3708428903877218 -0.9048608678896478 0.8110123930615358 -0.5319564304817688 -0.6480516725612934 -1.0706432179542997 0.6440759283413988 -1.0181860091447814
-0.3559874605969802 -2.295601993308674 0.5539016482082297 -0.44974756720636405 0.44636557899346235 -1.2652832421206737 0.27521696266901446 -0.12509521488211284
0.9588606110771088 0.7587680121499588 -1.0158397745920507 -0.6243628948790503 -1.5328439664452715 -1.4786944796710728 1.1531782565348823 -1.045275266087147
0.7303899812514925 -0.14650201626433348 -1.048745150488435 -0.8531383384757669 -0.9550954299829635 0.267862457031671 -0.8186965987487006 -0.7567923445477682
1.1936032606416382 -2.67660567479331 1.456930121634688 2.473563620387478 1.9918586619283645 1.3341701735733436 2.250260998777776 -0.49170825504836885
0.7147619012894671 -0.3512621399498673 0.3254658234920883 -0.9347238058792408 -0.7729256090062956 2.005408668161588 1.173589574584101 1.0746239572687764
1.2499509496058707 -0.910552158070082 -0.3551429888053078 0.7342489577127725 0.38360396790954804 0.24981238244440473 0.3071207314262042 -0.40967591744309184
-1.538366943105438 2.102994878079927 0.937309671843127 -0.23624370452874457 -0.5654419602123126 0.1373087490889834 1.0378509937353748 1.2017234358350122
0.20123193176319043 2.4439568370181273 0.2719840630817622 1.7826884227968072 -2.2137969597361584 -1.38033827581816 1.5860551794722484 1.2765921719508897
0.6976522149984121 -0.5695801067811945 -0.4954403509153657 -0.8608578022005936

arr_1 f8 [100]
00000000: dbb3 fb4d fa3c f63f b6f0 e799 bf4a c53f
00000010: 81d3 8535 1455 853f 27b9 87e9 18dc 0040
00000020: 0fd2 7005 6f3c f33f e67f 1c7e 7c05 e9bf
00000030: a4ae 7bed 98c8 c2bf 543b 8d4f b28a e13f
00000040: c052 50d4 b629 d0bf 8caa c0e0 a565 db3f
00000050: b423 300a d510 debf e63a 1c48 b876 c23f
00000060: dc5d 5bc8 a842 f1bf 856c d798 eff9 c73f
00000070: 5a5d d2f3 e2b3 a43f 7650 80c9 c144 fa3f
00000080: c07c c6f4 7efc e63f 6384 6080 803a dd3f
00000090: 833a 6abb ec48 d83f bb7f 426f 913e a9bf
000000a0: 86b9 7201 0adc f63f 9ac0 8c66 06b8 c13f
000000b0: 8053 2190 8ee3 f1bf a044 aba1 2eea e4bf
000000c0: 86ac ca88 f6d3 d6bf 9942 b13a d00a f33f
000000d0: ec30 781d 45dd dd3f 54d4 261f cada e6bf
000000e0: c8e2 f658 1daf e5bf 1ec7 09cf c43b e73f
000000f0: b721 f776 eff1 e5bf 51cb 2e39 8b41 0540
00000100: 071a 0b62 819e d3bf 1be8 2c52 98b8 d13f
00000110: da27 a271 df30 f0bf 42f4 1080 9c5e dc3f
00000120: b4de 4655 0261 e03f 374c cadf 8325 efbf
00000130: 456c 028d 5505 0240 98e3 89c5 af75 f43f
00000140: ce6f 9150 db16 f03f afb8 cc81 e8a0 d13f
00000150: 4c75 8bc4 fdd1 c03f 6529 c7e8 f28a cfbf
00000160: 9c81 c8fa 638a e9bf 2048 b12d 1fa9 edbf
00000170: bd7f 5bcd 587f f43f 5923 0a4e a4a8 07c0
00000180: afa6 b837 ef15 f33f bf41 ad5d 80c6 fa3f
00000190: fd46 0afb 44d5 e03f 7acb ca19 73a3 00c0
000001a0: a216 c520 49f1 f43f a5b1 5078 a80b e2bf
000001b0: 9b4f 0fb0 2276 e53f 5922 7d77 fe0f f33f
000001c0: 35c0 2d5c b097 d0bf a980 ae12 3d96 b7bf
000001d0: d0b6 cd64 f9b7 e03f 17c1 6808 1cab fe3f
000001e0: ad8b 2ab7 1184 fdbf b710 cd57 3aef d73f
000001f0: 2a63 f008 6ac2 d13f f187 f91a ee32 e8bf
00000200: d592 9198 e306 d3bf 3862 09dc be6a f7bf
00000210: 75ea da5d 646d f93f 0d3e dc36 15db 0040
00000220: 4dcc ba6d 1239 e5bf 761d 0356 97e6 dbbf
00000230: b909 8898 1679 ed3f 3e2d 13e4 511a d4bf
00000240: 879c 6340 64ac f93f 8015 2103 59e5 bebf
00000250: ef39 5c16 4ad3 cabf cb43 cdd9 2f61 f6bf
00000260: fc60 cfd2 b14f fe3f 255e 57f6 fe20 f1bf
00000270: 7f89 1512 2018 ebbf eefc f5af 5bda d93f
00000280: c944 5416 16a8 f63f c8f1 6bdc 026c 8a3f
00000290: 9bea ed9b 0bb3 ec3f 0e30 c354 fadc e33f
000002a0: 0019 dd65 0c54 0040 bd41 994b f79a f43f
000002b0: 2880 a859 9dfc f4bf 4368 2425 2fd7 e4bf
000002c0: ab61 6065 8e3a ed3f ee76 cf4f 498e fd3f
000002d0: 5549 1724 f575 f13f 9337 7539 b6a4 d83f
000002e0: 008f 6b29 40d6 ca3f 4793 6e9a 7089 e93f
000002f0: 0d22 ebc3 84e1 e53f d199 89aa babf e0bf
00000300: 3cac 9789 1fef d1bf 63e0 9b3d 7678 f13f
00000310: 0141 c033 5eb7 f7bf 60aa 4816 a271 983f
1.3898871465892089 0.16634364142362806 0.010416181453118291 2.107469391302533 1.2022543156173275 -0.7819197142707679 -0.1467467460237134 0.5481807283157232
-0.25254603132024656 0.428079099163974 -0.46977735514570473 0.14424804230699023 -1.0787742449227755 0.1873149391456971 0.04043492533053934 1.6417863722936352
0.7183222561615352 0.45669567620104184 0.3794509725784467 -0.04930548175002466 1.4287204796379185 0.13842849738421564 -1.1180558805546923 -0.6535866887662856
-0.35668719633640256 1.1901399891541244 0.46663024785881535 -0.7142077072554778 -0.6776262986741921 0.7260459941591966 -0.6857831309835579 2.6570038287549456
-0.30654940199420405 0.27689178490584404 -1.0119318426900379 0.44327461725680817 0.5118419328273007 -0.9733294840720025 2.2526045814861697 1.2787320820191095
1.0055802485649 0.2754460589957359 0.13140842530166663 -0.24642788282501296 -0.7981433771238247 -0.9268947498733304 1.2810905477308403 -2.9573446366161247
1.1928550888646148 1.6734622630357163 0.5260338690879675 -2.0798093810093947 1.308907630927401 -0.5639231061846216 0.6706708372753271 1.1914047877818545
-0.2592583561117892 -0.09213620859236706 0.5224577874011747 1.9167747810825568 -1.8447434573106236 0.37397631239242507 0.2774911010069895 -0.7562170531130034
-0.29729547404558093 -1.4635609240705332 1.5892070451942832 2.1069740568125384 -0.6632167952688036 -0.43594916724801835 0.9210312823418497 -0.31410643837871877
1.6045877947997569 -0.12068706823727915 -0.20957304088410875 -1.398727274692862 1.894456695057726 -1.0705556509691487 -0.8466949799733782 0.40395252402954795
1.4160366890176184 0.012901327468619508 0.8968561215873082 0.6207248359219208 2.0410392721270227 1.2878334954331045 -1.311673498370519 -0.6512675977167038
0.9133979778298927 1.847237884292038 1.0912982377818328 0.3850532113182165 0.20966341040104197 0.7980273262261129 0.6837791277440047 -0.5234044390497791
-0.28021992146267727 1.091909638080346 -1.4822675725482102 0.023870976076219796

arr_2 f8 [10]
00000000: 64e7 e5a2 ffec e3bf a9bc 90e8 72f2 f0bf
00000010: b9e5 20ee 73b2 ed3f 0a2a aa28 b4cd d33f
00000020: 66fa 09b1 5ba6 f53f ab1c 20c8 434d e1bf
00000030: 5481 a4de fb1f e5bf e27d da3c 90e3 b1bf
00000040: b056 271c 4e24 e2bf f793 be77 e802 03c0
-0.6226804906466268 -1.0591916164956194 0.9280337954470986 0.3094301602474451 1.3531147876343765 -0.5406817349147749 -0.6601542805183649 -0.06987859235459085
-0.5669317769886302 -2.376419959548453
