notebooks/models/simTwoLayers/experiments/xavier/biases_xavier_0.pkl.npz (npz, 2428 bytes, 3 tensors)

arr_0 f8 [100]
000000 02 7d d8 a7 ba ef e3 bf 6e b9 08 36 9f c9 07 40
       -0.6230138090358255 2.973448202267881
000010 f6 fb 42 04 66 6f d5 bf e4 ad e5 bd 17 f4 cf 3f
       -0.33492422500779584 0.2496366193039271
000020 33 7f 01 66 8d 13 f0 bf ec 35 08 a9 46 9a de bf
       -1.004773519955006 -0.4781662607864223
000030 df fa c9 af b5 ad ec 3f 60 03 39 f1 27 8e f2 3f
       0.8962047990206335 1.1597060606729528
000040 e6 84 a3 37 ea bf c7 3f 6d 4d 6a ae b9 a4 d3 bf
       0.18554427830444026 -0.3069290354989878
000050 ed 8a 85 27 bf 1e f6 bf b8 ac d3 e2 a5 c1 c0 3f
       -1.382506517774057 0.13090966773538582
000060 b2 d9 b2 be ef 3e b3 bf e7 8f 41 6e b3 84 ea 3f
       -0.07517908483246208 0.828698840469312
000070 a4 38 fc ba 3a 96 e7 bf 03 0e 69 1e 22 1e f5 bf
       -0.7370885517173247 -1.3198567569642143
000080 6a 7a 0c 55 32 99 d4 3f e8 e7 6b ec 74 5a d0 bf
       0.3218503790430193 -0.2555210408023627
000090 fa 54 8f 5f e3 33 b5 bf e7 26 ae 4d 87 7e e6 3f
       -0.0828230007458223 0.7029453770821562
0000a0 b1 bc 00 9e d5 dd f3 3f b6 75 b8 ae f0 db e0 bf
       1.2416587993609876 -0.5268481647978465
0000b0 41 ea bf 74 39 d2 7b 3f c9 c9 e8 45 22 06 f3 bf
       0.006792282521923599 -1.188997529109303
0000c0 47 c3 a6 4f be ae b6 3f 20 68 ab 2a a8 1d ed 3f
       0.08860387272467306 0.9098702271833226
0000d0 fb 9f da 5e 45 90 fa 3f a7 c8 bb 12 e5 40 e2 bf
       1.6602224068865314 -0.5704217306031482
0000e0 2c 3f cc 11 53 ee a4 3f 6b 1e 7b ee d7 29 e4 3f
       0.040880771563136825 0.6301078470068665
0000f0 00 eb f7 f8 d0 05 f3 bf 0b 55 31 7a 7b c4 d2 bf
       -1.1889199948624878 -0.2932423299110531
000100 ca 69 66 78 83 9c ee 3f d4 15 7c 66 1f 81 ee bf
       0.9566056586802969 -0.9532620431570487
000110 37 cd 8d c1 6d fc ae 3f c3 ce ed b6 8c 84 f3 bf
       0.06051962840765628 -1.2198607583676881
000120 3c 63 58 82 a9 cc 97 bf d6 ea b9 18 1b 4d c1 bf
       -0.0232416616255222 -0.13516558368049542
000130 c1 0a c9 ec 7b 54 bd 3f 7d 52 ab e1 11 20 96 3f
       0.11457037478343592 0.021606711767918164
000140 df 64 70 2f 1e 42 f5 3f b6 f0 cb c9 f5 b1 db 3f
       1.3286420682036846 0.4327368231458978
000150 f1 f8 a7 12 b4 8d f2 bf 5c 5a 29 a3 23 b3 e5 bf
       -1.159595559001499 -0.6781175791500789
000160 98 70 d6 76 5c d8 f1 bf 25 e4 5b 9d cd e9 d4 3f
       -1.1153225557418747 0.32677021376690824
000170 11 cd 50 a3 f0 4c d6 3f 3e c2 71 d9 ad b5 e3 3f
       0.3484460444335165 0.6159276244125704
000180 77 3c 98 fa 88 9f e7 3f 15 18 d7 d1 89 21 e7 3f
       0.738224496309967 0.7228440378610254
000190 89 c9 dd 87 37 27 f3 bf b3 dc 10 29 97 11 f3 bf
       -1.1970744426040218 -1.1917945484290555
0001a0 b8 89 6a 5a 66 ea d6 bf 36 18 b9 78 d7 e1 d1 3f
       -0.35805662946418293 0.2794092825828359
0001b0 fc c9 2b 9d dc 7e f8 bf cd 80 9d f6 66 4b fd 3f
       -1.5309721126074 1.830908740368659
0001c0 ac 76 61 e2 4e 73 a4 3f ff 5e 17 43 04 d6 63 bf
       0.03994223130642402 -0.002421387028089472
0001d0 1f 52 d4 f7 2b 37 f5 3f 82 ba 75 25 d1 9e f2 3f
       1.3259696656069833 1.1637736762310458
0001e0 78 b2 b8 7c 65 6c f4 bf 27 82 43 d8 00 c1 e3 3f
       -1.2764639732296512 0.6173099731350405
0001f0 5e f2 96 e5 d3 51 ed bf 8c e4 2b 44 73 6a e9 bf
       -0.9162387355969022 -0.7942444163774254
000200 3b 29 92 90 e5 53 f9 bf 18 08 d5 68 a7 e9 ec 3f
       -1.5829826018621833 0.9035222098830245
000210 03 4f 17 77 ab fe d5 3f 9a a3 a6 98 3e 35 cd bf
       0.3436688101767091 -0.22818739370020752
000220 95 53 84 2d 28 51 a9 bf 8f 7c 18 69 ec a0 e5 3f
       -0.04944730334879136 0.6758939793252398
000230 13 33 4d 1e ef f3 d0 bf 9c 5d 3b ca 6f 03 ee 3f
       -0.2648885532296827 0.9379195165483227
000240 c7 84 2b 33 f1 ea f3 bf 16 56 50 81 c6 26 bb bf
       -1.244858932383339 -0.10606041581225897
000250 66 fa 0c cd a8 89 f5 bf be 3f c3 07 18 65 59 bf
       -1.346108246783524 -0.0015499815627215553
000260 38 7c 60 c1 7f 70 f8 bf ee 9a ad 95 64 74 ec 3f
       -1.527465587023256 0.8892081187630916
000270 54 2a 02 52 d4 ce e9 3f 7b a3 25 07 82 22 d4 3f
       0.8064977266051963 0.31460619638396964
000280 40 b0 f9 ed 24 d7 f1 bf 4d 2e b3 1e 59 21 e7 bf
       -1.115025453177637 -0.7228208160026469
000290 93 bf d6 47 4c 95 bd 3f fe cb 40 2a 44 38 c3 3f
       0.1155593562496036 0.1501546102823283
0002a0 76 e7 11 dc 77 a9 fa bf ac 58 38 4c 44 f7 05 40
       -1.6663740726930576 2.745735736341052
0002b0 2c db ce e2 94 ab c6 3f 8f c5 99 ee ec fe e2 3f
       0.17711125444994857 0.5936188373727179
0002c0 77 cb 6a ab 0e e1 d8 bf a4 83 6e ae d9 9f db 3f
       -0.38873640766103484 0.4316314891275914
0002d0 fb 4d dc 3a d6 af f4 3f cd d2 e2 2d dd 6e e5 3f
       1.2929289149514023 0.6697832008563523
0002e0 be 1a 25 ee 3b b1 e8 3f a4 04 e0 b4 e0 eb df 3f
       0.77163502228435 0.4987718359335054
0002f0 ab 85 0d 8c 53 bb f6 bf ce 63 d1 75 7d a4 fe bf
       -1.4207339735806765 -1.9151587106955392
000300 a7 67 5b 1d a5 b0 dd bf bc 03 78 18 1c ba ea 3f
       -0.4639065539064355 0.8352184751421343
000310 07 fb 3b 3f f7 72 e7 3f fb 69 26 cf e9 58 f6 bf
       0.7327839121861367 -1.3967073528098115

arr_1 f8 [100]
000000 f6 c4 33 25 4e 6a ba bf 1d f9 26 10 ea b5 f8 bf
       -0.10318458946473527 -1.544412673086817
000010 7c 35 94 53 9d f9 f0 bf b2 ff 22 ee 46 c0 fb bf
       -1.0609410538484942 -1.7344426443305392
000020 95 32 1b ea c3 a2 fc bf 90 ec 66 87 70 88 c2 bf
       -1.789737619855406 -0.14478880511692127
000030 0e 16 10 8b 48 c0 f2 bf 66 17 0c 11 65 a4 f4 bf
       -1.171944182600217 -1.2901354471118451
000040 65 ef bc 64 7b bb e6 3f 0a 2c 5d 37 45 e1 c3 bf
       0.7103859870471579 -0.15531220629995374
000050 65 39 77 c0 3a 4c f1 bf 81 b1 7e 52 d9 25 b5 bf
       -1.0811107176010293 -0.08260877861056849
000060 6a 88 01 c6 aa 34 de 3f 88 7e aa 25 f3 57 f8 bf
       0.4719645436908936 -1.5214721175506458
000070 88 d1 1f 89 79 93 fa bf 5a 16 af 85 da de fd 3f
       -1.661004577295076 1.866907617762442
000080 f8 f5 76 67 cf 7b a1 bf be ff dc 6c 1e 8f f2 3f
       -0.03414772165295327 1.159941125151803
000090 60 7c 68 d2 f5 95 da 3f 31 c4 4a b5 7d 92 f3 3f
       0.4154028467909878 1.2232644159050887
0000a0 dd 60 63 cb 53 87 d2 3f df 1b a8 79 a6 4a dc 3f
       0.2895097242558345 0.4420562923482389
0000b0 27 8c b7 cf db 2e f0 bf d4 80 5e 2d 6d ff f3 bf
       -1.011440097231352 -1.2498599788887548
0000c0 13 41 ad a8 6c 21 f2 bf 3a 37 5e 88 72 66 e0 3f
       -1.1331602658211224 0.5125057853162851
0000d0 45 39 0c 1d 83 3b f0 3f 8e 77 4d 97 50 13 b7 3f
       1.0145293364217463 0.09013847059165256
0000e0 5b f4 34 6a b7 36 e6 bf 63 22 56 f1 6c 31 f4 bf
       -0.6941792559006318 -1.2620667864995532
0000f0 44 fb b9 e7 c7 c9 f2 3f 3d f3 9a e5 c1 a0 b7 bf
       1.174262910062411 -0.09229671340558539
000100 db 11 6e 97 b6 b3 ad bf ff 85 45 e8 7e 4a c9 3f
       -0.05801172827253583 0.19758592931161442
000110 55 c7 de a2 18 a7 dd bf d7 76 be c1 8d e8 ea 3f
       -0.4633237448243695 0.84088790741563
000120 32 5c a6 dd ea 4c ec 3f c0 39 3d 12 85 90 f4 3f
       0.8843893365000268 1.285283156630257
000130 ba 8b bf 01 b8 4a bb bf e5 54 ef f5 82 b6 d1 bf
       -0.10660886805230421 -0.27676462189749734
000140 03 0d 93 ba 4f 3c de 3f 9c 1f 33 ae c9 27 e2 bf
       0.4724311182037157 -0.567356910928527
000150 df 08 c9 56 67 37 c0 bf c7 e9 77 96 5f af f9 3f
       -0.12669078576624934 1.60531576897357
000160 c1 1a 50 ee 13 e3 f8 bf 1e cb c5 35 b8 14 e9 3f
       -1.5554389294717768 0.7837792444464389
000170 7a 3e f9 3e 9f 1b e4 bf f3 96 ee 9c 31 b9 e2 3f
       -0.6283718328431427 0.5851066651418634
000180 15 99 c8 73 bd a3 e3 3f 2f 1e 8a e4 f7 a1 f5 3f
       0.6137377988241349 1.3520430495572204
000190 02 ec 7f ae d2 c7 ec bf 76 50 7c ef c1 d4 ef 3f
       -0.899392453021733 0.9947213818982295
0001a0 a6 f1 29 1a e0 1f f0 bf b4 d7 47 1f c2 92 de bf
       -1.0077820798897874 -0.47770741514920734
0001b0 fa 4f d3 13 52 15 d2 3f 31 f7 92 78 d6 cf e2 bf
       0.2825513070686153 -0.5878708224260888
0001c0 75 38 09 06 ee 05 94 bf e0 21 e9 64 0c 25 d4 3f
       -0.019553870314034733 0.31476125578458714
0001d0 9f f8 99 61 2b f6 c2 3f f5 3c ff 9d b2 eb 00 c0
       0.1481374956674175 -2.115086778976201
0001e0 17 db 5c 98 5d 24 ec bf bb 60 0d 6c fb 74 bb bf
       -0.8794391609033906 -0.10725375545496522
0001f0 e7 a1 d6 4a f7 77 b5 bf 6d c6 9f 69 ba 89 f3 bf
       -0.08386178567037171 -1.2211250425283666
000200 0a 7e dc d7 7a 6a c1 bf de 1c 64 ba 05 a7 e6 3f
       -0.1360620073328252 0.707888473553705
000210 7d 3f 5c fb de 8a e3 3f 3e f1 08 dc 02 bc e1 bf
       0.6107020291692461 -0.5542005822713134
000220 5d e2 07 4e b4 b8 c0 bf 5f d8 bf 81 c1 30 e5 bf
       -0.13063672838304088 -0.662201646248615
000230 e9 0e 0d 84 0d 67 d4 3f 7e 92 1a 9f be e3 d0 3f
       0.3187898435173638 0.2639004281757379
000240 a6 7e 26 99 41 89 f8 bf fb 39 10 f3 38 dc b4 3f
       -1.533509824985154 0.08148532804646173
000250 12 8d a0 b8 b6 0a ed 3f ed bd b7 85 59 56 db bf
       0.9075578313826631 -0.4271453672253916
000260 e4 21 63 5e 07 74 cf 3f 20 5a b4 c1 6a 53 d2 bf
       0.24572841748000862 -0.2863413707395086
000270 a4 c2 56 b4 10 1e f5 3f 4c 10 74 df ed bc de bf
       1.319840149353845 -0.48028132268541834
000280 06 2e be fa 85 c6 e1 bf d1 4a d8 e2 7c f0 b9 3f
       -0.5554838082620683 0.10132580316739427
000290 c9 91 6c 09 e7 08 fe bf 66 3e d2 d2 86 00 de bf
       -1.8771734588745963 -0.46878214443220256
0002a0 f1 ba 9c 87 d2 4a f0 bf 45 ca 55 48 44 21 f1 3f
       -1.0182671830513608 1.0706217599478276
0002b0 db 9b 4a c8 30 30 bc 3f c9 de cb c6 81 63 fc 3f
       0.11011032953193427 1.7742936864359982
0002c0 17 f4 25 2d 5d 80 dd 3f 61 58 a3 25 8d 96 db 3f
       0.46095971497544624 0.43106392551033507
0002d0 1a 55 07 76 45 0c d4 bf 75 5b 6d 4e 68 45 d4 3f
       -0.31324898267969703 0.31673629435447676
0002e0 c1 97 2d 81 5a 99 c2 bf 91 26 e0 23 e8 b1 ed bf
       -0.14530497844242343 -0.927967138356694
0002f0 8b 76 36 63 dd 8a e4 bf ed c2 1c 3a ed 80 e3 3f
       -0.6419512689351036 0.6094881186491797
000300 eb 27 fd f5 54 23 ea bf b5 38 27 3f 5b 97 ca 3f
       -0.8168129734488024 0.20774403175022874
000310 25 5f 8c 0c 79 58 f3 3f c1 2a 90 60 53 f5 b1 3f
       1.2090998163384452 0.07014962298868978

arr_2 f8 [10]
000000 2a fc 75 58 37 06 c6 bf 4a 09 8a 88 20 2d e6 bf
       -0.17206470317248207 -0.693008677175649
000010 fe 77 1d b1 ad 7b e1 bf 42 41 0e fe 47 72 d1 3f
       -0.5463474711684737 0.27260017213940924
000020 c7 92 62 10 9e 6e e0 bf cc c9 ab ee c3 b8 a3 3f
       -0.513503105165534 0.038519022831582456
000030 c6 27 11 10 e2 24 df bf 7c eb b1 2e 07 74 df 3f
       -0.486626163187449 0.4914567905431608
000040 a3 3d 46 f8 89 f1 e3 3f 49 0c 92 87 a2 ef f4 bf
       0.6232347344502397 -1.308504609653726
