notebooks/models/simTwoLayers/experiments/xavier/biases_xavier_3.pkl.npz (npz, 2428 bytes, 3 tensors)

arr_0 f8 [100]
00000000: 1cac d4d3 ea58 01c0 9631 25d9 d51f c93f
00000010: 45ce 50bb abf0 c7bf 90ad 70a0 8064 f23f
00000020: 56c0 4c7b 926f fabf 7062 760f cc8c fdbf
00000030: 5ba4 0fb0 57d5 f73f c4a8 3365 03cd e23f
00000040: 290a 8460 d1d2 f5bf a3f2 e0cd d5c8 f1bf
00000050: 8d58 c906 a708 fcbf 7fce 3d2f 8b6b fa3f
00000060: e7f7 63b6 03fc dabf 8204 920e 5cfb f4bf
00000070: faeb 1638 a0bc e8bf ef83 de7b 9242 eb3f
00000080: 6556 46bc febc 04c0 a2fc ba50 582d d03f
00000090: d38b c2f0 8345 ea3f 2501 0fff f18c eabf
000000a0: ca8f 54f0 43bc 0240 8985 1100 86ee e6bf
000000b0: 2b63 db68 1925 cabf 02c3 8739 92dd e13f
000000c0: 4ccb ed32 10a7 cd3f a5dc c670 0f98 db3f
000000d0: 9583 f10f e4f0 0440 cfc5 9e84 f7d5 e6bf
000000e0: 222b f188 be29 01c0 9b82 57ce 52a9 fb3f
000000f0: 8591 0337 ddcd ec3f 2990 bccf c6dd dfbf
00000100: b65d daa1 9c1a f93f 2d21 684b 12bd e83f
00000110: 3f11 9391 e4f1 eb3f eb94 8ef4 bb7a 9abf
00000120: 66c4 9144 0da0 c03f 9a85 7cea 52cb c6bf
00000130: 6b4c 676a 2267 fabf 74e6 5e5f 3c7a adbf
00000140: 8cbf 61ee 1402 0340 84d1 71a2 cebf f6bf
00000150: c2a1 c8aa 7f07 c53f 3510 445c 85af e63f
00000160: 405b f84f a9cc d6bf f9ca 5e10 119d e7bf
00000170: 1992 0fa4 5704 04c0 ed88 674f 4346 ed3f
00000180: 5bc6 0684 afe5 fa3f 2b01 3d57 538e f93f
00000190: 9fbd 7af1 f542 f73f 10de 0ac2 9c97 f43f
000001a0: 17b6 f060 3205 d63f df74 9061 a764 a53f
000001b0: 9922 b86c 6c5e ee3f b9c4 3683 2b20 fe3f
000001c0: c342 b434 fa43 f83f fd45 6f28 99e9 f03f
000001d0: b6fe b9d5 95d1 e43f 8230 c135 27dd f23f
000001e0: 8ecb 1552 c650 d6bf b658 0f8c d80f f6bf
000001f0: a574 2175 0045 a33f 80ee 608a 9f2d abbf
00000200: 15f5 4bc3 adbf e13f b798 617c 00e3 de3f
00000210: a4a5 cec1 21b4 eebf d773 42b1 d0fc f7bf
00000220: bf9d f3c0 139f f1bf e7ef 062c 3970 e43f
00000230: a53d bddc bebd debf 028f ff60 ec86 e7bf
00000240: 40b4 6c3e b007 f63f ee87 12db c205 02c0
00000250: 2d4b 99a3 61d2 f0bf fc35 c1f9 4204 e23f
00000260: 9f2d 768f da2d e8bf 481c 6cb0 3041 e33f
00000270: 201f c85b cfca c5bf 1f3e 81f6 56c1 00c0
00000280: 69ac 19e7 d624 e6bf e438 40c4 2a16 8b3f
00000290: 09a3 696d 8864 ee3f 0593 ed57 3dc8 c33f
000002a0: 6908 d614 023f efbf 035c 8c94 c4b9 e5bf
000002b0: ef92 4c7b 5615 ac3f 2bfa 54d2 e4b1 f13f
000002c0: 47a5 27c1 67fb bfbf 09bb 3ddf 663d f3bf
000002d0: e377 0bfc b2fd ee3f 42d0 e730 34dd e83f
000002e0: 1804 0e23 81ad cdbf 5bbb 1a92 649e f0bf
000002f0: cc9e 9115 039c f73f 821b cab4 7d53 ddbf
00000300: 6ab0 88ac ee20 f83f 7c35 9c17 9a2c e5bf
00000310: f61c f705 9486 f6bf d67d 3c35 be20 d23f
-2.1684166478421627 0.1962840376167036 -0.1870321907641587 1.1495367304986281 -1.6522393051527806 -1.8468742946626229 1.4895855786692411 0.5875260330770051
-1.363969208731428 -1.111532024587327 -1.7521124138925501 1.6512557835930293 -0.4216317444951287 -1.3113670891910094 -0.7730256171702188 0.8518764895744634
-2.5922827443089766 0.2527676380522711 0.8209857656805702 -0.8297052365888119 2.3419264579588104 -0.7166166306816858 -0.20425717945070096 0.5582972644461679
0.23166086661111718 0.43115602506027023 2.6176224942759725 -0.7136190023649592 -2.1453829477881223 1.7288387356021875 0.9001298975459099 -0.4979111698796737
1.5689970323927418 0.7730800125873764 0.8732779353381729 -0.02585881881863809 0.12988439415088066 -0.17807995271236338 -1.6501793056857206 -0.05757321037476695
2.3760164855556862 -1.421827921437484 0.16429134215401403 0.7089258958881205 -0.35624153909286704 -0.7379231757862207 -2.5021202866794394 0.9148270178668817
1.6810755879672772 1.597247448706251 1.4538478310385938 1.2870147304328192 0.3440671869928748 0.041783552798941186 0.9490263102935216 1.8828539968056204
1.5165960367923368 1.057030828426263 0.6505841421457805 1.1789924716750027 -0.34868009582640347 -1.378868624791307 0.03763581685846277 -0.05308245243255971
0.5546482862843357 0.4826050963078034 -0.9594887528702896 -1.4992224621012065 -1.1013371979878313 0.6386991367248783 -0.48033114964069973 -0.735220136117704
1.3768770636045389 -2.2528130641012387 -1.0513626471117263 0.5630202177068777 -0.7555973817811042 0.6017077871082472 -0.1702517698433832 -2.094404149836705
-0.6919970048596841 0.013225874055958937 0.9497720849004462 0.15454832833633972 -0.9764414221720134 -0.6789267445882391 0.05485029463878798 1.1059311119166846
-0.12492989030547107 -1.2024906845433085 0.9684691355466807 0.777002425688359 -0.23185743533761705 -1.038670130463024 1.4755888788730998 -0.45822088866446375
1.5080401172263245 -0.6616945706497712 -1.407856009771249 0.2832484741101927

arr_1 f8 [100]
00000000: 2202 f8b7 1aa8 94bf df8d 9ba1 c734 ef3f
00000010: e3b8 8270 bc40 c1bf eb51 4641 61d3 0340
00000020: a8a8 d0e6 7c04 fa3f bf8b 8f6b fbfd d3bf
00000030: 01a6 f5d6 355f b2bf c10a dd31 ad08 cd3f
00000040: 5527 6d18 d37b d63f f8e9 d743 fad9 e4bf
00000050: 0dc2 cb92 a325 a43f 43a3 dea8 afc5 d73f
00000060: 0d01 b0bf 8c07 d73f b8bf 8464 a3d6 d1bf
00000070: 7743 5807 1f67 b13f b36b 18e7 785e eb3f
00000080: 2656 c197 2937 f0bf d840 f6a4 32d9 d63f
00000090: 65c5 cc16 e3fe e63f a69f e2f5 0417 00c0
000000a0: a66d a423 5c0f d23f ab32 f7dc f215 fa3f
000000b0: 79fc 664b 1fae c1bf b593 95c9 1c6a 883f
000000c0: 4e0e 4be9 5a3d e3bf 9306 6a98 ad94 f73f
000000d0: 646d fea6 7c2b ba3f 4ff9 413f 9fbf f6bf
000000e0: 7735 6993 d7e9 fabf 1c10 c7af b24b fe3f
000000f0: a11d 3a8e 9162 d8bf 7a5d 2495 ce83 d03f
00000100: 0a3b c7f4 4420 ff3f 44b7 52cc edeb a83f
00000110: 5f61 288f 9580 cb3f 7c22 d8ff 673c d6bf
00000120: ec90 fe23 74c0 babf ed1d 8be7 44bb f2bf
00000130: 7c7c 9c5b 7a52 9dbf 7c53 7cd3 17aa e8bf
00000140: 223a 1149 f7cb f83f 8c06 5906 eb37 f23f
00000150: ba40 59a1 619d e93f 6944 2114 2730 00c0
00000160: 5793 58c1 4678 d33f 5481 da79 ee36 d3bf
00000170: 3c3b a3c0 4bbc c03f ef32 0897 80fa d83f
00000180: 5dc5 1a97 b528 a33f 2872 b826 b6ee 01c0
00000190: 6895 dd18 6396 ef3f b4d3 cec8 2444 e63f
000001a0: e170 ad46 7b65 f2bf d1db 1ac1 699b fabf
000001b0: 4d10 413c fb93 f8bf 28a6 2aa5 78ad f83f
000001c0: 7230 770f 0a8b b6bf 67b5 312a cdc2 ffbf
000001d0: 72e7 47aa 2fe6 ef3f dff4 7dfb d186 f1bf
000001e0: 3eba ad6f d67d d93f e71a 061e f2d3 e53f
000001f0: c9bd e052 4887 a73f 3cd6 2232 2130 f9bf
00000200: 7bb9 e277 5bfd e9bf 74c5 5757 434c f0bf
00000210: 346f 2631 021c d8bf 5559 a391 75b3 f73f
00000220: 7654 a87a 3180 fdbf ddf0 3fda 7b7c d2bf
00000230: b4d2 5788 bfc2 f6bf 9bc4 fb43 f9e9 e53f
00000240: c856 aa48 1802 fcbf 97d1 989b 8c33 dfbf
00000250: 2ec9 9c7d 40b1 e53f 0fad c5e9 7b20 da3f
00000260: c198 7faf 793f 0040 a8c4 c590 bfca c83f
00000270: 58ff c416 1be1 ee3f d607 1d71 79a0 eabf
00000280: c2c4 f4a2 e4d1 d9bf 279e dc14 bded c03f
00000290: 2285 6faf 07d3 ed3f e7f4 de66 09d3 e3bf
000002a0: f917 0e38 6e0d f33f 27c4 dc2e 5543 f4bf
000002b0: 6e61 0e70 d535 e23f 954d 52c9 56f2 fabf
000002c0: d7ab c8d5 2c1b f63f ef9b 1a59 d1b9 9b3f
000002d0: 8423 9f27 ea17 d53f 5d2a 3104 f80c f33f
000002e0: 5315 32e6 f311 e03f 500f 82b1 ad78 c03f
000002f0: fc03 c7b3 57cd f0bf e7dc 1843 0cfb eebf
00000300: 8c4c 639d ab32 e9bf 3ed9 f428 afdb ccbf
00000310: e0b1 7b22 2964 fabf 92ce c23b e6ed f53f
-0.020172517279208553 0.9751928478621571 -0.13478808873828205 2.4782128429017027 1.6260956779683884 -0.31237683776833686 -0.0717652940562843 0.22682728705156843
0.35130765328778085 -0.6516085934702565 0.03934966246550085 0.3714408063047367 0.3598358032177352 -0.2787254792810887 0.06797975472751526 0.8552822602826978
-1.0134674003542243 0.3570067034679716 0.718614143878011 -2.011239930132393 0.2821874950475042 1.6303585654706392 -0.13812628919365347 0.011921143438209695
-0.6012396389491614 1.4737983659437404 0.10222605778692678 -1.4217827292446434 -1.6820903547516914 1.8934809557258694 -0.38101614846569914 0.25804485859540416
1.9453782617235356 0.048674994651590114 0.2148615788471586 -0.34743690476219746 -0.104499110019393 -1.1707200092949919 -0.0286349409499249 -0.7707633143023567
1.5497963766280312 1.1386518714865899 0.8004615928021146 -2.0235120365764954 0.30421608811802997 -0.30022775554427494 0.13074633508809963 0.3902894473001614
0.03741996259248979 -2.2415583634413174 0.9871078000693787 0.6958183214215894 -1.1497757683601366 -1.6629426520500952 -1.536128268592637 1.5423513843364933
-0.08805907132699689 -1.9850589416704112 0.996848900394282 -1.0954150985629025 0.3983055201160005 0.68212228645356 0.04595399867718759 -1.5742504080238993
-0.8121774045483073 -1.0186189090566957 -0.37670950698678785 1.481313294314153 -1.8437971869764431 -0.2888478881211663 -1.422545940961908 0.6848112418939708
-1.7505114401332538 -0.4875213164807745 0.6778871968620359 0.4082326682025305 2.0309938154997274 0.1936873871705178 0.9649787373273098 -0.8320891579862699
-0.40343585885700517 0.13225520628587725 0.9320105005719237 -0.6195113190839522 1.190778941121151 -1.2664386587678196 0.5690715015980865 -1.684164797222228
1.3816345549519065 0.027076026023362173 0.3295846354417835 1.1906662143470819 0.5021914955147316 0.12868281524071756 -1.0501324675135484 -0.9681454954615248
-0.7874353479368366 -0.2254542303068749 -1.6494532916068394 1.3705808958447148

arr_2 f8 [10]
00000000: 0874 dee4 54f8 f03f 0030 1745 a72c c23f
00000010: ba69 35f1 a951 e93f 0c44 f33c c351 e1bf
00000020: 97f4 c216 b67b f4bf 02ac 3ce5 2bbc e73f
00000030: add4 fe3e c40c c8bf eed7 96bd 88e2 f3bf
00000040: 5e4f 2721 1c22 dabf abcd a468 6d23 f8bf
1.060627836245887 0.14198771356166162 0.791218730078348 -0.5412307920870503 -1.2802029503939474 0.7417201497349881 -0.18788960529278623 -1.2428061872319591
-0.40833190190936886 -1.5086492622038843
