notebooks/models/simTwoLayers/experiments/xavier/weights_xavier_2.pkl.npz (npz, 715948 bytes, 3 tensors)

arr_0 f8 [784, 100]
0	0xbfc4fb6ac25f7882	-0.16392263880601737
1	0xbf91c9cebc91d7b4	-0.017371397265797575
2	0x3f847a985c994be7	0.009999456716434053
3	0xbfc86c6376ffee2f	-0.19080775557073212
4	0xbf826eff6a9cdfda	-0.009000773850502176
5	0x3f83dc38564d3296	0.009697380193437948
6	0xbfb92dbac0c68c4e	-0.09835402685580272
7	0xbfb137099bc82a7d	-0.06724605611104013
8	0x3fbcbc3e3776955b	0.11224736074526247
9	0xbfacefe645cd63e4	-0.056517787953175774
10	0x3f9eab7aad39af56	0.02995101625712889
11	0x3f74fb2d8a7185c8	0.005122354406098713
12	0x3fae7e38cfeded9b	0.05955674684716002
13	0x3fc09aa2054a89d1	0.12971902140004812
14	0x3fbf95c576cf9a94	0.12337907934816378
15	0x3fbc0f25a1e1c14a	0.10960612489885083
16	0xbf804a022b89b6a3	-0.007953659967110232
17	0x3fb84215b76b9b61	0.09475837448154102
18	0xbfadaed63779ec68	-0.05797452380371554
19	0x3fa89831a49c6b3d	0.04803614744579086
20	0x3fc19b3e2f2e54e7	0.13755013755568443
21	0xbfafdc2c456ff31a	-0.062226661182626056
22	0x3fba101cb63ffb40	0.10180835198842164
23	0x3f97e34876083f4b	0.023327953533282025
24	0xbfa599a0aa534ec9	-0.04218771056335197
25	0x3fa1cd096f35b74b	0.034767432046335665
26	0x3fad6dc4bad90097	0.05747809201102532
27	0x3fb68367f7e89820	0.08794259836631158
28	0x3f7d49c5d158e96c	0.007150433278690787
29	0x3fb2d41c6cabb222	0.07354905751316967
30	0xbfa46ad84cc346b2	-0.039877662058314015
31	0x3fb7a4cc062a9983	0.0923583521895122
32	0xbfb2e6baec76bd66	-0.07383316300432838
33	0xbfb45eb3783aa910	-0.07957002339631836
34	0x3fb14e69c34e3911	0.06760273950769526
35	0x3fa33059810b460a	0.037478253366895656
36	0x3fb2f6ec96f458e2	0.07408026395237102
37	0x3fa14cabd24950b6	0.03378807966206081
38	0x3fa15ba18fec51a8	0.033902214831104616
39	0x3fafdedfd94ccc29	0.06224727180087825
40	0xbfa60a87efea3db6	-0.043049095188617256
41	0x3fb75fa1cdbca284	0.09130297921059066
42	0xbf855d2b74d4f4dc	-0.010431613448071912
43	0xbf9d8e24e81509e8	-0.028862549462482706
44	0xbfb6ed3b462cf8f6	-0.08955736602090156
45	0xbf98d237be4aa9d3	-0.02423941706607897
46	0x3fb899e9517e70eb	0.0960985015830748
47	0x3f833c6498344c5c	0.009392534155756298
48	0x3fb3b224a95c0b78	0.07693699965242995
49	0x3fc1b6daa2003055	0.13839276228134403
50	0x3fa021b1aaf0f56c	0.031507064930773904
51	0x3fc6b0b273a18107	0.17726736684836217
52	0x3f538c0381d8e7e2	0.0011930498361736254
53	0xbfa0c4dc309b37ef	-0.03275192349757094
54	0x3fb3829835fc7eb0	0.07621146505379772
55	0x3fb17a241d10e791	0.06826997480030018
56	0x3fc17004e95edf57	0.13623105425881007
57	0x3fb2344d5637183d	0.07111056666244138
58	0xbfb76ea5d2e62db9	-0.09153210066704433
59	0x3fb667d30666448c	0.08752173334348096
60	0x3fa5c61a4e6acf91	0.042527029106536614
61	0xbf9cda33be312b4c	-0.028176125033762475
62	0xbfa4c490da9c48e0	-0.040562178312159025
63	0x3fb988221c6da0c6	0.09973347848938649
64	0x3f9692966a84a103	0.022043562175128716
65	0x3fb2c25c234b142c	0.07327819692280063
66	0x3fbe36d21bed38c3	0.11802399808695711
67	0xbf8ac922ca3266c3	-0.013078948779639337
68	0x3fab936685ceb57f	0.053858951410215454
69	0xbfae48c359c8cd87	-0.0591488883113938
70	0xbfbb89e98efe0cd4	-0.1075731252768038
71	0x3f9ce59632f0284f	0.02821955381299573
72	0x3f8b8c5a3216bacc	0.013451294568623061
73	0xbfb3e1a858dc218e	-0.07766201180868945
74	0x3fa69f26442720cd	0.04418296415275478
75	0x3fba3f3050ef262a	0.10252668357784303
76	0x3fb0e3568b9fe2f1	0.06596890362551357
77	0x3f964e64e43be263	0.02178342478780094
78	0x3f933c83dba363e1	0.018785534172682253
79	0x3f72a812af36b51c	0.004554818140076546
80	0x3f98819700411413	0.023931846037403014
81	0xbfaebd889b5e6a76	-0.06003977676956122
82	0x3faae21a0cedd622	0.05250626952958394
83	0xbf8664cd919234ba	-0.01093445396898073
84	0xbf989aa32586ea37	-0.024027394452540398
85	0x3f8aad32c692e272	0.01302566212176368
86	0x3f6ab1db118abb84	0.0032586363489239285
87	0x3f6aad71f520bed2	0.003256533215811299
88	0x3fb3498c561b933d	0.07534100630034586
89	0x3fb15fbdbf83fcaa	0.06786714482949444
90	0xbfac8f1f7793f060	-0.05577944121066092
91	0x3f9a219374316da3	0.025518707243788474
92	0xbfa2000cf2676c00	-0.03515663584740736
93	0xbfb3cd4714eef712	-0.07735103856154193
94	0xbf9283349c7bdd32	-0.01807863431073748
95	0xbfb4a634fbe5b1c4	-0.08066111707530071
96	0xbf8ddf8c53112d8d	-0.01458654049397159
97	0xbfad0780e87bfebf	-0.05669787252372548
98	0xbf9b0131280aa7bd	-0.02637173468489328
99	0xbfb92b437b89f786	-0.09831640020453677
100	0x3f932e611867e9e6	0.018731610407465647
101	0xbfa295baac09f438	-0.03629859304508226
102	0xbf599708e7dbc699	-0.0015618884057712389
103	0x3f9e6f8267430de3	0.02972224955807502
104	0x3fb36a95641a63a2	0.07584508603976173
105	0x3f9fbceb3ff2fec3	0.030994106081151395
106	0xbfa704ed1eec851b	-0.044959459328547356
107	0xbf950e9a0d3f15a6	-0.020563513811585964
108	0x3fa34d0b55334fc5	0.037697176123088684
109	0x3f8b1cd26776f24c	0.01323856714486129
110	0x3fb787dc2163cab4	0.09191680731945945
111	0x3fbb40d929e0317e	0.1064582564578753
112	0xbfa737f8a795fdd5	-0.045348902184737895
113	0xbfac71242edd0f75	-0.05555069992126863
114	0xbfb5a12a9fa02f3b	-0.08449045559990236
115	0x3f98ef3c9165ae88	0.024350115179386594
116	0xbfb5a77ced80cfb3	-0.08458691404740541
117	0x3fcb293a3ebc2939	0.21219566405518167
118	0xbf9ad600e263db40	-0.026206983392479843
119	0x3fba8a0b1b0f69a8	0.1036688748421627
120	0x3fb5d4a5b41b460e	0.08527598998195904
121	0xbf80c7d1e4c83e9c	-0.00819362620771296
122	0xbfa0ca27b78d125a	-0.03279232135404149
123	0x3fa0c94fb644ecea	0.032785883903182114
124	0xbfb0818dc20d0236	-0.06447683322495198
125	0xbfa4e8c4bde435e1	-0.04083838289271192
126	0xbfb6091e0b034505	-0.08607661980501653
127	0x3fb42f7eefe9179a	0.07884972912969915
128	0x3fa85e783c94c3f1	0.047595746417194
129	0x3fc38351e3e9f587	0.15244506481750994
130	0x3f69bed1ce48cfb2	0.0031427476663114734
131	0xbfb459b1f7684f94	-0.0794936398527269
132	0x3faf9a2034356073	0.06172276150999858
133	0xbfba653e329d259f	-0.10310734496774508
134	0x3faac0615e291f79	0.052248995537012406
135	0x3fb7330a603f336e	0.09062256669785793
136	0xbf9b3f62cec8f648	-0.026608985778002997
137	0xbfb15553412d4e99	-0.06770820943102719
138	0xbfb067f877b3579a	-0.06408646509529917
139	0x3fa173ec0bba8650	0.03408754008456738
140	0x3fbc1afae8f0273b	0.10978668391194628
141	0xbfb44e248fad76e0	-0.07931736476663387
142	0xbfa1b6e7b2a68d5b	-0.0345985799388255
143	0x3fb42ecf5b790ac4	0.07883926375601918
144	0xbfb14f3f25c53de3	-0.06761545822268249
145	0x3f7c5bf5c87f2c90	0.006923637476528147
146	0x3f92832ed49740ba	0.01807854816962682
147	0x3fb41750cd4c925e	0.07848076831994308
148	0x3fa936d631b7106d	0.04924649578927718
149	0x3f7a90d9dcb8f29b	0.006485796951491675
150	0x3fb8624c4629cbdb	0.09524990761728651
151	0x3fa68d7310804e2f	0.04404792381697253
152	0xbf920b8c59b29a53	-0.017622178053580417
153	0x3fb0b46178938cc9	0.06525239175566634
154	0xbfc9075e31cb264b	-0.1955373519070228
155	0xbfa6f682da308cba	-0.04484948075721591
156	0xbfa19bf0dbc01bee	-0.03439285929203338
157	0x3f32f065da6961fe	0.00028898703241034263
158	0xbfaf8e3df23cdcad	-0.06163209516528787
159	0xbf95484aead2ca77	-0.020783587057574295
160	0x3fbcad6539905633	0.11202080397955498
161	0x3fbf103555713a1f	0.1213410695647572
162	0x3f93573946d90a16	0.018887419652182734
163	0x3fa0181c31fb37f2	0.03143394575236859
164	0x3fa2c7b233018215	0.03667981026297099
165	0xbfacf408ee7f7d23	-0.0565493384490259
166	0x3fb48055368ef58c	0.08008320409768127
167	0xbfa09fb923c225dd	-0.03246859132293498
168	0xbfaf84fff5ee2860	-0.0615615833003893
169	0xbf9971ffec31e978	-0.024848936835476704
170	0xbfa2205f86f17ddc	-0.03540323755509764
171	0xbf8fa66ebc86d71e	-0.01545416367376223
172	0xbfa25422316dc03c	-0.03579813817384589
173	0xbf8b39eca30cbf70	-0.013294075704464808
174	0xbf93e7960d497ff3	-0.019438118515949964
175	0xbfb44f7bd3458ffc	-0.07933782489777735
176	0xbfaaf1998a7f898c	-0.052624509960668225
177	0x3fb272cafd506e3e	0.07206410107067371
178	0xbfaefcb251b5d6a7	-0.06052167174759165
179	0x3fb0056989747ce9	0.06258258443675725
180	0xbf8dc1f15638dbd3	-0.014530072635450175
181	0xbfb416097e2048ce	-0.07846125916720156
182	0x3fbcd12f833131ae	0.112566918877923
183	0x3f8ef32349f970c4	0.015112186141032054
184	0x3fb739ec3ac0f1bc	0.09072758135238862
185	0x3f9721aeab6b21e4	0.022589425289682455
186	0xbf7dca4434673307	-0.007272974419220152
187	0xbf79e8aa0f1c0172	-0.006325401585627654
188	0xbfb476519a6842a7	-0.07993040103634518
189	0x3fa69a91f2f1db9b	0.04414802637705081
190	0x3f98179968fa97b3	0.023527524025346924
191	0xbfa1047090e06005	-0.033236997304072737
192	0x3f9a1d8c25224406	0.02550333954474484
193	0x3fb5f89c6789eb14	0.0858247521190772
194	0x3fad74a16a996a55	0.05753044534931876
195	0xbfac45bf8a9315ac	-0.05521963659843307
196	0xbfa123efb1f2f35b	-0.03347729727963752
197	0x3fa1445aa289a9a6	0.03372462495902377
198	0x3f74e12194ee4bfb	0.005097514323000314
199	0xbf88c1f12a83b75a	-0.01208866511339195
200	0x3f4556a80dfb0667	0.0006511993960531371
201	0x3faed9b7b78c9c29	0.06025480380622412
202	0xbfa77209245e757b	-0.04579189843137051
203	0x3fbeb53d3050ee6e	0.11995298795312134
204	0x3fb07b1072df7795	0.06437781147493944
205	0xbfade128ce0d2dce	-0.058358454849976135
206	0xbfa52cb61385727a	-0.041356744654625424
207	0xbfa453b45eec490f	-0.03970111521461394
208	0xbfb585340c79a3a5	-0.08406377129143879
209	0xbfb9e93e6041c752	-0.10121526575110565
210	0xbfae8f668b61df4f	-0.0596878094810892
211	0x3fbb75f001a80886	0.10726833382071463
212	0x3fa7e586007989ef	0.04667299991412565
213	0x3fba122ab5e209f8	0.10183970394613329
214	0xbfafc7239536b6f6	-0.06206618496376663
215	0xbf9936ddfd33d13a	-0.02462336404728769
216	0xbfa40fd87d5b704f	-0.03918339281310123
217	0x3fa27074879d3373	0.036014215044452146
218	0xbf8296b9324bf666	-0.009076544616159764
219	0x3f9f33f3b67a311d	0.030471618664294476
220	0xbfa70e1ac31a931f	-0.04502948409689211
221	0xbfb955c4554e7669	-0.09896494944265445
222	0xbfad1be5b42750a2	-0.05685346435680684
223	0xbf68eacc91146773	-0.0030416484302237478
224	0x3fbb14dfee4d3af3	0.10578727310096862
225	0x3f88ca7b1661de6b	0.012104951496652213
226	0xbf8f8bd05b1464b5	-0.015403392581492129
227	0x3fbc9d2de600f74a	0.11177336564375398
228	0xbfac8aac1b1cc9ac	-0.05574548560106804
229	0xbfaa69b1f0dd9a1a	-0.051587639477294014
230	0xbfbcc2611716ecc7	-0.1123409921046231
231	0x3faee26aa80be962	0.060321171773426455
232	0xbfb18f8aef087e13	-0.0685965379311642
233	0xbfaa0a2f6afe6ffa	-0.05085895711019357
234	0xbf9395646aa94008	-0.01912457371719259
235	0xbf91b41e75aa8ae5	-0.01728866189172153
236	0xbfb80c1171f3d194	-0.0939341452793257
237	0x3f9d7c483801d2bb	0.028794411104587008
238	0x3f978e446b6fc5e1	0.02300364404431388
239	0xbfb2f51a2015cc4a	-0.07405246051148243
240	0x3f9278b3f5d35e25	0.018038570288665085
241	0xbf8dfb950c2acd7e	-0.014640011247456949
242	0x3fa0781d7efe57e0	0.03216640639509172
243	0x3f8f52c0b8247d9a	0.015294557208618543
244	0xbf9c989fe779ab94	-0.0279259667426391
245	0xbfb263ad79a25570	-0.0718334600408832
246	0x3f9753827ac0d2a6	0.022779501669179546
247	0x3f866822d11d5a56	0.010940811163590396
248	0x3fc35c5b17a3703b	0.15125597624035145
249	0x3fb6ebab2ec4bddb	0.08953351871308916
250	0xbfc7107190659f02	-0.18018931913979236
251	0x3f7043066bbe63d2	0.003970170098818353
252	0xbfa214407bf4c3a0	-0.03531075966964825
253	0xbf92a249689439f1	-0.018197199829097902
254	0xbfb29de4cc14c420	-0.07272176725815926
255	0x3fb01af45625afd4	0.06291129210666152

arr_1 f8 [100, 100]
0	0xbfb8ea3b925883d4	-0.0973241073884446
1	0x3fbf326124fe7ab5	0.12186247971701898
2	0x3fc1201f5f3cd554	0.13379280233645352
3	0x3f828a4cde7fe209	0.00905284933104246
4	0xbfb4326373f0f8dd	-0.07889386730764465
5	0x3fb48154778b05bd	0.08009841841251038
6	0xbf5bbbafe8f0ace5	-0.0016926973219238358
7	0xbfb8666325b6bc0a	-0.09531230612513766
8	0xbfa527c4e0ddc745	-0.041319038819791966
9	0xbfb8af79ae0b5672	-0.09642754077079888
10	0xbfb63ffc3c784599	-0.08691383816064614
11	0xbfb6553c3bd34ec9	-0.08723808727819028
12	0x3f7204e1f4315142	0.004399187691053465
13	0xbfbb0ff3411c1e28	-0.10571213092418275
14	0x3fb6b93470fd8807	0.08876350172570834
15	0x3fb58233d2c73a14	0.08401798149063949
16	0xbf9f9fd2d8153c24	-0.030883116186768103
17	0xbf64dbaa935afd23	-0.0025461513094736806
18	0xbfa030cf68c240d7	-0.03162239221376389
19	0xbfbff8b158ea0e12	-0.12488850041159363
20	0xbfc42ad31b5a2ed5	-0.15755690417824178
21	0xbf9a277296ca0508	-0.025541105702818562
22	0xbfad60bd648bd366	-0.05737869121904886
23	0x3fbf7132d26d8cf3	0.12282102239037211
24	0x3fae4f4fb7529976	0.059198847893003156
25	0xbf70893caf5118a7	-0.00403712944996052
26	0x3f9faee26d66fb76	0.030940568854699056
27	0xbfc378c544e4ca90	-0.15212312568617792
28	0xbf98ff445302a080	-0.024411265913528712
29	0x3f99f0c2deb3edfc	0.02533249363203359
30	0xbfbdfea503bc5445	-0.11716681805803926
31	0xbfadd7438803ac95	-0.0582829574139733
32	0xbfb437a5ad077cc5	-0.07897410845133652
33	0x3fc66867ed6b4785	0.17506121723868887
34	0x3f91d439b387dd19	0.017411138136563673
35	0xbfd36cac7dacd777	-0.3035079219147216
36	0x3f866945c8de6798	0.010942979042557074
37	0xbf966a5477f68dfe	-0.02188999159046822
38	0xbfb6c1915ae14aac	-0.08889111012221446
39	0x3fbb07bbfa967ade	0.10558676593653213
40	0x3faafc65fe10a35e	0.05270689703349406
41	0x3f8a949fc7304107	0.012978790537119268
42	0xbf9f178bb0914024	-0.030363257076089792
43	0x3fab68782167e91f	0.05353141219889523
44	0x3f98a64570a39e21	0.024071774482676504
45	0xbfb0ff610760630a	-0.06639677457895857
46	0x3fb1f43439e00d73	0.0701325074478996
47	0x3f84b4a48cbc263b	0.010110173745050513
48	0x3faedcd889ea304a	0.06027867015390649
49	0xbf9946b5509a694b	-0.024683793110491774
50	0x3f9e117380ce2518	0.029363445984505437
51	0xbf7c55b71117c7c6	-0.006917681793753466
52	0x3faa1bf42938e9a9	0.05099452021791546
53	0x3fb6d7fd97185e0d	0.08923325480315487
54	0x3f955f3b19076a08	0.020871089365622125
55	0x3fc49893acc9c9b4	0.16090627610135544
56	0x3fa6da47a154d935	0.044634092754153455
57	0x3fc60f674a1068e6	0.17234507671748317
58	0x3f7a45e306ec81bd	0.006414305519485128
59	0x3fa2b81663f6a9f1	0.036560725882129115
60	0xbfb47cb2fc694faa	-0.08002775823962219
61	0x3fc47813db2699d4	0.159914476401538
62	0x3fa1ffaedf7c148c	0.035153832226606146
63	0x3fad2a6e013ca205	0.056964337969763114
64	0x3f971c1d73fa29fc	0.022568187907873835
65	0x3fa818d9c6d7d243	0.04706459572108603
66	0x3fba0be9055ba6ee	0.10174423580943046
67	0xbfb7b9c47480cf94	-0.09267833561244593
68	0x3f8010fd3a6a75a5	0.007844904275141238
69	0x3fc18d846b60ae34	0.13713126414346422
70	0x3f95142c8c47629b	0.020584770261708667
71	0x3fba434d21e4eaa2	0.10258943631644482
72	0x3fa23d9632e40c9c	0.03562611933923529
73	0x3f61524f2f4c33a1	0.0021144434525752352
74	0xbfb1456afe4ed7d3	-0.06746548374834953
75	0xbfa635870b2836a8	-0.04337713252253411
76	0x3f9316426df052ad	0.018639600715760696
77	0xbfa9ddd4e57d0448	-0.050520565999712164
78	0xbfc436271cede66f	-0.15790261185229634
79	0x3fae60eb6132cc97	0.05933318673614812
80	0x3fb41d26e1ff87af	0.07856982247861198
81	0x3f94c26e1e1f1b97	0.02027294215056549
82	0x3fb46b4db195bc9f	0.07976232133454396
83	0x3fc50af4ef4fcd8f	0.1643968742861088
84	0xbfbcf1b828f2c699	-0.1130633449527302
85	0x3faeb7adde331db8	0.05999511086843817
86	0x3fb6fcde3279697b	0.08979595882684592
87	0xbf95e9322122f682	-0.021397383949752775
88	0x3f9fcdd22c4cfc76	0.031058582261945543
89	0x3fb1fd527d7651b4	0.07027164042512518
90	0x3f942153d2b0c008	0.01965838406994183
91	0xbfc091db7378460e	-0.12945120943236116
92	0x3f792293edfe1765	0.0061364916326790185
93	0xbfc88dbfb0b8b9ce	-0.19182582978233004
94	0x3fbec98aa9c7656c	0.12026278157227005
95	0xbfd7058df8263d28	-0.3597140239080141
96	0x3fb11201e2768c0d	0.06668102053531318
97	0x3f8f45a8bae9f0c8	0.015269582943112772
98	0xbfcc58bc66cf7f53	-0.22145800609632235
99	0x3fa320f9e280a7a9	0.037360962771642754
100	0x3fc217546bb80d26	0.14133696803774248
101	0x3fc50fbf5a79f588	0.16454307477753738
102	0x3fc0189bb9b6d47c	0.1257509857947844
103	0x3fa0a56aa3652c7d	0.03251202816553531
104	0x3fba41d672669412	0.10256710331903232
105	0xbfbd30c9f7587ef9	-0.11402570999825547
106	0xbfc03e931fc40d53	-0.12690962840143047
107	0x3fc9c7f050291ca3	0.2014141456040522
108	0x3fa41a17836cebf3	0.03926156501116642
109	0x3fb312bd1de89582	0.07450468044461014
110	0x3faadd4943a92126	0.0524695296376783
111	0x3f9d7e3df1196035	0.028801887360117646
112	0x3fab0d27bbec8d21	0.05283474129671562
113	0xbf920ca593e357e2	-0.01762636866700252
114	0xbfc4fd410ad5f0ab	-0.16397870091521347
115	0x3f93e29abccc09ba	0.019419114850288223
116	0xbf8f931fe49ec5b0	-0.015417336620745598
117	0xbfc9e808e3a0d6d2	-0.20239363779699332
118	0xbfc52525077ae150	-0.16519606461748504
119	0x3fc17df8afbbd325	0.13665684300181016
120	0x3fbd4a02553e11ee	0.11441053944697163
121	0xbfbc5e06a9424338	-0.11080972320838789
122	0x3fb8520ba10e29b6	0.09500191385283227
123	0x3faaae3e096bd86f	0.05211061348920586
124	0xbfcacdd762c93bce	-0.20940677951372638
125	0x3fa4148e74a10dcd	0.03921933339782022
126	0x3fa3d2a0729bb201	0.03871632956529326
127	0xbfa1704158b94041	-0.03405956466724592
128	0x3f9bdfa5b74d07ca	0.027220334351347998
129	0xbf76e403df209061	-0.005588545916939664
130	0xbf9c26285694fb27	-0.027489309582274715
131	0xbfb0b485772baacf	-0.06525453719556683
132	0x3fbd433021212794	0.1143064576037019
133	0x3fbf68bc5af5e8d5	0.12269189091412909
134	0xbfb406769028aa81	-0.07822361964705672
135	0x3fbb1547a62ab829	0.10579345518883145
136	0x3f8f897d27d950f1	0.015398957995025305
137	0xbf7fdd7ee118d85c	-0.007779594061096597
138	0x3fbaefa64f509771	0.10521926342388867
139	0x3fd01ac017f0d6e5	0.25163271272627546
140	0x3fa7ba9fe77a3c07	0.04634570789959729
141	0xbfbb613974135920	-0.1069522770297664
142	0xbfa8f41d1862b31d	-0.048737439371825376
143	0x3f934723ef130d68	0.018826066462464125
144	0x3fc05b0fd4b7d011	0.12777898680326463
145	0xbf99afb0ecf5a11d	-0.025084270918712116
146	0x3fb15cb68325f8fa	0.06782093717444929
147	0xbf5bab3da0f2aa21	-0.0016887761919784988
148	0xbfd11aa4a53a884e	-0.26725116859063724
149	0x3fc33c7000c778b8	0.15028190649076634
150	0xbf99a54df32584e5	-0.025044649091232513
151	0xbfaf95aea8790793	-0.06168886000206366
152	0xbfbab5b2ab3eea9a	-0.10433499031834473
153	0x3fc581ad3f83a75d	0.16801992036135519
154	0xbfbe28c4fdbc333f	-0.11780959315019589
155	0xbf9db33cb556c2f9	-0.029004047935532438
156	0xbf96c45da07653d7	-0.022233450812183832
157	0xbf9a41b48cabd788	-0.025641270719425374
158	0x3fbe6b2ee02ea67c	0.11882298443983957
159	0x3fb1535f358fc9e0	0.06767840440424022
160	0x3fafe3c103f1df3e	0.06228449986605121
161	0xbfcb3eb02259f939	-0.2128505866748556
162	0xbfbcfe5af74ecc6b	-0.11325615442074059
163	0x3fb755ec6c6ce744	0.09115483901123606
164	0xbf90e731c91b3eb2	-0.01650693693119249
165	0x3f97ef756681edf3	0.023374399549068014
166	0xbfb77a61a5058f80	-0.0917111423382817
167	0x3fc9e1f87fbfbbc5	0.20220857846967824
168	0x3fc569e968ebcfa2	0.16729467032530204
169	0x3f8057d768ea636b	0.007980044259328264
170	0xbfc84dd0b5242aeb	-0.18987473339833313
171	0x3fa3ad86bddb4243	0.0384332758673094
172	0xbfb1d3aeaec3ad80	-0.06963626639087828
173	0x3f7c1be0449e7b3d	0.006862522170108684
174	0x3f983662660a340f	0.023644959905642134
175	0xbfc14382a6cd8584	-0.1348727526156318
176	0x3fb84621ba60b5e3	0.09482012558210999
177	0x3fa29211c9b77e12	0.03627067172396549
178	0x3fb63cb42e531894	0.08686376696559456
179	0xbfb1000f65a6029e	-0.06640716773655206
180	0x3f836184b35004d0	0.009463345262704342
181	0x3f44e4d8d2f7fcc0	0.0006376322471054671
182	0xbfae20167c6f2ec3	-0.05883856076215246
183	0x3facddefaa2eb7a0	0.05638073875830618
184	0xbf561cfe8f80589a	-0.0013496862357036733
185	0x3fb22ab7d07785d0	0.07096432532809804
186	0x3fb3255d990268f2	0.07478890405255692
187	0x3fa796ad81c29c8b	0.04607145508753615
188	0xbfb3c5935caa665a	-0.07723351490349142
189	0x3fc614335b2762e4	0.17249147368308748
190	0x3fa4cb668aebc67e	0.04061432309925993
191	0x3f97d4a5bfdc03d2	0.02327212317959832
192	0xbfa88bf06e5af93c	-0.04794265124427219
193	0x3f9fadd2aee1cf7c	0.030936519550280192
194	0x3fbff7ed5e4df947	0.12487681915624647
195	0x3fb724e8d2363ec6	0.09040694362760879
196	0x3fa3a0495f825138	0.038332264813251304
197	0x3fc4e6d0b11e7d89	0.16329392097848608
198	0x3f8df2e6d1a59620	0.01462345435420348
199	0xbf987dce7605b88f	-0.023917413667213835
200	0x3fcb0d09616d4267	0.2113353467671175
201	0xbfb381a544d371b6	-0.07619698458024157
202	0xbfc3c2be43028e6e	-0.1543805911252209
203	0xbfc1fa289ea9096d	-0.1404467367847916
204	0x3fbba9759d0fd777	0.10805449566382018
205	0xbf84a79ec3c4f953	-0.010085335111054283
206	0x3f7b8b5622490ac7	0.006724678478863217
207	0x3fb293147c0e0761	0.07255676296884196
208	0xbfc145258df1f529	-0.1349226897326983
209	0xbfc49405adbcbf37	-0.16076727851167913
210	0x3fb9de8161158d27	0.10105141277522432
211	0x3fb2210a5dd83ab5	0.07081665793541954
212	0x3faf67dc738e6426	0.061339272600158076
213	0x3fc1394480fe108c	0.1345601682516001
214	0x3fcadb9b08c5c857	0.20982683113431008
215	0xbfb92368ddeb6fe4	-0.09819655816994516
216	0x3fa65d10cb48cd81	0.04367878419398164
217	0x3fb2c5be2989edc6	0.07332981599932173
218	0x3f7eb9a91031defb	0.007501278308261079
219	0x3fc3958b178884ef	0.15300120019040928
220	0x3fb0bf4c3500063b	0.06541897100398668
221	0xbfc3114913730ab3	-0.14896501016308647
222	0xbfa8b8449059aba1	-0.048280851956256095
223	0xbfb5e92925430511	-0.08558900031768625
224	0x3fcd50e9cef316c2	0.22903177838286665
225	0xbfaff33464a09b14	-0.06240237930642514
226	0xbf88d250295dc805	-0.01211989046325713
227	0xbfa91fe52d768d0f	-0.04907146625489577
228	0x3fa1a549b80679ac	0.034464172090554385
229	0x3fb3766ebe041656	0.07602588786183992
230	0xbfb7a0ec876200a7	-0.09229925446743668
231	0x3fb553d80ec1710e	0.08331060753102212
232	0x3faad8f128baee89	0.05243638632006504
233	0xbfb8d314bdd1663d	-0.09697084078052227
234	0x3fba8e5c1969d06f	0.10373473759119788
235	0x3fbcd74eefc493c2	0.11266034463603972
236	0x3fbb819fa98a4d96	0.10744665040174647
237	0xbf9848f62d3a8640	-0.02371582652143034
238	0xbfb8148d706897b6	-0.09406360620832185
239	0xbfa248d74190e01c	-0.03571198153844099
240	0xbfc49cd93778c3b9	-0.16103663643437274
241	0x3fd3150b2d079ae4	0.29815940282280295
242	0xbfa331ac4dff92f2	-0.037488350411683316
243	0x3f653d84908648a1	0.002592810549864558
244	0x3fb24be6842232e7	0.07147064901273446
245	0xbfa73ba22e9272c1	-0.04537684267527232
246	0xbfc33d28f5bdb62a	-0.15030395506930577
247	0x3f9bf762f7377cbd	0.02731089242831496
248	0x3fa902871d46e5ca	0.048847410510869674
249	0xbfa54cec3901bc10	-0.041602498968920654
250	0x3f558baa31b6f3c0	0.0013150369694436698
251	0x3fb943ac452ea2a3	0.09868885697381784
252	0x3faf6aafaadb7c87	0.06136082611714593
253	0x3fac4af6c1219156	0.05525942905004182
254	0xbfabaa0d90caf812	-0.05403177635660951
255	0xbfba7fe7d988b359	-0.10351418553245874

arr_2 f8 [100, 10]
0	0x3fc5877bd0aa87ae	0.16819713295722977
1	0xbfbadeefb4dbd4c6	-0.10496423879142744
2	0xbfdb6807c9683a09	-0.42822451275506573
3	0xbfe0e284bf1bf417	-0.5276511890984946
4	0x3fc9bd1dad8f88b0	0.20108386015551138
5	0x3fd7c71ca5ca9afb	0.3715278262192638
6	0x3fd0ddc943b55213	0.2635367547239024
7	0xbfe5f68071afbb07	-0.6863405437887601
8	0x3fd29c8f44971692	0.29080564211140214
9	0x3fd053b793ca0a40	0.25510968620816143
10	0xbfde1c08dffc2928	-0.4704611003259225
11	0x3fca04ea93032747	0.20327503374420017
12	0x3fc0f99a326a25cb	0.1326172586598616
13	0xbfd12f5fa22ba552	-0.26851645314180417
14	0x3fcbee3875f4fa60	0.2182074142419479
15	0xbfc8421c32a52cfc	-0.18951752159987467
16	0x3fd4deb62205bdc1	0.3260932285547505
17	0xbfd2c9553660120d	-0.29353838262639514
18	0x3f842dd1ac1f49cc	0.009853017869237223
19	0xbfc2b81d90dfb8d6	-0.14624375890657032
20	0x3fd32046f9996362	0.29884504675788126
21	0xbf6679f80e2839e7	-0.002743706210146291
22	0x3fc945920234845f	0.19743561847375
23	0x3fdd80711a33584b	0.46096446570061705
24	0xbfb7f8077da443c2	-0.09362837617324174
25	0xbf9ccfaad61d4354	-0.0281359379944804
26	0x3fa1455256833b1f	0.03373200708448664
27	0xbfb63ce45f77db05	-0.08686663943067792
28	0xbfc63b580271da0e	-0.17368602866527322
29	0xbfb4d44ba3f9b54e	-0.08136437180811137
30	0x3fb7e94a7843fd25	0.09340348659678861
31	0x3fbe0781919d736f	0.11730203442625763
32	0x3fd9d16acbff0ff9	0.403406810012029
33	0xbfc2875f213072c5	-0.14475621338433178
34	0x3fca66b46298f841	0.20625929655392564
35	0x3fb6364279e60196	0.08676543689762747
36	0x3fcb14e8e2d64eb6	0.21157561374694972
37	0xbfc8a1c5e8ac931a	-0.19243692265549656
38	0xbfdc804904e2445b	-0.4453299091047193
39	0xbfd83e08525290f8	-0.3787861637049583
40	0xbfb0284c86b3df2c	-0.0631149128784016
41	0xbfd800ab8509b380	-0.37504089347822145
42	0x3fbe149159df6de4	0.11750133937987745
43	0x3fd71bc7b04e8038	0.3610705587143488
44	0x3fb479717ef23d4d	0.07997807835839872
45	0xbfd95d46d8a53c8b	-0.3963181605985901
46	0xbfb00cf6ad16d2ca	-0.06269780851182385
47	0x3fb097e71013aa8e	0.06481784956455725
48	0x3fe10abea3e3bc04	0.532561607453204
49	0xbfc2a9fea2cf3820	-0.14581282567672904
50	0x3fb2b16cc67b6d32	0.07301978917842147
51	0xbf812ec4544e3eda	-0.008389982054523615
52	0x3fdeacc32ca3d0f2	0.4792945800720779
53	0xbfcb7f43cf9cb079	-0.21482131612117764
54	0x3fb6b4039709f889	0.08868429601167994
55	0xbfc72ca825cc7b5d	-0.18105031819956255
56	0xbf97738ed16b89f9	-0.02290175584028906
57	0x3fb6c62ab1c698ac	0.08896128502110184
58	0xbfb1cca448cff86b	-0.06952883508344747
59	0x3f5e56df6531bc96	0.0018517667383795336
60	0x3fcd86fd6c810884	0.23068206594513552
61	0x3fd05b44ffa79745	0.25557064977907756
62	0x3fad1b58d9e03304	0.05684926662079273
63	0xbfb1650ebb7232da	-0.06794826580353278
64	0x3fb42faefd8662ae	0.07885259332250413
65	0x3fbac4180fdcd3f2	0.10455465686102608
66	0x3f9103120ea337e4	0.016613275664717167
67	0x3fcda6e4f29fe0cb	0.23165571066761567
68	0xbfd1e75f6e33e158	-0.2797468734929871
69	0xbfbafebc42f259a0	-0.10544945368233138
70	0x3fc8c28825a8c466	0.19343664015608225
71	0xbfbb363e5c91f7ed	-0.10629644165052783
72	0x3fd6ee2b9ce3cacc	0.3582867653014261
73	0xbfca79ca024003af	-0.20684170827737833
74	0xbfd3cebe20ae4c49	-0.3094935721539441
75	0x3fd6c1609cb9d762	0.35555281930225224
76	0x3fc1bcbd5b20f192	0.13857237767832636
77	0xbfb5e191b77af220	-0.08547316293238127
78	0xbfc5c3deb06b2602	-0.17003997434794377
79	0xbf7f9cca0ecffa03	-0.007717885292548579
80	0xbfb99d6a05cc1223	-0.10005819932491326
81	0x3fafac067e45ebb0	0.06185932437343611
82	0xbf5b8f46db7d274f	-0.0016821090666376442
83	0x3f9f6bfc90a633db	0.030685373619735983
84	0xbfa552c15945f901	-0.041646997592566855
85	0xbfbdb93cab21a700	-0.11610774209989572
86	0xbfb87468e1144f3b	-0.09552627081967284
87	0x3f997c823e6270e7	0.024889025743150574
88	0x3fac5a5d3d6f90b4	0.05537692427586319
89	0xbfcc2da9ad158952	-0.22014351798413628
90	0x3fd3263ef92fe302	0.29920934996293636
91	0xbfc7c3b04fee2b5e	-0.18565944578980526
92	0x3fe67342b39d0bc0	0.7015698917460824
93	0x3fca1ab29b173a6d	0.20393974850454147
94	0xbfdb3b091e29073f	-0.42547824807489926
95	0xbfdda50cb4d61421	-0.46319883022107616
96	0xbfc17f463483a2d6	-0.13669660152597513
97	0xbf75851a5322cc41	-0.005253889876416785
98	0xbf85f47a7e7d6965	-0.010720211968579372
99	0xbfc49fe3fd065166	-0.16112947325440102
100	0xbfbef441a47cdd47	-0.12091455713094944
101	0xbfc54a3e59a37439	-0.1663282334983778
102	0x3fd050390c8608b1	0.25489641402249236
103	0x3fb27c8b68b70498	0.07221289927021457
104	0x3fa6c3e83bac1a32	0.04446340301915476
105	0x3fd60c830fc97a6b	0.34451366941167433
106	0xbfa1f5170f8e62ae	-0.03507301392455041
107	0xbfcc33b6577c94fc	-0.22032813331421852
108	0x3fcc70cf9065f59b	0.22219271231362545
109	0xbfd62c7ed7e64f87	-0.3464657886881856
110	0xbfcaab62045d9f2e	-0.20835519040269318
111	0xbfd2d84a52bab6f3	-0.29445131377256856
112	0x3fe59653c838619b	0.6746004972983884
113	0x3fd746f9acac2ef7	0.3637069879775789
114	0x3fcb9f55f0d76702	0.2158000398620104
115	0xbfdbd6ea02ee8d78	-0.43499231611550426
116	0xbfd51d2561ae0506	-0.3299039319900462
117	0xbf867d811103fa9c	-0.010981567699216037
118	0x3fdb2741756e8cc3	0.42427097766831084
119	0xbfc01da827ee31d8	-0.12590505552033338
120	0x3fa39a93777ba879	0.03828869660885998
121	0x3fa2d470861fce4b	0.036777035114849164
122	0xbf7987c926e10a8c	-0.006233011006829724
123	0x3fc077be8dc9290b	0.12865430758603966
124	0x3fc1cf5640a3652f	0.13913992077031298
125	0xbfaa76955987ac3c	-0.05168596952338375
126	0xbf9e01eb63ae323a	-0.02930419727231224
127	0x3f612eb6f0fbca56	0.002097470576580644
128	0x3fbc3549da8594fa	0.11018811783795349
129	0x3f6c28b69f2da180	0.0034373823959194527
130	0x3fc7a3d3fe928998	0.1846871369389873
131	0xbfcb080902a031d4	-0.2111827147313209
132	0xbfcb5e28e6753570	-0.21381102803062957
133	0xbfdf29c01e38132f	-0.48692324591711417
134	0xbfa59da4c3be304e	-0.04221835030975339
135	0x3fca492f7ab90887	0.20535844318698457
136	0xbfd091b46685af9e	-0.25889310848173774
137	0x3fd7623494222c0e	0.36536898103867166
138	0x3fd8da63f8542061	0.3883294987758799
139	0x3f52b96b11c0b37e	0.0011428399657333606
140	0xbfc08e4f2a0a6b75	-0.129342933204352
141	0xbfd82f14c8ff8191	-0.3778736079093728
142	0x3fd22f0633fd4364	0.28412013127404223
143	0xbfa86c3aeee0585b	-0.04770073095294044
144	0x3fc7f01a10e887a1	0.18701482606507816
145	0x3fc02718a815fe9f	0.12619312484092846
146	0xbfdb42d26b6fcf11	-0.42595348827238505
147	0x3fd93f48353c00fc	0.3944874305598345
148	0xbfc4dc9b0e7b119d	-0.16298235137049924
149	0x3fdff2afd2976868	0.49918742719240194
150	0xbfd29fc3bea77579	-0.29100125902717583
151	0x3fcc23c1e60ee1e7	0.21984122975642537
152	0x3fdf6401ce572511	0.4904789462130604
153	0x3fd6e84621e46c50	0.35792687711518045
154	0xbfdd007cf4230bad	-0.453154791274012
155	0x3fc18ffbd9276e25	0.1372065363237748
156	0x3f9dc4c4a686d8ad	0.029070923484788725
157	0x3fe0717c6c2cd77f	0.5138532746120602
158	0xbfd0727d6999a1e6	-0.2569879084826695
159	0xbfd3e5babfb9f1b1	-0.31089657519603536
160	0xbfa24c6fb8509f03	-0.0357394134992415
161	0xbfc1d5d10b94f904	-0.13933766427539507
162	0xbf9f5f6da7366d06	-0.030637467699858888
163	0xbfcc3d6ab2a1d74b	-0.22062429163241357
164	0x3fc3e229ff626e84	0.15533947915979607
165	0xbfa20cd10d86e82b	-0.03525403299450177
166	0x3fd35db459a2705e	0.3025942683541468
167	0x3fa77e70b1d010f0	0.04588653727117442
168	0x3fbcf835afb6f4cb	0.11316237964543345
169	0xbfc241b90e97015e	-0.14263070309062703
170	0xbf9cbb55246cf678	-0.02805836710762441
171	0xbfbc3f04e711318a	-0.1103365959290327
172	0xbf9c44b8e813f05f	-0.027605904736433092
173	0xbfd0fb6bdaf33f92	-0.26534553891996737
174	0x3fb1dddda4c81af6	0.06979165337552815
175	0x3fcdd60fe0d80484	0.23309515455915542
176	0xbf8a09553b2c363f	-0.012713113659198359
177	0x3fdaa3e93fed4094	0.41625434153412155
178	0xbfe0464f421a1300	-0.5085827151347928
179	0x3f77daa22737674a	0.00582373944367893
180	0xbf8178a34db2e8cd	-0.008530879791909385
181	0x3fc876f3a429191c	0.19113011851931894
182	0x3fd35f950b78f33c	0.3027088748965985
183	0xbfcc096eca5bdab7	-0.21903786545563772
184	0xbfc090372c596f7c	-0.12940110841270414
185	0xbfdfaf33e4f6ff2f	-0.49506852493140036
186	0x3fb7398241f8cbb4	0.09072126494065352
187	0x3fde36d6a9f4ff46	0.4720970782982373
188	0xbfbec5a15e2997d2	-0.1202030997170305
189	0x3fcd44ca16c3cca1	0.2286617861896945
190	0x3fb13e4d31c8d5fe	0.06735689607088344
191	0xbfdbe265ee2b720b	-0.43569324740181575
192	0xbfd50368d030967d	-0.32833309489283363
193	0x3fb05ab3d8074048	0.06388401054505366
194	0x3fc90f731925bc6a	0.1957839844503469
195	0x3fe0ea1ad7c52e19	0.5285772527944942
196	0xbfddfc5176da0fb3	-0.4685252819692735
197	0xbfb47d039ebee84e	-0.08003256440761783
198	0x3fcbeef5490fe0df	0.21822992389184656
199	0x3fc93566d3ebca6e	0.19694218967159166
200	0x3fd529f9c673da8b	0.3306869924557893
201	0xbfd0be532a64fd6a	-0.2616165079125127
202	0x3fc6dded71ae69e2	0.1786476903042305
203	0xbfd60cfee187dd40	-0.3445431902359424
204	0xbfd66e670986a9a9	-0.3504884331729508
205	0x3fd86a6b554aa6a4	0.38149531678446125
206	0x3fa5a3a73cbb5d45	0.04226420036655524
207	0xbfd2f45165b79f2b	-0.2961619847614993
208	0x3fcea1baf565d4a2	0.2393106172782256
209	0xbfc3cbdb392bf86c	-0.15465870181646169
210	0xbf79335fb8483604	-0.006152509599372195
211	0x3fb69b1f4279283e	0.08830447552568985
212	0xbfb1a17cd5ad31de	-0.0688703557654615
213	0xbfc0b76a0b5bb786	-0.1305973582706736
214	0xbfb22ca94287e00e	-0.07099397539411731
215	0xbf9ba665e55d8882	-0.027001945614195673
216	0x3f998a86496f1724	0.024942491752674503
217	0x3fa29a05cfd34a5c	0.036331349963479836
218	0x3fb0d8ab6c03c3c6	0.06580611598089012
219	0x3fa8d6760d57d1e5	0.0485112086570643
220	0x3f9d10f0d09a11ed	0.02838493607716146
221	0x3fa0cede106b660f	0.03282827330049198
222	0xbf51da336b242c04	-0.0010896207937232125
223	0x3f4eb879f872ab82	0.0009375186499672591
224	0xbf86011d0c021d3f	-0.01074431126495645
225	0xbf8e03506138ecde	-0.014654758421889399
226	0xbfb1c779b2fe88cb	-0.06945000286080753
227	0x3fb2b94562d2ac0a	0.07313951170606017
228	0xbfa48d6a75b5e322	-0.04014141737838474
229	0x3fbae800d275fa53	0.10510258806423538
230	0x3fbe39d7abe6b410	0.11807010599905277
231	0xbfc1da3a53ba7762	-0.1394722851591111
232	0x3fb8cf59f7e4bcc9	0.09691393186652698
233	0x3fd90ddc6152920d	0.39147099975733185
234	0xbfd0338c7f742bd9	-0.25314629027041985
235	0xbfc56cb7e14c11ff	-0.1673803186496485
236	0xbfc5faca8e5baa6b	-0.17171604109838098
237	0x3fa673eb09ed4137	0.04385313507248372
238	0xbfb768b69fbacd63	-0.09144154929781716
239	0x3fca1a379e462a1c	0.20392508724428715
240	0xbfaf92f147788cbd	-0.06166795728156547
241	0xbfa36acb20a7ae80	-0.03792414449330028
242	0x3fb28d21d7034e90	0.07246600627268607
243	0xbfb3f4fea11bc210	-0.07795707162200238
244	0x3fd62ebd1ca8bbe2	0.3466027049898327
245	0x3fc2ca69b82491f2	0.14680215350485032
246	0xbfc39d4a892c385b	-0.15323764512908408
247	0x3fd5310e0160f622	0.3311190618004237
248	0xbfb338b7a497dfdc	-0.07508418815984846
249	0xbfde608b5b7dcf8c	-0.4746426003905462
250	0x3fc145ba098eb588	0.13494039026901938
251	0xbf89a18366fb3ba5	-0.0125150934030936
252	0x3fa7ab7a3eddb11a	0.04623014466673876
253	0xbfbdebdebfb5c905	-0.11688034229681328
254	0xbfc7b8b4cd0f3746	-0.18532428753536062
255	0xbfd8a64fc3d3d8a1	-0.3851508533838431
