notebooks/models/simTwoLayers/experiments/xavier/weights_xavier_3.pkl.npz (npz, 715948 bytes, 3 tensors)

arr_0 f8 [784, 100]
0	0x3fb64eb4496b66ca	0.08713843147725267
1	0xbfa51ca382a73584	-0.0412341210354539
2	0x3fbbb226656a44f3	0.10818710304217287
3	0x3fbc4a05991de188	0.11050448406411395
4	0xbfaa6c3050257557	-0.051606664451109445
5	0xbfb82807e85c76cd	-0.09436082289581833
6	0x3f9c0cf7f27a5b54	0.027393221068077026
7	0xbfb50c6590f04403	-0.08222040928400536
8	0x3fb920ff03c2daf6	0.09815973131012953
9	0x3fc2c213c5284431	0.14654776694126917
10	0x3fa90f649afcdf91	0.04894556419316055
11	0xbfba0ed265bf3af9	-0.10178866371209584
12	0x3fa4d816ac99e5ba	0.040711124963262305
13	0x3fb6452ea01fc273	0.08699313554076031
14	0xbfb1efdf34ca6e4d	-0.07006640471302568
15	0x3f9cc2dd29761258	0.028087096839515574
16	0xbfc1a27478a88200	-0.1377702321197063
17	0xbfad3bdf8911413e	-0.057097421151981895
18	0xbf91d669df5d7946	-0.017419485338330952
19	0xbfb4da659b3222f9	-0.08145747221909606
20	0x3fa58de7ddaa5a45	0.04209827977063133
21	0xbfb56d942491ffa3	-0.08370328800992737
22	0x3faa281a909f2213	0.05108721747780378
23	0x3fbc1171bc732a5b	0.1096411786158255
24	0xbf9c6f82930c2027	-0.02776912710672277
25	0x3fbee726349137ad	0.12071455748920697
26	0xbfc2bc0d96d713b5	-0.14636392464868
27	0x3f97cd236ce1a86a	0.023243478317830947
28	0xbf8d4d975ece8950	-0.014308149891637229
29	0x3fa67b557961d91c	0.0439097128554968
30	0x3fb11a84aad9f4f9	0.06681088610817544
31	0xbf55bb0a6855a995	-0.0013263322483348706
32	0xbfa7f7d800f20d7b	-0.0468127728609273
33	0x3f8084d1819c5da9	0.008065830963046876
34	0xbfb375725862c492	-0.07601084382874237
35	0x3fa98033b02ab877	0.04980622792696548
36	0x3fad377f08f5842d	0.057064027637132454
37	0xbfa9c813f2ecb55d	-0.05035459843052579
38	0x3fb161e35702b689	0.06789990305216
39	0x3f94a5c960b97979	0.020163675812335555
40	0x3fab0941ee0341f6	0.05280500441006446
41	0xbf9fbe680bb58423	-0.030999780382789176
42	0x3fa3a6f7ddbcfd09	0.03838324147954537
43	0x3fb84a3b6835e59d	0.09488269132807266
44	0x3f89096ec89cfd18	0.012225022790174608
45	0x3f8f923c0ca72fdf	0.015415639053479367
46	0xbf8b1ca2f13106ac	-0.01323821352537221
47	0x3fb009010d5b28c9	0.06263739181591456
48	0x3fa055445296b4d9	0.031900534707668356
49	0x3fb6e9e7913afbd2	0.08950660033859428
50	0xbfa1dc6c0228c469	-0.0348848106990623
51	0xbfb9c39c8bf19a66	-0.10064104477496869
52	0xbfbdbb0720beeb77	-0.11613506841142206
53	0xbf89fb7f6c000afb	-0.012686725123790312
54	0xbf857b4fc84f76fe	-0.01048910455750329
55	0xbfa06af7a4d64129	-0.03206609618348672
56	0xbfaf347df67a1cc3	-0.0609473574996229
57	0x3f77159469670c00	0.005635814412417339
58	0x3faa95504efea1ea	0.05192042316713581
59	0xbf943e7bcad0c293	-0.01976960587870964
60	0xbfa4f793ce52da67	-0.04095136540984328
61	0xbf981e191a6fda5c	-0.0235523149858302
62	0xbf9accae538b5615	-0.026171420907152482
63	0xbfb8ce90413e6d6e	-0.09690190880649194
64	0xbfa1a11573864792	-0.03443209681712668
65	0x3fad56d00dc2730a	0.05730295341456866
66	0x3fbe08fb6cae750f	0.11732455638271609
67	0x3f981211d5dc56de	0.023506430318852682
68	0xbfaf3aedeb8aa0a3	-0.060996470453859496
69	0xbf82f6ee958b849e	-0.009260047854186045
70	0x3f85344cea66f5ac	0.0103536614450331
71	0x3fa8aef244d2613c	0.04820973482236687
72	0xbfbc5e589fae532f	-0.11081460855923518
73	0x3fa48d43a375e29b	0.040140260413811656
74	0xbfb16ff3da397092	-0.06811451032393936
75	0x3fb9061a9feea7e8	0.09774938969226776
76	0xbf881df787dc6014	-0.011775907357829886
77	0x3f726a436581fc90	0.004495871799121379
78	0xbf9445b02e09e5c0	-0.019797089395501066
79	0x3fc299557ccb0028	0.1453043803539924
80	0xbfbc508679571678	-0.11060371839911365
81	0xbfa4aff5426500ec	-0.040404953341296096
82	0xbfaaaff01b9c1e59	-0.05212354981454998
83	0xbf9ed601e14bcdb9	-0.030113248229964393
84	0x3fa644cb2fa4005e	0.043493604245669046
85	0x3fb85433a4e90b70	0.095034816514312
86	0x3f843f1efea41683	0.00988601889231267
87	0x3fb06345fa6428fc	0.06401479113643299
88	0xbfb8e8584290ef45	-0.09729529976988001
89	0x3fa861768ab3ef0d	0.047618584090711825
90	0x3fa4967428743813	0.040210370958547646
91	0xbfb0a4f622f32c8a	-0.06501711228627208
92	0x3f5adfe3aa6bdef0	0.0016402934358534203
93	0x3f506ce685ebf4a0	0.001002526397939442
94	0xbf9ef9d400b5b3a4	-0.03024989370662791
95	0x3fb7309d502f2074	0.09058554847354278
96	0xbfa2e8e49bff0075	-0.036933082621090664
97	0x3f70fc1c76ecc641	0.004146681966447797
98	0x3fc072bf38832603	0.128501799196144
99	0xbfb5d4cc4bb18017	-0.08527829025251808
100	0xbfae73a6bb724406	-0.05947609937823732
101	0xbfac88b8051b67fb	-0.05573058187810883
102	0x3f9718f6df113bf9	0.02255616890425569
103	0xbfbacd36aa1fb4a4	-0.10469381001867589
104	0x3f8e1318c70c284d	0.014684861731002164
105	0xbf97ae95f07dcf2c	-0.023126929095680968
106	0xbfb1a06e951e3c5b	-0.06885424748019046
107	0x3fa4a32725909084	0.04030725797227411
108	0x3fa12df72c21dd5c	0.03355381406521005
109	0x3f9b2ed8d9dab33b	0.02654589490582569
110	0x3f938c223c4376aa	0.019089255264467177
111	0xbfb538e0cdc7c1fa	-0.08289914153989023
112	0xbfb2086b7bccfbf3	-0.07044097683409216
113	0x3fa1f52c83e6e879	0.03507365331775331
114	0x3fc2dd45aac1e76d	0.14737768972173218
115	0xbf59d64648891538	-0.0015769659386404965
116	0xbfc8aaabe52dde1d	-0.1927084797896307
117	0x3fb864ac264dabd7	0.09528613982335742
118	0xbf468d9c406d587a	-0.0006882679889297493
119	0xbfb3d5e3b1d97a63	-0.0774824437334956
120	0xbfa39ef50b59e7a4	-0.038322122226375016
121	0x3f8648a2d0c1a164	0.010880729671229168
122	0xbfabe67a1b95e196	-0.054492774836890565
123	0x3fc77aa3d7b8de11	0.18343017609889548
124	0x3fb78874af753a80	0.0919259003032753
125	0x3f716795d1f59b8d	0.004249177203155774
126	0x3fa1f5f630bf213f	0.03507966370631487
127	0xbf7d5c6011885375	-0.007168174045109822
128	0xbfae2670609e6f4c	-0.0588870161002136
129	0x3f91ee508394cfaa	0.017510660201153584
130	0xbfba98b558872cbf	-0.10389264499024174
131	0xbfafad193d809881	-0.061867512471779136
132	0x3fb2179b63eb1d25	0.0706727141324462
133	0x3f562ff2c05ddc60	0.001354205190606604
134	0xbf42570b994d3589	-0.0005596930155690609
135	0x3fc1af67907538f9	0.13816542199715068
136	0x3fa4bdfd1c34e4f8	0.04051199883765294
137	0xbf451dff29e9a49a	-0.0006444450298889349
138	0x3faf2515f425fa78	0.06082981686903549
139	0x3f8be990b4305a4c	0.01362908410923782
140	0x3f91e571a0838a2d	0.017476821348177452
141	0xbfaea75844f2e1a8	-0.059870489517780456
142	0xbfab4071976902f0	-0.053226041538897095
143	0xbfba48204937e382	-0.10266305720860028
144	0xbfa026d2cb3c8123	-0.03154619913971348
145	0x3fb1354830e37a8c	0.0672192687374979
146	0x3fbaafa42270eaff	0.10424257126662083
147	0x3f941374f897a4bc	0.019605472252725006
148	0x3fbb83ec7deea62b	0.10748174738423504
149	0x3f961d21c3d6aa83	0.02159550435832581
150	0xbfa0e8791324b360	-0.033023627840839564
151	0xbfb5ead5ba1a06fc	-0.08561454576013355
152	0xbfad92d71b1d399e	-0.057760927257379566
153	0x3fb5bc7b2f27504c	0.08490724469385319
154	0x3fb0f6e01b562f9f	0.0662670199146178
155	0x3f84bcfd06b05f8f	0.010126091734534074
156	0x3fb2cdbaed8a44c1	0.0734516935283578
157	0xbfa1bb493c4a4708	-0.03463200436557484
158	0x3fb6b7ca78e223f8	0.08874192668203296
159	0x3fb47456633a6621	0.07990016863404793
160	0xbfb19c5401552096	-0.0687916281941646
161	0xbfb20ce83f82f82e	-0.07050944853378446
162	0x3fa246c15308b6d0	0.035696069131842756
163	0xbf9318daf9483dcf	-0.018649503197648628
164	0xbf98faea97b3b05d	-0.024394670018338938
165	0xbfa7aa9a4dfa26d1	-0.046223470705695775
166	0xbfb55c903d0c9c3e	-0.08344365587673594
167	0x3fb99c7b7de3b5bf	0.10004398177598882
168	0xbfbe4ed6bd009443	-0.11839048494637532
169	0xbfa2f650ade5b631	-0.03703548548478997
170	0x3f96bf669547bd64	0.022214510785429367
171	0xbfbd0889f588a8ce	-0.11341154331663292
172	0xbf92543b509eb072	-0.017899443431517566
173	0x3fadd1ba0c6ca2b5	0.05824071313538096
174	0x3faf618e1078ccda	0.061291160116889024
175	0x3fa747fa49ad1251	0.045471021169337995
176	0x3fb0aa264084e5f5	0.06509627413915793
177	0x3fa7a4f2e5dd8ef6	0.046180334625004635
178	0x3fb4d177e04fdb61	0.08132123209348442
179	0x3f7e9653bb5cb278	0.00746758182303308
180	0x3fafcde1ea29f2a1	0.062117633661704426
181	0xbf92873030c9dc02	-0.01809382722646192
182	0xbfb73e5fffb5e2e6	-0.09079551690036744
183	0x3fb1ec9789a66808	0.07001635656925498
184	0x3fa9ad0640b699e7	0.050148196601458576
185	0x3fb4059c35c6cc43	0.07821060479072721
186	0x3fa8be04166a1f97	0.048324706779623465
187	0xbf81e88830e83c82	-0.00874430083515976
188	0x3fb08f9437402f90	0.0646908411874263
189	0xbfb5c5975442a314	-0.08504625136505367
190	0xbf8f6ba23b8561ec	-0.015342013780057472
191	0xbfb83b32d0bea115	-0.09465329738907642
192	0xbf87dfb213249d23	-0.011657134255598727
193	0x3fa8e7216512af25	0.04863838537980162
194	0xbf83e43a2cedf9aa	-0.009712652679579065
195	0x3faa1d8a5038ce4d	0.051006624500953814
196	0xbfa56906373149ed	-0.041816896664972215
197	0xbfac1c30774ed8e1	-0.054902567447628454
198	0x3fb7c976e0fe815d	0.09291785233518142
199	0x3fc26b3e773dec92	0.14389782736165962
200	0x3f9250b1f5ac757c	0.017885952586870854
201	0xbfb5e40896064ca0	-0.08551076567373395
202	0xbfad5f77e2d0a312	-0.05736899036157274
203	0xbfabe5a16ba150ad	-0.05448631705135774
204	0x3fa4946212526ad0	0.04019457315117381
205	0xbfba881484727f5c	-0.10363891824317534
206	0xbf72cc92d5e82e66	-0.00458962781568637
207	0xbf8f6863b56a27e2	-0.015335825895153424
208	0xbfa1e24d14038bd2	-0.0349296652728054
209	0x3f9ce0048ba3c40f	0.028198309920245686
210	0xbfb8eb83582c5570	-0.09734364416757102
211	0x3fc0a2564bad5bb9	0.1299541348950848
212	0xbfcafb287c2c3c6c	-0.21078973830342151
213	0x3fabf66b78718537	0.05461440892464469
214	0x3fb45711d769575b	0.07945357808179436
215	0xbfc6d6ea97ea68ce	-0.17843372743374747
216	0xbfa18f3007bd37a6	-0.03429555983039671
217	0x3fc4962823646e57	0.16083242157116004
218	0xbf851e9eaa024ca1	-0.01031230884863127
219	0xbfbc16c268cb676b	-0.1097222810598432
220	0xbfa1c1dea196a244	-0.03468223307146848
221	0xbfb3c76257ef9c56	-0.07726111075281614
222	0xbf90c5e544b96c42	-0.01637991172752274
223	0x3fb22e3d6078a0ea	0.07101806264165914
224	0x3fb6cc06babeeef2	0.08905069407677127
225	0xbfa2ae28e52a30e6	-0.036484983419627956
226	0x3f8dbad710519ca1	0.014516525445470942
227	0x3fc3cc92eace8056	0.15468059983413934
228	0xbfbdf0a995b2d95f	-0.11695346741439526
229	0x3fa304d1c081a55b	0.03714614367420196
230	0x3fb54f6fc4a18e26	0.08324335623324738
231	0x3fa21c8cd18ea6ba	0.03537406976768183
232	0xbf97885ffcf05324	-0.02298116666141249
233	0x3f5714f1de175adb	0.001408802222035702
234	0x3fa5ea72fe263088	0.04280433037192305
235	0xbfadf3354a8a46ee	-0.058496156071795244
236	0x3fa9a069d428db45	0.05005198206747833
237	0xbfa64d06b1d35077	-0.043556412894447165
238	0xbf7dc2cc598b1e1b	-0.007265852204632074
239	0x3fac0b7d9dc7be9a	0.05477516699818104
240	0x3f8f385e19bb21c1	0.0152442313768838
241	0x3fc253b7601e8ce8	0.14317981904341726
242	0x3f952e701a7c3a0f	0.020684959045917547
243	0x3f78adc6dbdbf536	0.006025101463589968
244	0xbf57cebfb147180f	-0.0014531013485892285
245	0x3fb14b01657a98f7	0.06755074241172908
246	0x3faace8ba5f72418	0.0523570671171642
247	0x3f996ab4f7cb40a2	0.02482111704267765
248	0x3faea9449f5380b1	0.059885162781712416
249	0x3f853d508da44393	0.010370854685364061
250	0xbfc073e096df3057	-0.12853629462040558
251	0x3f9cd0d9ec8bee38	0.028140454352053562
252	0xbf8e177c72b2ac75	-0.014693233728698222
253	0x3fc0e91f24cd37ca	0.13211430832819665
254	0x3f836bc7ceba14e9	0.009482918735793837
255	0xbfad56472f72d7a8	-0.05729887441832143

arr_1 f8 [100, 100]
0	0x3f9c17ea66da0cf8	0.02743498089558913
1	0xbf9c3e58bc351653	-0.027581583487764693
2	0x3f899991744e1468	0.012499939309927835
3	0xbfb7d5fea8cc478a	-0.09310905095142466
4	0xbfb3bc02136a9e2c	-0.07708752607379016
5	0x3f81bdd56e2e8930	0.008662860321980576
6	0xbfae17c4d2e025eb	-0.058775091878555084
7	0xbfaa52e4301eebc1	-0.051413660883063546
8	0x3fc377a528c047e9	0.1520887803058593
9	0x3fa6c37e1ba05da2	0.04446024024235419
10	0x3fb322542fc150f1	0.07474256673714642
11	0xbf8a9d6c7ac9c734	-0.012995574471662864
12	0x3fb5352603ed23ab	0.08284223171098286
13	0x3f60e1c4efd181a6	0.0020607801839533533
14	0xbf8786804729ed6a	-0.011487009212251837
15	0x3f9e88d16d687ac7	0.029818794539205464
16	0x3fb119d59ce99ec9	0.06680045204995645
17	0xbfa1582160605c00	-0.03387550641507886
18	0x3faaf8101d20ae8d	0.052673820071814516
19	0xbfbb7449e9e8c804	-0.10724317513157194
20	0x3fb0f7a05d9cfb5a	0.06627847943762558
21	0x3fb37e789ef72706	0.07614854699127357
22	0x3f96476b14f24ad3	0.02175681414935122
23	0xbf981c8ed8554ea5	-0.023546440080578396
24	0x3fb0515b00b0fbe1	0.06374138609770298
25	0x3fa99cfa846cfce4	0.05002577654385634
26	0xbfc3380de483c94c	-0.15014814050625558
27	0xbf95a4b0f1a86a44	-0.021136059522272058
28	0x3fb4ab8e4adc0e5a	0.08074273421885306
29	0xbfa26f39083bb5cb	-0.036004812483820446
30	0xbfa50a25ee0f5999	-0.04109304934506781
31	0xbf9f423956a011e9	-0.030526061927973833
32	0xbfa246919d952a51	-0.03569464729897177
33	0xbf98544e9788d1a9	-0.023759105681351454
34	0x3fabb25cbe833583	0.054095171218800274
35	0xbfb56beee04296e9	-0.08367817854977101
36	0xbfb9dfc70393097b	-0.10107082211746914
37	0xbfad409a78b9a0f4	-0.057133509861900494
38	0x3fb2ea681f81d074	0.07388926285949698
39	0xbfbaf24593ca1a51	-0.10525927408353054
40	0xbfc10cd6a974b434	-0.1332043006345046
41	0x3faf5ea8dfbe51ee	0.06126907092326293
42	0xbfb8b1f75fee0962	-0.09646555034672624
43	0xbf95d44277d6bfba	-0.021317518772491197
44	0x3fa004644a28aea9	0.03128350644359774
45	0xbf2323d2c53f2497	-0.0001460261142922955
46	0x3f94128a0c192e83	0.019601971615243585
47	0x3fa3d9bd29ef584b	0.038770591134082176
48	0xbfb508f15697f972	-0.08216770519354613
49	0xbfb4cf6cf83f099e	-0.0812900644369052
50	0xbfb7c0000de606bd	-0.09277344073600609
51	0xbfc16cd16b04ff01	-0.13613336301386172
52	0xbfaae8fead4ae140	-0.05255885949503858
53	0xbf7129d6b9864387	-0.0041902911838328566
54	0xbfbbecf3125bacae	-0.1090843124217595
55	0x3fbd55cd76fe6af8	0.11459049372789909
56	0xbfb4030da7b287f0	-0.07817159027266007
57	0xbfa5467fc6974df8	-0.04155349063116981
58	0xbfbf065087192d14	-0.12119010256099144
59	0xbf82704414dcb2d1	-0.009003192793522715
60	0x3f67dd08e2a572e7	0.002913014749692844
61	0x3f8ae98395a3cc63	0.013140705112595968
62	0xbfbade94aad0a4bc	-0.10495881243027133
63	0xbfaeeb3c9e4b788c	-0.060388464282128046
64	0xbfa47f6bd1aafef6	-0.040034646362526446
65	0xbfa262517f53e832	-0.03590635947507827
66	0xbf6e61049cd88c5a	-0.0037083711711303593
67	0xbfbbb205cdf48f9f	-0.10818516042905778
68	0xbfaabb4354bb8b35	-0.052209953397115795
69	0x3f816d42a224bdca	0.008509178708293503
70	0xbf8678d7413082ca	-0.010972673108029869
71	0xbf898cc636cdec43	-0.012475536868569509
72	0x3f88054a8c736fce	0.011728842173788136
73	0x3fa503aed0678a82	0.041043723049161165
74	0xbfbbfa50ba135857	-0.109288258961301
75	0xbfc096c11f7c3aa8	-0.12960065877310467
76	0xbfa607d963131916	-0.0430286343994785
77	0x3fb874e4ddb08ef3	0.09553366100640996
78	0x3f952fad310b4460	0.020689684027108135
79	0x3fa0f553b8bb89f4	0.03312169675861645
80	0xbfb7a663907ea37c	-0.0923826434869976
81	0x3fb6e71084d5b974	0.0894632648757801
82	0x3fb4e9258c18d8d7	0.08168253584230754
83	0x3f62e5a1eb9df47b	0.0023067629344369323
84	0xbfbce37ff91bb89e	-0.1128463729071165
85	0xbf85e529001975ef	-0.01069099456361308
86	0x3f531d137c56da83	0.0011666002550164984
87	0xbfb6bee20786581b	-0.08885014232359405
88	0xbf989f25dfa1129c	-0.02404460122513062
89	0x3fb8ef4c12ff95ec	0.0974013849623458
90	0xbfb67f59936c5ea7	-0.08788070534898883
91	0x3fa006cfa3b0304f	0.03130196450374056
92	0x3fc1baa9cbf5befc	0.13850901087743483
93	0xbf80d8315d8da114	-0.008224855105894359
94	0xbfa6dd3e5dd06cf1	-0.044656704856800185
95	0x3fbb1211bc891735	0.10574446537893041
96	0x3fb0dbaa4c7567fd	0.06585182539620855
97	0x3fb18e39a0b6bcfc	0.06857643293072962
98	0xbfba68d06dc89eee	-0.10316183738961701
99	0x3fa52c4b96b8cc02	0.041353571079888254
100	0xbf98a22638e95c63	-0.02405605051384575
101	0x3fc799379c8a84c3	0.18436331885917498
102	0xbfbfc530197d28be	-0.1241025984028594
103	0x3fb938bcf5377df1	0.09852200495469511
104	0x3fa4227cf3f3d76f	0.03932562330184807
105	0x3fa434ada6a8a803	0.0394644037190375
106	0x3fb8ea8592e5ed9d	0.09732851826077256
107	0xbfc2f5f9bc71b048	-0.14813157750484351
108	0xbfd83ababb30a58c	-0.3785845592525099
109	0xbf9cb68138096911	-0.02803995041390645
110	0xbfc64f3fd6b3db02	-0.17429349883578743
111	0x3fc8e83e63d7854c	0.19458751559344944
112	0x3fbc6ba04ddd730e	0.11101724530221821
113	0xbf878c1be695aacd	-0.011497705435166062
114	0xbfad965e457b80e5	-0.057787843686812036
115	0x3fc66d592a00ba8a	0.17521204520149453
116	0x3fa049418b14befe	0.0318088991429004
117	0x3fb0cedb3042bf9e	0.06565637520065912
118	0x3fb2be61d67ddbbb	0.07321750151264343
119	0x3fa8c004ada4a6cd	0.04833998317401509
120	0xbfccb6d6c048abe6	-0.22432979954586968
121	0x3fca9333052f0bbf	0.2076171660720245
122	0x3fc31bf55fa54573	0.14929072542376395
123	0xbfb94cacc399b601	-0.09882621550942618
124	0xbfb166b43930c229	-0.0679733886361268
125	0x3fbc084d8e83443e	0.10950169305148535
126	0xbfb42dfe07e896f7	-0.07882678692893906
127	0x3f61a7a38822f12e	0.0021551317196025965
128	0x3fa8501ef49f8094	0.047486274110043386
129	0xbf5fe66cc078fa27	-0.0019470273999925376
130	0xbfc88737402e689c	-0.1916264594445395
131	0xbfcdca5a547f842f	-0.23273781896480858
132	0xbfa79b3b683021d3	-0.04610620161844605
133	0xbfb60a146cd1e243	-0.08609130532011826
134	0x3fc2d081f39b0e83	0.14698814768609134
135	0xbfb05a8c91d0e234	-0.06388166961631542
136	0x3fb488577ec73438	0.08020541043443152
137	0xbfb33b0156c9d0f5	-0.07511909836631843
138	0xbfcccdc235404b5d	-0.2250292549147969
139	0xbfb1b084b2b889ff	-0.06909970629980221
140	0x3fa6381e82d9a020	0.04339690539637808
141	0x3f9253a6abee6a78	0.017897228473524568
142	0xbfd8bd35a98cdbca	-0.3865484386218979
143	0xbfbd5c33143ebea4	-0.11468810314431238
144	0x3f930938155a5c80	0.018589855483324147
145	0x3fab3831a3133d8b	0.05316310039199398
146	0xbfaea51c21725a07	-0.059853438456389844
147	0x3f87ea18aaf2b0b7	0.01167697211925432
148	0xbfc15d533ceb2ffd	-0.13566055750413844
149	0x3f925e04e53ab82f	0.017936779490519136
150	0x3f835f313a02d19f	0.009458908636909067
151	0x3fa7cf218508cdf6	0.046502158631849186
152	0xbf94d07893e8e516	-0.020326503780073578
153	0xbfae2c793ddda7b4	-0.05893305664251561
154	0x3fa4c649c04ec2b4	0.04057531807427975
155	0xbfc0558ff9cd86cd	-0.12761115739254195
156	0xbfb05902e41e655f	-0.06385820454888379
157	0xbfbe76644651ccf2	-0.11899401394639478
158	0xbfb9323a05e17473	-0.09842264789172521
159	0xbfc87f591a12fbb9	-0.1913863541903689
160	0xbfb486cc6a8631ea	-0.08018186188400703
161	0x3fb06cee04a7c960	0.06416213620813016
162	0x3fb2d5676b73a089	0.07356878636676546
163	0x3fb60a5f3d14e975	0.08609576455356723
164	0xbfaf013fb5d55235	-0.06055640310902214
165	0xbf9732020319b72a	-0.022651702346073645
166	0xbfb8f28e296c2e34	-0.09745110045712907
167	0x3fd1339304244c5e	0.2687728443572207
168	0xbfbc5f76b0cc3b29	-0.11083165947296138
169	0x3fbc92d2508a8800	0.11161531893097276
170	0x3f94b2002b3fbafb	0.020210268630701283
171	0xbfcf5ab6db710c95	-0.24495588030740537
172	0x3fc00113dbded9b9	0.12503288493981105
173	0xbfb86bf21451e2cd	-0.09539711948481085
174	0x3fbda181ac82b2f7	0.11574564420397936
175	0xbfad851dd7500384	-0.05765622380568572
176	0x3fac3a9136fefba6	0.05513433262193894
177	0x3fb30ceb7c1072d4	0.0744158914462319
178	0x3f86d408901748d6	0.011146609208399754
179	0x3fc0940ee434ade9	0.12951837675915037
180	0xbfa6bc1501904157	-0.04440370220266015
181	0x3fb9360862d0200c	0.09848072445322503
182	0xbfa9028d307e18e1	-0.04884759156179697
183	0xbf9d14601d4814e5	-0.02839803866119874
184	0x3fc3511f16798d41	0.15091312978175078
185	0xbfb851b7e1ddaf4a	-0.0949969221525723
186	0xbf85dd73ca3f64c3	-0.010676293000800979
187	0xbf8a2e0ff7f60588	-0.01278316951243387
188	0x3fc7675e6427de55	0.18284206285874186
189	0xbfb918ccf429d4f1	-0.09803467713375703
190	0xbfc3c8dff05cb2c9	-0.15456771122389615
191	0xbf86af3dd9099d4c	-0.011076434312782844
192	0xbfc94f5fb7165154	-0.19773479881099354
193	0x3fc7d21c05d84339	0.18609953198804322
194	0xbfb5c0f7f7c44908	-0.08497571753494892
195	0xbfa8481b64dc7782	-0.047425132810743356
196	0x3f9f628b0070d573	0.030649349119092627
197	0xbfc16e28b5d3a225	-0.1361742866349839
198	0xbfb09f91d5eb1d1a	-0.06493483994119167
199	0xbf532cbaf58c44f7	-0.001170332505527503
200	0xbfb4ba30cbab646b	-0.08096604320907523
201	0x3fbe9c739c05a4f3	0.11957476195461307
202	0x3fb9ae3b90ff2973	0.10031482973059784
203	0x3fb2bc8b83d0e2ee	0.07318946808016921
204	0xbfab30c9f8783daa	-0.05310660512997896
205	0x3fa891e8164ddaec	0.047988178942366705
206	0xbfb6b247daf04127	-0.08865784735849457
207	0xbfb723ec8b2ecd32	-0.09039190671937972
208	0xbfd275f4cac70351	-0.28844947626571577
209	0xbfb32db5a8e1b27c	-0.07491622326933539
210	0xbfc6a6a52a15817a	-0.1769606070984187
211	0x3facc26c24681bcf	0.05617082542817508
212	0x3fd08394f775f36b	0.25803112188423566
213	0xbfb226308901a2e4	-0.0708952269066106
214	0xbf8367e1ebb53397	-0.00947548389981438
215	0x3f79381da06c8143	0.006157031754611633
216	0x3fac5ccc4f0b5567	0.05539549317260644
217	0xbfa9bbf5a27addc5	-0.05026214226148399
218	0x3fba90f77f3d938c	0.10377451759775463
219	0xbfa940a743d1c68c	-0.049321391133060194
220	0xbfc35282aeed1640	-0.15095552007021418
221	0xbfc3b6bb645a2b32	-0.1540140380860407
222	0x3fb92ed0557b3245	0.09837057196563943
223	0xbfaa0550acccfebc	-0.05082180127510358
224	0xbfb040b71f998420	-0.06348747750736594
225	0xbfa16945c986f073	-0.03400629124686896
226	0x3fa7a0a04f73d40c	0.04614735574606507
227	0x3f9c7ea308f3fb50	0.027826831265879648
228	0x3faf51585afa0461	0.06116748915247495
229	0xbfb5df8e30f3af5e	-0.08544243521799674
230	0xbfb0d76fb400caac	-0.06578729767424346
231	0xbfceed7139fbb5dd	-0.24162116366589617
232	0xbfb7ff69c7872c91	-0.09374104615487712
233	0xbfbb8264af8a6f08	-0.10745839391386991
234	0x3fa95120bd09afc8	0.04944708163824846
235	0xbf8acf5412c1f5a0	-0.013090760061681916
236	0x3f913cad17931619	0.016833023609043794
237	0xbf9e1165f58ff0fa	-0.029363244164401593
238	0xbfc8410b7ed526c2	-0.1894850129413524
239	0x3fba3baa4899a6ad	0.1024729182478505
240	0x3f906d91d043776d	0.01604297479285981
241	0x3fb854c29ba50130	0.09504333782115704
242	0xbfd1bcedbd904772	-0.2771562911230979
243	0xbfb27128287848ae	-0.07203913677247684
244	0x3fa09d397477989b	0.0324495272323457
245	0x3f8793804d39e2ad	0.011511804920915603
246	0x3fb39daec4ce8be7	0.07662479691366252
247	0x3fb9e5a2e9af479c	0.10116022305672207
248	0xbfbe8f75b11f6141	-0.11937652181894
249	0x3f9f18a932b38435	0.030367511481817117
250	0xbf80241368fd3ced	-0.007881309167400785
251	0x3fb9ed87f048f073	0.10128068558054952
252	0xbfb68b301c3d7fa4	-0.08806133927782739
253	0x3fab95bbfce1e53b	0.0538767572588292
254	0x3fad7c8077ec5712	0.057590498580038965
255	0xbfa09d86872e3dc8	-0.03245182418970277

arr_2 f8 [100, 10]
0	0xbfae0a882c2788b9	-0.0586741022014094
1	0xbfa38be6501e89b2	-0.03817672470110568
2	0xbfbeee2f94277651	-0.12082192771000534
3	0xbfb16dfd613aeec3	-0.06808456062111205
4	0x3fb3fa45c3079d84	0.07803760539501609
5	0xbf8317567431b5b1	-0.009321856900181698
6	0x3f6b4b8deb17907f	0.003331925567851057
7	0x3facf2400c5b7022	0.05653572226376037
8	0x3fa9bf69cb2db220	0.05028849225240983
9	0xbfb0881f747fed11	-0.06457707018119076
10	0x3fbed3c34eb6f8e6	0.1204187457251212
11	0x3fad7081f09e14d9	0.057498989698652365
12	0x3fe24392fddd397a	0.5707488020214406
13	0x3fba3c18efd67620	0.10247951369679997
14	0xbfc466c4eaf1ceaa	-0.15938626739408807
15	0xbfd61564cf11b9a4	-0.34505577298741685
16	0xbfcc10731bfda603	-0.219252003352537
17	0x3fc2e96fe8547a58	0.1477489361213482
18	0xbfd2a2f4d3646b0a	-0.291196066320183
19	0xbfc6fe06137105e7	-0.1796271891526395
20	0xbfba9a620ffc7d79	-0.10391819849291108
21	0xbfc735bb9a57715e	-0.18132729564866684
22	0x3fd5c82237aade87	0.34034018932604976
23	0xbfa109f1dc70f4f3	-0.03327899757321431
24	0xbfc38636922dbde8	-0.15253336084013758
25	0xbfbecd9f2d487f71	-0.12032503943964713
26	0x3fd1cf24235a29cf	0.2782678933369
27	0x3fc917dd003efd01	0.19604074966444077
28	0xbfd0b2bc1999ff18	-0.2609091043486713
29	0x3f685cb9ad6e008c	0.0029739023697744112
30	0x3fcb871e7f9724ca	0.2150610087394738
31	0x3fc0389e3cd7acb2	0.12672784777473606
32	0xbfb90c484a46730f	-0.09784366429671486
33	0x3fc9d927a64b51b1	0.20193954105219583
34	0xbfc42f5e9e36a649	-0.15769560551898312
35	0x3fb90aad49aa10c5	0.0978191666454818
36	0xbfc343c3d106d262	-0.15050552088145525
37	0xbfbdc27e49361301	-0.11624898230918392
38	0x3fc515fe6f2bc943	0.16473370006822038
39	0xbfdf6da90e75f062	-0.4910681382386938
40	0xbfb5b1062eed6d57	-0.08473242421807946
41	0x3fd6ba884bfb2f43	0.3551350347522552
42	0xbfcc30d7d244e90d	-0.22024057166147096
43	0xbfb8c8a4f9b08376	-0.09681159110961154
44	0x3fce16a60e6dc918	0.23506618217977215
45	0xbfd0b16d402f91f0	-0.26082927005907575
46	0xbfc0f8a694012cdb	-0.13258821703707366
47	0x3fc0a42dd4ef970e	0.13001034638653447
48	0xbfe2651beae9ef0d	-0.5748424137268288
49	0x3fd68bac20938676	0.35227492505337155
50	0x3fac88ec1369c43c	0.055732133264321665
51	0xbf9c5a112f1af61d	-0.027687328815536916
52	0xbfb83958f40b0775	-0.09462505300601072
53	0xbf85831cd19d5c71	-0.010503983637745603
54	0x3f9dc32e102f07b4	0.02906486486222777
55	0x3f4c48130d03e2ca	0.0008630841275865883
56	0xbfa81d2279401cfc	-0.04709727983577669
57	0x3faaa5ad5581911a	0.05204526585365184
58	0x3fa2a1f3471aa9d4	0.036391832761484416
59	0xbfc2c0c808fa54f6	-0.1465082210385515
60	0xbfa2741624d4e520	-0.03604191970448256
61	0xbfb87e1cbe829318	-0.0956743207085079
62	0xbfb246d1909e1cd6	-0.07139310627654835
63	0xbfaf318dca1108a3	-0.06092494098312897
64	0xbfb1f68ded449ad3	-0.07016837160754656
65	0x3fb3a71eb89daa6e	0.07676879889701535
66	0xbfaff082fd8313d8	-0.062381833502093975
67	0xbfad961db26bcb43	-0.05778591921798306
68	0x3f9865c28463656c	0.023825682955111047
69	0x3fb1c10d39861e3e	0.069351984542771
70	0x3fa6691aa6342cae	0.04377063063483298
71	0x3fa32c87df1b275e	0.037449117645862215
72	0x3fcc62351986af39	0.22174705263511799
73	0xbfb5ea43d53f5c6f	-0.0856058498023786
74	0xbfdb76b35f97d8f0	-0.42911991439122144
75	0x3fd3188c4ab1271c	0.29837329191342277
76	0xbfb1cb182f5008cf	-0.06950522570699323
77	0x3fc6bd0b6bf3577a	0.17764418383620378
78	0xbfde104449a14f87	-0.4697428435367716
79	0xbfb43cb234671c09	-0.07905114917149104
80	0xbfb2994760417e28	-0.0726513490676487
81	0xbfc9f1a60e60088b	-0.20268703176413214
82	0xbfe3e4374159dc13	-0.621608379019451
83	0xbfd0c984118b573d	-0.26229955399809396
84	0x3f9d3874ffa4d115	0.028535678962002004
85	0x3fd2ced231485698	0.29387335598708253
86	0xbf9480ea0b0cb78c	-0.020023018764895137
87	0xbf96a80d7b03eede	-0.02212544501615709
88	0x3fd4c1ffe1220789	0.32434079156529855
89	0x3fc670c51868cd59	0.17531646434654638
90	0x3fbc4ced7d7b14dd	0.1105488234853342
91	0xbf8a76874b39087f	-0.012921387656323667
92	0xbfb77c60a3df8694	-0.09174160004433879
93	0x3fab3332a650ec9a	0.053124983598956635
94	0xbf9ed0bf136a45f3	-0.03009317928314732
95	0xbfab682a71d28d04	-0.05352909697946909
96	0xbf80570ca774c2c2	-0.0079785336116357
97	0x3fa1e44aabf46d16	0.03494485234315385
98	0x3f9bb283f8f16cb9	0.02704817015579117
99	0x3fb3ec830e00fdc7	0.07782763568774619
100	0x3fa98580cc5a8f40	0.04984667295982925
101	0xbfb23e3d98b88753	-0.07126221636329193
102	0xbfdf8c82d9ddd015	-0.49295111919423223
103	0xbfc24edb8b000d41	-0.14303154265517473
104	0x3fd0e57944a9e56a	0.26400596337733495
105	0x3fc225caa7f8fd2b	0.14177830888545748
106	0x3fc6f1480f73b81d	0.17923832659238395
107	0xbfcf01725df79846	-0.24223165119400586
108	0x3fcf6869f6f07993	0.2453739600905008
109	0x3fc688915fce42aa	0.17604272058499265
110	0x3fa72e85685fc378	0.045276803008056754
111	0x3fb88756798727af	0.09581509081831883
112	0x3fc54a53073b99ed	0.1663306985203258
113	0xbfc2ffb972375398	-0.14842908932646703
114	0x3fdc2e44c3aa24e3	0.44032401187776155
115	0xbfbd17dabc02910a	-0.11364523973549381
116	0x3f6d2bdb1e722e61	0.0035609512011143683
117	0x3fb8d9fc8721ad6b	0.09707620905981222
118	0xbfe3ccc1891a9536	-0.6187446286973344
119	0xbfc5c2fce8f90820	-0.17001305938362155
120	0x3fbf5f1b79ede5f0	0.12254497267522146
121	0xbfbb82fec7fadab1	-0.10746757871934666
122	0x3fa901353c03cf64	0.04883734090426975
123	0x3fcce5d5e37f8e29	0.2257640229064333
124	0x3fd5b3a231706846	0.33908896282230605
125	0xbfe69ac9594b32ef	-0.7063948387163616
126	0x3fd60d8d8f34ff7f	0.3445772074228372
127	0x3fc42f1923912e93	0.15768732296634322
128	0xbfba40676714b8e2	-0.10254522577881489
129	0xbfc9ee127de2bc6a	-0.2025778879810532
130	0x3f91a59d6747f416	0.017233333042884956
131	0x3fc0e404360f7a11	0.1319585098235199
132	0xbfb8a2d16e34b54e	-0.0962344068581917
133	0x3fb31d5a651c051d	0.07466664284222131
134	0xbf8b240709609d70	-0.013252310727763755
135	0xbf9b121f301823cd	-0.02643631678623475
136	0xbf55da92a42fe8ec	-0.0013338501018993988
137	0x3f94f956255e2dd1	0.02048239329410057
138	0xbfa81c5e44d1d865	-0.04709143247684792
139	0x3f97389f412a17f3	0.022676933624573747
140	0x3fc4ccd1bc294e4f	0.1625005882984731
141	0x3fa61f3a9996e0b1	0.04320700764532271
142	0x3fcf093b102bdc8a	0.24246919908157266
143	0x3fbc42ecaacbbad3	0.11039618654079257
144	0xbfc23c6c29d4cef7	-0.1424689487699806
145	0xbfde44c063c75cf5	-0.47294625991840117
146	0xbfb211a47746bc32	-0.07058170234698549
147	0x3fa180380658023a	0.034181357168567364
148	0x3fbe7efe4604845d	0.11912526330390123
149	0x3fcb127ee33ef6b7	0.21150194259637597
150	0xbfd7558c2de3e490	-0.36459640962090933
151	0x3fba062dae5f27cc	0.10165677554246527
152	0xbfd7c015489bef49	-0.37109882441267367
153	0x3fcfb2478c94c5a2	0.24762815822900303
154	0x3fae7637a46ac15a	0.05949567682307828
155	0x3f9017414798a022	0.015713710780033925
156	0x3fb2d1dd6e0df1a3	0.07351478516461056
157	0x3fcc9b0b90eeeb8b	0.22348160340137854
158	0xbf89d99c97816785	-0.012622092603283406
159	0x3fcbc3bbd86fed64	0.21691082065795364
160	0x3fb04667a0b21fa3	0.0635742919276923
161	0xbf584aab20ab7cf9	-0.0014826460998660902
162	0x3facd6f44a2bde9d	0.05632747083103349
163	0x3f6701f49a7bf549	0.0028085496340951904
164	0xbfb39bc7a4be99f0	-0.07659576198657425
165	0xbf843596686ca8c5	-0.009867835103780096
166	0xbfb31e08e9e39073	-0.07467704496554166
167	0xbfb659a41c6104b4	-0.08730531399580138
168	0x3f8abe6fc8560321	0.013058541585225182
169	0x3fb85d936dfe7e5c	0.09517785487559521
170	0x3f818f2cb432f078	0.008573865174519066
171	0xbfaf8df78ec90f3a	-0.061629997424942976
172	0x3fa5a26ebbe9bbe9	0.042254887045480256
173	0x3fc0f12b27196ae2	0.13235988053460007
174	0x3fbc6b7a62176e1a	0.11101498503506271
175	0x3fc1721f780b63e4	0.1362952552942992
176	0xbfc39c505b001af2	-0.15320782130603267
177	0x3fb1456628d376fe	0.06746519562463146
178	0xbfaf2f7edbef0d44	-0.06090923723925326
179	0xbfb5c796f456c18b	-0.08507674660973501
180	0x3fb0af12a949f0c8	0.06517140038517077
181	0x3fbc2ea2f9d92c14	0.11008661842167583
182	0x3fd8e22f7c670d3e	0.388805266844617
183	0x3fc1d73e25009710	0.13938118750336814
184	0xbfb984f82ea961d0	-0.09968520297241601
185	0x3fd3418d2095634a	0.30087593252169553
186	0x3fe0a05d5a384e52	0.519575763903456
187	0xbfcff2624808a42e	-0.24958446995995714
188	0xbfddb4629f5fa1a7	-0.4641348415739465
189	0xbfd4f76d2743a8ab	-0.327601707786594
190	0x3f6a83ba4403c544	0.00323664073959465
191	0xbfb2a3c1dcdb907f	-0.07281123773606345
192	0x3fb6fdcefcf202cd	0.0898103110830661
193	0x3faec4aba31a845a	0.06009422651300929
194	0xbfb533cc5dd4f880	-0.08282162943666727
195	0x3f71de7f61ab3648	0.004362580856378147
196	0x3fac2670514ba271	0.054980764316330595
197	0x3faa199ac836eb64	0.050976597728967815
198	0xbfa3f665bda03aa6	-0.03898923816460824
199	0x3f812f7f7e64856e	0.008391376537988573
200	0xbfbdbe350af948c3	-0.11618358152307721
201	0xbfd047aa9cf28f6b	-0.25437417342094787
202	0x3fd6e5bbd0d9ece6	0.35777182956344544
203	0x3fc53ddb8bb3e320	0.16595024415416848
204	0xbfd891534211cd42	-0.3838699479303679
205	0xbf930191faa3ea23	-0.018560677454823826
206	0x3fac0dfa48167d8d	0.05479414110163381
207	0xbfd527024f3cc85a	-0.3305059217265175
208	0x3fd218e45ebf9d31	0.28276929142744495
209	0x3fdf3324cd683400	0.4874965673378142
210	0xbfd8e3f7f1d5dce0	-0.3889140950845569
211	0x3fd6c620ee19006b	0.3558428120777594
212	0x3fe1818fea0f6004	0.5470656939969563
213	0xbfc9485c22ea5477	-0.19752074913836612
214	0x3fd42df081a4aede	0.31530392322996004
215	0x3fe1379cba180909	0.5380386004110572
216	0x3fcf0be89fc1011b	0.24255092430576827
217	0xbfdd1423e6e1b96b	-0.4543542628006409
218	0xbf91bece7f0747c6	-0.017329432013702982
219	0xbfe7b2d8b4011752	-0.7405818477352375
220	0xbfc1fba308cd5d50	-0.14049184732241793
221	0x3fd619ffa7fed530	0.34533683210186705
222	0x3fd53d8277dab512	0.3318792505695721
223	0xbfdde658dc5e5287	-0.46718427200657014
224	0xbfa9ce31981d36de	-0.05040125829564855
225	0xbfc5fadc0c8e74d4	-0.17171812642201323
226	0xbfb6100631155997	-0.08618200968098787
227	0x3fd05bd9e46ca78a	0.25560614878724464
228	0x3fbf66f478326535	0.12266471800321173
229	0x3f927ac35ff227b9	0.018046429377626547
230	0x3fc7ec74dbb8dc9d	0.1869035790311714
231	0x3f9f47bf1a0cb8b6	0.030547128643939124
232	0x3fd81dfb32cacc1f	0.3768299098985057
233	0xbfca30f8027baa85	-0.20461940881007848
234	0xbfc5ffa7521885f2	-0.17186442860206302
235	0x3fcd1f491b74a758	0.22751725998505878
236	0x3fbad055dc94a01f	0.10474144587772159
237	0xbfc97d3ffa8057fc	-0.19913482409964434
238	0x3fc07d0fea5a1f84	0.12881659453364247
239	0x3f65d4bbac2a87f6	0.002664915607355485
240	0x3fae6d85bc39e71c	0.05942933962519545
241	0xbfc5e84907c06a7d	-0.17115128401276883
242	0xbfc807e6884ba63c	-0.18774110465101213
243	0x3fce262cc7264d68	0.235540005913758
244	0x3fb4bca46aa7c114	0.08100345233811296
245	0x3fd1c29ceb2f59d3	0.27750323264390636
246	0xbfb98ad8de772d89	-0.09977488929069102
247	0xbfb3761b59237eb0	-0.07602091718899362
248	0xbfd4791a45389ae7	-0.3198915172564924
249	0x3fda4739f6922971	0.41059731558984597
250	0x3fbedccd287b0d6d	0.12055666197107025
251	0x3fac0f3f3dc9ccfb	0.05480382565738214
252	0x3fb1dec1573e8d1c	0.06980522518147264
253	0xbfd248e4764359c3	-0.28569900082711913
254	0x3fdb412b3d996c20	0.4258525945239757
255	0xbfc5336a965d66e8	-0.1656316026881577
