notebooks/models/simTwoLayers/experiments/xavier/weights_xavier_1.pkl.npz (npz, 715948 bytes, 3 tensors)

arr_0 f8 [784, 100]
00000000: f0eb fc16 327f c3bf 5fc3 bd06 bdd6 733f
00000010: aa35 e0bb 5f65 ad3f 4d81 9afe 734f b7bf
00000020: 76d7 cab8 2f0f 993f 59e6 26da 7ce8 5cbf
00000030: 5d46 0db4 7b55 a6bf 8d38 8125 56b3 92bf
00000040: 2683 1fef e604 b1bf 9b69 9e32 2063 913f
00000050: d827 8f70 a8b7 bc3f de9f d708 c0a2 c0bf
00000060: a589 b9a6 cdac a6bf 3bed 6b35 f32c abbf
00000070: 07e7 b6a2 c55a b33f b263 145a 4241 ba3f
00000080: 2201 f936 0128 b5bf 3230 b3cb 3c7f bf3f
00000090: db6c a933 0aea c33f 5bf1 b55f a220 7c3f
000000a0: ab24 0272 43bd b7bf ca99 6296 e100 9a3f
000000b0: 20fd 3153 c726 983f 2dc0 beb0 ce2b ba3f
000000c0: 5a0b 1822 00a5 ac3f a811 cbe8 c58f 95bf
000000d0: 6052 5878 6cd5 9dbf 905e 4d28 8e34 a93f
000000e0: 9834 16a8 2e20 b33f 89be a883 87cf 9fbf
000000f0: 5225 e595 0f8c b73f 6517 322a bf2f adbf
00000100: 93c1 7d99 bebc 86bf 4dbb 4ad4 3510 88bf
00000110: 7eac daa2 b4ff 91bf b00b b0c6 c5f8 8f3f
00000120: 5148 9728 c568 bebf 27e5 e566 1521 b2bf
00000130: 95b2 6c13 a9a3 673f 524b e9b6 982f 9b3f
00000140: 35e2 3bc0 016b 973f be24 4678 9459 74bf
00000150: 47b7 b768 678d a9bf 10e7 5d8d 3f70 923f
00000160: b9c3 e0a2 ebf7 c03f e233 7b86 30a4 af3f
00000170: 70a0 1a34 e878 823f 0760 28c4 3d5d 50bf
00000180: 534c 66ec 0a41 b9bf 9ae6 09f5 9283 c23f
00000190: 44aa b47b 5020 a73f a8e0 590b b6eb c8bf
000001a0: 53f4 1fd1 e2b2 c0bf fb59 f0a7 065f 83bf
000001b0: d28f 2154 7bfd b53f a5fc ede0 ac47 b13f
000001c0: e0dc df59 96ba 8a3f 7fa9 a173 7f4c 893f
000001d0: 5613 04a4 bc45 9bbf b274 ffea f5c5 bbbf
000001e0: 6c54 df51 f5a3 b83f bd33 6429 9718 a13f
000001f0: cb39 71ff d270 a83f 0fac df9f f999 ba3f
00000200: 64b5 94c6 f914 413f bc9b e660 09e7 b03f
00000210: a8ae 4cd1 e016 9b3f 239e e516 c4fa bfbf
00000220: f5c3 7dd6 7369 b33f 1fd3 b781 3140 adbf
00000230: c661 ce5e 7c01 a0bf 2376 ea10 e6ee 663f
00000240: 6525 70ac bbb2 bc3f 115b b153 0b08 b1bf
00000250: 638c cc41 6aa2 963f e29e 6cf5 7aca b13f
00000260: ea69 750e 826b a1bf d16f 2597 5f28 a13f
00000270: 36c0 dacf e4a2 9abf 603d 41f1 99fe aa3f
00000280: 8f6c 005b 0b4c 96bf 3a44 0fa0 075d abbf
00000290: a538 1855 0e47 acbf 4ee2 1496 13c7 bb3f
000002a0: dc33 b34e a386 94bf 4301 6ffe 188d af3f
000002b0: d8e4 9608 033a 6dbf 454e 5165 49e3 bd3f
000002c0: 28da 6c33 76ce b23f 2558 ec53 8d96 6d3f
000002d0: 285b 5a01 8ac8 793f 8346 996c 3e47 ae3f
000002e0: 0de4 fa85 0996 953f a406 da43 4b22 b7bf
000002f0: e6ff 8606 f638 3abf b77c eb76 c371 a13f
00000300: 46fa 5c7f c680 a73f 63c9 b2a3 a74b c03f
00000310: 9550 8fd4 baf0 6dbf 16d8 4098 897b b33f
00000320: b67e 2f40 33ed 85bf 6f3c 238e a63b babf
00000330: 2082 63ab 7a9d b43f fe1b 1d72 7ef6 c03f
00000340: aa3c 4335 718d c1bf 93ae 1ae9 7f6c ac3f
00000350: 566b 2b81 3501 97bf 03ef 17b7 031d cc3f
00000360: 2bc4 2e6f 03db 9c3f 4ce4 f51b fcb9 a6bf
00000370: a9b8 ee73 56b5 b9bf 42cf 836b 5465 a1bf
00000380: 10b2 51fd 0ee4 a1bf 7ec6 ce62 0054 bb3f
00000390: 4e13 6b2a b50e c23f 12aa 7c46 17fa b13f
000003a0: 7faa 5570 022f b9bf af91 53c7 6e4e b13f
000003b0: d4ba f67a 6d43 c4bf 08e9 e510 2c12 b13f
000003c0: e35f 2ed2 e775 bfbf 8755 bd64 cef5 a83f
000003d0: ad5d 4b5d 3f0c 99bf ead2 5482 b3d6 a63f
000003e0: 8e8e c535 9fdd 7dbf 8b00 6594 7122 71bf
000003f0: 524b 9948 0c4e 563f 9b49 6b05 7774 863f
00000400: e49a 4cde f69b b4bf 4814 090e e111 c23f
00000410: 095a 3446 8090 943f 4149 c743 6df8 b3bf
00000420: a068 86e1 c5cb 993f 9747 f51f 916c a43f
00000430: 2db6 9e6c b65f c13f eb5f 316e d29b afbf
00000440: 8613 7057 f8eb 973f 0494 c8f8 7b6e a0bf
00000450: 7d70 7cb0 d088 b33f 8dfc 53ab 0761 96bf
00000460: 176c d6fd ff44 bebf 1670 5e1b c411 bbbf
00000470: 77c0 26f9 a67a c93f 967e 1f78 038d b1bf
00000480: fe75 3b93 0122 aabf 5bb5 b782 fdfd a2bf
00000490: a023 f0a1 09dc 923f de2b b17e a0c1 be3f
000004a0: bf0f 1ab5 9145 7bbf 0faa f680 6c0e 893f
000004b0: edf8 052f 7051 9b3f bc67 f030 96c4 92bf
000004c0: a55f 46e0 5f5e a5bf be33 c46f 7f4f b43f
000004d0: 1fbf a889 80d3 783f 892f 6a2e 0235 a9bf
000004e0: 2a9e 258a c72f 8ebf 5062 0710 299d 89bf
000004f0: df8a 8889 a036 c3bf cc63 528f eb44 b7bf
00000500: af54 5f4e 4b2e bf3f ed1e c337 ced7 483f
00000510: df60 4c45 5018 c2bf 4ee8 3772 5463 a4bf
00000520: 6349 345b bf6d 7b3f d294 c299 b521 723f
00000530: a3ea c8e8 c349 a5bf 0bfa c92f 4bf3 b7bf
00000540: 35a0 337b caf6 af3f 42f7 b4ab 37b8 babf
00000550: 5ab5 a9db fbed a5bf 3f99 b805 68e8 a03f
00000560: fbb6 a880 2eff c03f f93f 1519 a07c c23f
00000570: 7cf8 adc4 7a2c 933f 54e7 a1b8 a47a a2bf
00000580: 1f06 36c8 dd16 6b3f 9e49 b3d3 a804 c33f
00000590: 3be0 cb95 92c1 c0bf 173c ef33 5650 b8bf
000005a0: d8b3 b7c3 9d4f b23f cce7 7eca c65b b2bf
000005b0: 0a6f 927f ab7b a13f b4d4 5b18 f880 b6bf
000005c0: ff97 7dec 5cdf a03f 6cee 89d3 a842 8f3f
000005d0: f863 66e8 4e49 963f b180 7b1a 3058 ba3f
000005e0: 5eb5 5538 9fef 9a3f 34ab 1087 5f01 b53f
000005f0: fc47 3fd4 f45a a0bf a38e edab 714e 7e3f
00000600: df93 7ad6 b16f 8abf f4bc 69d9 a124 c0bf
00000610: 5a58 7d4e 6131 aebf b095 466f a978 a2bf
00000620: 6113 a0c7 5998 b13f 6c97 0c09 25d1 ab3f
00000630: 4e62 c1ad 5935 b23f 1bef ba5b 3fd7 76bf
00000640: 459a d79d 5821 8bbf 2770 fd1a 58e9 a2bf
00000650: b5b5 6d83 f220 85bf 4f93 b297 ac2b 87bf
00000660: 8a4f af04 678c ad3f 6275 fe28 07dd a1bf
00000670: 2feb 1628 9daa a33f 733d 5bb4 c2f9 b5bf
00000680: c948 a5b3 34e2 a3bf c254 2a23 d42d 913f
00000690: 7929 cae6 ed73 933f 7871 ca14 5a3a c0bf
000006a0: af20 9ece 0eef b03f c3a0 0e6d 7787 a3bf
000006b0: 9cba 866c 71ed babf c0c8 6926 2019 b6bf
000006c0: 1008 ed9b 6816 a63f 460d ef63 0c8b 5bbf
000006d0: c11e 410a 1873 c2bf 325b 9b88 e1db b13f
000006e0: 6311 f47d 6450 b33f 6440 e450 688b 9ebf
000006f0: af97 b5aa db44 c3bf fa9e 5bfb 2cc9 53bf
00000700: 17c3 30b8 c005 74bf 5f02 0bdf 41ce 95bf
00000710: e482 cbc9 1597 c2bf 2019 c004 c8c1 a3bf
00000720: b74f 87c5 4ca2 b33f b4ba cb17 c74d b7bf
00000730: 446e c2ad 87b5 b2bf 5be9 8db6 2ee9 b23f
00000740: 916f 6691 fbc5 52bf 0dec 85e2 d27f c43f
00000750: 408b bc13 42d4 bbbf 425d 8542 e76a a6bf
00000760: 935e 7b4f bc4b a6bf edd5 cecd 492e a4bf
00000770: 0f5f 46cf 95fe aebf cade b918 770d ad3f
00000780: b3e7 f7cf a51a 9a3f 5e0c bf31 8013 a1bf
00000790: bd17 37eb 22b1 8e3f f7bd 8804 2e0c bd3f
000007a0: 01a5 b479 04d3 ac3f 3970 60d1 00f3 5fbf
000007b0: ae52 d12a afc8 abbf bbdb eac5 798c a7bf
000007c0: 22c7 b00c 7fd5 9d3f 5450 1927 9005 b03f
000007d0: 2a3e 47e5 61c3 8abf 013f a9ce 6be7 a23f
000007e0: dd4e 59bb 70a9 6e3f 84f3 4623 2763 933f
000007f0: ba5c b280 3bbd a9bf feb6 1c32 8f5e a53f
-0.15231920359096263 0.0048434623566756254 0.057414046939906996 -0.09105610814959171 0.024471994069890944 -0.001764413762982994 -0.04362093518160457 -0.01826223949347443
-0.06648104989973244 0.01697969731285696 0.11217739818599115 -0.1299667399573527 -0.044287134744780667 -0.05307731654280664 0.07560382101555883 0.10255827616891969
-0.08264167396646774 0.12303523991721546 0.15557982943105383 0.006867059967927548 -0.09273168118865509 0.025393986514836965 0.023585428669773312 0.10223094763819125
0.05594635406671129 -0.021056263288089433 -0.029134459347988417 0.04922909013720045 0.07470981219940354 -0.03106509915431713 0.09198090943859441 -0.05700490369876724
-0.011102189120465044 -0.011749668637404698 -0.017577001991111 0.015611214757887598 -0.11878616562833712 -0.07081731569441684 0.0028856565726498953 0.02654875389482509
0.022869136198069923 -0.004968242607341354 -0.049906951458849984 0.018006318095536378 0.1325659318258923 0.06179954187027882 0.009019674387062276 -0.0009987929521511078
-0.09864872237658177 0.14464032139567423 0.045168414212032576 -0.19469333223583374 -0.13045916758702222 -0.009458591461265256 0.08589907459241822 0.06749992839285086
0.013051199548483827 0.012352939335148914 -0.026633212576615627 -0.10848938929798882 0.09625180481755685 0.03339073543802538 0.047735780412597593 0.1039119735066125
0.000521299324793095 0.06602533927671933 0.026454460882787828 -0.12492013510711124 0.07582782732585243 -0.057130381664967304 -0.03126133591939921 0.0027994626501157845
0.11210225067056497 -0.06652899544984005 0.022103939310124675 0.06949585429958519 -0.03402334619996224 0.033511149597614705 -0.026012015520507435 0.05272370405202298
-0.021774461201954195 -0.05344413594105686 -0.05522961415054909 0.10850641645527867 -0.020044852903811847 0.061623364504614496 -0.003567701268107553 0.11674936984609825
0.0734628558683218 0.0036118278798183017 0.006294764598030501 0.05913729739826314 0.021080158998959365 -0.09036703497442972 -0.0004001236580073439 0.03407107187899199
0.04590435318685997 0.12730880253873086 -0.003654827979042772 0.07610378234025492 -0.010706329723631707 -0.10247269601971863 0.08052794155401743 0.13252239772756974
-0.1371289739676958 0.05551528664122176 -0.02246554947746956 0.21963545265304427 0.02817921987633924 -0.044387701428555276 -0.10042324381240299 -0.03397620975911632
-0.03494307367586569 0.10675051128671417 0.1410738427277018 0.07022233458398144 -0.09837355845017191 0.06760303846710401 -0.15830772880641197 0.0666835347418876
-0.1228928459298682 0.048750352666199474 -0.024460783070791404 0.04460679021796017 -0.007291433252564551 -0.004183238668986298 0.0013613815266537333 0.010964326718213615
-0.08050482680537702 0.14117062745404696 0.020082477841322475 -0.07800944237468334 0.025191394700961767 0.03989079966653646 0.13573341659268703 -0.06173570246818357
0.02336109193494764 -0.0320929280463034 0.07630638416998355 -0.021854514915500323 -0.11824035594183645 -0.10573983829675657 0.1990555492934651 -0.06855794604006812
-0.051040696356476886 -0.03709404202150309 0.018417501934922975 0.12014201253002407 -0.00665814320530339 0.012234542546896625 0.026677849645687358 -0.018328043686871118
-0.041735645415598634 0.0793380401484702 0.00606107912112444 -0.04923254791819349 -0.01473956957188623 -0.012506790925656791 -0.15010458674904378 -0.09089538811748737
0.12180014289272621 0.0007581478999094373 -0.1413669908877244 -0.039820326750444765 0.006696460233131726 0.004426679017489126 -0.04157840935336778 -0.09355611721728267
0.0624297404663711 -0.1043734354215902 -0.04283129745895549 0.03302311963880066 0.13278752596072949 0.14442826485401364 0.018724363569611033 -0.03609194520772854
0.0033068019562854235 0.14857969605379834 -0.13090736688877933 -0.09497584121639623 0.07152734783421921 -0.07171289867156289 0.034146651575808276 -0.08790541262335944
0.03295412432525779 0.015263861613895112 0.021764023718421982 0.102908140626371 0.026304710210231057 0.0820522026776132 -0.03194394198330028 0.00739902880636448
-0.012908353193163023 -0.1261179267489535 -0.05897049029469832 -0.036076826890432456 0.0687309372297711 0.05433002219642344 0.07112656108928059 -0.005576369756166401
-0.013247196499787903 -0.03693652467220004 -0.010316748271828805 -0.011313770656053683 0.057711810418964296 -0.03488943457999018 0.03841105570196245 -0.08584229377014711
-0.03883518879833187 0.016776384970019327 0.018996922694478145 -0.12678075804877742 0.06614773315789323 -0.038142902434005 -0.1051855936009169 -0.08632088601896992
0.04313971427338015 -0.0016811009406730456 -0.14413738728238992 0.06976136765602517 0.07544544291528647 -0.029828672349197297 -0.15053888163964532 -0.0012076319957773905
-0.004888298807643541 -0.02129462169500795 -0.1452357516600592 -0.0385878091620262 0.07669524977182972 -0.09103054362251833 -0.07308242790389224 0.07387058216946711
-0.0011458355635118637 0.16015087185573443 -0.10870755178306712 -0.043784357900842355 -0.04354656667936498 -0.03941565167717074 -0.06053608088694606 0.05674335648376212
0.025492277925856132 -0.03335190398458886 0.014986298373411583 0.11346709833809841 0.05629743562378487 -0.001950026320179722 -0.05426547429730043 -0.04599361935600351
0.029134736203736307 0.06258488611757801 -0.013067974862592886 0.03692185304373475 0.0037429048341354036 0.01893292572798401 -0.05027185388569806 0.04173705565186302

arr_1 f8 [100, 100]
00000000: 1cb0 694f ead9 babf f13e 3275 6239 c0bf
00000010: dddf 71c8 1236 b93f 893e 615f c72d c63f
00000020: 21f5 1000 4e62 823f be87 d68f fbc1 d33f
00000030: 97e1 ed79 0f7b a93f f226 9a28 54c3 a03f
00000040: add8 bab1 fc55 acbf f04b 6207 b09c 66bf
00000050: 8811 21c1 30c4 803f a1af e9c5 91f4 a23f
00000060: b727 dd1d 2511 a33f 1594 80ad add2 bf3f
00000070: ed14 585c f9cc babf e6d2 17a6 6fe3 633f
00000080: 86a1 9a0b 1ad6 943f 1d85 975d 3894 b33f
00000090: 98d2 bd4a e797 a6bf 2d7a c67a 810c a43f
000000a0: 32d2 149b bd4d d03f 6a75 19f7 bf74 a4bf
000000b0: c791 fbde c261 803f f732 4d3a c2ea c93f
000000c0: fde5 fba0 65d1 a83f 98f0 5008 e47e c3bf
000000d0: 34af cf2b c6e0 b6bf e26c 18e3 86c1 bc3f
000000e0: 3657 8050 9988 ac3f cdf7 1ca3 ebff c43f
000000f0: 7283 810f 94fb b6bf ec2f de48 3e32 a0bf
00000100: 4602 e21a ca37 aabf 112c 0099 d123 a3bf
00000110: 9e03 5bdd ac08 bebf b5f1 5ba5 e7ed b5bf
00000120: 5eae c1be 95d5 c2bf 248a 99f0 3795 b33f
00000130: fad3 73d4 c4ba c53f 3869 0693 8665 7d3f
00000140: f0a3 0af6 53ee 853f 35f4 89f9 c79e 97bf
00000150: 6b77 1d9f b580 243f d201 4a1b 55f6 bebf
00000160: d2b7 32ba b06b bcbf 343b 3533 3bb8 923f
00000170: 6470 b0e1 3d73 6a3f a4c0 b7ba 5f98 b43f
00000180: f82b a7f7 bff0 cc3f b800 28b2 6a01 9e3f
00000190: 4db3 4f61 5e98 c4bf d6c5 9afe 7cdd b03f
000001a0: 2deb b111 9a54 7abf 0b25 ed90 70e1 b33f
000001b0: d8e2 b678 db6b a53f 8e39 b7f3 7145 c2bf
000001c0: 9bf3 4daa 327d acbf 3b37 55fc ddb5 88bf
000001d0: 5324 d9c4 f8e9 b5bf a3d0 36a0 279a bf3f
000001e0: f49a e001 0eb4 c2bf 5585 8fc7 be47 95bf
000001f0: 4fda d03b 0511 bdbf c201 2278 1dcf 983f
00000200: d6d2 4813 ddf8 94bf 2561 be22 fd75 c2bf
00000210: 9993 6a83 f131 a2bf 92c2 f305 a391 a6bf
00000220: 67ed b2e2 532d a53f 2292 b356 79e2 87bf
00000230: 7fd7 251b c3e1 9fbf 3315 4998 9950 b0bf
00000240: ff1c bddb 9a67 983f 7260 711f af85 a9bf
00000250: 21e4 9132 1730 a6bf deb8 cbe9 8f21 a73f
00000260: fc7f 72a6 b873 b8bf 04e3 f3bd 88bd aa3f
00000270: 5296 c485 5e48 a43f 1c50 7225 891a 90bf
00000280: 8d83 24c7 1ebd adbf ed8e 239b 7018 c93f
00000290: ddab 8df5 6db4 acbf 3ea8 1f0b 242d 663f
000002a0: addc bb11 ca97 b73f abd2 78a4 af49 b03f
000002b0: 8ff2 d1e0 04d6 c83f da0c c5f7 b1f9 c1bf
000002c0: 85e6 0f3e 2ff8 af3f f95c 923e b73c b33f
000002d0: 0c24 b848 5693 a83f 21c2 e850 6fb9 c23f
000002e0: b166 e4d4 ba58 b0bf a220 9e08 7fa6 783f
000002f0: 1979 2f0c f629 b93f c4dc a5f2 8c64 ba3f
00000300: 9774 eb0e 9ce5 a9bf a30e 2c86 38b2 b2bf
00000310: 6076 0f5d a7ce b53f 4b21 7544 ecee bebf
00000320: 3f64 47fd 0c04 84bf 9eb5 0412 0fe9 b73f
00000330: a2a3 da52 4d05 92bf a979 8267 c717 813f
00000340: 8512 e8b9 37d0 af3f 9cb1 010b d256 a63f
00000350: 8e46 2904 1106 c53f 9f0b b40e 4dce 983f
00000360: ccba 1ef9 76be b1bf e567 2ea3 b3b4 b3bf
00000370: 5a3d e651 5992 afbf 0573 fb80 da15 bf3f
00000380: 0828 31cb 04b7 a9bf 2c7e b500 78ee 873f
00000390: bf4e 0778 f6d2 b1bf 6dc2 6f4a 00a4 b03f
000003a0: 3fe4 2e72 5718 91bf a949 5e54 b779 b83f
000003b0: 8909 1f08 bc35 b03f 5414 1bdf 3bfc 983f
000003c0: 071e 10f0 836b b13f fbb8 1681 9dc6 b23f
000003d0: 1126 d991 7e1d bcbf 1775 c81f d888 bbbf
000003e0: 679f f22e a8ca 9c3f 9fd1 1275 2d21 91bf
000003f0: dbbf df43 7d5d a43f f273 3cdb acfc 863f
00000400: 3718 4766 ec33 c1bf ed79 c9ec 1711 a53f
00000410: 2ef9 3498 955d bebf 45de 5fff 59db b6bf
00000420: c6dc d5d2 a517 a3bf 7087 3f4e 6687 a0bf
00000430: 1cd5 66bf 468c 79bf ca4d 74c9 9162 923f
00000440: 58c5 9652 2e4b 953f 1447 49e9 15a7 b1bf
00000450: bca0 7ee3 63c2 afbf 503e 9b94 9d16 bbbf
00000460: 9766 6b9d 8fa6 8d3f 1fc3 2e9e 1c01 a53f
00000470: ee06 9fd6 5305 9abf 818d 915a 7c12 adbf
00000480: b104 7e88 3d1d b53f 6970 062e 922b bc3f
00000490: 85d8 2a6f 1cf4 aabf eced 7d35 2876 bbbf
000004a0: 38c5 980b 16af 9abf 3ff2 5847 9e85 a8bf
000004b0: 30df 41ff 395d b53f 16f1 46ad fb16 b2bf
000004c0: 5166 7087 3f22 85bf 29f8 95d2 1ff9 ad3f
000004d0: 6a23 b94a 0bd6 a5bf 57aa 5a7e 5d2c b8bf
000004e0: 9afe ff48 04b3 a43f 0dc0 b90d d710 9cbf
000004f0: 360f eaa3 9f10 703f 192a 36cf 1e91 a8bf
00000500: 97de 776e dba9 a13f cd99 9ae6 20af a33f
00000510: 34cd c511 feb2 b4bf 8994 0637 37f9 a9bf
00000520: 5a85 d0a1 3fb0 863f 3290 3ef0 f88f c3bf
00000530: 6304 57b2 e7d0 b63f 143d 37b2 1300 653f
00000540: f012 3aca 3b99 b3bf a741 37e8 7e29 aebf
00000550: 3b0c f6d9 12ec b9bf ec20 2bca c78a a1bf
00000560: d39a e91f 8bfa b7bf ed1b 4ca2 a7f0 a13f
00000570: b70a 4512 5504 863f b618 7f46 ab23 b1bf
00000580: e998 4b6c 2148 bf3f f856 0b4b 51a9 bc3f
00000590: e7f4 3158 21bd ac3f 9e27 8431 02a5 9d3f
000005a0: f814 a30d 16e0 bc3f 534e e510 1e97 7fbf
000005b0: a72f ca65 c5f7 94bf d160 70b1 ba13 273f
000005c0: d902 6f38 7737 a8bf b3a4 3b03 8bba ae3f
000005d0: ba8b 49c3 939c a2bf b809 f57e 1e4d a6bf
000005e0: ff5f 2c0c 32b9 9ebf 256c 81ec 9ccf b73f
000005f0: 6001 c232 904d a1bf dca8 6c04 63d8 9d3f
00000600: bb47 5397 415e aa3f fe01 8b37 c444 423f
00000610: aa79 643d 48ca b0bf 128c f08b 111e c6bf
00000620: 5532 9fa6 a4be a73f 166b 73a6 6175 89bf
00000630: 5279 dca3 e550 94bf fb48 2421 b747 8e3f
00000640: 4e9c 2591 2a47 abbf 27dd 5852 f388 ab3f
00000650: 8d28 49b8 0054 9dbf 3cd6 d5d2 0c5b d33f
00000660: 4331 2c0d 7b37 b43f 467f d595 9c33 afbf
00000670: 6949 875f 3037 ccbf 9061 f531 969a b43f
00000680: 62aa 1c67 1048 84bf 7c6a 0505 a48c 81bf
00000690: 2f5e a0ec 6129 a5bf 5092 25f8 4c7b a3bf
000006a0: ce7c 300f 847c bebf fa2e 28e3 66df b73f
000006b0: b63c 916b 8d5f c83f 32d8 bb23 62c9 bebf
000006c0: e5f4 98a2 0dea b73f 83b5 d2b0 e627 c73f
000006d0: 51e6 a379 9a12 a5bf 0ba3 9efd 2e7a c23f
000006e0: 3748 f1be b3ea cd3f 397a a138 1923 b6bf
000006f0: 10d9 6b27 8032 c0bf f8b6 b1b9 b56e 963f
00000700: f290 cafe 2423 c0bf e8e3 cfa1 4d38 b4bf
00000710: 9226 7bb4 7037 bbbf cf9d 9339 e8e2 c63f
00000720: 30e1 920b ca97 a93f 3aa5 f81a 0502 b53f
00000730: 1ae9 2c98 a85b a73f 9b67 380f 9719 d13f
00000740: 6ba5 baa0 8640 ae3f b8b3 35ee 21ac b83f
00000750: 3b1e b254 a9b7 c93f 7bb1 2cc2 c991 69bf
00000760: 1388 5dc5 b87f ac3f 7d1a 5520 7185 b9bf
00000770: 81d6 9d1e b012 abbf 8e3c 9aef 44fb c43f
00000780: 5eb7 2a8c 4f30 bebf e79a a5ed 2fd4 903f
00000790: 0eec 6fd6 fa89 973f 92a8 987a 08e1 b3bf
000007a0: a2a2 1e46 4ae1 c83f a266 96cf 97a9 a43f
000007b0: f728 a685 e852 9dbf 43d0 c477 b71a 7dbf
000007c0: 0a90 ee8c f3b9 c2bf 3470 8723 b6d0 a4bf
000007d0: 10a0 8444 02fd c23f 4615 18cb 1aac a93f
000007e0: d2ee 8204 f550 a13f b9d6 978b ec2b b4bf
000007f0: 4a9e a82a c38b ac3f e5c6 9cba 8ffc 95bf
-0.1048876232031834 -0.1267512390372683 0.09848134416267791 0.1732720580789542 0.008976563813230034 0.30871476217918914 0.04976700175660936 0.03274024005538746
-0.05534352941087781 -0.0027602613509514137 0.008186703580698632 0.03702216664245773 0.03724018086957364 0.12430844770331391 -0.10469015602582817 0.0024277859345097517
0.020347983320478068 0.0764804104324139 -0.04412768161174546 0.03915791152688928 0.2547449125734459 -0.039953230775362794 0.007998964719669112 0.20247676703220183
0.048472572232594026 -0.15230989843428655 -0.08936728067027105 0.11232798618623321 0.05572966678316364 0.1640600725604017 -0.08977628115236572 -0.03163332595349275
-0.05120688989791637 -0.037382650305595296 -0.11731987384975048 -0.08566139018143455 -0.14714309515271656 0.07649564384477309 0.16976223348288483 0.0071769005593529875
0.010708480783550883 -0.023066639524120986 0.00015642373142104744 -0.12094623485791736 -0.11101822419979548 0.01828091144607953 0.0032287796616526244 0.08045004185237531
0.2260971030467258 0.0293022795904114 -0.1608999228623368 0.06587964263851318 -0.006428338844780152 0.07765868700257188 0.04183851097645225 -0.14274429702932107
-0.05564268425857862 -0.012065634024704166 -0.08560137563576235 0.12344596539952817 -0.14611983386676963 -0.020781498842443586 -0.11354096136424484 0.024227581460310572
-0.020480589201002562 -0.14422573276966336 -0.03553728799059925 -0.044079870678506286 0.0413614477378939 -0.011662433584612112 -0.031134651691409495 -0.0637298580923769
0.023832721387660346 -0.049848053539506845 -0.04333565227802461 0.04517793396904478 -0.0955157667508501 0.05222728079565367 0.03961463339718975 -0.01572622576766501
-0.05808349781933151 0.1960583455576094 -0.05606406805494377 0.0027070716832797983 0.09215987141566258 0.06362436070851156 0.19403134324592883 -0.14043259237414568
0.06244037277788287 0.07514519956236033 0.04799909246145981 0.14628402186055303 -0.0638539094692543 0.00601815817379517 0.09829652593132145 0.10309678005238526
-0.05057990724683597 -0.07303193355260844 0.08518453618986532 -0.12083317443205492 -0.009773351172883802 0.09339994611646893 -0.017598350698481043 0.00834613594662133
0.062135449832600144 0.0436311376987277 0.1642476339643974 0.024224475881975512 -0.06931251127273724 -0.07697603925626557 -0.061663428542596946 0.12142720841388772
-0.05022444706317236 0.011685311814914355 -0.06962528639206321 0.06500245873736228 -0.01669441828173412 0.09560724077008466 0.06331992338440363 0.024399695865913465
0.06804680453216615 0.07334312821942383 -0.10982504902599312 -0.10755682731583636 0.028116824975455226 -0.016728124876594582 0.03977576688328074 0.011224127235942991
-0.1343970775034806 0.04114603772608292 -0.11861548391332086 -0.0892845390770783 -0.03728979300188366 -0.032283017207887066 -0.0062372935848789245 0.01795413772658864
0.020794605055646315 -0.06895577378716339 -0.062029954452840624 -0.10581383588873305 0.014477846137583667 0.04102410727444394 -0.02541094777530522 -0.056781660133107266
0.08247742254572434 0.11003984092389064 -0.05264366967223658 -0.10727168374972224 -0.026058525522050874 -0.04789442654552944 0.0834537742792889 -0.07066319446943611
-0.010319229431888706 0.05854129262569103 -0.04264865195415875 -0.0944269593698349 0.04042828932869931 -0.027407989704840974 0.003922103495486875 -0.047982180399305636
0.03449903224457989 0.038445499563113474 -0.08085620817091838 -0.05072948977184761 0.011078354955375392 -0.15283118944819446 0.08912513832093931 0.0025635132494482658
-0.07655690848521224 -0.05891033730188449 -0.10125844785038478 -0.03426193564297528 -0.09366673974146104 0.035039175569231286 0.010750450725600087 -0.06695051642518277
0.12219437498024245 0.111958580800401 0.05613044931031102 0.02894977023337441 0.11279428322730556 -0.007712476201351476 -0.02047642167831012 0.0001760640522838809
-0.04729816974532292 0.06001696028199301 -0.03635083922269851 -0.043557122228338796 -0.03000333976078195 0.09301167272626339 -0.0337948858223196 0.02914576258187017
0.051500367853477745 0.0005575140085838923 -0.0655865812190998 -0.17279261906614402 0.04637636693914674 -0.012430918590714362 -0.019839847685142083 0.014785223673730466
-0.053277330606584 0.05377922420705721 -0.028640757797156403 0.3024322565973738 0.07897156783673602 -0.06094064072635645 -0.2204342333266809 0.08048380584421566
-0.009903076311805484 -0.00856903209994652 -0.04133134854799569 -0.03805008439193058 -0.11908746119341915 0.09325259252380738 0.19041602852164424 -0.1202603661766666
0.09341511935868459 0.18090518602313574 -0.04115755781999709 0.14435374625943384 0.23372504065861374 -0.0864730609186858 -0.1265411560522769 0.021906699618219755
-0.12607252541523156 -0.07898411941995642 -0.10631470114017308 0.1787996560226319 0.04998618499070273 0.0820620718810873 0.045621174408056756 0.2671868942867321
0.05908604347252829 0.09637653413456249 0.20091740260635213 -0.003121275004920485 0.055661939709139706 -0.09969241179815387 -0.05287695287453876 0.16391812991466675
-0.1179246632770776 0.016434430007758485 0.02298728879757666 -0.0776524829204013 0.19437530921756713 0.040356391992827825 -0.02863658252457754 -0.007105557128216647
-0.146299785437009 -0.04065484222130103 0.14834621759041555 0.05014117936301914 0.03382077865668766 -0.07879522712741051 0.0557538022588316 -0.021471257939260097

arr_2 f8 [100, 10]
00000000: 7caf 7129 eff8 a7bf b4a0 594e 3073 b0bf
00000010: 6e0d eac0 8a2b b5bf 1f03 084c 67ae aebf
00000020: 5345 78c4 a19e ac3f 821f 3259 1270 b6bf
00000030: e970 1107 3dd9 913f 9df4 1da9 1d10 b0bf
00000040: 591d 2d62 92f3 a23f 6670 430e b4f3 b13f
00000050: b14e 32da 7088 98bf f5d6 40f6 f14f 56bf
00000060: dace 1d14 fa16 52bf b474 325d c1d7 bebf
00000070: 249e 354c 5d80 a23f 69c5 4199 615f 883f
00000080: c0b7 4b9d 8e7b c03f aed6 fc33 fca5 b2bf
00000090: 9404 b059 226e ba3f e7d9 4609 e0b3 69bf
000000a0: 797f dd0a 3907 adbf 277c 4783 82d7 adbf
000000b0: 6100 cf3b d2f6 91bf 0654 c563 9aa6 c6bf
000000c0: a8c1 5d5e 4c95 c13f 03bd a693 c086 6abf
000000d0: f1bb 4dbc 5487 b43f d6e7 c494 33fe d13f
000000e0: 7650 273d 67a0 88bf e39b ef89 b0ec cebf
000000f0: cefa 43f8 4761 a43f 45f4 b1d0 b8d5 cbbf
00000100: a52b 5d25 1de3 d3bf 57d3 9951 0978 c6bf
00000110: 37ae 11ac f9aa d73f 99f9 a4eb 5f62 ea3f
00000120: 9b6b 8edf 8b8a b23f 3c56 1e59 6ff0 d6bf
00000130: f7f5 d4c4 1c84 b73f 6e25 e3c1 945b cbbf
00000140: 9df0 c729 908b b23f cc4a 31b6 90ee b3bf
00000150: 2deb 1a24 3fb2 afbf d21f cf96 933c bd3f
00000160: 5ab7 07e3 a8f1 c83f 93c3 d805 b192 66bf
00000170: 4ad2 9195 420e c3bf 4c6f cfbd 37f3 a83f
00000180: c13f 5556 dd8c cdbf 5431 21f5 df79 bf3f
00000190: d25d 4084 e924 cfbf fe07 9bca 942f b33f
000001a0: 6b8d a6d1 ee5c dc3f 9974 f5a7 76fe e7bf
000001b0: cfcd ccd8 b102 cd3f 4bef 81eb 54f0 9ebf
000001c0: 1731 2818 7460 de3f ca00 07a9 12a5 e2bf
000001d0: 2fc1 427c d621 e03f f352 65fb 7901 cdbf
000001e0: 659e 3728 0913 b3bf d732 c134 7979 aa3f
000001f0: fe8a ceca 71d1 adbf 0de4 edab 8300 933f
00000200: 81bd 952a 9364 933f 2df7 cda7 4cd1 863f
00000210: ceae 6be6 cb58 bebf 74c0 2484 d7a9 bc3f
00000220: 4e07 e3c3 030c a93f 1481 5aca 3b43 8f3f
00000230: 51d1 fc20 8906 b73f 7158 bd69 74dd b33f
00000240: b33c bb0c ee3c a53f 159d 4898 5e74 8d3f
00000250: 3146 1bcf fe06 a9bf 9549 54e0 b8d9 9a3f
00000260: 1836 4357 4d59 883f c9ed 68a8 7669 893f
00000270: 850f 1d5b db36 96bf 1d70 33c2 e639 b4bf
00000280: c4d4 8ea2 3cab c7bf 0cad d183 01ff d3bf
00000290: c609 f86b 4a1c d93f 8c80 1ebd 2325 db3f
000002a0: 1598 7347 5e4f b0bf 47bf 27c1 2e94 c0bf
000002b0: 609b de40 7cfc d8bf 7893 9984 ab67 92bf
000002c0: 6fcf 6c51 7022 d33f e845 4f42 38ce a73f
000002d0: 9a21 a3d0 ae4a 563f 3b8d d597 59d9 be3f
000002e0: 32de 548b d068 b03f 7c61 ac85 98f5 be3f
000002f0: c330 ec85 9625 aa3f 314d f982 d3d8 ba3f
00000300: 15e3 0d14 de25 b1bf 623d 7ab2 88c3 d13f
00000310: b1c0 dc1f 2189 d6bf cfb5 e58d 92d8 cbbf
00000320: 2be0 7eb3 56f7 643f e6d2 22f4 9bef 72bf
00000330: d490 8c96 0d9d cc3f 55a4 8050 169e aabf
00000340: 3ded 28bc 25a4 b63f 0661 f2c6 8b4c bdbf
00000350: 2c75 4b15 bb9f b8bf 81b5 e735 1864 b83f
00000360: 88ae e09e 3579 c13f 7443 13dd 2141 c6bf
00000370: 63fa 2982 e5b2 bebf 417b 42c5 48c8 d23f
00000380: 4e13 dbf1 66d8 a93f cc0d e5f8 e6ec c33f
00000390: 1fad c2d6 0486 cabf 09ee a821 0ac1 b63f
000003a0: ea06 f847 593f d13f d23d 43b4 3d0a dbbf
000003b0: e378 ad02 965d d5bf b6b2 b7c1 c437 d93f
000003c0: 6092 0c92 ead0 b0bf f18a e0a6 ec0e b0bf
000003d0: 7160 294e 4121 7e3f 1c6d f26f a975 bb3f
000003e0: c4f0 7dcd 6268 a93f da5b 334e 5f6c c03f
000003f0: de19 557c 0f6a a73f 6126 7e65 af8b a43f
00000400: 92ac d045 1ebd a3bf a2b6 e33c dbe4 a33f
00000410: f6d0 2c1e 71be c03f a8d2 7014 eafe a1bf
00000420: d364 4f68 1fdb b0bf 80ab 91d9 fe71 b33f
00000430: 9d40 b292 5a09 bdbf 7d6b f075 aab6 abbf
00000440: be78 76a1 c53b aabf 24d4 bd00 356a 833f
00000450: 6356 afe0 04d5 bebf 21a6 6ed5 78a7 aa3f
00000460: a8d6 588c 0243 c7bf 31c2 df97 9614 d03f
00000470: 6f90 2a7d 8495 c3bf 3bd6 70ac ce84 d7bf
00000480: 0db3 4906 1482 d73f cf7e b7ae 64ee b9bf
00000490: 828a d786 0fb6 d2bf 41af fbbd 44f8 ccbf
000004a0: aba6 f989 4fc8 c33f b2a2 5ecb be02 d33f
000004b0: a4f6 5c69 aa24 9abf 074f 3fae 6642 cd3f
000004c0: b6f6 485c bac0 d63f 68a6 5303 4269 b33f
000004d0: 6149 c349 e029 9ebf 7426 bccf b09e b8bf
000004e0: 6e09 a680 039f b0bf 2134 588f f96f d83f
000004f0: 7558 8d85 38ed dcbf aece bed9 71e1 d2bf
00000500: fc9e cab5 bd2b 7cbf fbfb 12de 7766 a0bf
00000510: bc82 e46d 8bd6 acbf 8542 71e0 03bd dfbf
00000520: beee a062 2323 c23f d768 cce8 68ed c73f
00000530: e8f5 d259 985b d43f 76a1 3c85 ad37 c73f
00000540: b2d3 97b1 e6bf b9bf c996 d139 dd76 d1bf
00000550: 6bbf 0716 4dc0 d1bf 4ddb c8d8 bf0a bcbf
00000560: c2b5 f754 c654 d3bf 5339 df2d 9363 b4bf
00000570: aee0 eddc b2c9 c93f 8534 b3b3 8b13 c03f
00000580: a7eb 3682 4d3b c9bf 7b70 3e96 7a79 adbf
00000590: 474b 10d6 8b35 d53f 572b 04b5 1fb7 d13f
000005a0: 8126 8eef 2ef6 c33f c1cc d1a5 a55b ac3f
000005b0: cfa4 5352 ef33 b8bf e1b5 8617 7219 c0bf
000005c0: dd91 b7a6 4d0d c63f 5382 679d 050c 943f
000005d0: 2d9a 7488 6ab8 a7bf 704d 9461 6d29 92bf
000005e0: d603 2017 048a b9bf 9b41 d3c3 2a10 a93f
000005f0: 81f4 21e1 d2c9 b1bf dc36 b346 df0e 733f
00000600: 9619 250e dfb9 a43f fbc6 2f28 abb9 a0bf
00000610: c201 6853 f398 9cbf c34c bcfc 6ce7 a9bf
00000620: 12fc c973 9728 693f e46f c58a a8e4 983f
00000630: 3c50 dd49 03ab 933f 7637 858b 7291 883f
00000640: 5968 e78f 50e1 cebf 9598 4775 addd b13f
00000650: fd6f c835 ee76 cbbf a973 2e0b c4be b5bf
00000660: 6d68 ad65 0e21 a73f c5a0 f2a4 b059 d33f
00000670: 0552 aa56 a185 c2bf 9f8f 1e5e b62a d9bf
00000680: 6b5e e178 7e30 cd3f 3e07 790c 5a69 c13f
00000690: 6258 8e69 e121 b4bf e0d0 d743 5ecb 66bf
000006a0: 0f99 5ef7 f9af c1bf 4aec 2c74 c6ec a0bf
000006b0: 7025 8a62 edea b0bf 3efe 50ff 0363 cb3f
000006c0: ae97 98bb f797 8d3f a40a 943b a701 bcbf
000006d0: 838b 20de be55 ac3f 7202 57f6 70cb b7bf
000006e0: 80a2 848d fd03 bebf 78f1 30f8 b296 bbbf
000006f0: 7596 712f 0e6b e53f 7fc2 d89d 4fb8 d23f
00000700: 4a71 ee44 8719 e1bf 4684 7655 e381 babf
00000710: 3528 9fc4 bf6b e2bf 700e f518 c180 9e3f
00000720: 9792 4853 5458 d83f 4852 d0aa d7b2 be3f
00000730: 56da 20b4 fc61 b7bf e57e 6894 6cbe 943f
00000740: 2c5d 469e 88e1 c7bf b013 6826 2732 c53f
00000750: 6eef 4c10 e1fa c5bf 5a9c 9652 5a44 d63f
00000760: e200 d9bc 2425 7d3f e769 58b0 f083 a8bf
00000770: 45f9 1c01 22d1 d5bf a901 5ece b536 ae3f
00000780: f18b 215f e1b9 bfbf c9ec bad8 0210 b93f
00000790: a832 16fd a99c b93f 2ef9 c976 a252 89bf
000007a0: 805c 2623 b51c bd3f 3093 3bd5 ac34 bebf
000007b0: 102b 5d68 e564 b1bf 5fea 1c97 9212 9e3f
000007c0: ee31 a936 3c1e a03f 2758 f3bd 90c0 b23f
000007d0: af83 f1e9 8379 c03f 1794 44ed de28 d9bf
000007e0: da08 0bb5 825c 60bf f8f4 845e 4121 d63f
000007f0: 6411 e219 3899 c93f 5820 75ac 6878 d4bf
-0.04682109242352703 -0.06425764000744288 -0.08269564828701956 -0.059924343138851414 0.055897765381937824 -0.08764757802611992 0.017430261188892713 -0.06274590853532165
0.037014555439379655 0.07012486789921155 -0.023957980458887366 -0.0013618338498537195 -0.0011041109250670617 -0.12047966504401836 0.03613559298792904 0.011900675286798461
0.12877066307504315 -0.07284523267011409 0.10324301423681198 -0.0031375289638291173 -0.05669573075897367 -0.05828483440904391 -0.01754311075251314 -0.1769593226587462
0.1373687229893339 -0.0032380830063726287 0.08018998715645843 0.28114022758711366 -0.01202469497085466 -0.2415981935039034 0.03980469613633418 -0.21745977583114687
-0.31073692940543146 -0.17553822025697727 0.3698105030405005 0.8245086290769904 0.07242654998701285 -0.35842498496035424 0.09185962491479659 -0.21373233287003351
0.07244206447643582 -0.07785896728573077 -0.0619067889760657 0.11420557433950698 0.19487486920791747 -0.0027554948308296605 -0.14887268355563982 0.0487306040956513
-0.23086134639242853 0.12295341238604368 -0.2433139701613372 0.07494478174615435 0.4431721732491584 -0.7498124390073314 0.22664473615587474 -0.030213667749634337
0.47463705405313433 -0.582650499469332 0.5041305949180578 -0.22660755896745108 -0.07450921279780116 0.051708018960743445 -0.05823855972928092 0.01855664955971652
0.018938350176026745 0.011141394492138435 -0.11854242682937441 0.11196658111725971 0.048919789945570544 0.015264956581916546 0.08994347625122613 0.07759788114103273
0.04148048310673271 0.014382113478019801 -0.048881495267448456 0.02622116917798108 0.011889080262700566 0.012408186926328295 -0.021693637310149966 -0.07900850526078824
-0.18491323411368488 -0.3124393260283831 0.39235172790372663 0.4241418215624513 -0.06371106380865428 -0.12952217513474748 -0.3904104836932927 -0.017973594635253914
0.29897697402633744 0.04649520692295167 0.0013605792214993252 0.12050399739159882 0.0640993442692597 0.12093499434957339 0.0510680235366592 0.1048710055122697
-0.0669840620956957 0.2775594466156318 -0.3521197138934538 -0.21754676750735633 0.0025593465215614417 -0.004623040384264176 0.22354287959126984 -0.05198735935875535
0.08844219058749032 -0.11444924933528364 -0.0961872984875824 0.09527732196848683 0.13651151902864833 -0.17386267943086475 -0.11991724422294107 0.29347438110010066
0.05047914221135007 0.15566718247474254 -0.20721493231153773 0.08888305017256228 0.26949150112350984 -0.4225000629785117 -0.3338370348118486 0.39402884404880056
-0.06568780961658538 -0.06272772859714927 0.0073559332837121886 0.10726412756996634 0.04962452658125607 0.12830725973500884 0.045731052329347696 0.04012821306157544
-0.03855223276362908 0.038855410750199285 0.13081182454482815 -0.03514796733398856 -0.06584354683527076 0.07595818340057114 -0.11342397767498587 -0.054128004929416364
-0.05123727413159561 0.009479917607430784 -0.12043791280242426 0.052058960012186135 -0.18173248150713062 0.2512566073556029 -0.15300041305193043 -0.3674809154502758
0.3673143445401344 -0.10129384294077258 -0.2923621002975453 -0.22632655407448435 0.15455049740858348 0.297042559245294 -0.02553049343190729 0.22858890064400603
0.3555131818028302 0.07582485753268886 -0.029456619741560334 -0.09617142745642032 -0.06492635622820384 0.3818344020699574 -0.4519788078517942 -0.29501005424684024
-0.006877652220886207 -0.03203177057138614 -0.056324345745684096 -0.4959115688152809 0.1416973334870501 0.1869326721869757 0.31809052249795267 0.1813866520472051
-0.10058442912834556 -0.27287989279134856 -0.2773621287478735 -0.10953902285187418 -0.3020492391359221 -0.07964439268036942 0.20146785533484518 0.12559648775496526
-0.1971222768605376 -0.057567435112304964 0.3313932028260535 0.27680199315425597 0.15595041939768708 0.055386711589471734 -0.09454246292047518 -0.1257765402673803
0.17228098526460559 0.019577110035131472 -0.04632885852543143 -0.017736157494323945 -0.09976220669342636 0.04895146980709627 -0.06948583599474213 0.004652855083987464
0.04048058555285931 -0.032666538863749005 -0.027927209821429384 -0.05059376320982658 0.0030711134007215335 0.024309762449192265 0.019207049735385548 0.011996168978523274
-0.24125105883178113 0.06978878129266015 -0.21456697107430492 -0.08494210503563572 0.04517407408884897 0.30234924419574966 -0.14470307094292437 -0.39323195639939884
0.22804242040978137 0.1360275803472692 -0.07864197566081679 -0.0027825204003822795 -0.13818287447538366 -0.03305645149381371 -0.06608470588448312 0.21395921675319757
0.014450011646726182 -0.10940022663639098 0.055341686835411096 -0.09294801725537541 -0.11724838929206705 -0.10776823577265826 0.6693182875284963 0.2924994508239606
-0.5343662592236254 -0.10354443394182153 -0.5756529655711861 0.029788033626813648 0.38039119847443587 0.11991641922242835 -0.09133891484894127 0.020257660444371068
-0.18657024124397859 0.16559304595298618 -0.17171872421192397 0.34792192521348897 0.007115500933253057 -0.047881623770269326 -0.34088945492466777 0.05901115554934517
-0.1239300591710586 0.09790056029571582 0.10004675320505874 -0.012364644289161033 0.1137192927184163 -0.11799125867726157 -0.0679458026690265 0.029367723916246976
0.031480676338649136 0.0732508147951597 0.1287083523084482 -0.3931195561474978 -0.001997237479686037 0.34577974539190803 0.1999883772260872 -0.31984917489581255
